weights/tuning/20000steps_4agents_32batch_10000cap_0.0003lr_25decay/run_7.pth (torch, 72253 bytes, 6 tensors)

fc1.weight f4 [128, 4]
00000000: 9d31 34be d29a b6be 9ff2 173f 4be5 fcbe
00000010: bb7f 163e d517 e5bd 3a9b 42bf dab8 edbe
00000020: 4633 cd3e 57e4 003f 8bd9 07bf 26df 583e
00000030: e608 83bd 4096 843c 53d7 81bf 1385 9cbe
00000040: ef0c a5be 4e98 d93e 4815 443f 228d bebe
00000050: 149e 003f a99e 1bbf 09f1 54be d2d7 a3be
00000060: 5b60 7e3e bae5 bd3e 882b 33bc 9341 c93d
00000070: f08b cf3e d54d 4abe 0bd4 f83e 42d9 263e
00000080: 8976 0fbf c238 ec3e d8a4 803e 8542 9d3d
00000090: b5ad 9f3e cf05 e0bd 613a 8f3f e371 db3e
000000a0: 352c a6be de17 7ebe b605 9f3f 362e ceba
000000b0: d3d1 1b3c f1bb 973d 7188 ab3f b7c4 b53e
000000c0: ec97 703e 5a42 bc3e ad1b 1fbf fb3b ae3c
000000d0: 7519 ca3e 58b4 923e 363c 0b3e ff72 c2bd
000000e0: 4383 a2bd f95a b33d c864 c7be af50 493e
000000f0: 974a aebe fd63 7b3d c6f1 8ebe 11cc e93e
00000100: 520d f83a f88e 24be 7fd1 383f aae9 ec3e
00000110: a645 abbe a9f5 af3e 2aef b43e 0e33 ae3e
00000120: b506 bb3d cef4 a43e 1907 6c3e 2bfb d23e
00000130: 51d9 6e3e 4533 7fbd cc2b be3d 278f bf3e
00000140: fb72 b03e 46ec f23e 17fc 2b3f f8ac f3bd
00000150: d5c0 bd3e aab2 9e3c 1ff9 d6be 641c 593e
00000160: 17bd c83b 70ea bfbd e4d8 09bf 2d68 dfbe
00000170: e48c da3e 13a7 653e eaa4 53bf 9e45 b5be
00000180: 7831 453e 3075 d93e 9cc0 713f 3a95 02bf
00000190: 10a2 563e f413 00be dce0 6c3e f0df a6bd
000001a0: b079 04be 741f af3e 8b31 7c3e 70bc db3e
000001b0: d325 a3be 5ebb 96be 00ca bd3f 0fab 36bd
000001c0: 6001 893e 5c3e 13be d2a7 b6bf 1f36 19bf
000001d0: fccf 9bbe 429b 603e a43f 89bf b4dc 80be
000001e0: 51b5 66bd 62d7 7a3e 9e1b 713f d9a2 713d
000001f0: 5873 85be 464d 00be f894 723f 8043 d93e
00000200: 3f06 dcbd 75c6 53be 1211 88bf 7157 8d3e
00000210: ce58 49be d07a 403e 0e19 643f fbf0 e1be
00000220: 3b8f 81bd 3b86 463e 8b26 bf3f 1276 033f
00000230: 2694 bdbe 8cdc bf3e f02b a3bf 0908 c6be
00000240: ec89 f4be 242b 6bbb a8ab 053f d258 723e
00000250: 7635 8dbe 9f81 9dbc bc5e 753f 4dbe ad3e
00000260: f9ac 8a3e 73f2 f6bd 4789 783f 99a7 9e3e
00000270: f9f7 9c3e 6a89 02be 7758 323f 88b2 f93e
00000280: c73d 7a3e 4ba2 c43d b37f 45bf c107 f43b
00000290: 1d84 833e 5fbb 3c3d ef3a 1fbf 7100 983e
000002a0: 47b2 a13d 4390 d8bd d178 33bf 72a9 f7be
000002b0: c489 1a3f c41d 09bf 4d97 14bf 7e61 0d3f
000002c0: f937 88be 6f3a 94be d1d7 373f 78ca 6abe
000002d0: 2086 f7bd cb7a 103e 2f70 883f 0aa4 403d
000002e0: 69ce ae3c cd65 5c3c 8cef 993f 33f7 a33e
000002f0: 7989 c7be 7987 babe 1901 c53e 9f23 d13e
00000300: b029 0abf e944 9d3e 5219 e13e 3a8c 85bd
00000310: 8b9d c93e 9279 0dbf 4b4d 10bb 8b3f 093f
00000320: d2a2 b13e 00de 9cbe 23cc 55bf b70b 433d
00000330: 01d1 d63e 50e1 843d f892 5fbf 8038 7e3d
00000340: 21eb c6be a547 6f3e c23f 93bf f417 2abd
00000350: f318 babd b951 59be 9ee1 e5be d9e0 6e3e
00000360: 84e5 2a3e e043 02bd be6c a7be 3024 f1bd
00000370: 53f8 053e bb5e abbe 6c5d 07bf 1654 d33e
00000380: 318f 223e 2d49 dbbc c2e3 8ebd ffd9 fb3e
00000390: e061 78be 90c6 dcbe 9d3e 94be d00a 94be
000003a0: 5489 673e 213d dbbe fb2f d23e f02c 82be
000003b0: 5f0b 33be 3236 a5be 44b1 1fbf d6da 103f
000003c0: 46f2 b1bd 885b 983e 1a07 5d3e b750 353e
000003d0: 06bc 67bd 6ba3 b23e b105 c0be 2a33 29be
000003e0: a0ef c03e a2b0 b93e 09f0 31bf f09d 973e
000003f0: a4f5 d3be bc84 08be 3b77 2cbe 7f28 243c
-0.17597051 -0.35664994 0.59354585 -0.49393687 0.14697163 -0.11186186 -0.76018107 -0.46430093
0.4007818 0.5034842 -0.5306632 0.21178874 -0.063981816 0.016184926 -1.0143837 -0.30570278
-0.3223643 0.42499012 0.7659497 -0.3721705 0.5024121 -0.6078897 -0.20795073 -0.32000595
0.24841444 0.3708933 -0.010935672 0.098269604 0.4053645 -0.19756253 0.48599276 0.16293815
-0.56040245 0.46137053 0.25125766 0.07678703 0.31187215 -0.10938608 1.1189691 0.42860326
-0.32455602 -0.24813792 1.2423618 -0.0015730325 0.009510475 0.07408894 1.3401014 0.35501644
0.23495454 0.36769372 -0.62151605 0.021268835 0.39472547 0.28653216 0.13597187 -0.0949459
-0.079351924 0.08757586 -0.38944077 0.19659685 -0.34041283 0.061374653 -0.27918833 0.45663503
0.0018924868 -0.16070163 0.72194666 0.46272022 -0.33451575 0.3436711 0.35338718 0.34023327
0.09132139 0.3221802 0.23049583 0.4120725 0.23325087 -0.062304754 0.09285697 0.37413904
0.34462723 0.47445887 0.67181534 -0.118982255 0.37061182 0.019372303 -0.4198694 0.21202236
0.006126057 -0.09370887 -0.53846574 -0.43634167 0.42685616 0.22427015 -0.82673514 -0.35404676
0.19257152 0.4247222 0.94434524 -0.5100895 0.2096026 -0.12507612 0.23132652 -0.081481814
-0.12937045 0.34203684 0.24628274 0.42917204 -0.31864795 -0.29439825 1.482727 -0.044596728
0.26758862 -0.14379257 -1.4269965 -0.5984821 -0.30432117 0.21934226 -1.0722547 -0.25168383
-0.05632526 0.24496225 0.94182765 0.058993194 -0.26064563 -0.12529477 0.9475856 0.4243431
-0.10743379 -0.20681174 -1.063021 0.27605775 -0.19662783 0.18796849 0.8910073 -0.44129166
-0.06326147 0.19387142 1.4933637 0.51352036 -0.3702709 0.3747295 -1.2747784 -0.38678005
-0.47761476 -0.0035883868 0.5221505 0.23666695 -0.2757985 -0.019226847 0.9584768 0.3393425
0.27085093 -0.12057962 0.9708447 0.30987242 0.30657938 -0.12747732 0.69666237 0.4876902
0.24437629 0.096012674 -0.7714798 0.0074472134 0.25686732 0.04607713 -0.621993 0.29687837
0.07895332 -0.10574391 -0.70106226 -0.48371464 0.60366464 -0.53561044 -0.58043367 0.55226886
-0.26605204 -0.2895083 0.71813685 -0.22928798 -0.12086129 0.14109342 1.0659236 0.04703144
0.021338658 0.013452006 1.2026229 0.32024536 -0.3897207 -0.36431482 0.384774 0.4084749
-0.5396986 0.30716637 0.4396463 -0.06520887 0.39378008 -0.55263627 -0.0022018726 0.53612584
0.34694535 -0.30638123 -0.8351461 0.047618594 0.41956332 0.064882874 -0.8733363 0.0620656
-0.38851264 0.23367174 -1.1503832 -0.04152675 -0.0908679 -0.21222581 -0.44898695 0.2332796
0.16689116 -0.031803012 -0.3270015 -0.1177448 0.1308301 -0.3347071 -0.52876925 0.4127509
0.15874936 -0.026768291 -0.06977035 0.49189755 -0.24256086 -0.4312024 -0.2895402 -0.289145
0.2261098 -0.42820075 0.4105223 -0.2542491 -0.17484806 -0.3226791 -0.6237986 0.5658392
-0.08688788 0.29757333 0.2158474 0.17706572 -0.056575797 0.34890303 -0.37504342 -0.16523424
0.3768282 0.36267573 -0.6950689 0.29612684 -0.41398346 -0.13331884 -0.16842358 0.010019421

fc1.bias f4 [128]
00000000: 7e68 8d3e edbd d73e 0bfb d1be 3664 7c3e
00000010: f2bc 123f a929 abbd 6512 95be bd2a 143f
00000020: 6bbf d3bd 754f 803d 113c 86be b0fc 77be
00000030: 37a3 e2be 8c93 b53e 04c6 bc3e bde5 953e
00000040: ce1a 49bc a205 853e e04e a1be 4546 d93e
00000050: 2c66 b03e 9056 173f abbf 19be ad45 51be
00000060: 8947 c9bd e897 d2be 077a c63e a887 b0be
00000070: 7942 9bbe c9b8 0fbd d3de f23e 619a f1be
00000080: 9269 413e 127d aa3c 29e9 81be 1158 17be
00000090: da18 f3bd 0c69 2fbe 3ec3 70be 25b4 03be
000000a0: bdfe 0b3f 372b cd3e 0cd5 42be 7442 bd3e
000000b0: a8f3 113f 462a 873e 900e 7ebe a9d3 a0be
000000c0: 1826 ae3e 8de3 603e bb7f 443e e4f5 1fbe
000000d0: 53d6 48be df24 d13e 5ad2 e9be a6a0 ffbc
000000e0: 9446 c73e 5c63 613d 8ebf 1a3f 2613 ff3e
000000f0: 252d ad3e ab26 ed3e 0a24 26be 9af9 0a3f
00000100: cda0 503e 3bb1 103f 9c43 e73e 20fe 563e
00000110: 7a00 193d 0641 6d3e 6263 babe ee48 da3d
00000120: 0e51 f63e dbbc 073f 2f81 06bf 6610 c4bd
00000130: 9591 f93e 30ec cb3e b74a 023f b7ba e03e
00000140: 0e70 723e 9f88 043f ac8e 823e f527 9fbe
00000150: e9a3 eebe cf4c a4be 0bf6 203e 99cf d43d
00000160: 9cc0 123f 18e2 acbc e1e2 d53e eb4e 74be
00000170: 4a16 d53e dfaf c53e b8fb 9e3e 64bd 94be
00000180: 59b1 57be cc38 023f 28a8 69be 9bb1 103f
00000190: 9a6e b43e 479c b8be 1f04 e73e 9ed0 d13e
000001a0: 6da0 b2be 1a88 5ebe 7046 b13e f0aa 603e
000001b0: 1157 7abe 9420 49be f812 6f3e 1c87 b7be
000001c0: c194 80be 63ed 09bd c879 b2be bee1 183f
000001d0: 705d 4bbe 318a 363e 51bb 1bbe 5046 0c3f
000001e0: d61d e23e 10d5 8a3e adcb 27be 1495 203e
000001f0: 2dc4 6b3e 2ac8 c13e 0fe0 a9be d807 ea3e
0.27618784 0.4213709 -0.41011843 0.24647602 0.5731956 -0.083575554 -0.29115596 0.57877713
-0.103392445 0.06265155 -0.26217702 -0.24217486 -0.44265148 0.35464132 0.36869824 0.2927684
-0.012274457 0.2598086 -0.3150549 0.42436424 0.3445295 0.5911646 -0.15014522 -0.20436735
-0.098280974 -0.4113152 0.38764974 -0.34478498 -0.30324152 -0.035088334 0.47435626 -0.47188094
0.18887928 0.020811591 -0.253732 -0.14779688 -0.118699744 -0.17129916 -0.23511979 -0.12861688
0.54685575 0.40072033 -0.19026583 0.36964762 0.57012415 0.2639944 -0.24810243 -0.31411484
0.34013438 0.21961804 0.1918935 -0.15621144 -0.19613008 0.40848443 -0.45668298 -0.031204533
0.38921034 0.055026397 0.6044854 0.49819297 0.33823505 0.46318564 -0.16224685 0.5428711
0.2037384 0.5652043 0.4516877 0.20995378 0.03735397 0.23169336 -0.36403948 0.106584415
0.48108715 0.53022546 -0.5254087 -0.0957344 0.48743883 0.39828634 0.50895256 0.43892452
0.23675558 0.5177097 0.25499475 -0.31085172 -0.4660943 -0.3208985 0.15718858 0.103911586
0.5732515 -0.021103904 0.41774657 -0.2385823 0.41618568 0.38610741 0.3105142 -0.29050744
-0.21063747 0.50867915 -0.22818053 0.56521004 0.35240632 -0.3605673 0.45120332 0.40979475
-0.3488802 -0.21731606 0.34624052 0.21940207 -0.24447276 -0.19641334 0.2334708 -0.35845268
-0.2511349 -0.033673655 -0.34858537 0.59719455 -0.19859862 0.17826153 -0.15208174 0.5479479
0.44163388 0.2711568 -0.1638629 0.15681869 0.23024054 0.37848026 -0.33178756 0.4570911

fc2.weight f4 [128, 128]
00000000: a306 bc3c c321 a73d 8b63 82be 854a 3cbd
00000010: 23cd 273d 87d8 e1bd 8a8e 54bd ce65 a73c
00000020: 977d 88bd dc79 2abe efb2 64be bc68 3bbf
00000030: 5086 6fbe 74e3 0f3d 04a6 483e de4b c53d
00000040: 3c2e a5bd 2502 1c3e 29d3 80be cb25 2a3c
00000050: af61 3a3d 0be1 8c3c 5f3a 99be f70d fcbd
00000060: 2ca1 823d 4bd9 d43a 7a1c d23d a50c eebe
00000070: c10e 59bf c399 abbe 1370 1a3e ad65 8ebe
00000080: 16e5 003e 17df 373e eb57 22bf 5351 12be
00000090: 3526 4dbd d663 99bd 60ed a6be cd1f 1dbe
000000a0: 41e1 0b3e 158c 183e c915 03bf b9b5 ad3d
000000b0: dd82 f93d a88d 093e 3c1f 4fbf a524 9cbc
000000c0: eaa9 b93c 4c91 83bb 5c9d b53c 56af aebe
000000d0: 5ca5 1dbf 4542 263e 8f0f d23b 01e2 3f3d
000000e0: 25b1 343e 0267 c53c 3d60 2f3e 5fd4 cc3d
000000f0: 1036 4e3d bc31 593d 6954 3cbe 5e1b f13d
00000100: 8151 823c a32b 233d be7c 273e 54a3 d23d
00000110: 0a99 1cbe 626e bd3d f613 9dbe 90cf a43d
00000120: b03f 013e 8882 c73c ce3b a7be 4eb7 89bc
00000130: c75f e43b 240a 1d3b 4428 073e 2602 f73c
00000140: 87f1 e63d c4f7 c53d 64b1 f63c 51ee c7bd
00000150: d29f 1bbe d301 29be 85d9 e73d 9e60 db3d
00000160: 3204 b93d 2e1a 983e 8789 b83d ac34 37be
00000170: 7c27 623d 0b37 2d3e e200 663c 9d70 75bd
00000180: 1960 203d b9c7 283e 832d 27bf 11aa d23d
00000190: 1f4a 173e 9c50 923e f0bf dd3d 4375 a33d
000001a0: 44e6 dbbd e002 23bf a208 923d 8101 e53c
000001b0: 1f55 10bf b66f 19bf c136 bd3d 03d3 f0be
000001c0: 2845 2c3d 62b6 12bd dc44 89be e384 a63d
000001d0: 0129 09bf 425c c43d 9672 6ebd 8818 d73d
000001e0: 8d9e 0c3e d101 c23c 936a 84be 2a3c d13c
000001f0: f43f fe3c 5c72 0d3e b988 39bf 880b 933d
00000200: c7bc 513c 8cac 0f3e f426 a93e 1e9f 913e
00000210: 4c91 adbd 4403 993e 698b ea3d 9736 57be
00000220: 4ee1 583e 638c 36bf 9350 15bd c04d fe3b
00000230: d4f5 ab3e 8416 09bd da13 943d bb48 45be
00000240: 3583 1fbe 9a1c 1ebd 860b 81be 6d69 9dbe
00000250: 0325 1a3c 2e89 913d 1df3 8f3e 9cc1 4a3e
00000260: 506f 59bd ad09 073d 863d 8dbd 49e8 a6bc
00000270: 314d 123f 3786 bc3e ea42 5bbe 0653 fbbd
00000280: e5b8 523e 65b0 57be 09e8 62bd c021 a73e
00000290: 244e 1cbd 7b26 45bd f757 1cbd 36cc 79be
000002a0: 8732 fb3d 6639 6f3d e494 f83e 1fb4 c7bd
000002b0: b06c 00be a006 13bf 99cb f8bb b0cb 26be
000002c0: 5cdb b33b 98d2 0dbf dc04 f93d a6c8 ec3e
000002d0: 35e7 183f 2de2 e23d d04a dc3c df3b 05bf
000002e0: aaab 88be e413 993c ea60 a1bc 9c76 cfbd
000002f0: f87d 81bd cb2d b03d 8cc6 833e b953 fb3d
00000300: 24d5 1a3e 6f27 8abd 52a4 f63a 637c 4cbe
00000310: ebb4 9b3e 479b 16bd a9c9 edbd 3982 c93e
00000320: 5e53 f43c 3bf1 19be 33af 41be 56a4 2a3d
00000330: 3fe1 c23c 0605 dfbe ad57 7abe 6e8a 3f3e
00000340: d8a8 50bc 116e 7bbd 2214 c43e a8c6 e23d
00000350: 6d2a 233e d804 98bb 34d2 cebd e85c 16be
00000360: 916a 4f3d 4d67 8dbe f83a 433e 56e2 e0bd
00000370: fe4b 423e 7241 e63d 8ab7 6fbd aae3 b83d
00000380: 2e6b 21be 91b2 1abe 2165 f73e b860 48bd
00000390: 2033 fcbe 8b62 a83d dd5b d5be 7853 83bd
000003a0: 202a c53d 5144 95bd 07d8 ba3e ea10 2dbe
000003b0: 76a7 323d fc1a 243f 47db 82be 17d1 6ebe
000003c0: 65fb 24bd 6cd4 b13e b7be 613e 1867 d6bd
000003d0: 5783 90bb ae60 5dbe e3f2 2cbe a6e7 2fbf
000003e0: c297 d6be 00bf 733e b687 afbe d63f 8d3c
000003f0: e0cd 8ebd 95d2 94bc c78c 0c3f 72d5 123e
0.022952383 0.081607364 -0.2546657 -0.045969505 0.040967118 -0.110276274 -0.05189375 0.020434286
-0.06664579 -0.16648048 -0.22333883 -0.73206687 -0.2339108 0.035129026 0.1959458 0.09633611
-0.08065459 0.15235193 -0.25161102 0.010384987 0.045503315 0.017197153 -0.29927346 -0.12307351
0.06378397 0.0016239075 0.10259338 -0.46494022 -0.8478814 -0.33515748 0.15081815 -0.27811947
0.1258739 0.17956196 -0.634154 -0.14288835 -0.050085265 -0.07489745 -0.32602978 -0.15344162
0.13660146 0.14897187 -0.51205117 0.084819265 0.12183163 0.13432944 -0.80907035 -0.019060442
0.02266403 -0.0040151235 0.022169761 -0.34118146 -0.61580443 0.16236217 0.006410546 0.046846393
0.176457 0.02409697 0.17126556 0.10001444 0.050344527 0.053025946 -0.18391575 0.11772798
0.015908005 0.039836537 0.16356179 0.102850586 -0.15292755 0.092495695 -0.3067929 0.08047402
0.12621951 0.024354234 -0.32662815 -0.01681104 0.0069694254 0.0023962343 0.13198954 0.030152392
0.112765364 0.09666398 0.030113883 -0.09762252 -0.15197685 -0.16504602 0.113207854 0.10711788
0.09034003 0.29707474 0.09010606 -0.17891186 0.055213436 0.16915528 0.014038296 -0.05992185
0.039154146 0.16482438 -0.6530382 0.10286344 0.14774369 0.28577125 0.10827625 0.0798135
-0.10737279 -0.6367626 0.07130553 0.027954819 -0.56379884 -0.5993608 0.09238959 -0.4703599
0.04205814 -0.035818465 -0.26810348 0.08130815 -0.5357819 0.09587909 -0.058214746 0.10502726
0.13732357 0.023682507 -0.2586256 0.025541384 0.031036355 0.13813156 -0.7247425 0.07179934
0.012801356 0.14030665 0.3303753 0.2844171 -0.08474979 0.29885304 0.114523716 -0.21016918
0.21179697 -0.71307963 -0.036453795 0.0077607334 0.3358599 -0.03346874 0.07230349 -0.19266026
-0.15577395 -0.038601495 -0.25204104 -0.30744496 0.009408238 0.07106243 0.28115168 0.19800419
-0.05308467 0.032968212 -0.068965 -0.020374434 0.57149035 0.36821148 -0.21412244 -0.12271695
0.20578344 -0.21063383 -0.055397067 0.32642937 -0.03816046 -0.0481324 -0.038169827 -0.24394307
0.12265497 0.05840435 0.48551095 -0.09751152 -0.12541461 -0.57431984 -0.00759263 -0.16288638
0.005488796 -0.55399466 0.1215913 0.46246833 0.59727794 0.11078296 0.026891142 -0.5204448
-0.2669347 0.018686242 -0.019699533 -0.10130045 -0.06322855 0.08602484 0.25737417 0.12271828
0.15120369 -0.067458026 0.0018817282 -0.19969325 0.30411467 -0.036769178 -0.11610729 0.39357165
0.029824909 -0.15033428 -0.1891449 0.04166063 0.023789046 -0.4355852 -0.24447508 0.1870515
-0.012735568 -0.061384264 0.3829661 0.11073047 0.15934153 -0.0046392493 -0.10098687 -0.14683878
0.05063874 -0.27617875 0.19065464 -0.1098067 0.18974301 0.112429515 -0.058524646 0.090277985
-0.15763542 -0.1510718 0.48319343 -0.048920363 -0.49257755 0.082219206 -0.4167165 -0.06412405
0.09627175 -0.07288421 0.3649294 -0.16900983 0.043616734 0.64103675 -0.2555792 -0.23321949
-0.04027881 0.34732378 0.22045408 -0.10468882 -0.004410188 -0.21618912 -0.16889529 -0.6871284
-0.41912657 0.2380333 -0.34283227 0.017242353 -0.06972861 -0.01816682 0.5490231 0.14339235

fc2.bias f4 [128]
00000000: 4661 dc3d 7cd1 c2bd a04a e73d 23e9 153d
00000010: 9fb9 8ebd 03b1 943d d16f 143e 8955 143e
00000020: d00b 3c3c 8cb7 263e 0e2a 963d ac26 4e3d
00000030: 1875 8c3d 826d a2bd 1853 833d 1dd2 83bd
00000040: 1101 4a3d 47d2 5c3e a3a2 b73d 10d0 253e
00000050: d434 ef3d 9f83 213d 3b28 db3d 68c2 213e
00000060: 1f4f 0b3d 0196 76bc dd99 383e 116d 6ebd
00000070: 94d1 053e 1058 76bd 9e88 393d fcf1 d9bd
00000080: 1e26 933d 1c4b 473c 58e6 1ebc 6f3f 8a3d
00000090: 0bc0 2ebd 0da5 653d 6d6c 443e 59e6 903d
000000a0: 2910 c73d c2ef 1abe 83a7 c03d f98d 8ebd
000000b0: 42c8 5ebd 51ea 353e 822c 7fbc 01d9 1ebb
000000c0: 0281 933b 899c 9d3d cbb9 873d bf9d 413c
000000d0: 9876 063d e84e 023d b9a7 813c 5faf c73c
000000e0: aee6 9a3d 92fa 12bd 5724 a43c 94b5 3e3e
000000f0: ee1b 36bc 06a8 6d3d 5062 86bd 2693 e13d
00000100: 676d a53c b2e1 96bd ee61 963d f301 913d
00000110: 3ad0 033e 4a07 c9bd c113 4b3d 0fea 923d
00000120: ee17 3ebd 127b 133e 1c68 b43d fcbd 203e
00000130: 6d0c 8e3c ef08 463e 3037 123e 9fd1 36bc
00000140: 8dc1 123c 6d4d cebd 71ca 463e 98a6 233e
00000150: bdf1 ce3d b117 c13c e9b9 0c3d c9d3 b73d
00000160: 80d4 883c aa2a 75bd 619b 98bd dadc abbc
00000170: 84b9 8f3d 2f8d 103e 3a27 d3bb 528f bcbc
00000180: 3c6c 8b3d ad71 ef3d e3d8 3a3e 2378 233e
00000190: 41af 423d 7de7 86bd dd99 88bc 1d05 9cbd
000001a0: 5058 b8bd 3399 43bd fe45 aa3d c5cd 483e
000001b0: 5e56 cabc ca70 363e c72c c8bd 6d81 133e
000001c0: 712b 373e 0375 5bbd 8b34 503e 44ee adbd
000001d0: a534 8b3d d211 ef3d 4712 72bd 1b4d 41bd
000001e0: 4846 d13c 5ee1 cd3c 155e 2f3d aaa0 343e
000001f0: 7c27 803d 0be4 033e 136f c93d f71d 443e
0.10760741 -0.09512612 0.112935305 0.03659929 -0.06968998 0.07260325 0.1449578 0.14485754
0.011477426 0.16280955 0.0733224 0.05032985 0.06858271 -0.07931043 0.06412333 -0.0643656
0.049317423 0.2156459 0.08966567 0.16192651 0.11679998 0.039432164 0.10701033 0.15796816
0.034011003 -0.015050412 0.18027444 -0.058209483 0.13068229 -0.060142577 0.045296304 -0.10641858
0.07185005 0.012163904 -0.009698473 0.0675038 -0.042663615 0.056065608 0.19181986 0.07075185
0.09719879 -0.15130523 0.0940695 -0.06960673 -0.0543902 0.17765166 -0.015574576 -0.002423823
0.004501463 0.07695872 0.06627234 0.011817395 0.032827944 0.031813532 0.015827047 0.024375616
0.0756353 -0.035883494 0.02003686 0.18623954 -0.011115057 0.058021568 -0.0656172 0.110143945
0.020193769 -0.07367267 0.07342897 0.0708045 0.12872401 -0.098158434 0.049579386 0.071735494
-0.04640954 0.14402416 0.0880892 0.15697473 0.01733991 0.19339345 0.14278865 -0.011158376
0.008957279 -0.100733615 0.19413163 0.15981519 0.10104702 0.023570867 0.034356985 0.08975942
0.01670289 -0.05985514 -0.07451511 -0.020979334 0.07017806 0.14116357 -0.006443885 -0.02301756
0.068077534 0.11691604 0.18246798 0.15963797 0.047530416 -0.06587122 -0.01667493 -0.07618163
-0.09001219 -0.047753524 0.08314131 0.19609745 -0.024699386 0.17816463 -0.097741656 0.14404841
0.17887665 -0.053578388 0.20332544 -0.08492711 0.067971505 0.11673321 -0.059099462 -0.047192674
0.025546208 0.025131878 0.042814333 0.17639413 0.06257531 0.1287996 0.09835639 0.19152056

fc3.weight f4 [2, 128]
00000000: 4ac4 ac3e deba 14bf 4ec3 a33e 48f1 c13e
00000010: 28e9 33bd abdb 94bb adfd 953e a0fa 573e
00000020: 05e7 2bbf a48a 313e 8cfa 873d cdb2 58bc
00000030: fdf5 b93e dc83 503d 996b 56bb 0852 443d
00000040: 21eb 13bf d5de b5bc 6b6f eebe 0ac2 483e
00000050: 6dcb 9c3e 3080 d2bc 7849 b43e 8471 cd3e
00000060: 66fc a7bb 0190 63bd 50f9 b93e 5264 66bf
00000070: fdb9 5f3e 17dd 313d 17eb 393c 9e98 18bf
00000080: 8611 36bf e638 883e 8d3c 79be 97d5 8a3e
00000090: a1d2 c0bd adcc 8d3e 4631 083e bc28 bf3e
000000a0: e5af 57be f242 a83d 71f9 c63d cc69 1f3b
000000b0: da4f 42bf b4dd 913e 6e99 04bf dd4b f6be
000000c0: 72ba ffbe 4ee2 8c3e 8849 2e3e e9d2 143f
000000d0: 7934 90bd 18e9 58bf a92a 913d 3282 48bf
000000e0: b7e3 803e d66b 48bd 6d06 31bd 8c4b 923e
000000f0: 1eaf 473d f1c0 b13e 3a21 0cbf 01b2 ba3e
00000100: 9b67 04bf 86fe 10bd d323 d33e 5625 c23d
00000110: 4533 bd3e 0b09 763d 307e ad3e 7741 a73d
00000120: 7084 4dbf 8c95 af3e 4dcd c13e 65af 5e3e
00000130: e249 283d 5197 483e 693d ab3e 1ab0 623d
00000140: 2994 263d 6b09 6b3d d68c b43e 4d93 8e3e
00000150: 0fe2 05bd 62ba 92be 3318 943e c806 853e
00000160: 219c 28bf 4728 03bf a430 eabe 5916 2abd
00000170: c837 983b dd0c e83c 769c a8be 5102 48bf
00000180: 3a9d 973e 2952 cb3e 7104 4d3e 0168 b33e
00000190: a477 dc3e 9cb8 023d d58f e5be d795 6cbd
000001a0: f74d 893d cdd2 0e3d e253 d63d e8d0 9f3e
000001b0: 3dc5 06bf 9b72 8a3e ab24 0abd 5ae6 cb3e
000001c0: 926d c53e 1de8 b9bb 2e3c c63e 82aa dbbb
000001d0: 9760 d43e 53db c43e 3092 0a3d cba6 3b3e
000001e0: 955b a83e 6fa9 ab3e 6e46 abbd 51f3 b93e
000001f0: 8851 e13e 8ba0 bd3e 4779 2ebf bed3 d03e
00000200: 8ad5 ca3e 49e9 3ebf ef2a bf3e a49c 63bd
00000210: f79b 763d 79b1 f0bc 5f95 3c3e b919 bb3e
00000220: bd7d 38bf 1b0b df3e 3ccf 20be e106 85bd
00000230: 492b 333e 8e57 01bd 656d e0bd 1890 8fbd
00000240: bf49 56bf fb63 d23e 1d89 abbd fe44 9d3e
00000250: 9e47 2b3e 52f2 86bc 52d8 8a3e 6189 dc3e
00000260: 1f43 86bd bea5 ad3c 3ab4 a63e 5191 1cbf
00000270: 1e3b aa3e 5dbf 6abd 22c7 a53b 6519 4fbf
00000280: a3e7 9abe e8f4 c7be 61ca 5bbf 6e7b 833e
00000290: 5d06 45bd 5dc6 263e 6d52 d23e 1438 be3e
000002a0: fb2b 22bf eb5a a63e 59f9 dabe e64f 6cbd
000002b0: dc92 34bf bedd 903e 0159 38bf de99 1c3e
000002c0: d284 0fbf 71ed 943e 47a2 ad3e becd ec3c
000002d0: b70e 90bc 8fe8 d8be 279c 6e3d 32a1 27bf
000002e0: 239e b13e 268b 973e f3e8 7bbd 3708 0f3e
000002f0: e7bf a2bd c884 943e 4071 3cbf e0e5 a63e
00000300: b518 2fbf d85e 61bd 851b 9d3e 46f0 b03e
00000310: 62ed 993e d787 a9bd 2c25 c33e f1bd b63c
00000320: 9b5e 17bf 7cb5 db3e e5e1 de3d 18ef 743e
00000330: 233b 1fbd ebe7 c03e 6d67 e63d 39cc 053d
00000340: e1fd 7fbd f0df 26bc 16b5 4b3e 8d65 a73d
00000350: 603b ce3e 57eb 913e 1b0f ad3d 8756 c03e
00000360: 0a1d 35bf 50df 1ebf c521 3dbf 1e59 833d
00000370: f5ae d53b 0f9c b73e aaad c43e f126 efbe
00000380: 91f4 c23e 0847 3b3e 4ca7 8f3e 6538 a73e
00000390: c4bb 473e 85b0 2f3d 425e 24bf ec56 4c3d
000003a0: ec9b 6abd 948f f63c 1659 a2be f83c 8f3e
000003b0: 363e 78be 42c6 923e 2f93 a43c 94d5 9c3e
000003c0: fefd 893e ea12 98bb f0ec e43d 99d9 ee3c
000003d0: 9ead 8c3e 01c6 513e e594 46bd c78c 51be
000003e0: 9c3f b23e ee33 553e 5c8c 38bc 505a 953e
000003f0: b450 a83e 3993 823e 42d0 93be f02c ae3e
0.33743507 -0.58097637 0.31984943 0.37879395 -0.043923527 -0.004542788 0.29295102 0.210917
-0.6714938 0.17338043 0.06639585 -0.013226223 0.36320487 0.050907 -0.0032717942 0.047929794
-0.57780653 -0.022200981 -0.4656938 0.1960527 0.30623952 -0.02569589 0.35212302 0.40125668
-0.005126524 -0.055557255 0.36323023 -0.89996827 0.21848293 0.04342374 0.011347554 -0.59607875
-0.7112049 0.2660591 -0.24339505 0.2711608 -0.09415174 0.27695218 0.13300046 0.37335765
-0.21063192 0.08215894 0.09715546 0.0024324534 -0.75903094 0.2848946 -0.51796615 -0.48104754
-0.49946934 0.27516407 0.17020237 0.58134323 -0.07041258 -0.8473067 0.07088215 -0.7832366
0.25173733 -0.048930965 -0.04321902 0.28573263 0.04875099 0.34717515 -0.547382 0.3646393
-0.5172059 -0.035398982 0.4123827 0.094797775 0.36953178 0.060067218 0.33885336 0.08166783
-0.8028021 0.34293783 0.37851945 0.21746595 0.041086085 0.19588973 0.3344529 0.055343725
0.04066864 0.05738203 0.352637 0.27846757 -0.03268629 -0.28657824 0.28924713 0.25981736
-0.65863234 -0.51233333 -0.45740235 -0.04152522 0.0046453215 0.028326446 -0.3293187 -0.78128535
0.29612142 0.3971112 0.20021226 0.35040286 0.4306003 0.03191434 -0.44836298 -0.057760086
0.06704324 0.034869004 0.10465218 0.3121407 -0.5264471 0.27040562 -0.033726376 0.39824182
0.38560158 -0.005673422 0.38717788 -0.0067036757 0.41479942 0.3844858 0.03383082 0.18325345
0.32882372 0.33527705 -0.08363043 0.36318448 0.44007516 0.37036547 -0.68153805 0.40786546
0.39616042 -0.74574715 0.37337443 -0.055569306 0.060207333 -0.0293815 0.18416356 0.36543062
-0.7206686 0.4356316 -0.15704054 -0.06495453 0.1749698 -0.03157764 -0.10958365 -0.070099056
-0.8370628 0.41091904 -0.08375762 0.307167 0.16726539 -0.01647297 0.27118164 0.43073562
-0.06555771 0.021197196 0.32559377 -0.61159235 0.33248228 -0.057311404 0.005059139 -0.80898124
-0.3025485 -0.39054036 -0.8585568 0.25680107 -0.04810177 0.16286607 0.4107851 0.3715216
-0.6334836 0.3249124 -0.42768362 -0.057693385 -0.7053659 0.28294176 -0.7201081 0.1529307
-0.5606204 0.29087403 0.3391287 0.0289067 -0.017585142 -0.42364928 0.058254387 -0.6548034
0.3469096 0.2959835 -0.061501455 0.13967977 -0.07946759 0.29007554 -0.73610306 0.32597256
-0.68397075 -0.05502209 0.30685058 0.34558314 0.3006392 -0.082778625 0.38114297 0.022307368
-0.5912873 0.429119 0.1088293 0.23919332 -0.038874757 0.3767694 0.11250196 0.032665465
-0.062497977 -0.010185227 0.19893298 0.08173666 0.40279675 0.28499863 0.08450147 0.37566015
-0.70747435 -0.620595 -0.73879653 0.06413482 0.0065211006 0.3586125 0.38413745 -0.46709397
0.38077214 0.18288815 0.28057325 0.32660213 0.1950522 0.04289295 -0.64206326 0.049887583
-0.057277605 0.03009776 -0.31708592 0.27976203 -0.24242482 0.28666884 0.020089714 0.30631697
0.26951593 -0.0046409266 0.11178005 0.029156493 0.2747621 0.20485689 -0.04848184 -0.20463859
0.34814155 0.20820591 -0.011263933 0.29170465 0.32874072 0.25502947 -0.28869826 0.3401866

fc3.bias f4 [2]
00000000: 84a2 9a3d 5bdb 153e
0.07550529 0.14634459
