weights/tuning2/20000steps_8agents_64batch_10000cap_0.0003lr/run_0.pth (torch, 72253 bytes, 6 tensors)

fc1.weight f4 [128, 4]
0	0xbe7c4aaa	-0.24637857
1	0x3e9bf46a	0.3045991
2	0x3f2baf78	0.6706462
3	0xbe6b2074	-0.22961599
4	0xbd26441d	-0.0405923
5	0xbb5f3a45	-0.003406183
6	0xbfa72a7c	-1.305984
7	0x3dde7f20	0.10864091
8	0x3ebd32b6	0.36952752
9	0xbc8d7e45	-0.017272124
10	0xbf6e6dba	-0.9313618
11	0xbeb5483d	-0.35406676
12	0x3db32399	0.08747024
13	0x3dbf9967	0.09355431
14	0x3f8b490e	1.088167
15	0xbdde764b	-0.10862406
16	0xbe1e0502	-0.15431598
17	0x3e0d9b55	0.13828786
18	0x3ca9ec6c	0.020742618
19	0x3ef63e06	0.48094195
20	0xbdad8b62	-0.08473851
21	0x3e08c840	0.1335764
22	0x3f9c31ee	1.2202737
23	0x3ebf9e8c	0.3742565
24	0xbcc57a34	-0.024106123
25	0x3d96e93a	0.07368703
26	0xbdf0685a	-0.117386535
27	0xbf0943a2	-0.53618824
28	0xbd9c6d91	-0.07638086
29	0xbe4238cb	-0.18966977
30	0xbe8eea29	-0.27913025
31	0xbe849900	-0.2589798
32	0x3e26f607	0.1630479
33	0xbea9365d	-0.33049288
34	0xbf85106d	-1.0395638
35	0x3e612d00	0.21989822
36	0x3f08f26e	0.5349492
37	0xbec79850	-0.38983393
38	0x3f933879	1.1501609
39	0x3e8b1c16	0.27169865
40	0x3ea9f325	0.33193317
41	0xbe6112c1	-0.2197981
42	0x3e524204	0.20532995
43	0xbeed9653	-0.4640375
44	0xbdd05153	-0.10171761
45	0x3ee630ef	0.44959208
46	0x3f21c46b	0.63190335
47	0xbdf823f4	-0.121162325
48	0x3eb72298	0.3576858
49	0x3eaec36e	0.34133476
50	0x3f430ced	0.761916
51	0xbe832693	-0.25615367
52	0x3e8da1a2	0.2766238
53	0xbe15c47c	-0.14625734
54	0xbf2605d2	-0.6485263
55	0x3ee9d51a	0.45670396
56	0xbf0837eb	-0.53210324
57	0xbd3d9fc4	-0.046294942
58	0x3f475d3f	0.7787666
59	0x3e0c99da	0.13730565
60	0x3f1768fe	0.5914458
61	0xbe898c2d	-0.26864758
62	0xbec9aa7d	-0.39387885
63	0xbd8eaedd	-0.06966946
64	0xbeb2ac0a	-0.3489688
65	0x3ed88c1b	0.42294392
66	0x3f288df5	0.6584161
67	0xbd8d4664	-0.068981916
68	0x3d367c18	0.04455194
69	0xbe8a73fa	-0.27041608
70	0xbb9783a3	-0.0046238466
71	0x3d4ada58	0.049524635
72	0x3b5de41f	0.0033857895
73	0xbeda62d4	-0.42653525
74	0xbf72301b	-0.94604653
75	0x3ea3ab11	0.3196645
76	0xbe7b7dcb	-0.24559705
77	0x3d19bedd	0.037535537
78	0xbfaf84f0	-1.3712444
79	0x3e5d0d09	0.21587004
80	0xbf25f8b8	-0.6483264
81	0xbe58da5f	-0.21177052
82	0x3f8bac91	1.0912038
83	0x3e386459	0.1800703
84	0xbee4f813	-0.44720516
85	0xbd1c0c1a	-0.03809748
86	0x3f49f345	0.78886825
87	0x3de18d0b	0.1101323
88	0x3e94b411	0.2904363
89	0xbd885054	-0.066559464
90	0xbee73c09	-0.4516299
91	0xbe9a2112	-0.30103356
92	0x3e839b8b	0.25704607
93	0xbeb4cac9	-0.35310963
94	0xbeafa48d	-0.3430523
95	0xbee10c49	-0.43954685
96	0x3ef72efa	0.48278028
97	0x3e18b6e0	0.14913511
98	0xbfb5f2af	-1.4214686
99	0xbebcbb0e	-0.3686146
100	0x3e85a691	0.26103643
101	0x3e8f6afd	0.28011313
102	0xbf85db29	-1.0457507
103	0xbd3927b1	-0.04520387
104	0x3de582b1	0.11206568
105	0x3ea49e6a	0.3215211
106	0x3f629c72	0.88519967
107	0xbeed0d7c	-0.4629935
108	0xbf4f2184	-0.80910516
109	0x3e136d5f	0.1439719
110	0x3ec2ab0b	0.3802112
111	0xbee76249	-0.45192173
112	0xbd6ab720	-0.057303548
113	0x3d26747c	0.040638432
114	0x3f52f4c5	0.8240474
115	0x3f008d57	0.5021567
116	0x3f207816	0.62683237
117	0x3e3719f3	0.17880993
118	0x3ed00bd9	0.4063404
119	0x3cbfde39	0.023421394
120	0xbdf9533e	-0.1217408
121	0x3e0d28ec	0.13785142
122	0x3f822907	1.016877
123	0xbe933072	-0.28747898
124	0xbea2243d	-0.31668273
125	0x3ed00bdb	0.40634045
126	0xbfaaadaa	-1.3334248
127	0x3d360d12	0.04444606
128	0x3ea7c642	0.32768446
129	0xbeca2e76	-0.39488572
130	0xbf03dbd8	-0.5150733
131	0x3d7e76a9	0.062124882
132	0xbee5f02e	-0.44909805
133	0xbec333ac	-0.3812536
134	0x3e9580e2	0.29199892
135	0xbd162a31	-0.03666133
136	0x3e52e621	0.205956
137	0xbec23dae	-0.37937683
138	0xbefaf3b5	-0.4901406
139	0x3e8dfef7	0.27733585
140	0xbf03016a	-0.5117403
141	0x3edd0115	0.43164888
142	0x3e7f638c	0.24940318
143	0x3f138845	0.57629806
144	0xbdcb52b9	-0.099278875
145	0xbcd04ea8	-0.025428131
146	0x3e9c186d	0.30487385
147	0x3e6009ec	0.21878785
148	0xbeac210b	-0.3361896
149	0x3ef63f31	0.48095086
150	0x3f416a9b	0.7555329
151	0x3e902933	0.28156433
152	0xbe87f5cd	-0.2655472
153	0xbec81304	-0.39077008
154	0x3f1943ec	0.59869266
155	0xbe56b407	-0.20967112
156	0xbef81128	-0.4845059
157	0x3eab75c4	0.33488286
158	0xbfb43f05	-1.4081732
159	0xbe690c56	-0.22758612
160	0x3ebd94b4	0.37027514
161	0xbed463f2	-0.41482502
162	0xbe14e936	-0.14542088
163	0xbec728ab	-0.38898215
164	0xbe314e00	-0.17314911
165	0x3ea53bf9	0.32272318
166	0x3f6913d3	0.91045874
167	0xbf186729	-0.5953241
168	0x3db7d197	0.08975523
169	0xbe044540	-0.12917042
170	0x3fbecb76	1.4905841
171	0x3f0d1608	0.5511174
172	0xbe3d21e1	-0.18469955
173	0xbeaa051c	-0.33207023
174	0x3f9aea1a	1.2102692
175	0x3dcc971a	0.09989758
176	0x3f5777fd	0.8416746
177	0xbe8b156d	-0.27164784
178	0xbe31fbbc	-0.17381185
179	0x3e7fc59e	0.24977729
180	0x3dcf9629	0.10136063
181	0xbdb0a539	-0.08625264
182	0xbe76e91e	-0.24112365
183	0x3ead7f9c	0.3388642
184	0x3dbbca93	0.09169497
185	0x3eae5f6b	0.34057173
186	0x3eee33f3	0.4652401
187	0xbf0075b5	-0.50179607
188	0x3eb19bfe	0.34689325
189	0xbecd1463	-0.40054616
190	0x3d670ef5	0.05641075
191	0xbebd8466	-0.37015074
192	0xbf0801e2	-0.5312787
193	0x3eb79c92	0.3586164
194	0xbdafd969	-0.085863896
195	0xbe7059e3	-0.23471789
196	0xbeffdb71	-0.49972108
197	0xbe1a5204	-0.15070349
198	0x3f3c62b4	0.7358811
199	0xbcd3e941	-0.02586806
200	0xbe90ee2a	-0.28306705
201	0x3ce09d1d	0.027418667
202	0xbecb1497	-0.39664146
203	0x3e3ce672	0.18447283
204	0xbf333d59	-0.70015484
205	0x3beeca08	0.0072872676
206	0x3f44a861	0.76819426
207	0x3ecbe6e1	0.39824584
208	0xbe94709c	-0.28992164
209	0x3eae87d8	0.34088016
210	0xbfa86d02	-1.3158267
211	0xbe071d4a	-0.13194767
212	0xbde85e77	-0.11346143
213	0x3ea2f719	0.31829146
214	0xbfab3a75	-1.3377215
215	0xbf046963	-0.5172331
216	0x3f3291ec	0.6975391
217	0x3ef5f934	0.4804169
218	0xbf648b16	-0.8927473
219	0xbe4e936e	-0.20173427
220	0xbe81df70	-0.25365782
221	0x3e3105cd	0.17287369
222	0x3fbec42d	1.4903618
223	0x3f173f01	0.5908051
224	0x3ee3c729	0.44487885
225	0xbe65ef13	-0.22454481
226	0x3f9ac591	1.2091542
227	0x3e6b5faa	0.22985712
228	0xbe8979dd	-0.26850787
229	0x3e25e5a0	0.16200876
230	0x3fa25465	1.2682005
231	0x3f2ba897	0.6705412
232	0xbf0e0036	-0.5546907
233	0xbe5b09c8	-0.2139045
234	0x3f53378c	0.8250663
235	0xbeacc571	-0.33744386
236	0x3e8bddd1	0.2731767
237	0xbe47ea15	-0.19522889
238	0xbeff272b	-0.4983457
239	0x3d919260	0.07107997
240	0xbee26244	-0.44215596
241	0xbe01973c	-0.12655348
242	0x3f51f32f	0.82011694
243	0xbf053b31	-0.52043444
244	0xbed4e556	-0.4158122
245	0xbe77c59f	-0.2419648
246	0xbe9186f8	-0.28423285
247	0xbe59840e	-0.21241781
248	0x3eb60b2e	0.35555404
249	0xbe8b37bc	-0.2719096
250	0x3e8555ee	0.26042122
251	0xbe77b1ff	-0.24188994
252	0x3f30cc12	0.69061387
253	0xbf078642	-0.52939236
254	0xbe65e4c5	-0.2245055
255	0x3e491a58	0.19638956

fc1.bias f4 [128]
0	0xbe3ede12	-0.186394
1	0x3e9d8168	0.30762792
2	0xbe9388b2	-0.28815228
3	0x3ee3a193	0.4445921
4	0x3e7b3d57	0.24535118
5	0x3e88ed9c	0.26743782
6	0x3f23a1d7	0.63918823
7	0x3f0496b2	0.5179244
8	0x3e99e17a	0.30054837
9	0xbd4dad99	-0.050214384
10	0x3f0176f5	0.5057214
11	0x3eeea388	0.4660914
12	0xbd4108e9	-0.047127638
13	0xbe3374e7	-0.17525063
14	0x3ef423c2	0.4768353
15	0xbe309ebc	-0.17248052
16	0x3e991cd8	0.2990482
17	0x3f1fc4fd	0.62409955
18	0x3cbf9376	0.023385745
19	0x3ef0e821	0.470521
20	0xbef5afac	-0.4798559
21	0x3eda3abb	0.42622933
22	0x3e9dfa83	0.30855188
23	0x3f067e5c	0.5253656
24	0xbecb9d7d	-0.39768592
25	0xbe7b509e	-0.24542472
26	0x3ebf0c08	0.37313867
27	0x3db344db	0.087533675
28	0x3f12097e	0.57045734
29	0x3e1e4334	0.15455323
30	0x3e53a8dc	0.20669883
31	0xbdc3535d	-0.09537385
32	0x3e7fd99f	0.2498536
33	0xbee87ddd	-0.45408526
34	0xbe0f1cf2	-0.13975886
35	0x3eacea86	0.33772677
36	0x3ecda070	0.40161467
37	0xbdbfc7d8	-0.09364289
38	0xbea909b3	-0.33015212
39	0xbedca1ea	-0.4309228
40	0x3f06ba36	0.52627885
41	0xbe3546fe	-0.17702863
42	0xbebeef84	-0.3729211
43	0xbf0ceb6b	-0.5504672
44	0x3c635151	0.013874368
45	0x3e99f0da	0.30066568
46	0x3e8e8e85	0.2784311
47	0x3e833faa	0.2563451
48	0x3ed12960	0.4085188
49	0xbe4ea168	-0.20178759
50	0xbc5361a9	-0.012901702
51	0xbef46773	-0.47735175
52	0xbebbbe2c	-0.36668527
53	0xbde4135c	-0.11136505
54	0xbebd1ea1	-0.3693743
55	0xbea1913f	-0.31556126
56	0xbe6baf9b	-0.23016207
57	0xbe9115c7	-0.28336927
58	0x3e6ebba6	0.2331377
59	0x3e6ad118	0.22931325
60	0x3dcc3472	0.09970941
61	0x3e98c6e0	0.2983923
62	0x3ed676ed	0.41887608
63	0x3c992c1d	0.018697793
64	0xbdb29793	-0.08720317
65	0x3f1677b6	0.58776414
66	0x3e8f8a49	0.2803519
67	0xbecd67bc	-0.40118206
68	0xbafa560d	-0.0019099131
69	0x3ede65bc	0.43436992
70	0xbea0450a	-0.31302673
71	0x3f03fcdc	0.5155771
72	0x3eb23fa1	0.3481417
73	0xbe929837	-0.28631756
74	0xbdd7e1df	-0.10541128
75	0x3f06fc0d	0.5272835
76	0xbea11a5f	-0.31465432
77	0x3dbfb16a	0.09360011
78	0x3dfdbfac	0.12390074
79	0x3f018eb0	0.5060835
80	0x3edfce9e	0.43712324
81	0x3f10937d	0.5647505
82	0x3ed19f86	0.4094202
83	0x3c20c979	0.00981366
84	0xbf174b4e	-0.5909928
85	0x3ed5f0b8	0.41785216
86	0x3e9916ae	0.29900116
87	0xbf03843c	-0.5137365
88	0x3d89e2f3	0.0673274
89	0xbe916759	-0.2839916
90	0xbee9a62a	-0.45634586
91	0x3e812423	0.25222883
92	0x3ea3fa4b	0.32026896
93	0x3f120e7e	0.57053363
94	0x3d266efd	0.04063319
95	0x3f1282f4	0.5723107
96	0x3ec87c6b	0.39157423
97	0x3ebc9729	0.36834076
98	0xbe174b23	-0.14774756
99	0xbefa2087	-0.4885294
100	0xbe2ec712	-0.17068127
101	0xbe43ca85	-0.19120224
102	0xbd9f660e	-0.07783137
103	0x3e87f47a	0.26553708
104	0x3eb63fdf	0.35595605
105	0x3f02286a	0.50842917
106	0xbeb0604f	-0.34448478
107	0xbe9dbcf1	-0.30808213
108	0xbef8fe7b	-0.48631653
109	0xbe731341	-0.23737814
110	0x3e92c034	0.28662264
111	0xbe8cabb3	-0.27474746
112	0xbd1f276e	-0.038855962
113	0x3f1de161	0.61672026
114	0xbe5162b3	-0.20447807
115	0x3e65ef95	0.22454675
116	0xbe90bda7	-0.28269693
117	0x3f0d9e44	0.5531962
118	0xbeb8d47b	-0.3609961
119	0x3e950e5e	0.29112524
120	0xbe3ec8c3	-0.18631272
121	0xbe9f561f	-0.31120393
122	0x3e46b886	0.19406328
123	0x3ead6590	0.3386655
124	0x3c67ac84	0.014140252
125	0x3e82f965	0.25580898
126	0x3e065252	0.1311734
127	0xbebed422	-0.3727122

fc2.weight f4 [128, 128]
0	0xbedde868	-0.43341374
1	0xbf8382dc	-1.027431
2	0xbeaf4fb7	-0.34240505
3	0x3e541cb0	0.20714068
4	0x3cd9a014	0.026565589
5	0x3e8a4b4f	0.2701058
6	0xbe7a2d51	-0.2443135
7	0xbe244e42	-0.16045478
8	0xbdf7ca8d	-0.1209918
9	0x3e9201c7	0.2851698
10	0xbd24162e	-0.040060215
11	0x3d64de86	0.055876277
12	0xbe1cb0be	-0.15301797
13	0xbe9a252d	-0.30106488
14	0x3d244531	0.04010505
15	0x3ecbfb50	0.39840174
16	0x3dc46545	0.09589628
17	0xbd4ae9ee	-0.0495395
18	0xbe804f87	-0.25060675
19	0xbe9782b0	-0.29591894
20	0x3e80a675	0.25126997
21	0x3df60783	0.120131515
22	0xbf2606e7	-0.6485428
23	0xbd77db44	-0.060511842
24	0xbdaa203e	-0.08306931
25	0x3d5a1389	0.053241286
26	0x3be315ff	0.0069301124
27	0xbe9ba5ff	-0.30400082
28	0x3e071c06	0.13194284
29	0x3d0e6b7a	0.034770466
30	0x3d574929	0.052560005
31	0xbe55efb2	-0.20892218
32	0xb9aca93a	-0.0003293248
33	0x3d929db3	0.07158985
34	0xbd825d7b	-0.06365486
35	0xbd97689f	-0.07393002
36	0x3dcd146a	0.10013659
37	0x3e938da2	0.28818995
38	0x3e4ce773	0.20010166
39	0x3d05bbea	0.032649912
40	0xbc96e099	-0.018417643
41	0xbed6991e	-0.41913694
42	0x3ea6cd93	0.32578716
43	0x3e402f56	0.18768057
44	0x3e01fefc	0.12694925
45	0xbd539653	-0.051657032
46	0xbddbe9a6	-0.10737924
47	0x3e00afcc	0.12567061
48	0xbd8ec2a5	-0.06970719
49	0x3eb7615e	0.35816473
50	0xbf0297b6	-0.5101274
51	0x3e23a37f	0.15980338
52	0xbd477277	-0.048693147
53	0xbe9ca2ae	-0.30592865
54	0x3d58980d	0.052879382
55	0x3f357b36	0.7089113
56	0x3f06f59f	0.5271854
57	0x3e92130f	0.28530166
58	0x3df82c2a	0.121177986
59	0xbdb082be	-0.08618687
60	0xbd81ca16	-0.06337373
61	0xbe38b0fe	-0.18036267
62	0x3dd3c8e7	0.103410535
63	0x3aa39b48	0.001248219
64	0xbe86dec9	-0.26341847
65	0x3d4a76ce	0.049429707
66	0xbf254ce0	-0.64570427
67	0x3e2a029b	0.16602556
68	0x3d6d83e6	0.057987116
69	0x3dc116a2	0.09428145
70	0x3cf22487	0.029558433
71	0x3d897ddf	0.06713461
72	0xbde54365	-0.11194495
73	0xbd152e6e	-0.036421232
74	0x3e96cb89	0.2945216
75	0xbe3899ac	-0.18027371
76	0x3eb40d60	0.35166454
77	0x3e7dc94d	0.24783821
78	0x3d2d1cd0	0.042263806
79	0xbd784d78	-0.060620755
80	0x3e085954	0.13315326
81	0xbd46f543	-0.048573744
82	0xbdb62560	-0.088938475
83	0xbebe89f0	-0.37214613
84	0xbeb71c8c	-0.35763967
85	0xbde6f9a0	-0.11278081
86	0x3d62b5f7	0.055349316
87	0xbdbd9f94	-0.09258953
88	0x3e3c4ff3	0.18389873
89	0x3f231421	0.6370259
90	0xbdcc5515	-0.099771656
91	0xbe69a19b	-0.22815554
92	0x3ba10d2e	0.004914901
93	0x3e06b9c0	0.13156796
94	0x3d30e5d4	0.04318793
95	0x3dcb6f7e	0.09933375
96	0xbdd3a0f1	-0.103334315
97	0xbeee2bdb	-0.46517834
98	0xbd1d45ce	-0.03839665
99	0x3e1a48c6	0.15066823
100	0xbe055df8	-0.13024127
101	0xbd4c6303	-0.049899112
102	0x3ea42d84	0.32065976
103	0xbee7e539	-0.4529207
104	0xbdf7646f	-0.12079703
105	0x3de129bb	0.109942876
106	0xbe91686b	-0.28399977
107	0x3d8deb28	0.06929618
108	0x3e2a4963	0.16629557
109	0xbe3b5c5d	-0.18296953
110	0x3d4ef4b7	0.050526347
111	0xbf33bb2b	-0.7020747
112	0xbe0ab9a4	-0.13547379
113	0xbd1800eb	-0.03711025
114	0x3db766fd	0.0895519
115	0x3c95a2da	0.01826613
116	0x3ec1e63a	0.3787096
117	0xbe09ff5f	-0.13476323
118	0x3ec26b84	0.37972653
119	0x3caa9e77	0.020827515
120	0xbebdcbdc	-0.37069595
121	0xbd80f2cc	-0.0629631
122	0xbd4d8c99	-0.050182912
123	0x3e04b78d	0.12960644
124	0x3d87eb2c	0.06636652
125	0xbeab96f5	-0.3351361
126	0xbea8ad92	-0.32944924
127	0x3e497e63	0.19677119
128	0xbe44ed03	-0.19231038
129	0x3f16961d	0.58822805
130	0x3ef1d619	0.47233656
131	0xbe952f1c	-0.29137504
132	0xbef45841	-0.47723582
133	0x3d7bd0fa	0.061478592
134	0x3d4be33d	0.04977726
135	0x3df6dc7f	0.12053775
136	0x3ddd80d9	0.10815591
137	0xbe8357f6	-0.25653046
138	0xbdc74a43	-0.09730961
139	0xbdc8525b	-0.09781333
140	0xbe584a59	-0.21122111
141	0xbeee823f	-0.46583745
142	0xbe85381d	-0.26019374
143	0xbc1050ae	-0.008808298
144	0xbd4aa9eb	-0.049478453
145	0x3d493304	0.049120918
146	0x3cde8ab0	0.02716574
147	0x3e9fbc4b	0.31198344
148	0x3d8b0cfc	0.06789586
149	0xbeb083d4	-0.34475577
150	0xbd2b4339	-0.041812155
151	0x3db67e8b	0.08910855
152	0x3e878a81	0.26472858
153	0x3eca33f2	0.39492756
154	0xbe11675f	-0.14199589
155	0x3dcaa3b8	0.09894508
156	0xbf08757e	-0.5330428
157	0xbd9c36ea	-0.076276615
158	0xbe816157	-0.25269577
159	0x3ee81609	0.4532931
160	0x3bf66586	0.0075194268
161	0x3d400d81	0.04688788
162	0xbea1f5c8	-0.3163283
163	0xbdab45d6	-0.083629295
164	0xbe3bf353	-0.1835454
165	0x3e7ac433	0.24488907
166	0x3d6eb5f7	0.058279004
167	0x3f009078	0.5022044
168	0xbc2e5ea2	-0.010642679
169	0xbdf883b3	-0.12134495
170	0x3d40a89f	0.04703581
171	0x3d83f627	0.06443434
172	0xbe3b9ed6	-0.1832231
173	0xbdb1c945	-0.08680967
174	0xbe17e769	-0.1483437
175	0xbd16449c	-0.036686525
176	0xbc00b252	-0.007855015
177	0x3d3030e7	0.043015387
178	0x3e8fda75	0.28096357
179	0x3922a9e3	0.00015512812
180	0x3f1497e8	0.5804429
181	0x3ea2d279	0.31801203
182	0x3e0c766e	0.13717052
183	0xbdec748d	-0.11545668
184	0x3cf96c57	0.030447168
185	0xbdf6c564	-0.12049368
186	0xbe95fa4d	-0.29292527
187	0x3bc233d3	0.005926588
188	0xbdd4975c	-0.10380432
189	0x3d1ed42e	0.03877657
190	0xbdee8103	-0.11645701
191	0xbe786855	-0.2425855
192	0xbbd07403	-0.006361486
193	0xbe47d0e2	-0.19513276
194	0x3e3532d8	0.17695177
195	0xbd960c12	-0.07326521
196	0x3dff47e2	0.124648824
197	0xbeee1e92	-0.46507698
198	0x3f1abf66	0.604483
199	0xbe0492a2	-0.12946561
200	0x3deee098	0.116639316
201	0x3f4e62e0	0.8061962
202	0x3de672f7	0.112523966
203	0x3c63d334	0.013905335
204	0xbddb5fb0	-0.1071161
205	0xbe112b00	-0.1417656
206	0xbec86286	-0.39137667
207	0xbe6ab69f	-0.22921227
208	0xbe13127f	-0.14362524
209	0xba9b9dae	-0.0011872554
210	0x3debd8f1	0.11515988
211	0x3e13b5c9	0.14424814
212	0x3e84e4a2	0.25955683
213	0xbd9c336c	-0.076269954
214	0xbe9d89e9	-0.3076928
215	0x3e07ad79	0.13249768
216	0x3cf983da	0.03045838
217	0x3b96e13f	0.004604488
218	0xbd62d12b	-0.05537526
219	0x3d812c3f	0.063072674
220	0x3d24dda5	0.04025044
221	0xbe39cc67	-0.1814438
222	0xbe9f9e68	-0.31175542
223	0xbe5064c5	-0.2035094
224	0x3c932e0d	0.017966295
225	0x3eb27dff	0.34861752
226	0x3c803f07	0.015655054
227	0x3cf9c802	0.030490879
228	0x3e1b5d84	0.15172392
229	0x3e5d69e9	0.21622433
230	0x3dc54d75	0.096339144
231	0x3dffca9f	0.12489819
232	0x3de8c717	0.113660984
233	0xbdf2a97d	-0.118487336
234	0x3e1516dc	0.14559501
235	0x3ecdcd52	0.4019571
236	0x3df14c9c	0.1178219
237	0x3ee323f0	0.44363356
238	0xbda8d3e2	-0.082435384
239	0x3bd4148c	0.006472176
240	0x3e16013f	0.14648913
241	0xbdfa10c2	-0.122102275
242	0x3ddcce4d	0.10781536
243	0xbe84e3b8	-0.25954986
244	0xbd891d72	-0.066950694
245	0x3db5cf61	0.08877445
246	0xbdc5e70e	-0.09663211
247	0x3ce74a05	0.028233537
248	0xbf02680d	-0.5094002
249	0x3f0b0513	0.5430462
250	0x3d591758	0.053000778
251	0xbe910b09	-0.28328732
252	0xbd36abd4	-0.04459746
253	0x3dd24250	0.10266554
254	0x3dfeb28c	0.12436399
255	0x3d0fdb23	0.035121094

fc2.bias f4 [128]
0	0xbc04e75f	-0.008111804
1	0x3d60efd7	0.05491623
2	0x3e160dfe	0.14653775
3	0x3e528a68	0.2056061
4	0xbd45ad1e	-0.0482608
5	0x3dfa3b6b	0.12218364
6	0x3e17866f	0.14797376
7	0x3dbcd9f3	0.09221258
8	0x3e173f31	0.147702
9	0x3e53a5d2	0.20668724
10	0xbd817ad1	-0.063222535
11	0x3d332a97	0.04374179
12	0x3e21b2b2	0.15790823
13	0x3dfdc69f	0.123913996
14	0xbd30b717	-0.043143358
15	0x3cc931f4	0.024559952
16	0x3dcb4a41	0.09926272
17	0x3d8e68d0	0.06953585
18	0xbd55ab02	-0.05216504
19	0x3ded7824	0.11595181
20	0x3d7abe52	0.06121666
21	0x3d63ef84	0.05564834
22	0xbd83059f	-0.063975565
23	0x3cae0c86	0.021246206
24	0xbd13bde4	-0.036069766
25	0xba8afcfb	-0.0010603959
26	0xbd5edefe	-0.05441188
27	0xbd585db6	-0.052823745
28	0xbc9caf1f	-0.019126473
29	0x3df04e24	0.11733654
30	0x3b624b4d	0.0034529746
31	0x3e188ae8	0.14896739
32	0x3cde9398	0.027169988
33	0x3e2ab7f6	0.16671738
34	0x3e50293f	0.20328234
35	0x3d9ae22d	0.07562671
36	0x3d0ee864	0.034889594
37	0x3da69d29	0.08135445
38	0x3dbe277e	0.09284876
39	0x3d6c07ea	0.057624735
40	0xbda19022	-0.07888819
41	0x3e0fea5e	0.14054248
42	0xbcd909ad	-0.026493872
43	0xbd695a92	-0.05697114
44	0xbd882892	-0.06648363
45	0x3daef40c	0.08542642
46	0xbe0ebd13	-0.13939314
47	0x3e2d2524	0.169087
48	0x3dfb1063	0.12258985
49	0x3e12091c	0.14261287
50	0x3ce05c6a	0.027387816
51	0xbdc0bfab	-0.09411558
52	0xbc990afc	-0.018681996
53	0x3dc8b6c7	0.09800487
54	0x3e2cbb3c	0.16868299
55	0x3e225b0d	0.15855046
56	0x3e1730d4	0.1476472
57	0xbd9f4983	-0.07777693
58	0x3dd58d67	0.10427361
59	0x3ce36d9a	0.027762223
60	0x3dc5edb3	0.09664478
61	0x3b759028	0.0037469957
62	0x3d8dc8a3	0.06923034
63	0x3d21e19a	0.03952179
64	0x3dd916a9	0.10600025
65	0x3d7f6fcf	0.06236249
66	0xbd50cef1	-0.050978605
67	0x3d428d61	0.04749811
68	0x3e198747	0.1499301
69	0xbd3db44e	-0.04631453
70	0xbd71cbb7	-0.05903217
71	0xbd8fd3e1	-0.070228346
72	0xbd7d8ac2	-0.061899908
73	0x3d57880d	0.052619983
74	0x3d8fb09a	0.07016106
75	0x3e2db0eb	0.1696202
76	0x3e5a630b	0.21326844
77	0x3d86509e	0.06558345
78	0x3e0ef859	0.13961925
79	0xbdadfbf9	-0.084953256
80	0x3e2dcd68	0.16972888
81	0x3d42feb6	0.047606193
82	0x3e3fa7f1	0.18716408
83	0x3dec5b29	0.11540825
84	0x3d7ccb41	0.061717276
85	0x3d6d4e0f	0.05793577
86	0x3e429fb4	0.19006234
87	0x3d8f4f23	0.06997516
88	0x3da93cc4	0.08263543
89	0xbd92b4d6	-0.07163398
90	0x3d8ae2f8	0.06781572
91	0x3de71069	0.11282427
92	0x3d6343ac	0.05548446
93	0xbd1d1bdc	-0.038356647
94	0x3d9db087	0.076996855
95	0x3cdfbd80	0.02731204
96	0x3dab0d55	0.08352152
97	0x3d366d2c	0.04453771
98	0x3d6f9544	0.05849196
99	0x3d07c3eb	0.033145826
100	0x3d028ccc	0.031872556
101	0xbd20ccc7	-0.03925779
102	0x3d0f8974	0.035043195
103	0x3df96b2a	0.12178643
104	0x3da9f84f	0.08299314
105	0xbde170ce	-0.11007844
106	0xbda5b8c7	-0.08091884
107	0x3da1413b	0.0787377
108	0xbc2fca9f	-0.010729461
109	0x3d09584b	0.03353147
110	0x3dfbe664	0.12299803
111	0xbd4ab798	-0.049491495
112	0x3e222111	0.15832926
113	0xbd1f3b21	-0.03887475
114	0x3c70fc8e	0.014708651
115	0xbd9d1335	-0.07669679
116	0xbd8242c1	-0.063603885
117	0x3cd4cf62	0.025977794
118	0x3e07297e	0.13199422
119	0xbd8f0fb7	-0.06985419
120	0xbd905ef1	-0.07049359
121	0x3c6701be	0.014099536
122	0xbd3c2a25	-0.04593863
123	0x3dced178	0.10098547
124	0x3d09a3db	0.03360353
125	0x3db03f80	0.08605862
126	0x3d09d5ae	0.033651046
127	0xbd460526	-0.048344754

fc3.weight f4 [2, 128]
0	0xbf2a8c31	-0.66620165
1	0xbf8af790	-1.08568
2	0x3f009a66	0.50235593
3	0x3e661e7e	0.2247257
4	0x3db0d5b6	0.08634512
5	0x3f13ed28	0.57783747
6	0x3ea7e052	0.3278833
7	0x3ee44d21	0.44590095
8	0xbec536d1	-0.38518384
9	0x3ec657a1	0.3873873
10	0xbc12c2a0	-0.008957535
11	0x3e5e37aa	0.21700922
12	0x3ea04df6	0.3130948
13	0x3e9d2952	0.30695587
14	0x3f0d87d3	0.55285376
15	0x3e036e80	0.12835121
16	0x3ecd2fe0	0.40075588
17	0x3d00e8e0	0.031472087
18	0xbd4758bf	-0.04866862
19	0x3ee2be41	0.44285777
20	0xbf49435e	-0.7861842
21	0x3eb8870d	0.36040536
22	0xbf7dbd4c	-0.9911697
23	0x3e85d2e1	0.2613745
24	0xbf6864d4	-0.9077885
25	0xbd90e62d	-0.070751525
26	0xbf38ff0b	-0.72264165
27	0xbce378b9	-0.027767526
28	0xbf0ec231	-0.5576506
29	0x3e769a6b	0.24082343
30	0x3dadf9a4	0.08494881
31	0x3e94bef5	0.2905194
32	0xbd8c15ba	-0.068400815
33	0x3ec2d9f4	0.3805691
34	0x3ea8b21c	0.32948387
35	0x3e8f6d52	0.28013092
36	0x3ec0fe0e	0.37693828
37	0x3e80785c	0.25091827
38	0x3eb68a3f	0.35652348
39	0x3ef01f2a	0.46898776
40	0xbf2b8aa3	-0.6700842
41	0x3eb62858	0.35577655
42	0x3d91532f	0.07095944
43	0x3ea5667e	0.32304758
44	0xbca2a740	-0.019855142
45	0x3eb64892	0.35602242
46	0x3e9d9055	0.3077418
47	0x3e89833a	0.2685793
48	0x3e850c38	0.25985885
49	0x3eb5579b	0.354184
50	0xbe72b293	-0.23700933
51	0xbb8c2399	-0.0042767045
52	0x3d88967b	0.06669327
53	0x3ec58fe9	0.38586357
54	0x3e91483f	0.28375432
55	0x3d313a48	0.043268472
56	0x3ed74404	0.4204408
57	0xbf31af8f	-0.69408506
58	0x3e98dba7	0.2985508
59	0xbf286b1a	-0.65788424
60	0x3e954858	0.29156756
61	0xbf240b67	-0.640799
62	0x3ef1e94c	0.47248304
63	0x3c2ca214	0.010536689
64	0xbf6a2055	-0.91455585
65	0xbda06888	-0.07832438
66	0xbd959921	-0.07304598
67	0x3e85bac7	0.26119062
68	0x3e1acd6d	0.15117426
69	0x3d9b95fe	0.07596968
70	0xbd5541f2	-0.052064843
71	0x3d521570	0.051289976
72	0x3caf662d	0.021411026
73	0x3c69fd6c	0.014281612
74	0x3ebb68e7	0.36603472
75	0x3e933a5d	0.28755465
76	0x3e864e6f	0.26231715
77	0xbe0952b7	-0.1341046
78	0x3e893b1b	0.26802906
79	0xbd58ab0c	-0.052897498
80	0x3e93df67	0.2888138
81	0xbcdae783	-0.026721722
82	0x3eca75d1	0.39543012
83	0x3db8fdf9	0.090328164
84	0xbe3fc68d	-0.18728085
85	0xbed18f62	-0.40929705
86	0x3ec115f2	0.37712055
87	0x3e8e6bc9	0.2781661
88	0x3e8f423e	0.27980226
89	0xbf84b772	-1.0368483
90	0x3e26627b	0.16248505
91	0x3e29cc4c	0.1658184
92	0x3d7385ea	0.059453882
93	0xbf21a52f	-0.63142675
94	0x3eaa7f5d	0.33300295
95	0x3e85f201	0.26161197
96	0xbe5cc42a	-0.21559206
97	0xba9415f5	-0.0011298048
98	0x3e5cbed6	0.21557173
99	0x3e721121	0.23639347
100	0xbe8bafe5	-0.27282634
101	0xbf5817f1	-0.8441153
102	0xbf7f376a	-0.9969393
103	0x3e9fc412	0.31204277
104	0x3ec45757	0.38347885
105	0x3da731b2	0.081637755
106	0x3c079f04	0.008277658
107	0xbd230bcc	-0.039806172
108	0xbc6f5ca3	-0.014609489
109	0x3e9390dc	0.28821456
110	0x3eca77b0	0.3954444
111	0xbe8a9335	-0.27065435
112	0x3e179bd2	0.14805534
113	0x3edc3dd6	0.43015927
114	0xbf6479eb	-0.8924853
115	0xbd230afe	-0.039805405
116	0xb9cc36c5	-0.0003895072
117	0x3e8acc12	0.27108818
118	0x3dfefb8b	0.12450322
119	0xbc6b32fb	-0.014355416
120	0x3e7f0412	0.24903896
121	0xbd81bdca	-0.063350275
122	0xbd8a91c1	-0.067660816
123	0x3eff9803	0.49920663
124	0xbf0359a9	-0.51308686
125	0x3ed852f9	0.42250803
126	0x3e83312d	0.25623456
127	0x3dad3038	0.084564626
128	0xbf539465	-0.8264831
129	0xbef109a7	-0.47077677
130	0x3ec8c399	0.3921173
131	0x3f023179	0.5085674
132	0x3ea7efd4	0.32800162
133	0xbede34fb	-0.43399796
134	0x3e9d7381	0.30752185
135	0x3ef8b494	0.4857527
136	0x3d7831d3	0.06059439
137	0x3d8ba383	0.06818297
138	0x3c91ffbd	0.01782214
139	0x3e8b836c	0.27248704
140	0xbdff61a2	-0.12469794
141	0x3eb41f17	0.3517997
142	0xbe39b73d	-0.18136306
143	0xbed3241f	-0.41238496
144	0x3edd4155	0.43213907
145	0xbdb459bb	-0.08806177
146	0xbc681f5a	-0.014167631
147	0x3e76f5ea	0.24117246
148	0xbf13212b	-0.57472485
149	0x3e8e7b60	0.27828503
150	0xbbc06da1	-0.005872444
151	0x3eaf9db4	0.34300005
152	0xbef733f2	-0.4828182
153	0xbccb9c55	-0.024854818
154	0xbf01a8c9	-0.5064817
155	0xbd81f868	-0.06346208
156	0xbf4c207c	-0.7973707
157	0x3ea2be45	0.3178579
158	0x3cff1820	0.031139433
159	0x3ed531a3	0.41639432
160	0x3ce0e105	0.027451048
161	0x3e9989d3	0.29987964
162	0x3ef1d432	0.47232205
163	0x3df9caa5	0.121968545
164	0x3e531432	0.20613173
165	0x3eae6d31	0.3406768
166	0x3eaa0274	0.33204997
167	0x3eaf9931	0.34296563
168	0xbf732921	-0.9498463
169	0x3d80c061	0.06286693
170	0xbd804015	-0.06262223
171	0xbf385b6c	-0.720145
172	0x3d574607	0.052557018
173	0x3e8ccace	0.27498478
174	0xbecaf310	-0.39638567
175	0x3e781b5d	0.24229188
176	0x3e7906a5	0.24318941
177	0x3d98d63b	0.07462736
178	0xbf64f166	-0.89430845
179	0xbda71466	-0.081581876
180	0xbd5eae38	-0.054365367
181	0x3e4335cc	0.1906349
182	0x3eb058e1	0.3444281
183	0x3ed6fdae	0.41990417
184	0x3e376275	0.17908652
185	0xbf2a5ddf	-0.66549486
186	0x3e81e27a	0.253681
187	0xbf4d6e68	-0.8024659
188	0x3eb4adaa	0.35288745
189	0xbf47aee5	-0.7800124
190	0xbd66ae4c	-0.056318566
191	0xbd8a41fa	-0.06750865
192	0xbebdb008	-0.37048364
193	0xbd89c950	-0.067278504
194	0xbd66cb8b	-0.056346457
195	0x3efad119	0.48987654
196	0x3eeb1e3b	0.45921502
197	0x3d636838	0.055519313
198	0x3d463533	0.04839058
199	0xbd806500	-0.06269264
200	0xbd866c36	-0.06563608
201	0xbd837951	-0.06419624
202	0x3c97b03e	0.018516656
203	0x3ea3a1fa	0.31959516
204	0x3e9ebb6a	0.3100236
205	0x3ec47446	0.3836996
206	0x3e7cf0b3	0.24701194
207	0x3d86c877	0.065812044
208	0x3ea5881c	0.32330406
209	0x3ab42453	0.0013743736
210	0x3e83f931	0.25776055
211	0x3eeb4bca	0.4595626
212	0x3e608025	0.21923883
213	0xbf25632f	-0.6460447
214	0x3e86994e	0.26288837
215	0x3e82faf8	0.255821
216	0x3ccb376e	0.024806704
217	0xbec264f0	-0.37967634
218	0x3e85c468	0.2612641
219	0x3e904bae	0.2818274
220	0xbd58293a	-0.05277369
221	0xbedeee0b	-0.43540987
222	0x3e5fa50b	0.21840303
223	0x3e326afc	0.17423624
224	0xbf2880c0	-0.65821457
225	0xbcaa10e5	-0.020760009
226	0x3ef1ac13	0.47201595
227	0x3e9f237f	0.3108177
228	0x3ebd5464	0.36978447
229	0xbf425c40	-0.7592201
230	0xbeead137	-0.45862743
231	0x3ea31938	0.31855178
232	0x3f19ac79	0.600288
233	0x3c3a56d3	0.01137324
234	0x3d5b1dee	0.05349534
235	0xbd602a45	-0.05472781
236	0x3d42715c	0.04747139
237	0x3e8f8b61	0.28036025
238	0x3e84d89e	0.25946516
239	0xbf63a86f	-0.88928884
240	0xbe4fcd1f	-0.20293091
241	0xbed58b04	-0.41707623
242	0xbf19006f	-0.59766287
243	0xbd34e992	-0.044168063
244	0xbf2321bc	-0.6372335
245	0x3ea22936	0.31672066
246	0x3e85528f	0.2603955
247	0x3d98d74d	0.0746294
248	0xbf427155	-0.7595418
249	0x3cb56677	0.022143586
250	0xbadbcaf7	-0.0016768862
251	0x3e9e61cf	0.30933997
252	0xbf1cfb30	-0.6132078
253	0x3ed2c0bb	0.41162667
254	0x3e051158	0.12994897
255	0xbda5c870	-0.08094871

fc3.bias f4 [2]
0	0x3e38a08f	0.18029998
1	0x3da41951	0.08012641
