weights/tuning2/20000steps_4agents_64batch_15000cap_0.0001lr/run_3.pth (torch, 72253 bytes, 6 tensors)

fc1.weight f4 [128, 4]
000000 fb b2 03 3b 4e 56 97 3c d3 66 28 3f ab ec 38 3e
       0.0020095694 0.01847377 0.657819 0.18059032
000010 61 c1 59 be cd f5 94 bd b6 c7 1a be f3 5f a0 3e
       -0.21265174 -0.07273445 -0.15115246 0.31323203
000020 7c e1 7b be d6 71 d2 3e 54 0f 68 3e 4e 61 5a 3e
       -0.24597734 0.41102475 0.22662097 0.21326181
000030 e8 c6 2b bf b8 84 84 3e 72 66 74 3e be 5d b5 be
       -0.6710038 0.25882506 0.23867205 -0.35423082
000040 92 5c 7a 3e d2 ca 26 bd 42 8f be bd da 6b c8 bd
       0.24449375 -0.04072077 -0.09304668 -0.09786196
000050 be e7 a4 be bb c8 c7 be 5c aa 32 3f e7 cb 02 3e
       -0.32208055 -0.39020333 0.697912 0.12773095
000060 f3 0f 84 3e 60 32 46 be 7b 23 1c 3f fa 53 0b 3f
       0.25793418 -0.19355154 0.6099164 0.54425013
000070 49 20 39 3e c2 0e 38 bd eb 0a eb be 6f 03 de be
       0.18078722 -0.04493595 -0.45906767 -0.43361995
000080 97 2e 45 3e b1 da 51 be ab 74 69 3d 59 f3 e0 be
       0.19256054 -0.2049358 0.05699603 -0.4393566
000090 ff e1 d4 3e a3 bf 42 3e 70 ca c1 3d b2 69 50 3e
       0.4157867 0.19018416 0.0946244 0.2035282
0000a0 91 85 f2 be 5e 1d ad 3e 87 63 fb 3e 2d 9a 96 3d
       -0.47367528 0.33811468 0.4909937 0.073536254
0000b0 59 23 2c bf 5e 3a f1 3e b4 f1 1d 3f 18 d3 6a 3d
       -0.67241436 0.47114843 0.61696935 0.05733022
0000c0 3d 4c 1e 3e 35 7e 05 bf 59 b9 f9 be 1c be 97 3e
       0.1545877 -0.521457 -0.48774222 0.2963723
0000d0 9e cb 54 be 27 30 23 be 7f 6f 33 3c 2c fd e9 3d
       -0.20780799 -0.15936337 0.010951876 0.11425242
0000e0 63 ba bb 3d d6 3a 45 3e 87 52 80 3f 63 a9 18 3f
       0.0916641 0.19260725 1.0025185 0.59633464
0000f0 ea 18 05 bf bd 4c e1 3d 3a 9d 94 be 8d 82 cc ba
       -0.5199114 0.11000965 -0.29026204 -0.0015602872
000100 6f 24 c8 be 35 de 22 3e 0a b5 02 be fc 29 87 bd
       -0.39090297 0.15905078 -0.12764373 -0.06599805
000110 0e 02 a9 bc 4d 28 f1 be 18 2b 7f be 06 bb db 3d
       -0.020630863 -0.4710106 -0.24918783 0.10729031
000120 37 c9 5c 3e 16 86 9c 3d d9 f1 fd 3e 82 a5 f6 3e
       0.21561132 0.07642762 0.49598578 0.48173147
000130 50 0b 04 3e de 24 f2 3d ac ed d2 be 8a ba 0c bf
       0.1289494 0.11823438 -0.41196954 -0.54972136
000140 e1 0e 8b 3d b6 b7 33 be 80 9b d0 3d 31 68 85 3e
       0.06789947 -0.17550549 0.10185909 0.26056054
000150 6c 64 46 3d 0f 2a 45 be 13 cc 4a be 43 6f a2 bd
       0.048435614 -0.19254325 -0.1980441 -0.07931378
000160 77 30 59 3e 23 38 ab be a4 49 f6 3e d2 10 95 3e
       0.21209894 -0.33441266 0.48103058 0.29114395
000170 17 5c 8f be 43 5a 9c 3e f0 d2 7e bf 35 9b 02 bf
       -0.27999946 0.30537614 -0.99540615 -0.5101808
000180 a2 a2 f8 3e 96 04 53 bd bf d4 6f bf 92 14 04 bf
       0.4856158 -0.051518045 -0.93684 -0.5159389
000190 04 69 9d be d3 96 07 be 08 6f 31 3e 85 a2 29 be
       -0.30744183 -0.13241129 0.17327511 -0.16565903
0001a0 e7 e8 03 bf b5 2c fa bd 08 b6 27 bc b1 0c 7b be
       -0.51527256 -0.122155584 -0.010236271 -0.2451656
0001b0 78 0b db 3c 8d 55 29 bc 04 78 a0 bd be 97 b4 3e
       0.026738867 -0.010335338 -0.07835391 0.3527202
0001c0 19 93 b0 3c 9e d3 fe bd fc 4b 86 bf 33 24 11 bf
       0.021554517 -0.124427065 -1.0491939 -0.5669586
0001d0 24 9a c3 3e 41 59 22 3e b9 20 58 3f fb d6 9c be
       0.38203537 0.1585436 0.8442493 -0.30632767
0001e0 f1 10 fd 3e b4 92 86 3c 9f 33 9d be 86 32 b0 bd
       0.49426988 0.016427375 -0.30703446 -0.086033866
0001f0 e6 c5 38 3d 1f ec f7 3c 1b 90 97 be 93 55 da 3e
       0.045110606 0.030263958 -0.2960213 0.42643413
000200 9e a4 f4 3e 12 67 4f 3e 34 16 d6 be ca 60 0c bf
       0.47781843 0.20254162 -0.41813815 -0.5483519
000210 ae 5f 8a 3e 23 c8 0c 3e 91 4b 7b 3f d8 9b 1e 3d
       0.27026123 0.13748221 0.9816218 0.038722843
000220 0e e0 78 3e d0 58 df be 00 4d d4 be 64 5b e1 3e
       0.2430422 -0.43622446 -0.41464996 0.44015038
000230 5d f4 bc 3e ef e2 ee be b3 5d a3 bc 31 ed a4 be
       0.36905184 -0.46657512 -0.01994214 -0.32212213
000240 10 5d 64 3e 18 24 a3 3d 68 59 1c bf df 26 d9 be
       0.22301126 0.07965869 -0.61073923 -0.4241247
000250 dd 58 6d 3e c1 08 89 3c 14 4e ef be bc 9d c1 be
       0.2317843 0.016727807 -0.46739256 -0.37815654
000260 e8 c0 ae bd 37 bd 6a be 90 80 0a 3f d7 bd b7 3e
       -0.08532888 -0.22923742 0.5410242 0.35887024
000270 79 59 2d bf aa 21 5c be 3f cb db 3e b7 a3 5a 3e
       -0.6771465 -0.21497217 0.42928502 0.21351515
000280 85 f1 07 be c8 1f cf be c1 33 76 3e 54 7f 11 3f
       -0.13275726 -0.40453935 0.2404318 0.5683491
000290 c3 53 ed 3e e9 14 9d be 51 9c 06 bf 5b 79 9f 3e
       0.46352968 -0.30680016 -0.5258227 0.31147274
0002a0 f7 c8 ec 3e 34 79 06 be e9 f3 94 bf 4e e1 b2 3d
       0.46247074 -0.13132173 -1.1636935 0.0873438
0002b0 ed 7c 62 bc d5 77 11 3f a5 a4 e4 3e ef 07 b2 3d
       -0.01382373 0.56823474 0.44656864 0.086929195
0002c0 8d 5a 1c bf 2b 26 be be 3d 37 3a 3f 10 27 8d 3d
       -0.6107567 -0.37138495 0.72740537 0.06892216
0002d0 1a 26 27 3f 2f c6 f2 be c4 3c 2a be 9b 37 02 be
       0.65292513 -0.47416827 -0.16624743 -0.12716524
0002e0 62 76 d5 3e c1 0d fa be 6a e6 5a bf d8 3b ea 3e
       0.4169188 -0.48838618 -0.85507834 0.45748782
0002f0 c3 86 a6 be a2 af fd 3d 32 e9 b9 be c8 1b cc 3c
       -0.3252469 0.12387015 -0.36310726 0.02491559
000300 11 c6 0b bf 88 d0 37 3e e3 4c 41 3f d6 f2 97 3e
       -0.545991 0.17950642 0.75507945 0.29677457
000310 a5 9d 84 3e b3 32 c6 3e f6 3e 19 bf 7a 58 88 3c
       0.25901523 0.38710555 -0.59861696 0.016643751
000320 42 56 bd be 3c a6 c4 be 32 7f 00 3f 10 86 84 be
       -0.36979872 -0.38408077 0.50194085 -0.25883532
000330 b0 f9 10 be 97 cb d0 be 3a 2a 26 be dd a8 66 3e
       -0.14157748 -0.40780327 -0.16227046 0.22525354
000340 74 dc 08 bf a8 fc e2 be 61 b9 15 3f 16 83 ca 3d
       -0.53461385 -0.44333386 0.5848599 0.09888284
000350 82 25 8f bc 93 ef b3 be 3d b6 7e 3f ee e9 49 3e
       -0.01747394 -0.35143718 0.99496824 0.19718143
000360 66 51 ed 3e 5f b4 7d 3e ed 4a ec be de f4 80 3e
       0.46351165 0.24775837 -0.46150914 0.2518682
000370 95 d2 ca 3e 9a ec 83 be 71 64 db 3e be e3 02 bf
       0.39613786 -0.2576645 0.42850068 -0.51128757
000380 f1 55 cf be a0 1b a7 bd 83 c5 3d 3f b7 a2 02 bf
       -0.40495256 -0.08159566 0.74129504 -0.51029533
000390 0c 76 ca 3e 3b 13 b5 3e 4b 9d 19 3f bb fb 93 be
       0.39543188 0.35366234 0.60005635 -0.28902993
0003a0 2f 66 17 be 22 e2 e2 3c 07 91 cc be cd 6c a5 be
       -0.14785074 0.02769572 -0.39954397 -0.3230957
0003b0 0c 82 1f 3e 58 18 f0 bd 3f 87 84 be 2a 9a 73 3e
       0.15576953 -0.11723393 -0.25884435 0.23789278
0003c0 7d e0 02 bf 96 dc 82 be 49 71 01 bf 3a 17 ba be
       -0.5112379 -0.2555892 -0.50563484 -0.36345845
0003d0 4f 68 81 3e f4 3a 5b be 74 c3 56 3f 66 e8 09 3f
       0.25274894 -0.21409208 0.8389199 0.53870237
0003e0 af e3 bb 3d ab d3 e1 be 46 6d 20 bf cb 86 0f be
       0.091742866 -0.44106802 -0.6266674 -0.14016263
0003f0 f2 70 ec 3e e4 40 d8 be 17 00 39 bf 20 1c 86 3b
       0.4617992 -0.42237008 -0.7226576 0.004092708

fc1.bias f4 [128]
000000 3e f5 99 3e b0 6e e1 3e fd 54 10 be 45 9c a4 3e
       0.30069917 0.4402976 -0.1409492 0.32150474
000010 ea 9d 00 3f 7e 9a 4b be b2 56 de bd 70 49 16 3f
       0.5024096 -0.19883153 -0.108563796 0.58705807
000020 bb 84 6c 3e d1 8e 98 3e 1f c6 10 3f 8c 0f 4b 3e
       0.23097508 0.2979646 0.5655231 0.1983015
000030 70 e2 af 3e 3e ce 9d be b4 1e 01 be 99 bb ce 3e
       0.34352446 -0.30821413 -0.12609369 0.403775
000040 0c 9e e3 3e 3e d2 c6 3e 0c 88 fc 3e e2 0a 76 be
       0.44456518 0.38832277 0.49322546 -0.24027589
000050 c2 56 20 3f 70 ad 93 3e a5 6b 9a be 19 ac ca bd
       0.6263238 0.2884326 -0.3016025 -0.09896106
000060 b5 d2 bb be 26 1c 77 3e 18 57 68 be 8b c2 9e 3e
       -0.36684194 0.24131832 -0.22689474 0.310078
000070 2c 72 1f be c3 16 d1 3e f2 97 98 be 5a 50 c5 3e
       -0.15570897 0.40837678 -0.29803425 0.38537866
000080 a4 d1 fb 3b 32 9a 45 3e d3 1c d7 3e d9 a1 a9 3e
       0.007684903 0.19297102 0.4201418 0.33131292
000090 52 87 be be 10 9a 1c 3f 30 53 cd be 68 d8 e8 be
       -0.37212616 0.6117258 -0.4010253 -0.45477605
0000a0 6d cf 7d 3d 12 fe 1b 3f 4a ce 5a 3e ff 30 45 bd
       0.061965395 0.60934556 0.21367756 -0.04814243
0000b0 74 c6 bc be a6 be a5 3d f3 80 b0 3e bb 7f ef 3e
       -0.36870158 0.08093004 0.3447338 0.46777138
0000c0 f8 42 d1 3e 74 61 a9 be 24 cc 94 be c9 85 e2 3e
       0.40871406 -0.33082163 -0.29061997 0.44242695
0000d0 da 84 a4 be d1 5f b8 be 7e 3a f8 3e 3e 5c a1 3e
       -0.32132608 -0.36010602 0.48482126 0.31515688
0000e0 08 4e 2d bc 11 a8 83 3e 7e 23 02 3f 29 24 82 3e
       -0.010577686 0.25714162 0.50835407 0.25418213
0000f0 e9 a0 5e be 93 07 76 3d fb f4 fe 3e 55 07 0d be
       -0.2174107 0.060065817 0.4979628 -0.13772328
000100 89 9d c5 3e a4 4a 59 be 2d 5f a8 be 95 78 8c 3e
       0.38596752 -0.2121988 -0.32885113 0.27435747
000110 5a 07 1a 3f 4b 33 d1 3e 59 2a 6c bb 31 eb a5 ba
       0.6016747 0.40859446 -0.0036035983 -0.0012658593
000120 38 39 e5 3e 68 e9 09 3f df 5f 15 3f 57 33 94 be
       0.44770217 0.53871775 0.5834941 -0.2894542
000130 78 a3 09 be 19 fc ae be fb bb 03 3e 66 f9 8f 3e
       -0.13441265 -0.3417671 0.12864678 0.28119963
000140 ac c6 15 be ae 30 80 3e c5 2a e1 3e 75 ba a2 be
       -0.14626569 0.2503714 0.43977943 -0.3178288
000150 3d 89 80 be 3c 08 bb be 2b 2f 9f 3e 2c 40 d2 be
       -0.25104704 -0.3652972 0.31090674 -0.41064584
000160 09 fc 76 3e ee a3 0c 3f b2 24 24 3e 97 7c 18 3d
       0.24119581 0.54937637 0.16029623 0.037228193
000170 9b 71 1b 3e bb 0c bc 3e bf 21 06 bf 8f 9a 98 be
       0.15180056 0.36728463 -0.5239524 -0.2980542
000180 ed 97 17 be 10 3c 95 be ab 12 ac be 70 84 cd be
       -0.14804049 -0.29147387 -0.33607993 -0.40140104
000190 ff 80 a8 be 75 ff 11 3f bc 03 f0 bd 8e 46 e4 be
       -0.32910916 0.5703042 -0.11719462 -0.4458508
0001a0 3b a6 c1 3e 1c 9c ad 3e 99 9e a0 be b1 c2 a8 3e
       0.37822136 0.33908165 -0.31371 0.32961038
0001b0 80 e1 1e 3f d3 7e 7d be b4 f4 80 3e 98 30 da 3e
       0.62062836 -0.24755411 0.25186694 0.426152
0001c0 47 ed bd bc 11 0d e8 bd e8 54 b3 3e 60 eb 8d be
       -0.023184432 -0.11330617 0.35025716 -0.2771864
0001d0 c7 c9 8b 3d 97 30 37 be a9 42 52 3e c5 d6 c4 be
       0.06825595 -0.1788963 0.20533241 -0.38445106
0001e0 25 87 d0 be 49 75 7e 3e a0 31 8d be 38 12 3d 3e
       -0.40728107 0.24849428 -0.27576923 0.18463981
0001f0 c0 f9 a4 3e 8c c8 cc be e0 da b0 3e 37 e9 0b 3f
       0.32221794 -0.39996755 0.34541988 0.5465273

fc2.weight f4 [128, 128]
000000 ad 35 2f 3e 54 ba 78 3d 3f 56 74 be 7c 15 e8 3d
       0.1711032 0.06072457 -0.23861025 0.11332223
000010 33 7f 3c 3e 2f 65 14 3d 35 47 ab bd 78 0b 85 3d
       0.18407898 0.03622931 -0.08363191 0.06496328
000020 aa c4 49 3e 12 92 42 3e da af b8 3d d8 26 6f 3e
       0.19703928 0.19001034 0.09017916 0.23354661
000030 ee 03 a1 3d 09 e4 5f bd f7 13 1b be 7c a1 fc 3d
       0.07862078 -0.05466083 -0.15144335 0.12335488
000040 9a e8 cf 3d 98 33 13 3e 39 81 c3 3d 25 49 4d 3d
       0.10151787 0.1437515 0.09546132 0.050118584
000050 e7 9c b0 3d 25 5a a3 3d 4b 10 19 be c2 64 2f bc
       0.08623677 0.07976178 -0.14947622 -0.010705175
000060 ac 1e 88 be a6 36 28 3e 33 44 8a 3d 27 21 fc 3c
       -0.265859 0.16427097 0.06751289 0.030777527
000070 06 e8 de be 47 74 64 3e a7 d8 a6 3e 81 80 2e 3e
       -0.43536395 0.22309981 0.32587168 0.17041208
000080 70 32 0d 3e 35 bc 2d 3e 8f 27 af bb 25 8a 58 3e
       0.13788772 0.16966327 -0.005345292 0.21146448
000090 f4 eb 02 be 11 df 88 3d f1 f5 1b be 8e 76 6c be
       -0.12785321 0.066831715 -0.15230538 -0.230921
0000a0 03 17 dc 3d b2 cf 94 3d 8e 65 a1 3d 36 aa 18 3e
       0.10746577 0.07266177 0.07880698 0.1490868
0000b0 02 34 f7 bd 77 25 81 3d b6 5e 26 3d a7 be 13 3e
       -0.120704666 0.06305974 0.040617667 0.14428197
0000c0 b8 f2 9b 3c 76 00 76 be af 4c f1 bd 0a 24 90 3b
       0.019036636 -0.24023613 -0.11782204 0.0043988274
0000d0 7e 48 81 bd 59 86 83 be 2b af 3e 3e 0c 80 19 3e
       -0.06312655 -0.25688437 0.18621509 0.14990252
0000e0 c4 fe 5f 3e c7 f4 2d 3e 4b 8d 18 3d 02 af 2d 3d
       0.21874529 0.16987906 0.037244122 0.04240323
0000f0 3e cc 3f bd ad af 7e bd 03 73 04 3e d8 cc 06 3e
       -0.04682564 -0.062179256 0.12934498 0.13164079
000100 b5 2a f0 3d 5a 58 05 be 2c e4 91 be ff ef a9 3d
       0.11726896 -0.13021985 -0.28494394 0.08297729
000110 6a eb 2c 3e e8 ce 43 3e f7 bc eb bd f3 ed c9 bd
       0.16886678 0.19121897 -0.115106516 -0.09859838
000120 5d d4 36 3e 6e ff a9 3d 79 2a 51 3e a6 84 82 be
       0.17854448 0.083006725 0.20426358 -0.25491828
000130 95 f5 ca be 2e a2 4b ba 91 51 77 3e 28 dd a7 3d
       -0.3964049 -0.0007768002 0.24152209 0.08196479
000140 f1 2c 24 3d 7a d0 98 3d 37 ab 8d bc a8 e4 af 3c
       0.040081922 0.07461639 -0.017293556 0.021471336
000150 70 5f a5 bc df 6b 8e be 33 7a bd 3c 43 1f be bd
       -0.02018711 -0.27816674 0.023129558 -0.092833064
000160 6a 13 07 3e 91 8f 3f 3e f8 50 d6 3c 00 45 9d 3d
       0.13191 0.1870711 0.026161656 0.07679176
000170 36 79 28 3e 7f 39 22 3e 62 9e 36 be 9f 1e 56 3e
       0.16452488 0.15842246 -0.17833856 0.20910119
000180 30 4f 71 bd 6c a9 0a bd c3 92 1d be d7 f4 f2 bd
       -0.05891341 -0.03385298 -0.15388016 -0.11863106
000190 59 7a 95 be 97 c4 53 bb 41 98 c4 3a 92 b2 4b be
       -0.29194906 -0.0032313222 0.0014998988 -0.19892338
0001a0 2b e8 33 3e fb 8f 7d 3d fc dc 3e be 7f 94 4e 3e
       0.17569034 0.06190489 -0.18638986 0.20173834
0001b0 c2 0d 0d 3e 88 05 5d be 61 df 16 3d 99 5c cc 3d
       0.1377478 -0.21584141 0.036834124 0.09978599
0001c0 f1 4f 5b be e4 af 16 be c4 60 84 3d f2 df cf 3d
       -0.21417214 -0.14715534 0.06463769 0.10150136
0001d0 a3 76 9d 3e 13 ed 03 3e 64 dd 19 3e ca de ce 3e
       0.30754575 0.12883405 0.1502586 0.4040435
0001e0 a4 4f 60 be e1 a4 17 3e df 3d 2b 3e 65 d3 17 3e
       -0.2190538 0.1480899 0.1672282 0.14826734
0001f0 69 77 12 3e 0f cc 11 bd 23 83 11 3e 70 84 1e 3e
       0.14303364 -0.035594996 0.14210181 0.15480208
000200 20 49 87 bc 93 27 2c bd a3 29 0c 3e 57 ea 40 be
       -0.01651436 -0.04202993 0.13687758 -0.18839394
000210 33 9a 98 ba c7 a1 01 3e b1 7f 3a 3e 3a 9d 94 be
       -0.0011642635 0.1265937 0.18212773 -0.29026204
000220 d5 87 bd 3d a9 2c 31 3d f8 97 bf bd ad b3 53 bd
       0.092544235 0.043255482 -0.093551576 -0.051685024
000230 8f 52 7a 3d b1 aa 71 3e 47 1d 1b 3e 5a ac 56 be
       0.06111389 0.2360027 0.15147887 -0.20964184
000240 6d 01 10 be 54 9c bf 3d 79 98 fe 3d 75 31 8e bd
       -0.14063044 0.09355989 0.124314256 -0.06943027
000250 6d f7 07 3d 42 ca 68 3c 5c 5a 7d 3e 96 b7 89 bd
       0.033194948 0.014208378 0.247415 -0.06724469
000260 80 08 65 3b e0 26 91 bd f1 f9 06 be 31 a0 54 bd
       0.0034947693 -0.07087493 -0.13181283 -0.051910583
000270 83 74 e5 3c e3 ae bf 3d c0 89 4a 3c ea 7e 95 3d
       0.028009659 0.09359529 0.012361944 0.072995976
000280 37 fe 63 3b 5a b0 24 3e cf 23 61 bd 33 47 24 bd
       0.0034788975 0.16082898 -0.05496579 -0.040106963
000290 2e 15 89 bb b5 2b bd be 11 3b dc 3d 44 92 24 3e
       -0.004183433 -0.36947408 0.107534535 0.16071421
0002a0 e8 09 96 3d 69 7b 8f 3d 00 08 5b be 6e 29 81 3c
       0.07326108 0.070059605 -0.2138977 0.015766826
0002b0 8c 0b 96 3d 49 e2 e2 bc 39 79 84 3d b6 60 50 be
       0.07326421 -0.027695792 0.06468434 -0.20349392
0002c0 66 b4 73 3d f4 7c 1b bd 5d 69 2b 3e 16 1f f0 3a
       0.059498213 -0.03796096 0.16739412 0.0018319811
0002d0 82 94 31 3d fd d8 10 3e 80 53 1a bb fd ec 81 3c
       0.04335452 0.14145274 -0.0023548305 0.015860075
0002e0 57 53 3e be 06 ec 87 3d b1 57 b0 be f9 8d 63 bd
       -0.18586479 0.06636815 -0.34441903 -0.055555318
0002f0 99 85 93 3c 91 b1 43 3e a8 75 fc bd 28 3c ee 3c
       0.01800804 0.19110705 -0.12327129 0.02908142
000300 7e f0 6e 3d 08 b4 12 3d 0f 8f 2f 3e 7b 67 b9 bd
       0.05833482 0.035816222 0.17144416 -0.090529405
000310 df 7f de 3d bc 3b 07 be ae 21 c8 3d 9f d6 d7 3d
       0.10864233 -0.1320638 0.09772049 0.105389826
000320 ad 36 e8 bd f6 f9 15 3d 7f 3f 64 bd da 56 58 3e
       -0.113385536 0.036615334 -0.055724617 0.21126881
000330 e7 38 fa bd f8 fb 4a bd 3e cc 26 3d 95 62 86 be
       -0.122178845 -0.049556702 0.040722124 -0.26247087
000340 1c d3 b3 3b 89 de 13 bf 77 bb 49 3c c2 23 34 3d
       0.0054878127 -0.57761437 0.0123127615 0.043979414
000350 ca 8b 35 3e 22 6b 4b 38 1d 10 ea bc 1d dd 44 3d
       0.17729107 4.8498747e-05 -0.028572137 0.048062433
000360 c7 6b c4 bd 41 25 cc bd 76 db 35 3a 2d a0 a3 3d
       -0.095908694 -0.09968043 0.0006937304 0.079895355
000370 ca 4b f4 bc b5 9b a0 be e1 94 c7 3d a1 85 95 3d
       -0.029821295 -0.31368795 0.09745193 0.07300878
000380 7b ab 63 bb 04 a6 07 3e c2 7e a9 3d 3d 03 0d 3e
       -0.0034739661 0.13246924 0.0827613 0.13770767
000390 49 29 a7 bd 3d 0c ed bc d5 97 35 3e 4e 28 68 3d
       -0.081621714 -0.0289365 0.177337 0.056679063
0003a0 27 b0 80 3d e9 57 86 3d f7 56 7e 3e ac c1 3d bd
       0.062835984 0.06559736 0.24837862 -0.046327278
0003b0 fc ff 47 be 48 6d 04 3e 75 3d 87 be a6 7d c9 bd
       -0.19531244 0.12932312 -0.26414075 -0.09838419
0003c0 2e 58 1b 3e d4 df 91 3c c5 b4 44 be 44 20 2d 3c
       0.15170357 0.017806925 -0.19209583 0.010566775
0003d0 eb 7b a7 3d 42 d3 39 3d 9e 9d 81 bd 2b 75 9b 3c
       0.08177932 0.045367487 -0.06328891 0.018976768
0003e0 1f e1 da 3d 23 65 65 bd 16 57 f9 3d b1 3e 4c bd
       0.1068747 -0.056004655 0.121748134 -0.049864475
0003f0 8a 46 aa bd d2 40 41 3d 2d bb a8 bd 78 1b b3 3d
       -0.083142355 0.047180958 -0.08238826 0.087454736

fc2.bias f4 [128]
000000 b5 4e f0 3d 58 51 87 bd 42 9c 03 be ba f9 d2 3d
       0.11733762 -0.06607312 -0.12852576 0.10301538
000010 f6 82 fb bb d0 c3 ae bd 0a 7a 29 bd 76 88 39 3d
       -0.007675524 -0.08533442 -0.04137615 0.045296155
000020 d5 4d 8c bd f3 eb 17 3d 3b de 91 bb 48 78 df bd
       -0.06850783 0.037090253 -0.0044515408 -0.10911614
000030 72 dc 26 3e 4b c8 06 3e 56 6d e8 bb 64 e8 2e 3e
       0.1629503 0.13162343 -0.007093112 0.17080837
000040 ea ca 9e bc 6b 58 db 3c 44 44 e8 3c 28 8d c1 3d
       -0.019383866 0.02677556 0.028352864 0.094507515
000050 28 f0 e0 3d 90 57 cf 3d 27 ad 91 3d 70 e3 ed bc
       0.10983306 0.10124123 0.07113104 -0.029039115
000060 7e d1 91 3d 0f 82 49 bd 30 f6 06 3d 6c 4a b1 bd
       0.071200356 -0.0491963 0.032949626 -0.08656773
000070 96 fb 3e 3e f2 9f 84 bd 88 06 02 3e 29 3c 0b 3e
       0.1865066 -0.0647582 0.12697804 0.13597168
000080 aa 0a 47 3e 3b ab 27 3e 62 84 9b 3d 56 c2 96 bc
       0.19437662 0.16373913 0.075936094 -0.018403213
000090 94 2f 45 3d 4e 49 6b 3d 99 e2 f4 bc d5 7a b3 3d
       0.048141077 0.057442956 -0.029893206 0.08763663
0000a0 d8 7a 8f bd 97 21 c5 bb 20 72 b4 bb 93 32 1a 3c
       -0.070058525 -0.006015967 -0.005506769 0.009411472
0000b0 db 1c 98 3d e7 b2 5f 3e 58 a9 ae 3d 65 b1 8f bd
       0.07427379 0.2184559 0.085283935 -0.07016257
0000c0 53 d9 d0 3d 3c 8b 5d 3d 94 52 54 bd a8 29 13 3d
       0.10197701 0.054087862 -0.051836565 0.0359284
0000d0 cf 54 3e 3e 2d 7c 37 3e 35 9d 0e 3e 68 49 87 3d
       0.1858704 0.17918463 0.13927157 0.06605798
0000e0 0b 58 90 3d 3e 44 83 3d f2 e7 90 bd 61 5c 31 bc
       0.07048043 0.064095005 -0.0707549 -0.0108252475
0000f0 1d 79 1d 3e 14 e4 85 3d f0 2e 91 bd f7 99 62 3c
       0.15378232 0.06537643 -0.07089031 0.013830653
000100 bf 4f 01 bd 4d 9b 33 3e e5 59 82 bd c9 79 80 3d
       -0.031570192 0.17539711 -0.06364802 0.06273229
000110 9c 9d 06 3e a6 9e 0f 3d b7 0c aa 3c f1 0f 92 bd
       0.1314606 0.03506341 0.020758016 -0.07131947
000120 3e 4b 45 3e 02 76 ae 3d 77 f9 02 3e 3b ec 4b 3e
       0.19266984 0.08518602 0.12790476 0.19914334
000130 0c fe 94 bd 7a 8a 08 3d 9e dd 7d bd 8b 44 7d 3b
       -0.07275018 0.033335187 -0.06197893 0.003864559
000140 97 bf 80 3d 51 b8 3b 3e 60 7b d7 3c b5 ab 24 3e
       0.06286543 0.1833203 0.026303947 0.16081126
000150 76 7c 55 3e b8 aa 2c 3d a0 9c b5 3b 06 04 27 bd
       0.2084826 0.042154998 0.005542353 -0.04077532
000160 58 f4 2e 3d dc 4b 27 3e 8d 0a 12 3d 90 c8 88 3d
       0.042713493 0.16337532 0.035654593 0.06678879
000170 08 20 c0 3d aa eb ae 3d 91 86 39 3e a5 d8 86 3d
       0.093811095 0.08541043 0.1811774 0.065842904
000180 20 f5 61 3e 7a b6 ae 3d 08 62 5d bc c0 63 4f 3e
       0.22066164 0.085308984 -0.013512142 0.20252895
000190 9a 54 4e 3e ae c1 97 bd d7 10 22 3b b1 83 57 3d
       0.2014946 -0.07409988 0.0024729276 0.052615825
0001a0 5a 66 0c 3e 1d 23 a3 3d 10 e5 4f bd cb 48 28 3e
       0.13710919 0.07965682 -0.05075556 0.16434018
0001b0 90 b8 28 3e bc e2 23 3d df e3 09 3e fc b8 d4 3d
       0.16476655 0.040011153 0.13465832 0.103868455
0001c0 3f 95 4b 3d 94 8f 31 3e 32 72 03 bd 09 80 8a 3c
       0.04970288 0.17339927 -0.032091327 0.016906755
0001d0 ae 4d 48 3e ce 97 bf 3d c8 90 12 3e 5f 34 be 3d
       0.19560882 0.09355126 0.14313042 0.09287333
0001e0 e1 be 1d bd b0 50 50 3e 6c bd 0e 3d e8 13 1d 3d
       -0.038512114 0.2034328 0.034848616 0.038349062
0001f0 2a 6f ed bc e2 4c 61 3c 13 26 80 3d b5 6d 3f 3d
       -0.028983671 0.01375124 0.06257262 0.046735484

fc3.weight f4 [2, 128]
000000 65 56 a5 3e e6 fe 13 3d 2e 8a 46 3d 1c 81 27 be
       0.32292476 0.036131762 0.048471622 -0.16357845
000010 44 7a 8f bd bc e8 50 bd b5 f8 f3 3b 54 54 a3 be
       -0.07005742 -0.051003203 0.0074454197 -0.31900275
000020 6d a8 83 be b9 f0 71 be 29 cf 02 bf 84 4f 09 bf
       -0.25714436 -0.23626985 -0.5109735 -0.53636956
000030 05 4f 8a 3e 44 41 9b 3e ac b9 86 be 4b 63 4b 3e
       0.27013412 0.3032323 -0.2631353 0.19862096
000040 f3 35 12 be 09 fe 0a be 6f be b3 be 9f cf 8d bd
       -0.14278392 -0.13573469 -0.35106227 -0.06924366
000050 1c 55 07 3d 7c 47 83 3e 0c f2 a2 3e 38 79 d5 be
       0.03304015 0.25640476 0.31825292 -0.41694045
000060 48 32 ce be 18 59 a7 be fc 24 f0 be b1 49 af be
       -0.40272737 -0.3268516 -0.46903217 -0.3423591
000070 46 6a 96 3e 54 89 3a bd f2 f4 25 be d3 58 2b 3e
       0.29377955 -0.045541123 -0.1620672 0.16733103
000080 65 f0 61 3e 80 56 7d 3e c6 3a 14 3e 9e ee fc be
       0.2206436 0.24740028 0.14475545 -0.494008
000090 da 9e 7f 3e 90 b4 01 3e 7f ab 22 bd 99 63 14 be
       0.24962941 0.12666535 -0.039714333 -0.14491118
0000a0 8b 59 c0 be 71 e2 05 bd f2 fc e2 bd 83 46 80 be
       -0.37568316 -0.032686654 -0.11083402 -0.25053796
0000b0 00 61 9c 3e 4c 17 67 3e 25 67 2d be df 73 8c be
       0.30542755 0.22567481 -0.16933878 -0.27432153
0000c0 41 ec 6f 3e 9c 91 8d bd 01 44 9e bd 77 c2 a1 be
       0.23429967 -0.069125384 -0.077278145 -0.31593677
0000d0 d9 fa b9 3e ff 88 49 3e 62 35 b1 3e 5a db 90 3c
       0.36324194 0.19681166 0.3461104 0.01768272
0000e0 42 5a 70 3e 16 b1 72 3e 50 53 9b be 2c a8 95 bd
       0.2347193 0.23700365 -0.30337 -0.07307467
0000f0 26 5a 03 3e c0 a5 aa be 66 50 33 bb 9f 43 00 bd
       0.12827358 -0.33329582 -0.0027361154 -0.03131449
000100 4b 91 d5 be fd 56 45 3e 66 29 1e bd 47 12 77 3e
       -0.41712412 0.19271465 -0.0386137 0.24128066
000110 5d fb a0 3e 84 0d be be fe fe 8e be 87 e1 93 3c
       0.31441775 -0.37119687 -0.2792892 0.018051876
000120 75 2d 39 3e 4e 0e 97 3e 84 aa cb 3e fa c1 9d 3e
       0.18083747 0.295031 0.3977853 0.30812055
000130 55 91 1d be fb 87 09 bd 26 e8 d6 be 69 31 96 be
       -0.15387471 -0.033576947 -0.4197399 -0.29334572
000140 c1 4e 82 3e 5f 49 88 3e 49 e0 67 bd 6f bc 8f 3e
       0.2545071 0.26618478 -0.05661038 0.2807345
000150 7c ee 4e 3e 12 dc 3c 3e 96 de b1 bd f9 0c 8a be
       0.20208162 0.18443325 -0.08685033 -0.26963022
000160 c7 97 80 3e 5e 8f 98 3e c2 8f c4 be ae 73 93 3e
       0.25115797 0.2979688 -0.38390929 0.28799194
000170 68 cc b8 be 93 af a6 3b 21 f1 c6 3e 4f 58 f7 bd
       -0.3609345 0.005086848 0.38855842 -0.120773904
000180 21 b2 6d 3e 81 49 4a 3e 8c 19 9f bc 51 d0 a4 3e
       0.23212482 0.19754602 -0.019421361 0.32190183
000190 d3 ea 44 3e ab df d3 be 38 dd b2 3e f0 ab 1c 3e
       0.19230203 -0.41381583 0.34934402 0.15299964
0001a0 ed 12 20 3e f9 1c 99 3e d3 19 d8 be 7d cb a4 3e
       0.1563222 0.29904917 -0.42207202 0.321865
0001b0 3f a7 90 3e eb 01 da be da 39 03 3e 97 5e 5a 3e
       0.282526 -0.42579588 0.12815037 0.21325146
0001c0 92 31 97 3e 77 8b b6 3e b3 e2 99 3d 7d a6 5d bb
       0.29530007 0.35653278 0.075139426 -0.0033821159
0001d0 0a 27 60 3e 3d d4 b5 3e 69 5a 8e 3e 23 cd 76 3e
       0.21889892 0.35513487 0.27803352 0.24101691
0001e0 52 98 c8 be 12 69 89 3e 93 be ce be 2f ff d5 be
       -0.3917871 0.26837975 -0.40379772 -0.41796252
0001f0 2b a1 cd be 1e 77 be 3e a3 96 ab be 50 a9 87 be
       -0.40162024 0.37200254 -0.33513364 -0.26496363
000200 64 4c 7d 3e f1 04 cf be ca eb b7 3e 29 81 d8 be
       0.24736172 -0.40433457 0.3592208 -0.4228604
000210 34 74 93 bd 9f 2f 93 3e 87 59 95 bb b2 54 8f be
       -0.07199898 0.2874727 -0.0045577916 -0.27994305
000220 13 75 34 3e c1 c9 58 be 6c c4 4e be 34 fc 8c be
       0.17622785 -0.21170713 -0.20192116 -0.27536166
000230 5a 9e 8b 3e ce b8 b2 3e 81 51 6c be c6 04 58 3e
       0.2726925 0.3490662 -0.23077966 0.21095571
000240 4c af c0 be 4d a8 77 3e 5c af d6 be 70 21 b2 be
       -0.3763374 0.24185295 -0.41930664 -0.34791136
000250 6b 8e 6d be 8f 5e 7f 3e f1 4b 4e 3e 25 dd c4 be
       -0.2319886 0.24938415 0.20146157 -0.3844997
000260 fc 7f 45 be c1 52 e4 be d9 61 d5 3b 3a 6d 9e be
       -0.19287103 -0.44594386 0.0065119085 -0.30942708
000270 c7 00 02 3e f2 66 dc bc 4b 25 15 3e 1a 77 84 3e
       0.12695609 -0.026904557 0.14565007 0.25872117
000280 be 92 90 3e 0a 20 9a 3e 9f 59 5d 3e 19 61 a3 be
       0.28236955 0.3010257 0.21616219 -0.31910017
000290 4b 27 92 3e 56 30 85 3e 46 4b 33 3c dc 65 1f 3e
       0.28545603 0.2601344 0.01094324 0.155662
0002a0 a1 ca d2 be 87 b4 27 3d b5 4c c8 be bf 9d f6 bd
       -0.4117022 0.04094365 -0.39121023 -0.120418064
0002b0 7e d0 aa 3e 98 bf 6e 3e 25 bd 62 3e 31 4f 8a be
       0.33362192 0.23315275 0.22142465 -0.27013543
0002c0 55 20 86 3e 7c f2 77 bd 95 46 75 3d 84 29 aa be
       0.26196542 -0.060533985 0.059881765 -0.332348
0002d0 8d 0e 8b 3e 41 4e 9f 3e 7f ad 29 3e 7a 63 d2 3d
       0.2715954 0.3111439 0.1657009 0.1027288
0002e0 6f 78 7d 3e ae 40 3b 3e 55 3d 09 be e4 09 bc be
       0.24752973 0.18286392 -0.13402303 -0.36726296
0002f0 1f 7f 85 3e 9a cd cd 3d 76 80 96 3e 03 d3 4a bd
       0.26073548 0.10048981 0.29394883 -0.049517643
000300 99 19 9d be b3 77 9d 3e e1 b4 d4 bb 4f a9 e2 3d
       -0.30683592 0.30755386 -0.006491289 0.11067449
000310 27 0e 7b 3e c4 ea f3 be e5 97 8c be 95 10 92 bd
       0.24517117 -0.4764005 -0.27459636 -0.07132069
000320 0a de 8d 3e 92 37 3b 3e 7a 45 3a 3e 8c 61 87 bd
       0.27708465 0.18282917 0.18190566 -0.066104025
000330 8c 02 97 bc 10 6a 54 bc 8b 11 47 be ed c9 d3 be
       -0.018433832 -0.01296474 -0.19440286 -0.41364995
000340 ab f2 84 3e 27 7e 67 3e f0 73 2c bd c6 2d 95 3e
       0.2596639 0.22606717 -0.042102754 0.29136485
000350 67 ee a1 3e 82 f3 d2 bd 84 db 1d bd 19 86 c3 be
       0.316272 -0.10300352 -0.038539425 -0.38188246
000360 f1 47 44 3e 2a 9c 67 3e f0 e1 c9 be 18 99 12 3e
       0.19168068 0.22618166 -0.3943019 0.14316213
000370 72 45 f1 be 00 02 4b 3e de 5f 87 3e 2a e4 ef be
       -0.47123295 0.19824982 0.26440328 -0.46853763
000380 21 e4 61 3e b2 e1 82 3e 1f 37 9e 3c 80 a3 55 3e
       0.2205968 0.25562817 0.019313393 0.20863152
000390 13 67 53 3e 1d 8c 8a be 26 4a c8 bc bf eb 8d 3e
       0.20644788 -0.27060023 -0.02444942 0.27718922
0003a0 4d 2c 73 3e 79 5c 37 3e 12 46 72 be c3 97 8c 3e
       0.23747368 0.1790637 -0.23659542 0.27459535
0003b0 9d 16 42 3e fa 7a e7 be 15 e4 84 3e a7 2d 02 be
       0.18953939 -0.4521101 0.25955263 -0.12712727
0003c0 aa 32 8e 3e 71 6d 97 3e 02 e5 5e bd 16 b8 68 3d
       0.2777303 0.29575685 -0.054417618 0.056816183
0003d0 b6 9b 9f 3e c5 b3 89 3e 4c d3 88 3e 75 07 90 3e
       0.31173486 0.26894966 0.26723707 0.2813069
0003e0 ab 3b 7f be da 1c 69 3e ea 3f 87 be 18 fb 0c be
       -0.24925105 0.22764912 -0.2641595 -0.1376766
0003f0 6d 8d e6 be 6b e1 c5 3e 32 45 c4 be fb c1 e6 be
       -0.45029774 0.38648543 -0.38334042 -0.4506987

fc3.bias f4 [2]
000000 a2 c1 dd 3d bf 75 e4 3d
       0.10827948 0.11155271
