weights/tuning2/20000steps_4agents_32batch_15000cap_0.0001lr/run_9.pth (torch, 72253 bytes, 6 tensors)

fc1.weight f4 [128, 4]
00000000: 1479 cd3e ee61 5d3d ae02 69be c5e4 08be
00000010: 6ccf 093e 8786 7ebd 087e b33e 09f1 cc3d
00000020: 9d91 9bbe c767 1f3e a94f 1fbf 65ef b1be
00000030: 62c5 0a3e 224c 8abe ec68 44be dcdb 04bf
00000040: ece2 603e 0898 cebe 2a20 633f 71bd 0a3f
00000050: efa4 01be a88f ea3d eb4c 343f 101d 83be
00000060: 6afb abbd e361 e0bd 4e78 783d f432 debe
00000070: 0204 cfbe c6b4 fb3e b3f6 1b3e f66c abbe
00000080: 0e63 0b3f 28e3 52be 056a 23bf 4d68 df3e
00000090: 6357 08be ed69 d43e a08d 363e 92c4 2ebd
000000a0: fd9e d93d 2c6d 1c3d 4750 1abe 4f2b 003e
000000b0: 24ec a73e 7ae2 7d3d 3e19 123e d112 dfbe
000000c0: 60d3 883e 43ea 0ebd 1175 dbbe cbb6 ca3e
000000d0: f3df 79be 7c4c bd3e ed32 3dbf 85be 3bbd
000000e0: 2c18 43bd 5559 343e 8507 e6bd 5faa 053f
000000f0: 006d 7d3e d93c 08bf c1f9 88be af57 87be
00000100: 590d 63be 5400 32be 649e 80bc d8e7 d7be
00000110: 28e9 f5be 2ec4 86be 07a1 4d3f 725a 513e
00000120: c3b9 ad3e ab5c 373e 02bf 693e d436 49be
00000130: 59a4 04bf cfdd f03d 95a5 ec3e 5c4d 83be
00000140: 3af1 cf3d f0f6 b83e aa24 ea3e a88b 7e3c
00000150: ea4c 203f 4a28 d03e 36c3 babe 2f0b f43d
00000160: 3c02 1f3e cf54 d7be d9d6 25bc 20dd 653e
00000170: 963c 943e a06a c3bd 1c3d 713f 2160 e33e
00000180: a9cf 293c b0e9 8fbe af97 85bf 4c21 48bf
00000190: fdf1 183e 36a6 bdbe 75e5 0fbe 080e f0be
000001a0: 37f8 9d3e 74df 9dbe 1837 1abf a2ef e4be
000001b0: 8f74 113f 4d5a edbc ceb6 693e 4091 92be
000001c0: 8ffb 2c3f bfd1 623e 381b 1abf 962f b1be
000001d0: 8ed5 353e 91af fe3e 2ef9 41be ca05 ca3e
000001e0: 17b9 e53e 24bc 3fbd 731c 65bf 9085 a2be
000001f0: ce3c 4a3d 9733 d63e b612 3bbe 4028 b13e
00000200: 98d5 1d3e acd4 b7be 7249 613f 036d 18be
00000210: 8272 7cbe 1fc4 bdbe 207a 133e ce46 b3be
00000220: daea 06be 7c0d fc3d 2916 1cbe 6552 0b3f
00000230: 5495 2ebb 04e8 a3bd a349 9cbe f09d b23d
00000240: b087 093f 5410 e7be e914 b4bd dc56 a4be
00000250: 0e32 3bbb 94d6 883d 3b62 8f3f fcfc 963e
00000260: 2957 e6bc 0de5 a13d 8d0c 143f d033 aa3e
00000270: 4112 163f 6cbf 923e 880b 01bf d96a e1bc
00000280: 4d33 0e3f 7b51 dc3e d5a0 083e 2b13 b8be
00000290: fe5a 4bbe 4741 a6be 2678 813f 9d06 213e
000002a0: db6f a33e 176b cf3e 22f5 73bf 11ab 17bf
000002b0: 0164 4abe a8dc 833e 459b 37be a008 e9be
000002c0: 74ee bebd d92b a93e 3f59 1dbf 27b8 b03d
000002d0: ccfc 0dbe 3082 3c3d 806c 5cbd 4041 b9bc
000002e0: a6e6 91be 45c1 7c3e 513d 333f 6eab be3e
000002f0: f5bd bdbd 32b2 ecbe 5308 033f f324 a2be
00000300: d606 fe3d a097 14be 3ab6 5b3f 53be f23e
00000310: 2968 86be 485a ae3e aa1b 433f cdae 343f
00000320: 659f cbbe 46db 4dbd 284d cf3d ccb3 0e3d
00000330: da5e 113f 3fb8 3f3d a162 36bf eb40 033f
00000340: 4123 fd3e 0c49 e83e 56e4 5bbe 94cd aabe
00000350: 32e8 1cbe 6546 ec3e 80b3 f6be 15b4 473e
00000360: 07b4 8cbe 6ee8 7e3e b40e fc3e 43d9 c93e
00000370: 90f6 37be eb00 013f 9697 da3e effd 593d
00000380: 643e 69be c984 fcbd 2bb8 e23e 7881 4fbe
00000390: 320f 073f ba29 b53e a33c 91be c4a9 c3be
000003a0: e365 c63e 957c 82bd 6138 0cbe 1cdc 663e
000003b0: 39de 8c3c 39fc 97be 161f 97be 7776 b1be
000003c0: 33f5 04bf f679 1abe 291b 2f3f 1f47 0b3e
000003d0: c260 193f 55ae 093f decd e1bd e486 163e
000003e0: 6eaa c0bd bc3f 77be 8aa8 623e d80c df3d
000003f0: 5a8d 66be 3a93 e23c 3f46 543f f402 1a3f
0.40131438 0.05404847 -0.22754928 -0.13368519 0.13458031 -0.062140014 0.35057092 0.10006911
-0.30384532 0.15566932 -0.62230927 -0.34752956 0.13551858 -0.2701121 -0.1918065 -0.5189798
0.21961564 -0.40350366 0.88720953 0.54195315 -0.12660573 0.114531815 0.7042987 -0.2560811
-0.08397563 -0.109561704 0.060661606 -0.4339825 -0.40432745 0.49161357 0.15230827 -0.33481568
0.5444802 -0.20594466 -0.6383365 0.43634263 -0.13314585 0.41487065 0.17827463 -0.042667933
0.10626028 0.038190052 -0.15069686 0.12516521 0.32797348 0.061983563 0.14267442 -0.43569043
0.26723766 -0.034891378 -0.42862752 0.39592585 -0.24401836 0.36972415 -0.7390583 -0.04583599
-0.047630474 0.17612202 -0.11231903 0.5221309 0.24748611 -0.53217846 -0.26753047 -0.26434085
-0.2217306 -0.17382938 -0.015700527 -0.4216907 -0.48029447 -0.26321548 0.80323833 0.20444658
0.33930787 0.17906444 0.2282677 -0.19649822 -0.51813275 0.11761057 0.4622008 -0.25644958
0.10153432 0.36125898 0.45731097 0.015536226 0.6261736 0.40655738 -0.3647706 0.119161956
0.15528196 -0.4205689 -0.010122024 0.22447634 0.28952473 -0.095418215 0.9423387 0.44409278
0.010364451 -0.28107977 -1.0436915 -0.78175807 0.14936061 -0.3704087 -0.14052375 -0.46885705
0.30853435 -0.30834544 -0.60240316 -0.44714075 0.5681848 -0.028973723 0.2282364 -0.28626442
0.6757135 0.22150324 -0.6019778 -0.34606618 0.17757246 0.49743322 -0.18942711 0.39457542
0.44867775 -0.046810284 -0.89496535 -0.31742525 0.049374394 0.41836235 -0.18268856 0.3460102
0.15413511 -0.35904443 0.88002694 -0.14885335 -0.24653056 -0.3706369 0.14402056 -0.35014957
-0.13175526 0.123072594 -0.15242828 0.544226 -0.00266393 -0.08003238 -0.3052493 0.087215304
0.5372267 -0.45129645 -0.08793051 -0.32097518 -0.002856377 0.066815525 1.1201853 0.29489887
-0.028117733 0.07905016 0.5783165 0.33242655 0.58621603 0.28661668 -0.5040822 -0.02751677
0.5554703 0.43030915 0.13342603 -0.35952124 -0.1985893 -0.32471678 1.0114791 0.15725179
0.31921276 0.4051139 -0.9529592 -0.592454 -0.19764711 0.25754285 -0.17930324 -0.45514393
-0.09322825 0.33041266 -0.61464304 0.08628874 -0.13865966 0.046022594 -0.05381441 -0.022614121
-0.28496283 0.24683101 0.70015436 0.37240165 -0.09264747 -0.46229702 0.51184577 -0.31668815
0.124036476 -0.14510965 0.8582493 0.4741083 -0.26251343 0.34053254 0.76214087 0.70579225
-0.39770046 -0.050257944 0.10122138 0.034839436 0.56785357 0.04680657 -0.71244246 0.5127093
0.4944096 0.4536823 -0.21473822 -0.3335997 -0.1532295 0.46147457 -0.48183823 0.1950229
-0.274811 0.24893352 0.49229968 0.3942357 -0.1796515 0.50392026 0.42693776 0.053220686
-0.22777706 -0.12330014 0.44281134 -0.20264232 0.5275756 0.35383397 -0.28366575 -0.38215458
0.38749608 -0.063714184 -0.13693382 0.22544903 0.017195808 -0.29684618 -0.29515904 -0.34660694
-0.51936644 -0.15085587 0.6840082 0.1360135 0.59913266 0.53781635 -0.11025594 0.14699894
-0.09407507 -0.24145406 0.22134605 0.108911216 -0.22514859 0.027658094 0.8291969 0.60160756

fc1.bias f4 [128]
00000000: 3ad7 bfbe 765a c23e a76e a1bd 4edb ebbc
00000010: 1598 aabe 7a8f 863d b653 1b3f c836 ee3e
00000020: 601b 4b3e 719f d6be 2759 e03e d5cf d33e
00000030: 04c6 e43e 7ca4 b2be eaed d33e 7163 1c3e
00000040: 0815 8c3e 6235 12be 2b44 143f 92b0 bfbc
00000050: 210b 4a3e de25 83be e3ab a4be 155e 54bd
00000060: c5a3 16be 9212 d03e 73b6 993e 7f8e bfbe
00000070: f618 173c d7dc d3be c226 09be 0b82 233f
00000080: dbe9 0bbe 7c43 fc3e 1f5a c3be 2f52 983e
00000090: de34 a73e 2727 e1bd 1846 113f fc06 5cbe
000000a0: b85e 06bf 5842 b6be 644d c3be 6f90 03bf
000000b0: 5120 18be fa98 bbbe e83f 38bd d6d0 91bc
000000c0: 5879 53be c0f0 b2bd 4c01 9fbe e9f1 ba3b
000000d0: b308 573d 9d70 93be 254e 1b3f b8fa 4bbd
000000e0: 6082 d9be 356e 9abe ea0a ba3e 783a 133f
000000f0: d366 813d 4343 c9be d667 6fbe c3df a4be
00000100: 1351 26be 2267 193f 0ed8 a23d e4f5 19bc
00000110: 2732 0b3f 24d0 a8be 8f42 ab3e dd1b a33e
00000120: 7839 533e 2551 b6be 862a fb3e 4081 df3e
00000130: cd11 d73e 57ac df3e 0599 9a3e b83e 973e
00000140: 44c2 ea3e a2c5 c8be 40fe f63e f195 b73e
00000150: 7986 b23e fb1f 9abe f7ab 55be 3f6a 1dbe
00000160: d9a3 023f 9d2e 023f 17f8 91be 5e37 46be
00000170: f03e 03bf fdf1 44be 612e 3c3e 5843 cc3e
00000180: 0009 00bf abf6 6abe b6a3 6b3e 7b4b 8a3e
00000190: 7c2d 0e3f e12a 8bbe 8f9e ff3e 9fc3 88be
000001a0: e2f1 d0be a688 b43e fd70 1fbe 225c 3bbd
000001b0: 3eb3 d0be 805c 97be 5b51 81bd d3fd 033f
000001c0: 5877 163f fe4d 7d3d 015b b6be 9088 303e
000001d0: 942d 993e 78ac b7be 53c4 053d c6e6 0e3f
000001e0: 27e5 343e 6505 00be 65fe b3be 9615 dd3e
000001f0: 8ecc cebe 5cab bc3e c44a a2be 8e3c 0b3f
-0.37468892 0.3795964 -0.078824334 -0.028791096 -0.33319154 0.06570335 0.6067461 0.4652617
0.19834661 -0.4191852 0.43818018 0.413695 0.44682324 -0.34891117 0.41392452 0.15272309
0.27359796 -0.14278176 0.57916516 -0.023399625 0.19730808 -0.25614828 -0.3216239 -0.051847536
-0.1471091 0.40639168 0.3002201 -0.37413403 0.00922226 -0.41379425 -0.13393691 0.63870305
-0.13663428 0.49270236 -0.38154694 0.297502 0.32657522 -0.10993796 0.5674758 -0.2148704
-0.5248828 -0.3559749 -0.38144982 -0.51392263 -0.14856078 -0.3664015 -0.04498282 -0.017799776
-0.20651758 -0.08737326 -0.31055677 0.0057051075 0.05249853 -0.28796855 0.60666114 -0.04979965
-0.4248228 -0.30162206 0.36336452 0.5751109 0.0631844 -0.3930913 -0.23379454 -0.32201967
-0.16241865 0.59922993 0.079513654 -0.009397004 0.543734 -0.329713 0.33449218 0.31857195
0.20627391 -0.35608783 0.4905588 0.43653297 0.42005768 0.43686172 0.3019487 0.29540038
0.45851338 -0.39213282 0.48240852 0.35856584 0.3486822 -0.30102524 -0.2086638 -0.15372561
0.5103126 0.50852376 -0.2850959 -0.19357058 -0.5126791 -0.19232936 0.18377067 0.3989513
-0.5001373 -0.22945659 0.2301167 0.27010712 0.55538154 -0.27181152 0.49925658 -0.26711747
-0.40809542 0.35260504 -0.15570445 -0.04574216 -0.4076175 -0.2956276 -0.063143454 0.5155918
0.58775854 0.061841957 -0.35616305 0.17239594 0.29917586 -0.3587377 0.032657932 0.5582088
0.1766554 -0.12502058 -0.35155025 0.4318053 -0.40390438 0.36849487 -0.31697667 0.54389274

fc2.weight f4 [128, 128]
00000000: 9e7e be3d d169 b3bd a8c0 86bd 2277 a93d
00000010: 5415 0abe f4e9 dabc 240e a6bc 46bb cbbd
00000020: 70a7 373c 3ec3 453d 0147 60bc 605c 503d
00000030: 0442 a7bd d34b 95bc d96d b3bd 0fc3 4cbc
00000040: b810 313d 9d76 9fbd 5ab7 d7bb 165f 2a3e
00000050: 907b be3d 43be 773d 41e6 46bd 517c 92bd
00000060: c106 8c3d c96e 423d b927 f43b 28ae b73d
00000070: 3e8b b53d 8d4c 24bd 99b0 603d 8175 94bd
00000080: a4ba 13bd 337c ecbd 9f9e 873d 3f4a 1ebe
00000090: 4048 c13d 82a3 34bd 81a5 c6bd d886 a13d
000000a0: d3a4 0f3e 933c b3bd 1306 013e 499f 093e
000000b0: 8b2d fabd 33da 4abd 8e0b 0a3d 6c7e a63d
000000c0: 747d 73bd c904 4bbd 70df fe3b 777d 503c
000000d0: 8b91 cb3d eedd c73c 5e41 2fbd 87d4 b43d
000000e0: f077 10bc a90a 973d 5af7 b2bb 44ef 02be
000000f0: eebe f6bc 2594 3c3d ac42 0cbd 332a 883d
00000100: 7dfe 81bc 9a51 d53d d31b 51bd 804e 16bd
00000110: 9b82 f5bd 9019 b6bc 01e5 9a3d 81cc 453d
00000120: b82a debd e628 9ebc e811 c0bd 32fc 2a3d
00000130: ad51 78bd bb63 d13c 55ef bf3a 6c34 f93d
00000140: 12e9 42bd 1449 f7bd 115c 8e3c c97f 693d
00000150: ab2a dfbd 9be2 263d 0ec8 03bc 5630 ba3d
00000160: 3244 f6bd 8300 9bbb 817a d43d 6b2a 283d
00000170: f1b4 5abd bca9 2fbc a874 46bc 588f f9bc
00000180: 1b38 f63c 9443 43bd 23a2 cebc 4e98 e53d
00000190: e751 5dbd 5ca9 9bbc 9987 9f3d b243 05bd
000001a0: 7116 97bc 7c6e 47bd 2009 dabd f6f3 39bb
000001b0: 8af1 9cbd 85f4 e53d 7a81 803d 8798 ffbd
000001c0: 7668 1fbe 87e1 eebc db0b b53d adf2 c83c
000001d0: 5db2 193c 1c98 413e c0b5 07be 5618 713d
000001e0: 7f58 29bc 68d1 65bd 4344 723e d2a2 35bd
000001f0: 973a df3d d655 a83b ad73 0bbe ca16 183d
00000200: d737 bd3d c750 0a3e b94c 57be 2ed4 93be
00000210: cb95 46bd 0f9c 863e cc74 103e a525 603d
00000220: 3bcb bb3d ed02 793d 6107 063e d6b4 893d
00000230: 3692 5e3e 3462 78be 26e2 763e f636 4c3d
00000240: ca67 e93d 5ae9 afbd db28 043e 9347 433e
00000250: d792 473d 2110 11be a7d5 f63c fee4 28be
00000260: 15b2 ecbe 69d3 073d c917 e2bd bf30 b23c
00000270: 5257 06be 1bb7 17bd a536 5fbe 8929 293e
00000280: fd41 e0bd a0ef 8e3d 28aa 2c3e b2c4 263e
00000290: cab0 f8bb f3f7 c1be d4a3 0b3e 06fe c3bd
000002a0: 7bf1 38bb b80e a9be 3e86 2fbe 5eac 80bd
000002b0: 4ae5 d2bd e191 623d f718 52be d90d 49bd
000002c0: f6ff 1abe 07f3 92be df06 b03d 4eef 453d
000002d0: e624 b9bd 0f8a 7dbc a51a 453e 2ed7 9e3d
000002e0: c688 c93d cd73 f7bd 459c a23d a57a 2e3e
000002f0: cbd5 83bd c39c 09be 680f 48be c0c6 94be
00000300: 1e9d 143d 2e8d 173e df6d 35be c92a 61be
00000310: b33c 8b3d 0337 58be a182 0c3e 1948 d53d
00000320: 7a0c bc3b 1d65 d53c 7172 4c3d 58f8 7a3d
00000330: 9bf9 0c3d 1bf3 893c 67ff b23d e28f 0f3e
00000340: a1dc 2a3e dfdf 7d3d f1dc 943d 4e55 683d
00000350: 1d33 563e 6c72 8ebe d632 bfbe 3a5b 09be
00000360: cec8 e53c 35a6 043e 9bd4 dc3d 80ca 57be
00000370: 8b67 19be 5b17 0cbe c139 493d afe8 c13d
00000380: 82bf c0bc 5bb7 c03c 17da c13d 0562 d43c
00000390: 18f2 523e 34b5 e5bd cd43 fc3d 9f95 bbbe
000003a0: 57e0 5ebe 0cc7 d73c 89c6 b3be 6b13 a53d
000003b0: 43fb 07be d4ba 34be 41e8 9cbe b904 043e
000003c0: 8dee e23d 61f2 533d 30ff e5bd 9102 d63d
000003d0: 0c93 0d3d f14b d8bc f3d7 033d 98c4 0c3e
000003e0: d10b f03c d6bb 26be 519d fcbd edbc 183d
000003f0: d810 30be 4023 763d bbdd 68be b890 223e
0.09301494 -0.08760417 -0.06579715 0.08274676 -0.13484699 -0.026722886 -0.020270415 -0.09947829
0.011209354 0.0482819 -0.013688804 0.050869346 -0.08166888 -0.018224632 -0.08761186 -0.0124976775
0.043228835 -0.077862956 -0.0065831365 0.16637835 0.093009114 0.060484182 -0.04855943 -0.07152618
0.06837226 0.047468934 0.0074510244 0.089687645 0.08864449 -0.040112067 0.054855917 -0.072489746
-0.036066666 -0.115471266 0.066220514 -0.1545801 0.09437609 -0.044101246 -0.09699536 0.078870475
0.14027719 -0.08751788 0.12599973 0.13439669 -0.12215718 -0.049524497 0.033702426 0.08129582
-0.059445813 -0.04956511 0.0077781007 0.012725226 0.099398695 0.024397817 -0.04278695 0.08829599
-0.008817658 0.0737508 -0.0054616155 -0.12786585 -0.03012034 0.04603972 -0.03424327 0.06648674
-0.01586842 0.10415955 -0.051051926 -0.036695957 -0.11987802 -0.022228986 0.0756321 0.048290733
-0.10847992 -0.019306611 -0.09378415 0.04174442 -0.060624767 0.02556025 0.001464347 0.12168202
-0.047585554 -0.120744854 0.017377885 0.05700663 -0.1089681 0.04074345 -0.008043302 0.090912506
-0.12024726 -0.0047302856 0.10374928 0.041056078 -0.053395215 -0.01072162 -0.012112774 -0.03046386
0.03005605 -0.04767187 -0.025223797 0.112106904 -0.054033186 -0.019001655 0.07789535 -0.032535262
-0.018443318 -0.04868935 -0.10646272 -0.0028374172 -0.076632574 0.11228279 0.06274696 -0.12480264
-0.15567192 -0.029160274 0.08840152 0.02452978 0.009380904 0.18905681 -0.13252926 0.0588611
-0.0103360405 -0.05610791 0.23658852 -0.04434473 0.10899847 0.0051371856 -0.13618346 0.03713111
0.09239166 0.13507377 -0.21025361 -0.28872818 -0.048482697 0.26290938 0.14107054 0.0547234
0.091696225 0.060793806 0.13088752 0.06723945 0.21735463 -0.24256212 0.24109706 0.049857102
0.11396749 -0.0858943 0.1290621 0.19070272 0.04872402 -0.14166309 0.030131174 -0.16493604
-0.46229616 0.0331606 -0.11039693 0.02175176 -0.13119248 -0.037039857 -0.21798189 0.1651975
-0.10950086 0.069792986 0.16861784 0.16285971 -0.0075894343 -0.37884483 0.13636714 -0.095699355
-0.0028220105 -0.33019042 -0.17141053 -0.062828764 -0.1029764 0.055314902 -0.20517336 -0.04908547
-0.15136704 -0.2870104 0.085950606 0.04832392 -0.09040241 -0.01547481 0.19248445 0.07755886
0.098405406 -0.12082634 0.07939962 0.17038973 -0.06437262 -0.13438706 -0.19537127 -0.29057884
0.03628265 0.1479995 -0.17717694 -0.21988977 0.06798687 -0.21114735 0.13721706 0.10414142
0.005738792 0.026049191 0.049913827 0.061271995 0.03441773 0.016839555 0.087401204 0.1401973
0.16685726 0.06198108 0.07268704 0.056721978 0.20917936 -0.27821672 -0.37343472 -0.13413706
0.028049853 0.12954028 0.10782739 -0.21073341 -0.14980905 -0.13680784 0.049127344 0.09468209
-0.023528818 0.02352493 0.094654255 0.025925646 0.20600164 -0.112162024 0.123176195 -0.3663759
-0.21765266 0.02634003 -0.35112408 0.08060344 -0.13279442 -0.17649394 -0.30645946 0.12892427
0.11080656 0.051744822 -0.11230314 0.10449708 0.034564063 -0.0264034 0.032188367 0.1374687
0.02930251 -0.16282591 -0.12334693 0.03728955 -0.17193925 0.06009221 -0.22740833 0.15875518

fc2.bias f4 [128]
00000000: 92ff adbc f40d 2e3d 96bb a73d ff78 323e
00000010: 6ab0 7f3d 0c9e 4c3e 5b6c 193e 0534 61bc
00000020: 6ad9 103e 5d11 153e 8fb2 203e a22e 133e
00000030: c23f 223e 5850 9f3d c924 153d 56f9 cabb
00000040: e3da 76bd 2614 fe3d d2ec c53d f4c2 95bd
00000050: 4494 8f3d f9b9 7f3d 9eb8 003e 8386 84bb
00000060: 4160 7dbd 22d2 ac3d af7a 55bc bc88 9abd
00000070: 268a 033e a1f5 2d3d 1f92 813d 30e0 2f3d
00000080: 0e9d b1bc 9b03 403d c8f6 9b3b 5942 143e
00000090: 1646 af3c 7dfd 073e 933c 033c d6e6 0d3e
000000a0: 19c4 4ebc b629 52bd f404 153e f6b9 413e
000000b0: 3606 4e3d cb96 d83d 9dad 6a3d 9886 063e
000000c0: 948b 5f3d cf0f 9f3d 5863 e03d 5787 d13d
000000d0: b8a2 a33d 470d 763d 4782 3f3e 7a08 5a3e
000000e0: 356d 213e 210a 79bd daad c33d 774d 30bd
000000f0: 05f7 83bd 414b 293e ee48 263e 352e d63d
00000100: df65 0b3e 7d5d 94bc 33d5 3e3e f3b9 303e
00000110: 711a b03d 1c31 86bd 8ebc c33d 704e 4b3d
00000120: 6a7e 9a3c 6389 2f3e b698 443d d7f2 eb3c
00000130: 81d9 443e 098a 923d f89e 463e 3881 dabc
00000140: fd5d 243e c563 763d 9c16 a4bd a89d 3d3d
00000150: c675 abbd d0ae bebc b845 a93d 462d 1a3d
00000160: 6335 34bc b0f1 523d f2c5 fe3a a15e ee3d
00000170: d6cb 0e3e 2e9c 033d 2c00 fa3c ec20 acbd
00000180: 1efe a63d 0e93 0cbd 4b3f 4d3d e06c 0b3e
00000190: 031f 01b9 db02 f83d 9dfa 05bd 8f6d a0bc
000001a0: 4b65 86bd c9cd 00ba 0c07 283d 8abc 2dbc
000001b0: 4f49 1c3c 5956 083c 46b9 0d3e 2710 313d
000001c0: ac4c 2b3e 1bdd a8bd f0db a63d 150f acbd
000001d0: ae26 d53d 1dd5 db3c fbb8 4e3e 074e 623d
000001e0: 4f91 9d3c 5bb3 85bb 4820 253d be5c 2b3e
000001f0: 769c ef3c 6064 9f3d c904 503d eada 343e
-0.02124003 0.042493775 0.08190076 0.17428969 0.0624241 0.19982165 0.1498274 -0.013745313
0.14145437 0.14557405 0.15693115 0.14373258 0.15844634 0.07778996 0.036412034 -0.006194274
-0.06026734 0.12406187 0.096643105 -0.07312575 0.07010701 0.062433217 0.12570426 -0.0040443554
-0.061859373 0.08438517 -0.013029738 -0.07545611 0.12845668 0.042470578 0.063266985 0.04293841
-0.021681335 0.04687844 0.004759643 0.14478435 0.021395724 0.13280292 0.0080100475 0.13857588
-0.0126199955 -0.05130931 0.1455267 0.18918595 0.050298892 0.105756365 0.057294477 0.13137281
0.05457647 0.07766687 0.10956448 0.10230892 0.079900205 0.060071256 0.1870204 0.21292296
0.15764315 -0.060800675 0.09554644 -0.043042626 -0.064435996 0.16532613 0.16238758 0.10458032
0.1361308 -0.018110985 0.18636017 0.17258434 0.08598793 -0.065523356 0.09557448 0.04963535
0.018859107 0.17142253 0.0479972 0.028802318 0.19223596 0.07155234 0.1939658 -0.026672944
0.16051479 0.06015374 -0.08012125 0.04629293 -0.08372073 -0.023276716 0.08265251 0.037640832
-0.0109990565 0.051500022 0.0019437654 0.11639143 0.13944945 0.032131366 0.03051766 -0.08404717
0.08153938 -0.03431993 0.05010919 0.13615751 -0.00012313951 0.1210992 -0.032709707 -0.019583492
-0.06562289 -0.0004913477 0.041022345 -0.010604033 0.0095389625 0.008321368 0.13840207 0.043228295
0.16728467 -0.082452975 0.081474185 -0.08401314 0.10407768 0.026835019 0.20187752 0.055250194
0.019234328 -0.0040802187 0.04031399 0.16734597 0.029249411 0.07782817 0.050785813 0.17661634

fc3.weight f4 [2, 128]
00000000: d0bf 70bc be57 5b3e e702 763e 54e3 673e
00000010: e17e 893e 4edd 793e 368f 673e b0d2 68be
00000020: 7cc7 9f3e dce0 483e a086 7a3e f9ec 923e
00000030: bf88 9c3e 7e00 95bd 3ec3 553e 1734 373c
00000040: 063e cbbc 0fcb 9d3e 967e 923e 4367 2cbc
00000050: 19f8 6d3e bbfd bf3d 58a8 823e 7e1a a3be
00000060: fd5e a6bd 90cb 903e e29b debd 05f0 74be
00000070: 8cd1 293e dfcc 9fbe 623b b6bd 0cc0 b23c
00000080: 9660 b63b 8a56 483e afa7 31bc 0933 543d
00000090: 4b4e b3be 837a 953e d415 71bd 8ebf a33e
000000a0: 477e 333e d5ed 913e b5a1 903d a869 613e
000000b0: a872 3a3e d910 a13e ba29 ab3e 5738 903e
000000c0: 32bf 863e a0e1 8a3e 82c8 6c3e b070 9b3e
000000d0: 1e51 b33e e61d 423e 3a9d a73e 4118 473e
000000e0: 4120 1f3e 8a04 273e 4799 83be 6a0a 403b
000000f0: 7a78 213d f96e 8d3e 5626 823e 02a9 923e
00000100: 4cd6 963e 8507 31be 2ce7 503e 627f cb3d
00000110: c0bb 343e 18ff 91bd 1e8e 713e 2998 aebe
00000120: 0506 71be 7935 8c3e 4b29 923e 886e ae3e
00000130: b319 363e bd12 883e 4ff9 6d3e 0e17 ec3c
00000140: c675 743e 9c2e 343e 9107 54be 0887 aebe
00000150: 4af6 0a3d da7e 2cbe 02e7 1abd 3fd9 9ebc
00000160: c948 aabe a6bd 1a3e 1020 c1be 672b a63e
00000170: 92d6 913e 2a92 2b3e 78f3 96bd ad1c 1c3e
00000180: 7134 753e a351 823e 6616 69bc 26a8 903e
00000190: 34a1 1ebe 4e50 883e 1bba a8be 3c2c 66be
000001a0: e6ad bdbe 4108 943c 2d51 98be cea0 afbe
000001b0: 3fad aebe 233e 0b3c 8bbd 383e 60cc 813e
000001c0: 27c5 8a3e 685f 11bd 234f 3e3e c51f 8fbe
000001d0: 2d71 6b3e 41e5 cabe d0d3 613e 4e38 083e
000001e0: a561 a0be 17fd 94be e217 3abd 754f 723e
000001f0: b606 14be 41f1 dabc 0e12 de3d b9b6 993e
00000200: 878d 8c3e e950 9d3e 16d0 8e3e f69b 583e
00000210: c99a 7f3e eefa 613e 0e3b 613e c525 b4be
00000220: 1148 863e b1b6 753e 2ffa c23d ef59 833e
00000230: 1a4c 143e ac6c 06bb 5876 833e e306 08bd
00000240: 229f 9dbd 728f 693e 8321 103e b450 a33d
00000250: 70ee 673e d8ac febd 2c68 133e 95fc b2be
00000260: 8493 d63b 42be 8d3e e0ae 91be 6f3d 87be
00000270: 7a84 c03e e3a6 6cbe ea5f b3be 33a9 9ebd
00000280: 2084 41bd 2cff 823e fabb b13c 064d 8c3e
00000290: a0a1 813d 2463 9a3e 15fb 0e3d f47d f83d
000002a0: 21a1 7bbe c695 7dbd 50ae b23e 7e1b 883e
000002b0: 3917 ac3c 778c 9c3e 49a5 893e 2e91 383e
000002c0: 601e ce3d 9bbd 233e fd08 8f3e ca5f ea3d
000002d0: 32e4 3b3e 3906 b93e 9d87 9c3e 7171 803e
000002e0: 54fc 893e e5d0 643d 24f2 c9be dff4 92bd
000002f0: 2aa0 82bd 5ebf a63e c777 943e 639c 273e
00000300: d208 5c3e 1e3c 5d3e 5e5a 723e fa2e a43e
00000310: bc41 833e cad1 ca3c b359 803e 6634 3bbd
00000320: 4652 bfbe d6d6 7e3e b76c 9d3e 01e9 b63e
00000330: 506e a43e b6ea 5a3e 442a 7f3e 4e4c 95bd
00000340: d07f 7c3e a225 dfbd 3a2f 193e 67c0 93be
00000350: a729 9bbd d0c6 a9be b9e9 99bd 37bc 4dbc
00000360: 30c1 3abe 4d93 61be dd8d 20be 35f6 913e
00000370: 6024 6e3e fcc4 8d3e 3a9e 253d 25de 8ebe
00000380: d82e 453e 8f6d 983e d704 953d 388b 993e
00000390: b07f a2be 8778 e63d ea49 b4be fae5 c0bd
000003a0: 8a11 85be 25cc b43e 4402 2abe bb3a 8fbe
000003b0: 1b86 b5bd 550a 02bd f995 803e 8dbf aa3e
000003c0: 80b6 273e 050e f7bc 70e1 903e 1c54 a8be
000003d0: ded9 5f3e 21bc a3bd 49c6 0b3e cae9 943e
000003e0: a4f6 cabe 2e7f 5fbe 70d5 9dbc c0d5 4a3e
000003f0: f6f4 ccbe 2b62 81bd 8601 973e 48b3 a13e
-0.014694169 0.2142019 0.24024545 0.22645313 0.26854613 0.24400827 0.22613224 -0.22736621
0.31206882 0.19617027 0.24465418 0.2869642 0.3057308 -0.072754845 0.2087526 0.011181853
-0.024809849 0.30818984 0.28612202 -0.010522666 0.23239173 0.09374567 0.2551906 -0.3185615
-0.08123586 0.28280306 -0.10869576 -0.23919685 0.16583842 -0.31210992 -0.08898045 0.02182009
0.005565713 0.19564262 -0.010843202 0.051806483 -0.3502067 0.29195032 -0.058858708 0.31982082
0.1752864 0.28501764 0.07062093 0.22012961 0.182078 0.31458166 0.33430272 0.28167984
0.26317745 0.27125263 0.23123363 0.3035941 0.35022825 0.18956718 0.32737142 0.19442846
0.15539648 0.16310325 -0.2570288 0.0029303082 0.039421536 0.27623728 0.25419873 0.28644568
0.2946037 -0.17288025 0.20400685 0.09936406 0.17649746 -0.071287334 0.2358937 -0.34100464
-0.23537453 0.27384546 0.2854713 0.34068704 0.17783241 0.26576796 0.23239635 0.028819587
0.23873052 0.17595905 -0.20706011 -0.34087396 0.033926286 -0.16845265 -0.037817962 -0.0193907
-0.33258656 0.15111408 -0.37719774 0.32454988 0.28484017 0.16754976 -0.07370657 0.15245314
0.23945786 0.2545291 -0.014226532 0.28253287 -0.15491182 0.26623768 -0.32954487 -0.22477812
-0.37046736 0.018070342 -0.29749432 -0.34302372 -0.3411655 0.008498701 0.18041055 0.25351238
0.2710354 -0.035491377 0.18584876 -0.27953926 0.22992392 -0.39628032 0.22053456 0.13302729
-0.31324497 -0.29099342 -0.045432933 0.23663123 -0.14455685 -0.026726367 0.108432874 0.3002222
0.27451727 0.30725792 0.27893132 0.21153244 0.2496139 0.22068378 0.21995184 -0.35185066
0.26226857 0.23995472 0.09520375 0.2565455 0.14482155 -0.002051155 0.25676227 -0.033209693
-0.07696368 0.22808626 0.14075284 0.07974377 0.2264955 -0.12435311 0.14395207 -0.3495833
0.006548347 0.27684218 -0.28453732 -0.26414058 0.37601072 -0.23110537 -0.35034114 -0.07747116
-0.047245145 0.25585306 0.02169608 0.27402514 0.06329656 0.30153763 0.03490742 0.12133399
-0.24573185 -0.061910413 0.34898615 0.26583475 0.021007167 0.30575916 0.26883915 0.18024132
0.10064387 0.15990297 0.27936545 0.114440516 0.18348768 0.3613756 0.30572215 0.2508655
0.26950324 0.05586328 -0.3944255 -0.07175612 -0.06378205 0.32567877 0.28997633 0.1636825
0.2148774 0.21604964 0.23667285 0.3206709 0.2563609 0.024758238 0.25068435 -0.045704268
-0.37367457 0.24886641 0.30747005 0.35724643 0.32115412 0.21378598 0.24918467 -0.072899446
0.24658132 -0.1089585 0.14959422 -0.2885773 -0.07576304 -0.33159494 -0.07515282 -0.012557081
-0.18237758 -0.22028847 -0.15679117 0.28508154 0.23256063 0.2768935 0.0404341 -0.27903858
0.1925615 0.29771087 0.07276314 0.29989028 -0.31738043 0.112534575 -0.35212642 -0.094188645
-0.25989944 0.35312 -0.16602427 -0.27974495 -0.08863469 -0.031748135 0.2511442 0.33349267
0.16378212 -0.030158052 0.28296995 -0.3287667 0.21860453 -0.07994867 0.13649859 0.29084617
-0.39641297 -0.21825859 -0.019266814 0.19808102 -0.4003064 -0.06317552 0.2949335 0.31582093

fc3.bias f4 [2]
00000000: 8c2d c13d 8c69 cb3d
0.094325155 0.09932241
