weights/tuning2/20000steps_4agents_32batch_15000cap_0.0001lr/run_6.pth (torch, 72253 bytes, 6 tensors)

fc1.weight f4 [128, 4]
-0.64924943 0.0069616316 0.64318657 -0.40985847 -0.08043999 -0.090020895 -0.42322174 -0.54421455
-0.14406596 -0.087344095 -0.03646934 0.24676989 0.311352 0.29440436 -0.035393775 0.24342255
-0.075119905 -0.34608734 0.07355544 0.26199743 0.062539585 -0.292819 0.7507214 0.46925485
-0.46567672 0.12403985 0.44791442 0.53832024 -0.19407433 -0.032976802 0.4756597 0.32030204
-0.5734371 -0.48809394 0.43091103 -0.3302491 0.32320988 -0.2648582 -0.13920613 0.11642888
0.18988879 -0.12162047 -0.5064131 0.22133821 -0.33344448 0.15391399 -0.28358182 -0.034896307
-0.49060678 0.19021751 0.20905708 -0.050293617 -0.3436731 -0.024006829 0.32039446 -0.044251528
-0.32809663 -0.1997184 0.038997017 -0.25084132 0.4254114 0.3658709 -0.9707321 -0.3265943
0.27032185 -0.14025907 0.5929264 0.17789638 0.28739786 -0.37835082 0.9020249 0.31152222
-0.6073075 0.43363914 0.4771795 -0.18411678 0.3754924 -0.30959216 -0.16299194 -0.0028613992
-0.076465204 -0.24234171 -0.26509342 -0.17138053 -0.15304457 0.30080792 0.6960117 -0.24831614
0.31080094 0.015564634 -0.4558686 -0.48090956 0.30972433 0.3087812 -0.896989 -0.15739039
0.48998338 0.22594987 0.43218124 0.22301741 0.23565698 0.27950472 -0.46399212 -0.4766224
0.1269216 -0.3058217 -0.30786932 0.010374983 0.5348725 0.2548817 -0.40215188 -0.56509584
-0.3040961 0.5069849 0.117955744 -0.087312825 0.20084435 -0.27837953 0.4796813 -0.38216087
-0.51588106 -0.44928932 -0.16158764 -0.42936543 0.37172255 0.4699876 0.8725219 -0.09855244
0.33078802 -0.09370818 -0.96538943 -0.5773018 0.14775631 0.23145738 0.75602007 -0.13607913
0.3820294 -0.035697307 -0.7532614 -0.42901796 -0.14081979 -0.3449534 0.25181556 -0.44935983
-0.08283276 -0.41916344 -0.16025913 -0.27775416 0.17145965 -0.18988837 -0.79518527 -0.5763507
-0.0011667027 -0.026221573 0.006482037 -0.3371512 -0.47834635 -0.43808976 0.9058506 -0.0059667234
-0.7329422 0.1611854 0.66530365 -0.14063996 -0.5308946 -0.15938681 0.64363146 -0.55945414
-0.6640923 0.32252017 0.42805177 -0.054145355 -0.0104488125 0.17994677 -0.47562256 -0.46193522
-0.5182959 0.38731864 0.47198257 0.070236206 0.5636581 0.11312732 -0.32179308 -0.43754867
-0.47754282 -0.48683235 0.813559 0.10325792 -0.42656228 0.18062007 0.18442066 -0.13463452
0.47966042 -0.3346435 0.20709185 0.36512402 -0.4415308 0.2733125 0.78868026 -0.28950396
0.030491872 0.06871982 0.5496222 0.31142643 0.113239 -0.3935204 0.01329241 0.55494195
0.16420932 -0.2570838 -0.08374335 -0.21025842 -0.33381596 -0.4403618 0.19521166 0.35459748
-0.0040676743 0.12139357 0.5272469 0.07161132 0.45389554 0.04565666 -0.030874567 -0.18932334
-0.22510023 0.52710956 0.51323825 -0.17325377 0.22697029 0.11100647 -0.033797942 -0.3692517
-0.5165128 -0.23450246 -0.28985396 -0.19198477 -0.48917755 -0.37362832 0.4556989 -0.14139189
-0.1576577 0.5169432 0.118611366 0.033921078 0.0854963 -0.19760948 0.048983417 0.051396567
-0.42381757 -0.21074647 0.034841802 0.45012817 0.47120604 0.3549137 -0.3720074 0.0431521
00000000: 3635 26bf 661e e43b e0a7 243f f8d8 d1be
00000010: b9bd a4bd e05c b8bd 85b0 d8be a551 0bbf
00000020: 0786 13be 76e1 b2bd e060 15bd 3fb1 7c3e
00000030: 8869 9f3e 2bbc 963e 10f9 10bd c343 793e
00000040: 77d8 99bd 5c32 b1be 3ca4 963d 8724 863e
00000050: c114 803d 5fec 95be 472f 403f 2c42 f03e
00000060: 2e6d eebe 9b08 fe3d 0a55 e53e 5bcf 093f
00000070: 6cbb 46be af12 07bd ab89 f33e a1fe a33e
00000080: c6cc 12bf 73e7 f9be 5fa0 dc3e 6916 a9be
00000090: c47b a53e 7e9b 87be 0d8c 0ebe 4472 ee3d
000000a0: 3572 423e 2714 f9bd 4aa4 01bf 7ca6 623e
000000b0: 3cb9 aabe a19b 1d3e a331 91be 6eef 0ebd
000000c0: d030 fbbe 61c8 423e 0f13 563e ae00 4ebd
000000d0: ecf5 afbe f8a9 c4bc be0a a43e 1741 35bd
000000e0: 48fc a7be fb82 4cbe 56bb 1f3d 466e 80be
000000f0: 86cf d93e 6e53 bb3e e681 78bf 5e37 a7be
00000100: a067 8a3e 13a0 0fbe 06ca 173f 782a 363e
00000110: d025 933e 33b7 c1be 1beb 663f d77f 9f3e
00000120: 8178 1bbf f305 de3e df50 f43e 1c89 3cbe
00000130: 8a40 c03e dd82 9ebe 5ce7 26be 5086 3bbb
00000140: ca99 9cbd 6d28 78be 53ba 87be 617e 2fbe
00000150: b7b7 1cbe 7f03 9a3e d32d 323f 9646 7ebe
00000160: 4d21 9f3e cf02 7f3c 9c67 e9be c739 f6be
00000170: 3094 9e3e 9218 9e3e 12a1 65bf f22a 21be
00000180: 1adf fa3e 675f 673e dc46 dd3e ad5e 643e
00000190: 1050 713e 3e1b 8f3e 6090 edbe da07 f4be
000001a0: bcf7 013e a994 9cbe 0ca1 9dbe d5fb 293c
000001b0: 67ed 083f db7f 823e dae6 cdbe 1faa 10bf
000001c0: 7cb2 9bbe c3c9 013f c892 f13d 11d1 b2bd
000001d0: 24aa 4d3e c387 8ebe ca98 f53e 97aa c3be
000001e0: c810 04bf 4009 e6be 3b77 25be c9d5 dbbe
000001f0: 6b52 be3e 37a2 f03e 985d 5f3f ddd5 c9bd
00000200: 0c5d a93e 13ea bfbd c323 77bf 0dca 13bf
00000210: 6e4d 173e 2a03 6d3e 888a 413f 5458 0bbe
00000220: 5c99 c33e 5737 12bd bdd5 40bf 3ea8 dbbe
00000230: 1033 10be bb9d b0be f8ed 803e 7e12 e6be
00000240: 39a4 a9bd 979c d6be f81a 24be cb35 8ebe
00000250: 1e93 2f3e 1972 42be 4391 4bbf b88b 13bf
00000260: 0cec 98ba a0ce d6bc 4467 d43b 159f acbe
00000270: d0e9 f4be 4d4d e0be d3e5 673f 8184 c3bb
00000280: 1aa2 3bbf c90d 253e 5751 2a3f ec03 10be
00000290: b5e8 07bf 4c36 23be 08c5 243f 6338 0fbf
000002a0: f401 2abf 5d21 a53e 9a29 db3e 85c7 5dbd
000002b0: 7f31 2bbc f743 383e cd84 f3be c682 ecbe
000002c0: 0aaf 04bf a14e c63e b3a7 f13e 00d8 8f3d
000002d0: e64b 103f 4caf e73d 10c2 a4be 6106 e0be
000002e0: 7e80 f4be 1742 f9be 6745 503f e378 d33d
000002f0: 5f66 dabe 78f4 383e c5d8 3c3e a2dd 09be
00000300: 0d96 f53e 6556 abbe e30f 543e 89f1 ba3e
00000310: 5310 e2be 9eef 8b3e f3e6 493f dd39 94be
00000320: 17ca f93c fabc 8c3d 0ab4 0c3f 4973 9f3e
00000330: d9e9 e73d 827b c9be 69c8 593c ad10 0e3f
00000340: 7d26 283e 7da0 83be a281 abbd fc4d 57be
00000350: ede9 aabe 1a77 e1be 91e5 473e cd8d b53e
00000360: 204a 85bb 319d f83d a7f9 063f f5a8 923d
00000370: ff64 e83e 7a02 3b3d a9ec fcbc fadd 41be
00000380: ad80 66be a7f0 063f 9563 033f 7069 31be
00000390: e66a 683e 5c57 e33d b66f 0abd 8f0e bdbe
000003a0: 2f3a 04bf 6a21 70be bd67 94be a897 44be
000003b0: 7b75 fabe 364c bfbe 5e51 e93e 09c9 10be
000003c0: 0571 21be 6456 043f 84ea f23d d4f0 0a3d
000003d0: af18 af3d 245a 4abe d6a2 483d 3585 523d
000003e0: 9efe d8be eccd 57be 47b6 0e3d 3377 e63e
000003f0: eb41 f13e 40b7 b53e c177 bebe 42c0 303d

fc1.bias f4 [128]
-0.046029128 -0.019543977 0.51077944 0.45227352 -0.48466334 -0.34068796 -0.21182968 -0.2560557
-0.29125667 0.3548633 0.36060476 0.50086534 0.19130446 0.17358068 0.19980627 -0.36015728
0.55275214 -0.13895826 0.11147811 0.27488777 0.33359942 0.28406826 -0.3309232 0.15125571
0.3935102 -0.14608504 0.53792447 -0.34728009 0.33103356 0.30224693 0.53823197 0.23407361
-0.27436706 0.25834826 -0.25038806 0.4029327 0.5974541 -0.10664303 0.41815487 -0.442697
0.13283238 -0.005263241 0.37324706 -0.42457578 -0.023774268 0.09060196 -0.12977234 0.358954
0.5050847 0.12660079 -0.042451017 -0.15968335 0.30956912 0.21042944 0.5213726 -0.3953769
0.1760626 -0.1016309 0.54184645 -0.3403391 -0.44819462 0.63495713 -0.24109516 -0.17189494
0.5544062 -0.45073894 0.5837741 0.25247896 -0.26867667 0.5310108 -0.43775937 0.4192843
-0.4193326 -0.04005729 0.33053485 -0.18679689 -0.42658654 -0.44481972 0.13967614 0.4368553
0.051494177 0.4743124 0.1582656 -0.24336375 0.5576006 -0.43288714 0.03756898 0.6132349
0.07387443 0.2554951 -0.26387855 0.39701423 0.28131148 -0.092385836 -0.26257908 0.3613563
-0.10350997 -0.07909401 0.38157362 -0.4574824 -0.22384733 0.59679055 -0.21093307 0.43191433
0.6416618 0.255294 0.44979843 0.5654852 -0.051866625 0.10297883 0.4679585 -0.123751774
-0.3840604 -0.020004638 0.22511314 -0.18590774 -0.015061831 0.2700248 0.30162555 -0.25335085
0.44117698 0.16297959 -0.3671344 0.41478086 0.18727359 -0.16804041 -0.21088208 -0.26274595
00000000: 0a89 3cbd b11a a0bc 71c2 023f 6590 e73e
00000010: cb25 f8be a76e aebe e1e9 58be bc19 83be
00000020: 981f 95be a4b0 b53e 30a1 b83e b638 003f
00000030: 51e5 433e 22bf 313e 049a 4c3e 8966 b8be
00000040: 2a81 0d3f 134b 0ebe a34e e43d 17be 8c3e
00000050: 8bcd aa3e 6571 913e c46e a9be c7e2 1a3e
00000060: 2b7a c93e 5197 15be 6bb5 093f b2ce b1be
00000070: 3b7d a93e 1cc0 9a3e 92c9 093f feb0 6f3e
00000080: d779 8cbe 3946 843e dd32 80be 324d ce3e
00000090: c0f2 183f a967 dabd 6518 d63e 2ea9 e2be
000000a0: 3605 083e 4477 acbb 3d1a bf3e ff61 d9be
000000b0: 41c2 c2bc 858d b93d 0ae3 04be d2c8 b73e
000000c0: 3b4d 013f a3a3 013e 1ee1 2dbd 0884 23be
000000d0: d87f 9e3e d17a 573e ad78 053f d76e cabe
000000e0: c149 343e dc23 d0bd 73b6 0a3f ed40 aebe
000000f0: c479 e5be 8d8c 223f a6e1 76be 3a05 30be
00000100: 91ed 0d3f 41c7 e6be 3872 153f ec44 813e
00000110: fd8f 89be 53f0 073f ff21 e0be 6fac d63e
00000120: c3b2 d6be 1d13 24bd dd3b a93e af47 3fbe
00000130: 8d69 dabe 69bf e3be 4307 0f3e 7fab df3e
00000140: 8feb 523d 13d9 f23e 6110 223e 5934 79be
00000150: eabe 0e3f 62a3 ddbe eee1 193d f6fc 1c3f
00000160: 7a4b 973d 41d0 823e 171b 87be 7345 cb3e
00000170: 0f08 903e c934 bdbd c470 86be b103 b93e
00000180: 09fd d3bd 0afc a1bd 9e5d c33e 223b eabe
00000190: 3c38 65be 44c7 183f d7fe 57be e023 dd3e
000001a0: f343 243f e5b5 823e fb4b e63e a3c3 103f
000001b0: 1972 54bd 91e6 d23d 4298 ef3e 9271 fdbd
000001c0: 91a3 c4be c4e0 a3bc 0f84 663e 995e 3ebe
000001d0: e6c5 76bc b140 8a3e aa6e 9a3e 34b7 81be
000001e0: f3e1 e13e 1fe4 263e 0af9 bbbe 285e d43e
000001f0: a6c4 3f3e c912 2cbe 79f1 57be a386 86be

fc2.weight f4 [128, 128]
0.024992375 -0.08311752 0.01723738 0.0122214295 0.027235568 -0.004386407 -0.014062405 0.03553881
-0.073968984 -0.05774422 0.028167887 -0.0016850316 -0.03064415 -0.0034998527 -0.03474633 -0.08277382
-0.06496007 0.025865437 0.0055128816 0.06378319 -0.084072016 0.026980916 -0.010776043 -0.0710401
-0.01879937 0.003492741 -0.039831676 -0.073081225 -0.06831491 -0.01920947 -0.032234468 -0.015130234
-0.058501225 0.07576427 -0.028119607 0.035402913 -0.08161828 -0.076290146 -0.06892152 0.006362957
-0.08554809 -0.020553617 -0.051000964 -0.04881954 -0.07660392 -0.037651077 0.0061492105 -0.03783706
0.02841341 0.08546866 -0.03848268 0.019048974 -0.07623972 0.02248467 0.005860192 0.0381009
0.087955326 -0.0070850644 -0.04678407 -0.039616875 0.07051938 -0.021099402 -0.08429598 0.059339643
-0.05251582 0.068539485 -0.07537139 -0.077717215 0.019620672 0.022472134 0.049734946 0.027191509
0.010205859 0.044391695 0.08453366 0.002347748 0.07803527 -0.03598344 0.07937637 -0.045498688
-0.052034415 0.017608969 0.000652528 -0.049456827 -0.0040839794 0.050714012 -0.049266882 0.05708704
0.028221224 0.00061066565 0.054755963 0.023212256 0.023841465 0.021957083 -0.00863953 -0.042946354
0.06351389 0.031567603 -0.020936333 -0.056744613 0.0671291 0.039104845 0.05956749 0.043287836
-0.017357947 0.04820041 -0.023252903 -0.03285371 0.026331434 0.07611894 0.055629347 0.02397404
0.023763636 -0.025713518 -0.08688061 -0.0010900545 0.04582474 0.03960934 -0.044949405 0.08126908
0.062102683 -0.0707652 -0.055573657 0.014744418 -0.07384004 -0.019767577 0.067078 -0.0002752116
0.1945115 -0.093393624 0.07340341 0.06542165 -0.062443543 -0.17620459 -0.2360779 -0.2608738
-0.08674342 0.053083 0.07296089 0.14845024 0.06939027 0.28902012 0.05531511 -0.07545418
0.21636385 -0.050547 -0.0243191 -0.0012905541 0.09668592 0.105050474 -0.06472145 0.03089116
0.13442649 -0.1004426 0.16685323 -0.07116864 0.024415785 0.108200654 0.13990636 0.11219685
-0.20902425 0.033122692 -0.2145861 0.10894453 0.14156039 -0.3519745 0.14807665 -0.2341246
0.20593247 0.21356148 0.06618333 -0.15753847 0.07513503 0.086343706 -0.09542467 0.10354833
-0.016093701 0.17345667 -0.33127627 0.022399997 0.16341956 -0.030593073 0.11709232 0.27522832
0.13220994 0.04839694 0.20928812 -0.07677653 -0.03760174 0.16998184 0.009579197 -0.04978576
0.22292511 -0.03482751 0.20430376 0.004059624 -0.092056215 0.15054622 -0.07541053 0.056567222
-0.28519648 -0.2260283 0.23355487 -0.19690335 -0.10393237 -0.25809163 0.004732993 0.13599434
0.058782693 0.077464275 0.08865557 -0.2876639 0.21734321 -0.17127863 -0.090079874 0.16243595
0.009181025 0.2028232 -0.059704944 0.176752 0.16491465 -0.139013 -0.12126958 0.0194411
-0.23648721 -0.38235417 0.11378958 -0.26173463 -0.19929492 0.02600253 -0.13936786 0.18717207
0.1801561 0.10885868 0.121741146 0.18896566 -0.34149954 0.15083495 0.033265807 -0.22618428
-0.17952462 -0.16580789 0.09623209 -0.19382612 -0.28429937 0.21463254 0.19547324 -0.16630459
0.15207459 0.13793801 -0.18109196 0.14428422 0.0675605 -0.12894417 -0.16408056 -0.14787932
00000000: cfbc cc3c 8539 aabd 6835 8d3c 643c 483c
00000010: 201d df3c d9bb 8fbb 0066 66bc 2591 113d
00000020: 0d7d 97bd 3485 6cbd 57c0 e63c 47dc dcba
00000030: 7109 fbbc c95d 65bb 2b52 0ebd 5285 a9bd
00000040: c909 85bd c1e3 d33c 67a5 b43b c3a0 823d
00000050: f32d acbd 1507 dd3c 008e 30bc 797d 91bd
00000060: 2301 9abc 78e6 643b 8a26 23bd 9cab 95bd
00000070: b0e8 8bbd 2e5d 9dbc 4a08 04bd cde4 77bc
00000080: fb9e 6fbd 4c2a 9b3d 175b e6bc a502 113d
00000090: 7c27 a7bd 023e 9cbd ba26 8dbd 5a80 d03b
000000a0: d633 afbd 0f60 a8bc 63e6 50bd fff6 47bd
000000b0: 84e2 9cbd 0438 1abd 517f c93b 08fb 1abd
000000c0: 3dc3 e83c 310a af3d 04a0 1dbd 980c 9c3c
000000d0: 9223 9cbd c531 b83c da06 c03b b00f 1c3d
000000e0: ec21 b43d d429 e8bb a7a0 3fbd 4e45 22bd
000000f0: 776c 903d a7d8 acbc 5fa3 acbd 200e 733d
00000100: d41a 57bd 6e5e 8c3d 515c 9abd 342a 9fbd
00000110: 88bb a03c 7b17 b83c dfb6 4b3d bac0 de3c
00000120: 7a36 273c 11d4 353d fc1f ad3d addc 193b
00000130: f5d0 9f3d 5f63 13bd 1490 a23d d55c 3abd
00000140: 0a22 55bd af40 903c 6a0e 2b3a 3e93 4abd
00000150: e7d2 85bb 7fb9 4f3d 12cc 49bd 1ad4 693d
00000160: 3230 e73c 1415 203a ca47 603d a127 be3c
00000170: 2d4f c33c 57df b33c d18c 0dbc 84e8 2fbd
00000180: 9213 823d 084d 013d ac82 abbc 0a6d 68bd
00000190: fb7a 893d 672c 203d 0afd 733d 964e 313d
000001a0: 4132 8ebc cb6d 453d df7c bebc 9d91 06bd
000001b0: 05b5 d73c 3fe4 9b3d 99db 633d 3565 c43c
000001c0: f5ab c23c 28a5 d2bc 76ee b1bd 29e0 8eba
000001d0: b9b2 3b3d 673d 223d de1c 38bd 6770 a63d
000001e0: 625f 7e3d 58ed 90bd 34a1 63bd 9292 713c
000001f0: 7239 97bd 9def a1bc 3160 893d 474a 90b9
00000200: 062e 473e 2845 bfbd 8754 963d c9fb 853d
00000210: cdc4 7fbd fa6e 34be 68be 71be 4091 85be
00000220: 89a6 b1bd 8f6d 593d 856c 953d 5703 183e
00000230: 7c1c 8e3d 72fa 933e 1992 623d b987 9abd
00000240: 7c8e 5d3e 5f0a 4fbd d938 c7bc cf27 a9ba
00000250: 4503 c63d b424 d73d ae8c 84bd 750f fd3c
00000260: 19a7 093e dab4 cdbd 93db 2a3e ddc0 91bd
00000270: 9d03 c83c 4e98 dd3d 9d43 0f3e 76c7 e53d
00000280: 740a 56be a9ab 073d 75bc 5bbe 4f1e df3d
00000290: 35f5 103e 0036 b4be 68a1 173e 5cbe 6fbe
000002a0: f6df 523e dcaf 5a3e 208b 873d c451 21be
000002b0: 65e0 993d f8d4 b03d 026e c3bd 2611 d43d
000002c0: f0d6 83bc a09e 313e 0b9d a9be 3380 b73c
000002d0: 7557 273e 539e fabc 19ce ef3d baea 8c3e
000002e0: 0b62 073e df3b 463d a04f 563e 033d 9dbd
000002f0: 4804 1abd b80f 2e3e 10f2 1c3c 27ec 4bbd
00000300: 7b46 643e 4ba7 0ebd 0135 513e 9806 853b
00000310: f887 bcbd ca28 1a3e d670 9abd 08b3 673d
00000320: 4605 92be f673 67be 0229 6f3e 08a1 49be
00000330: 7fda d4bd 9624 84be 3917 9b3b 1a42 0b3e
00000340: 1fc6 703d 97a5 9e3d 0d91 b53d af48 93be
00000350: 388f 5e3e aa63 2fbe cc7b b8bd 9c55 263e
00000360: 036c 163c e3b0 4f3e 2c8d 74bd 7afe 343e
00000370: 63df 283e 6d59 0ebe 305c f8bd f142 9f3c
00000380: b429 72be edc3 c3be 830a e93d 1502 86be
00000390: f813 4cbe 4203 d53c 73b6 0ebe 09aa 3f3e
000003a0: d77a 383e 4df1 de3d 6c53 f93d 3780 413e
000003b0: 07d9 aebe 7a74 1a3e ba41 083d da9c 67be
000003c0: 4dd5 37be 8bc9 29be 5415 c53d 5b7a 46be
000003d0: b08f 91be a2c8 5b3e 232a 483e c04b 2abe
000003e0: 71b9 1b3e 9f3f 0d3e 2c70 39be 3ebf 133e
000003f0: 295d 8a3d f109 04be bc04 28be ad6d 17be

fc2.bias f4 [128]
-0.06323025 0.17050284 0.21010613 0.13764355 -0.052269567 -0.015475059 -0.024956284 0.1980795
0.081943475 0.063126564 -0.049326412 0.045665078 0.04218221 0.088976614 0.06627571 0.06091895
-0.0462659 -0.030690284 -0.07323793 0.14291213 0.07631293 -0.043707993 0.01120562 -0.050166275
0.09386697 0.16860542 0.14513348 0.17290922 0.16437763 0.090239264 0.15748553 -0.005181217
0.1269926 0.03092674 -0.059415877 0.077478044 0.17929842 0.1577498 0.16985688 0.0019900745
-0.035367377 -0.009073308 0.03512604 0.041779883 0.14134845 0.08728166 0.022089437 -0.07619327
0.15770106 0.092333525 0.050428998 0.09026778 -0.050314922 0.10926206 0.19312833 -0.021547807
-0.09079075 -0.061147574 -0.05783537 0.20343974 0.11069077 -0.011310872 -0.028356932 -0.006702416
-0.003465248 0.020967528 -0.086930715 0.20533368 0.21207811 0.021646732 0.1545211 0.06723146
0.17571266 0.15073296 0.16462444 0.019786058 0.0852759 0.0753284 0.12649217 -0.08195322
0.025447339 0.13984014 0.2193929 0.18498544 -0.001903025 0.014516907 -0.044331837 -0.08799132
-0.10448688 -0.06230749 0.049552932 -0.025348445 -0.02939346 0.078081265 0.18254797 0.09785979
0.056533564 0.19324219 0.045109887 -0.019798404 0.1102324 -0.042150516 0.12237765 0.050611354
0.18553174 -0.022127733 0.22146279 0.18495668 0.030436492 0.07733737 0.01913155 -0.054632492
0.18353172 0.037770987 0.09967129 -0.012896881 -0.11105617 0.15643704 0.012749822 -0.06432019
0.17463565 0.15538278 0.14408314 0.08578851 0.12529375 -0.042813282 -0.07545868 -0.03900737
00000000: dc7e 81bd 4c98 2e3e 1026 573e 6ef2 0c3e
00000010: 9d18 56bd 1a8b 7dbc 1f71 ccbc 5ad5 4a3e
00000020: fbd1 a73d 8048 813d 7e0a 4abd 4e0b 3b3d
00000030: 41c7 2c3d 5f39 b63d 8fbb 873d 2686 793d
00000040: 5081 3dbd 316a fbbc c5fd 95bd 8f57 123e
00000050: f449 9c3d 2707 33bd c797 373c 277b 4dbd
00000060: 533d c03d e6a6 2c3e df9d 143e 1d0f 313e
00000070: 9c52 283e 5dcf b83d e343 213e 33c7 a9bb
00000080: 590a 023e 135a fd3c 105e 73bd cfac 9e3d
00000090: 019a 373e 2a89 213e f6ee 2d3e e96b 023b
000000a0: 62dd 10bd 36a8 14bc 53e0 0f3d 6221 2b3d
000000b0: a6bd 103e bac0 b23d e8f4 b43c 380b 9cbd
000000c0: 637c 213e 5c19 bd3d a38e 4e3d 50de b83d
000000d0: 0517 4ebd c9c4 df3d 6fc3 453e 0785 b0bc
000000e0: 80f0 b9bd e175 7abd c8e4 6cbd 8252 503e
000000f0: d8b1 e23d 3c51 39bc cc4c e8bc f19f dbbb
00000100: 3719 63bb 18c4 ab3c bb08 b2bd fe42 523e
00000110: 012b 593e 7d54 b13c c73a 1e3e a6b0 893d
00000120: 05ee 333e be59 1a3e 4f93 283e 5f16 a23c
00000130: 22a5 ae3d c745 9a3d 2a87 013e 17d7 a7bd
00000140: f076 d03c 4132 0f3e 88a8 603e d36c 3d3e
00000150: ec6e f9ba 52d8 6d3c 4d95 35bd cb34 b4bd
00000160: 38fd d5bd 2336 7fbd 04f8 4a3d 8ba7 cfbc
00000170: 8eca f0bc 12e9 9f3d dbed 3a3e b76a c83d
00000180: bd8f 673d 48e1 453e 25c5 383d 4330 a2bc
00000190: 86c1 e13d 05a6 2cbd 22a1 fa3d da4d 4f3d
000001a0: 08fc 3d3e 3845 b5bc 24c7 623e 4965 3d3e
000001b0: f355 f93c 0e63 9e3d c5b9 9c3c 52c6 5fbd
000001c0: bdef 3b3e c0b5 1a3d 7620 cc3d 714d 53bc
000001d0: 6b71 e3bd 0831 203e a1e4 503c 4eba 83bd
000001e0: b0d3 323e aa1c 1f3e 888a 133e e3b1 af3d
000001f0: 014d 003e fb5c 2fbd 158a 9abd 31c6 1fbd

fc3.weight f4 [2, 128]
0.015898665 0.25715363 0.23644657 0.20728956 -0.113679916 -0.23856026 0.46912515 0.25628075
-0.016640555 0.23625259 -0.1821906 -0.10289377 0.10014276 0.28201246 0.10931977 0.331953
-0.20100582 -0.067444116 -0.057114184 0.2929186 0.19992447 -0.27324778 -0.19416682 -0.027472168
0.29852802 0.29770973 0.14879288 0.19396752 0.25712273 0.24851157 0.1911793 -0.053176813
0.11469443 0.07489553 -0.042053755 0.12828773 0.2472769 0.2813995 0.15945117 -0.20916782
-0.15232465 0.19530332 0.12201165 0.19473372 0.17988177 -0.36837944 -0.22569971 0.034362562
0.22948116 0.28055733 -0.2771585 -0.18858251 -0.17596166 0.18874791 0.18249404 0.42649603
-0.33902076 -0.25802568 -0.048090756 0.28255185 -0.1382931 -0.22658624 -0.21740425 -0.068907045
0.10465263 -0.23293093 -0.14126083 0.19186136 0.26769605 -0.05848164 0.21577384 -0.05043129
0.21383086 0.34734136 0.3018559 -0.29337922 0.33411822 -0.029859066 0.3011644 -0.19411822
0.33141908 0.31437132 0.19605385 0.09185987 0.058914613 -0.23437944 0.28988397 0.112151355
-0.18643843 -0.05900698 0.43835214 -0.40226766 -0.35801068 -0.20613177 0.31594062 -0.16459504
-0.27380514 0.26280656 -0.23069844 -0.19156109 0.32896093 -0.10385644 0.24646248 0.18057466
0.12550421 -0.2628867 0.16851373 0.28937986 -0.062150437 0.13735868 -0.27036285 0.0734305
0.30104417 -0.3949744 0.18794324 -0.28834006 -0.20417668 0.18217261 0.08073322 -0.13749993
0.2457078 0.36116272 0.1135106 -0.22927836 -0.009497038 0.06319432 -0.055224307 -0.21216524
0.029425472 0.23287287 0.19720082 -0.17233533 -0.26757613 -0.25844184 0.06462241 0.2627206
-0.247973 0.24066801 -0.30518878 -0.25747827 0.2537847 0.19539092 -0.05907836 0.21549797
-0.23201048 -0.2780082 -0.06871141 0.15590627 0.19278333 -0.2227234 0.16355678 0.06645027
0.2231103 0.19078562 0.210199 0.2774097 0.34517872 0.25641072 0.21038182 0.21307904
0.22567435 7.4513596e-06 0.019238645 0.26734564 0.25068867 0.27297184 0.2876149 -0.20325354
-0.2723703 -0.20479086 0.28610745 0.26036215 0.2749128 -0.07380774 -0.16767795 -0.27403715
0.34073085 0.16312748 -0.17083381 -0.2352664 -0.25195897 0.32174328 0.25324807 0.13507925
-0.030424599 -0.3078327 -0.037844803 0.14941007 -0.3820668 -0.019028816 -0.19683044 -0.051858563
-0.14790721 -0.41923502 -0.27493656 0.21451013 0.18362877 -0.041933898 0.33180586 -0.32634217
0.18626536 0.27654058 0.1586466 -0.17471881 0.14220044 -0.047963846 0.22230355 -0.32193923
0.115138054 0.11196797 0.22213213 0.21945213 -0.020493167 -0.18907306 0.046861492 -0.013283706
-0.26904395 -0.33293164 0.14858127 -0.14293364 -0.09076703 -0.1681496 0.121769965 -0.26032814
-0.0041268724 0.268055 -0.17083341 -0.23806486 0.29657248 -0.2988234 0.30163667 -0.1204084
0.24423254 -0.18816325 0.31591424 0.27281263 -0.059412565 0.26319167 -0.19978555 -0.005151209
0.35094938 -0.15948848 0.26715454 -0.28004146 -0.27130187 0.30081266 -0.014560735 0.11271616
0.28844798 0.25556734 -0.23418243 -0.05516501 0.28539723 -0.053958733 0.05370575 -0.112156846
00000000: eb3d 823c a4a9 833e 0d1f 723e b743 543e
00000010: 04d1 e8bd 2449 74be 2c31 f03e 3b37 833e
00000020: c651 88bc 33ec 713e 2c90 3abe f8b9 d2bd
00000030: a617 cd3d f063 903e 0be3 df3d bef5 a93e
00000040: 78d4 4dbe 2420 8abd 90f0 69bd 6df9 953e
00000050: 00b9 4c3e 22e7 8bbe abd3 46be 500d e1bc
00000060: aad8 983e 696d 983e 295d 183e 6c9f 463e
00000070: 97a5 833e d179 7e3e 82c4 433e eecf 59bd
00000080: eae4 ea3d d462 993d 8f40 2cbd dc5d 033e
00000090: 2836 7d3e 9813 903e 2b47 233e 1730 56be
000000a0: fefa 1bbe 98fd 473e 3ee1 f93d 4768 473e
000000b0: ed32 383e 3b9c bcbe d31d 67be c2bf 0c3d
000000c0: 1cfd 6a3e 36a5 8f3e b8e7 8dbe c61b 41be
000000d0: 4b2f 34be 2247 413e b8df 3a3e b05d da3e
000000e0: 2194 adbe f11b 84be d0fa 44bd a3aa 903e
000000f0: b59c 0dbe 3906 68be 389f 5ebe 231f 8dbd
00000100: 1e54 d63d 7285 6ebe aea6 10be 4e77 443e
00000110: 750f 893e 728a 6fbd d1f3 5c3e 0a91 4ebd
00000120: 7af6 5a3e bad6 b13e db8c 9a3e cd35 96be
00000130: 8b11 ab3e 009b f4bc 3832 9a3e edc6 46be
00000140: c3af a93e 47f5 a03e 57c2 483e 0721 bc3d
00000150: 7350 713d 2a01 70be ac6b 943e 9caf e53d
00000160: b7e9 3ebe 4eb1 71bd b16f e03e 07f6 cdbe
00000170: 2d4d b7be 3514 53be f8c2 a13e 9a8b 28be
00000180: 3030 8cbe 958e 863e 363c 6cbe 9728 44be
00000190: 916d a83e afb2 d4bd a960 7c3e 90e8 383e
000001a0: 2d84 003e 1699 86be dd8e 2c3e 9929 943e
000001b0: 7591 7ebd c1a7 0c3e 006d 8abe bb62 963d
000001c0: 7622 9a3e 163a cabe 3174 403e 4fa1 93be
000001d0: b113 51be 758b 3a3e 7557 a53d c8cc 0cbe
000001e0: d39a 7b3e 52ea b83e 3f78 e83d f2c7 6abe
000001f0: 7799 1bbc 066c 813d e232 62bd d841 59be
00000200: b00d f13c 3a76 6e3e 03ef 493e ac78 30be
00000210: bdff 88be 7d52 84be c158 843d 5183 863e
00000220: a2ec 7dbe ad71 763e b441 9cbe 31d4 83be
00000230: 11f0 813e 8f14 483e 27fc 71bd 80ab 5c3e
00000240: 2894 6dbe 1757 8ebe 91b8 8cbd e5a5 1f3e
00000250: fe68 453e 9a11 64be 6e7b 273e 1417 883d
00000260: 0777 643e 4e5d 433e 683e 573e a508 8e3e
00000270: 44bb b03e 4448 833e 556e 573e 6431 5a3e
00000280: 2d17 673e b106 fa36 5d9a 9d3c 87e1 883e
00000290: 445a 803e f7c2 8b3e 4342 933e b221 50be
000002a0: 1f74 8bbe b2b4 51be ad7c 923e 304e 853e
000002b0: 5fc1 8c3e 8328 97bd c5b3 2bbe 994e 8cbe
000002c0: 4674 ae3e e40a 273e 0fef 2ebe ade9 70be
000002d0: c400 81be 89bb a43e bba9 813e 3752 0a3e
000002e0: 023d f9bc 3f9c 9dbe 2703 1bbd f4fe 183e
000002f0: 429e c3be 52e2 9bbc eb8d 49be a569 54bd
00000300: fd74 17be f9a5 d6be 7cc4 8cbe 8ba8 5b3e
00000310: 2e09 3c3e e1c2 2bbd 75e2 a93e 5216 a7be
00000320: 59bc 3e3e ba96 8d3e 4174 223e 7de9 32be
00000330: fe9c 113e bd75 44bd 8ba3 633e 38d5 a4be
00000340: 80cd eb3d 774f e53d 9b76 633e 0fb8 603e
00000350: 49e1 a7bc 5e9c 41be d6f1 3f3d e7a3 59bc
00000360: 21c0 89be 0476 aabe b025 183e 325d 12be
00000370: 11e4 b9bd 692f 2cbe 8862 f93d bb49 85be
00000380: b73a 87bb 813e 893e f4ee 2ebe 46c7 73be
00000390: 59d8 973e 61ff 98be 1f70 9a3e ae98 f6bd
000003a0: 1818 7a3e dead 40be 83bf a13e 19ae 8b3e
000003b0: 975a 73bd 0fc1 863e 9594 4cbe 79cb a8bb
000003c0: a3af b33e f350 23be 7bc8 883e 9861 8fbe
000003d0: 14e8 8abe 1e04 9a3e 2690 6ebc bbd7 e63d
000003e0: 74af 933e b9d9 823e 85cd 6fbe b5f4 61bd
000003f0: 961f 923e d503 5dbd 8ffa 5b3d 7db2 e5bd

fc3.bias f4 [2]
0.12492791 0.12473596
00000000: 34da ff3d 9175 ff3d
