weights/tuning2/20000steps_4agents_32batch_15000cap_0.0001lr/run_3.pth (torch, 72253 bytes, 6 tensors)

fc1.weight f4 [128, 4]
00000000: a9d6 edbe b61a 75be 2763 4abe 3255 3d3e
00000010: afd2 813e de8d b7be 83b6 8bbe e161 813e
00000020: 7199 17bf cf1f f9bd 40ee 12be 29a7 8f3c
00000030: 6d24 a13e 5f48 a93d dcef 2ebf 56d0 ea3e
00000040: dd1a 593e 7907 37be 8770 813f f505 d63e
00000050: 618f 95be e495 2fbe 16ae b13e 9554 663e
00000060: 2b51 4cbb be1d acbc 0618 d03d 571b e63d
00000070: 8ab0 c2bd 5a52 823e 11c8 d93d 4fd1 8d38
00000080: 0d80 a83e 5ab8 183e bbb1 eb3d 1e50 543e
00000090: 9ff3 afbe 1a06 9d3e 5824 53be cd19 9fbe
000000a0: e240 a43e 0b4a f8be a5af 4a3f 1d21 48be
000000b0: 7800 16bf c245 bbbe 0be0 3b3f a7b7 d6bd
000000c0: 9a4b 0b3f aa11 783d 9733 3abf 6fc7 b2be
000000d0: b33a ec3e f285 88bd d44b 06bc 0ebe 6c3e
000000e0: 58fa 7fbe 1dd9 31be 42b9 493f d8de 0c3f
000000f0: a5ef b23e ddbf b5bd 5f11 30be d718 fabe
00000100: b0b1 e1be 3859 173e d5b9 813f e8b9 033f
00000110: 83df fc3d 2006 58be 2da9 2a3f 5b26 3ebd
00000120: daba 023d 2edf d7be 6a05 e03c 01c5 323e
00000130: d3fb 0cbc 0df3 05be a1fd ddbe d917 473e
00000140: 8c6c 26bf c93a ecbe b1c5 a13e 3fb9 f9bd
00000150: 1e76 11be 94ee 21be f83e 3a3f eb13 a33e
00000160: 26f5 ca3d 437c 78be a625 4bbe 6022 9abc
00000170: 1d61 0cbf c45e a23e e183 24bf b54d fe3e
00000180: 171d 733e 7576 9dbe fec1 573f 5884 c93e
00000190: 2dc1 233f dc6b 7bbe b638 03bf 4b59 873e
000001a0: c473 a93d 2f4c 1cbe ae8a eabd 938a dfbe
000001b0: d657 ebbe c511 fd3d 6e78 4d3e d23d e13e
000001c0: 79a3 d93e d46b 363e ed01 96be cab5 263e
000001d0: 50b7 883e 5171 833e 2136 40be 2ac0 d73d
000001e0: c143 9e3e 9f91 40be 79bd 51bf be3e edbe
000001f0: ff58 20be 32a3 0ebe a3a4 f33e 315b 11bf
00000200: 0ae4 72bc ee53 66bb 49af 323e 4986 18bc
00000210: 0e9c f5bd 730b 653e 1bea 123d e86a fabe
00000220: 99e3 51bd c3e4 f63d 31e2 853f 740a fa3e
00000230: 64eb 1b3f 89cb ab3e 1e71 7d3d 5b91 34be
00000240: 4694 803e 77f4 3d3e a657 22bf e72d 58be
00000250: 5ec1 93be 7e80 943c d5cc a7be c089 fabe
00000260: ba36 6d3e a7f2 21be 2a7c 6ebe 6072 d43d
00000270: 9b0a 71be e212 8b3e ef0a 8abe cfeb 26bd
00000280: 5065 223d e0ba da3c 209a da3e 1099 933d
00000290: 750b b13e f37a e43d 93bc e5be 28f5 f63e
000002a0: d940 d53d 76b8 c3bd d12b 06bf d34f dbbe
000002b0: 1c01 f13e a3ad b53e 347b 32bf ce9b babd
000002c0: 6d17 d1bc e132 b4be 4ff3 f63e 2213 b83d
000002d0: 6a86 24bf 5976 c03e 58e2 bd3e b3c1 583d
000002e0: ae6b 343f bb97 3b3e 5287 3abf 7747 09bf
000002f0: 616c 39bf 37af 9c3e 0a96 8d3e f572 cfbe
00000300: d3ca 6f3e 7aae 763e 4712 5a3f 3bb2 153f
00000310: 21e9 52bc 3340 0abe a50a 5d3f a187 823e
00000320: 183d 9b3e 57c4 fb3e 721b ee3c b63d 33be
00000330: ab46 883e 0158 823c c65e a73c 33ce d7be
00000340: 5631 9e3d ef67 a0bc daef 0abf d3b4 d03e
00000350: 35f1 98be f7a8 02be e87c 8dbe ee58 583e
00000360: 8f3e 33bf efed e33e 4217 2e3f 3fc8 f2be
00000370: 99ee e8be 18e1 f93d 1708 493f 20f4 063f
00000380: fc1e b6be eb2e e13b bd3e 803f 8b1d 7b3e
00000390: cda4 4fbe ded8 9abe 69ba 093f dd09 523e
000003a0: 48d5 87be 09fb 423c f6b2 803f 3e6d b23e
000003b0: 8d05 29be feea d8be ac2e 08bf 955c 513e
000003c0: 3192 eabe dcd2 943e 0b94 923e ef74 123f
000003d0: 1b59 193f 8f72 5f3e 1292 173e 2b5d 78be
000003e0: ed76 303d dcf5 383e 7584 303f 8d05 2c3f
000003f0: 7c0a 113f 0352 673e 9c21 87be 6d75 d7be
-0.46452835 -0.2393597 -0.19764386 0.1848953 0.2535605 -0.35850424 -0.27287683 0.25269988
-0.5921851 -0.1216427 -0.14348698 0.017535763 0.31473103 0.08265757 -0.68334746 0.45862073
0.21201654 -0.17873944 1.0112466 0.4180142 -0.29210952 -0.17147022 0.3470313 0.22493203
-0.003117631 -0.021010276 0.10160832 0.112356834 -0.095063284 0.25453454 0.10633863 6.762391e-05
0.32910195 0.14914075 0.11508509 0.20733687 -0.34365556 0.30668718 -0.20619333 -0.31074372
0.32080752 -0.4849399 0.7917426 -0.19543882 -0.58594465 -0.36576658 0.7338874 -0.10484248
0.54412234 0.06056372 -0.7273497 -0.3491778 0.46138534 -0.06666173 -0.00819679 0.23119375
-0.24997842 -0.17367978 0.78798306 0.5502753 0.3494846 -0.08874486 -0.17194127 -0.48847076
-0.44080877 0.14780128 1.0134836 0.51455545 0.12347319 -0.21096087 0.6666439 -0.046423297
0.031916477 -0.4216246 0.027346332 0.17457964 -0.008604961 -0.13080998 -0.43357566 0.19442691
-0.6500938 -0.461386 0.3159614 -0.12193536 -0.14205214 -0.15813667 0.7275233 0.31851134
0.099100396 -0.24266152 -0.1983858 -0.01881522 -0.54835683 0.31712925 -0.6426373 0.4966866
0.23741566 -0.30754438 0.84280384 0.39358783 0.6396664 -0.24552864 -0.5125841 0.26435313
0.08274034 -0.15263437 -0.11452232 -0.4366041 -0.4596545 0.12356905 0.20065472 0.43992478
0.42507532 0.1781457 -0.29298344 0.16280285 0.26702356 0.2567239 -0.18770649 0.10534699
0.30911067 -0.1880555 -0.8192974 -0.4633693 -0.1565895 -0.13929442 0.47586545 -0.5677977
-0.014824877 -0.003514524 0.17449678 -0.00930936 -0.11992656 0.22367649 0.03586779 -0.48909688
-0.051242445 0.120553516 1.0459653 0.488361 0.6090605 0.33553723 0.061875455 -0.17633574
0.25113124 0.18550287 -0.6341499 -0.2111126 -0.28858465 0.018127676 -0.32773462 -0.4893322
0.23165408 -0.15815221 -0.23289552 0.10373378 -0.23539202 0.27162844 -0.26961467 -0.04075223
0.0396474 0.026700437 0.42695713 0.07206929 0.34579054 0.11156263 -0.44870433 0.48233914
0.10412759 -0.095566675 -0.5241061 -0.4283434 0.4707116 0.35484037 -0.69719243 -0.09111749
-0.025523866 -0.35195068 0.48232505 0.08988024 -0.642676 0.37590292 0.3708675 0.0529191
0.70476806 0.183196 -0.7286273 -0.5362467 -0.72431 0.30602428 0.27653533 -0.40517393
0.23417215 0.24089995 0.8518414 0.58475083 -0.012872965 -0.13501053 0.8634437 0.25494102
0.30320048 0.49173233 0.029065821 -0.1750401 0.26616415 0.015911104 0.020430934 -0.42149505
0.07724254 -0.01958081 -0.54272234 0.40762958 -0.29871526 -0.12759767 -0.27634358 0.21127674
-0.7001733 0.44517466 0.6800424 -0.474184 -0.45494536 0.12201136 0.7852797 0.52716255
-0.35570514 0.006872048 1.0019146 0.24522988 -0.2027771 -0.30243582 0.53800064 0.20511575
-0.26529908 0.011900672 1.0054615 0.3484897 -0.16506024 -0.42366785 -0.53196216 0.20445473
-0.4581466 0.29067123 0.28628573 0.57209677 0.5990159 0.21821044 0.14801815 -0.24254291
0.043082166 0.18062538 0.68952113 0.6719597 0.5665662 0.22589879 -0.2639283 -0.42081776

fc1.bias f4 [128]
00000000: 5f72 bdbe 04fa 053f 0a05 e1be 73c3 073f
00000010: 9742 6bbd 174f a4be 78f9 c63e aa9d 203f
00000020: 410a 663e 4f2d 243f 7e46 7fbe d0be f43d
00000030: 83da 58be f471 b73e 55a8 a63d 560b 0c3f
00000040: 37d5 30be f0cf 10be 5b29 a83e 2225 143f
00000050: 3b16 8fbe 542e 3abe f001 573e 2bfe e53e
00000060: 241f 75be e111 283e a659 963e 0523 18be
00000070: 86d1 d43e 04db 103f 0ff7 a6bd 87cc 3b3e
00000080: a18f 083f b5f6 e3be 11b9 86bd 09b8 523e
00000090: 5871 d1bd 586b f83e cdaa dc3e ff77 173f
000000a0: 0e75 abbe 92dc e43e b616 c7bd 41cb 3dbe
000000b0: ab89 cebe bca2 0c3e 5c13 f3be fc4d 0b3f
000000c0: 8448 903c c8c9 80be d6a2 4dbe 88e7 bd3e
000000d0: 3f49 d73e 71b1 a53e 47a3 c63d 415c 50be
000000e0: 1e27 5dbe 0051 9dbe 0a83 f43c 0e08 153f
000000f0: 15df 7ebd 98a9 80be b5ed bbbd 0d9a a3be
00000100: 841f 82be 6aa3 a1be cdbc b3be 33ec 49be
00000110: 4daf e7be f45f 47be cf3e 65bd 5d62 8bbd
00000120: 7f3d 163f b44a a4be 51ab 00be 81ea 213f
00000130: 84f1 c43e 07e9 d3bd e7d4 8abe 93fd a7be
00000140: 04f1 5a3e ec45 6dbe 282a 163f 7204 60be
00000150: cb8f b5be 9575 d53e 07c0 57be d0d3 abbe
00000160: 03b3 7cbe d75a da3e 2a6c 993e 03bd be3e
00000170: 9e72 cdbd b26a ce3e 7f7a 0f3f 1a13 bb3e
00000180: e53d 07be 43ae 433e cc2c d43e 4433 d43e
00000190: 8163 3a3e dfd1 18be 31d0 e0be 65d8 f93e
000001a0: b1d8 833e 3840 10bd 801d ddbd 666b 4fbe
000001b0: 341a 263f f579 ea3e 2c62 a93e 97a7 183f
000001c0: af89 963e dd94 dabd e7a8 523e 5bc9 13be
000001d0: 5c66 71be 5d30 fabd c4f2 1e3f 5f8f b0bd
000001e0: ee73 3abe 03fe a0bd 3bd8 ab3e c34a 7e3e
000001f0: 14af a43e 945c c33e 1f7e f43e 9f66 f43e
-0.3700132 0.5233462 -0.43949157 0.53032607 -0.057436552 -0.3209159 0.38862205 0.62740576
0.22464849 0.64131635 -0.24929234 0.11950457 -0.21177106 0.35829127 0.081375755 0.547048
-0.17268835 -0.14141822 0.32844052 0.5786916 -0.27946648 -0.18181735 0.20996833 0.44920477
-0.2393766 0.1641307 0.2936527 -0.14857109 0.41566104 0.5658419 -0.081525914 0.1833974
0.5334416 -0.4452416 -0.06578267 0.20578016 -0.10226697 0.48519397 0.4309906 0.59167475
-0.33487743 0.44699532 -0.09721129 -0.18534566 -0.40339407 0.13733953 -0.47475708 0.5441587
0.017612703 -0.25153947 -0.20081648 0.37090707 0.4204807 0.3236194 0.096991114 -0.20347692
-0.21596953 -0.3072586 0.02984764 0.58215415 -0.062224466 -0.2512939 -0.091761984 -0.3195347
-0.2541467 -0.31569988 -0.3510498 -0.19719009 -0.4525093 -0.19470197 -0.055968102 -0.06805871
0.58687586 -0.32088244 -0.12565352 0.6324845 0.38465512 -0.10347181 -0.27115557 -0.3281065
0.21381003 -0.23171204 0.58658075 -0.21876696 -0.35461268 0.4169127 -0.21069346 -0.33560038
-0.24677663 0.4264743 0.29965335 0.3725358 -0.10031627 0.40315777 0.5604629 0.3653801
-0.13207205 0.19109444 0.41440427 0.41445363 0.1820202 -0.1492381 -0.43908837 0.48797908
0.2575126 -0.035217494 -0.10796642 -0.20255813 0.6488373 0.4579617 0.33082712 0.5963072
0.2940192 -0.10672925 0.20572244 -0.1443228 -0.23574203 -0.12216256 0.6208918 -0.08621096
-0.18208286 -0.07860949 0.33563408 0.24833207 0.32164824 0.3815657 0.47752473 0.47734544

fc2.weight f4 [128, 128]
00000000: 3632 0d3e 71ea d9bb a419 50be d16f 3abd
00000010: 0c5e e53d 5a34 d83d 2ff8 af3d 599e 433d
00000020: b8ab 06bd ad43 6f3d 2ded c03d 5c59 0abc
00000030: bb32 133c 391b 613d 61ac c0bd e0d0 4b3e
00000040: 1828 113d 75e5 233d 4bd4 4bbc a3b8 e33d
00000050: d80f 13bb 0c1f 95bd d27d 0c3d a88a e6bd
00000060: 19cb be3d ee59 4b3d 6e6f 333e e7b9 60bd
00000070: 5915 093c 19d4 8f3d ddef a03c 28f7 ad3d
00000080: b128 6cbd e9e2 ffbd 6b27 f73b 102c 1e3d
00000090: 8b32 00bd 2da1 893d 0535 e03c 82bf 8c3d
000000a0: e21a 763d 602e 30bd 07a4 573c 0a51 a0bd
000000b0: d82f 893d f8cf 81be 1eb7 f43c c563 2d3d
000000c0: cbc3 593c f9de e93d bce2 3dbd 0f08 f23d
000000d0: 981a 80bd 3bf2 90bd 9bee 6d3d 4da8 b4bb
000000e0: 14fe 033e d8bd 473c 4326 ec3c d250 42bd
000000f0: 05ea 45bc 088c b4bc f111 953b 81fb a9bc
00000100: 98d4 403c 89c6 313e db2f ef3d 0932 3a3d
00000110: 562a f8bd ca19 bd3d f429 b23b 5209 f63d
00000120: 3429 4d3b 29a6 4f3e 669c 493d 4dbb 0d3c
00000130: 8afc de3c 8a74 163a 78a1 68bd 6ff4 8d3d
00000140: dc7b b33c 7a8b 01bd b085 70bd 1318 863d
00000150: 3d0e 51bc 1d12 f5bd b8f9 0b3c 8f64 583d
00000160: 1911 08bb e779 233e 3caf f63c 3fa5 993d
00000170: 6c8a f73d 7d00 18bd 1da5 b3bc b9aa f7bd
00000180: 1737 293d 2ed3 89bc bd95 1abe 34c1 fb3d
00000190: 63f3 2dbd d695 12bc 72bb 03be 4baf 2b3e
000001a0: 7bc5 b43d b21c b7bd e0ac b6bb 73a9 69be
000001b0: 6930 833d a16f 093e af7f c9bd 29cd 843d
000001c0: b175 2e3c da86 04bc a4e3 85bd 7e8c b03b
000001d0: 90cd e73c c25c 233d d885 813d 5b13 96bd
000001e0: 0df1 05bc 25fb 453c 0519 adbc ca69 863c
000001f0: 67ec 0bbd c0cf 7cbc deb5 5c3d 635b 85bd
00000200: 179f 893d eb50 273e 1326 083e a852 493e
00000210: a576 47bd 5b73 0bbe 198b 8e3d c88f a63d
00000220: c62d d33c 7062 103e add9 e1bd c9d5 873d
00000230: 2c49 a7bd 1374 2c3d 0af6 463d 3298 223e
00000240: da7f 93be 9753 23be d92f ff3d 5888 363e
00000250: d235 3ebd dc40 4539 c783 693d b7c8 953d
00000260: b5ad 2dbd 7956 013e c096 243e 1704 07bd
00000270: 6615 443e ffc4 e33d 5fd6 a4be 3097 c93c
00000280: 76bd ad3d f030 58bd 87e9 9abe 470f 5e3c
00000290: 7fcc a0bc 896b e63d 5164 373e 3f4a 323e
000002a0: e754 8f3d 6768 033e 5258 56be ca8a c8bd
000002b0: fb44 34bd f472 693e 027a 20be 358d 163e
000002c0: bd5d 11be 91ff 42be fbff 14bc a613 a83d
000002d0: 0518 4a3d 6014 833d d7fd 693d 15af 8abe
000002e0: 5a3f afbe 2024 a5bd 8f3c 1fbe 0a71 0e3e
000002f0: 50d2 0ebe 4525 2fbe 734b 7abe 1506 12be
00000300: 7a35 83be 1282 74be 543b 3ebe 3a8f 6339
00000310: 0290 d0bd 50f5 23be f7f1 e9bd a962 b4be
00000320: c232 053e 713a e9b8 141c 62be 61a0 993d
00000330: 2446 0b3e 2584 70bd f71d bfbd 7920 91bd
00000340: 387f ee3d 7cc0 a5bd 76e2 943d 1871 c9bd
00000350: 514f 2fbe 2d51 a03d ace7 bebe 6126 4dba
00000360: ac33 86be 7d99 e13d b173 073e dcb7 ec3d
00000370: 9d67 363e 2081 d43d 57f8 8c3d 8e2c 623d
00000380: 6580 a5be 33c4 b03d ba28 563d 72f2 373e
00000390: 2d59 d93d 56cb 85be 7363 62be e407 ec3d
000003a0: 1813 2fbc 5ccd 51be ba8a 62bd 9c89 09be
000003b0: 4fb3 c03d 82ad b33d 7250 873d 0e94 4e3e
000003c0: 5802 633d 45ec 3dbe cce0 5c3e 2ad3 ba3d
000003d0: 9a9b d63d e583 da3d 7c9b 243e f150 00be
000003e0: 1340 82be 4fa6 1bbe b550 463d 7e9b 6d3b
000003f0: 412f e43d 4fbf 893d 5972 4e3e 512b cbbb
0.13788685 -0.006650262 -0.20322281 -0.045516793 0.11199579 0.1055686 0.08592259 0.047758434
-0.032878608 0.05841415 0.09420238 -0.0084441565 0.008984263 0.054957602 -0.09407879 0.19903898
0.035438627 0.04001375 -0.012440751 0.11119201 -0.0022439864 -0.07281312 0.03429968 -0.11256915
0.093160816 0.04964631 0.17522976 -0.05486479 0.008366906 0.07022876 0.019645626 0.08494407
-0.057655994 -0.124944516 0.007542541 0.03861624 -0.0312982 0.06720195 0.027369032 0.06872465
0.06008423 -0.043012977 0.013161666 -0.07827957 0.066985786 -0.2535398 0.029872473 0.042331476
0.01329131 0.11419482 -0.04635881 0.11817943 -0.06255072 -0.07077452 0.05808888 -0.005513227
0.12889892 0.012191258 0.028826838 -0.047440358 -0.01207972 -0.022039428 0.004549258 -0.02074981
0.011769436 0.17360891 0.116790496 0.045457873 -0.1211745 0.092334345 0.00543713 0.120134965
0.0031305077 0.20278229 0.04922142 0.008650613 0.02722003 0.00057394116 -0.056794614 0.06931388
0.021909647 -0.031627156 -0.058721244 0.065475605 -0.012759742 -0.119663455 0.008543424 0.052830275
-0.0020762144 0.15964471 0.030112855 0.07502221 0.12086949 -0.03710984 -0.021929318 -0.1209311
0.041312303 -0.016824331 -0.15096183 0.1229271 -0.04246844 -0.0089468565 -0.12864473 0.16766088
0.08826729 -0.0894102 -0.0055748075 -0.22818546 0.06405718 0.1342149 -0.09838807 0.06484444
0.010648177 -0.008088792 -0.0653756 0.0053878417 0.028296262 0.039883383 0.06324357 -0.073279105
-0.008175147 0.012083803 -0.021130094 0.016407866 -0.034160998 -0.015430391 0.05388438 -0.06511571
0.06719797 0.16339462 0.13295774 0.19660437 -0.048697133 -0.13618223 0.069601245 0.08132893
0.025778662 0.14100051 -0.110278465 0.06632573 -0.08168253 0.042102885 0.048574485 0.1587837
-0.2880848 -0.15949856 0.12460298 0.17825449 -0.046438046 0.00018811546 0.05701044 0.07313674
-0.042401988 0.12630643 0.16073132 -0.032962885 0.19148788 0.111215584 -0.32194802 0.024608225
0.084834024 -0.052781045 -0.30256292 0.013553447 -0.019628761 0.112509795 0.17909361 0.17411135
0.06998616 0.12832795 -0.20932129 -0.09792097 -0.044011097 0.22797757 -0.15671542 0.14702304
-0.14195915 -0.19042803 -0.009094234 0.08206873 0.049339313 0.064003706 0.057126846 -0.27086702
-0.3422802 -0.08063531 -0.15550445 0.13910308 -0.13947415 -0.17104061 -0.24442844 -0.14260133
-0.25626737 -0.23877743 -0.1857732 0.00021701763 -0.10183717 -0.16011548 -0.11423104 -0.35231522
0.13007644 -0.00011121191 -0.22081023 0.07501293 0.13600975 -0.058719773 -0.09331887 -0.07086272
0.11645359 -0.08093354 0.072697565 -0.09836024 -0.171201 0.07827983 -0.37286127 -0.00078258483
-0.26211298 0.11015604 0.13227727 0.11558506 0.17812963 0.10376191 0.068833046 0.055218272
-0.3232452 0.08631172 0.052284934 0.1796358 0.10612712 -0.26131696 -0.2210825 0.115249425
-0.010685705 -0.20488495 -0.05530808 -0.134314 0.094092004 0.08773328 0.066071406 0.20173666
0.055422157 -0.18547161 0.21570128 0.091223076 0.104788974 0.10669688 0.16074938 -0.12530877
-0.2543951 -0.1520016 0.048416812 0.003625601 0.111418255 0.06725942 0.20160808 -0.006200232

fc2.bias f4 [128]
00000000: 7fa2 4fbd 4629 4a3d 51d5 a4bd 6c6f b4bd
00000010: a501 933d 1422 623d 0888 3b3e 454a 903d
00000020: e419 263e 56ab 193c c702 a33d 8adc 393e
00000030: 78a1 1abd 24cf 8d3d c54f 52bd 3b18 a8bd
00000040: 4f00 9bbd efc9 aebd 2dfb af3d 60ea aa3d
00000050: dacb aa3d 3d5f ce3d 6ec4 aebc 4188 f2bd
00000060: 17b4 273d bbd1 5f3e 69c8 973c 220e 2b3c
00000070: 4054 303d 6532 323e eca0 5abc 596c c0bc
00000080: bddc 50bd 1e8f 97bd 4b8d b93d fafc 48bb
00000090: a578 5e3d 558a b83d f676 81bd cccb 8fbd
000000a0: 2126 183c f8f8 573e 0c5c 22bb 767a 193e
000000b0: e8db ac3d 8602 563e 7115 08bd bd59 3b3e
000000c0: 7f9a b4bb cc6b 9fbd 6e29 8cbd 9e03 e03d
000000d0: 1b7f 213d 8ea7 2c3e 126c 473e 045d 9dbd
000000e0: e40c af3c 169a 633e 9cfa 93bd 58f2 123d
000000f0: b4aa 3d3e df19 a03d 265f 123e df8d 3b3d
00000100: fbc9 b23c dfda 883c 2451 1b3e 034f fd3d
00000110: 572d 10bd c5bb 5dbd 6d21 213e 1244 133e
00000120: 5811 1d3e ffa2 013e 5230 3a3d b6f7 003e
00000130: 6737 fe3b c478 0dbd 6eb1 aabd 618b cf3c
00000140: 9b77 f73d 1a35 553e 9257 ec3c 16b0 553e
00000150: d0f7 a6bd adc0 2abc 81b2 41bd 6028 a1bd
00000160: 0da0 353e 1f22 87bd dabf 013c f350 8b3d
00000170: bfe9 383e 1552 e83c 1084 0d3e dfe7 d43d
00000180: 9e2e 133e 3d26 f73d 1836 ca3d e111 403d
00000190: 7928 2b3e 6845 d03d d8c4 25bd 1cce 073e
000001a0: 3ff3 7f3d c861 07bb 462c c03d 6ffd e93b
000001b0: f811 b1bd f6a7 6bbc a58d f23d 2185 88bc
000001c0: 268c 1d3d 8b4a 203e 8aab b53d 9122 f13d
000001d0: ad44 0e3e 6589 bfbc 03b4 da3d 7f4d 913d
000001e0: e830 8cbd 4fd1 83bb e2a8 1d3e 9101 97b9
000001f0: f3cd 563e 357b 9bbd 6f60 443e 8668 313d
-0.050692078 0.049355768 -0.080484994 -0.088103145 0.07178048 0.05520828 0.1831361 0.07045416
0.16220814 0.009379229 0.07959514 0.18150535 -0.037751645 0.069242746 -0.051345605 -0.082077466
-0.07568418 -0.085346095 0.0859283 0.08345485 0.08339663 0.10076759 -0.0213339 -0.118423946
0.04094323 0.2185735 0.01852818 0.010440381 0.043049097 0.17402036 -0.013344031 -0.023489164
-0.050991762 -0.07400344 0.090601526 -0.0030668364 0.054314274 0.0901076 -0.06321518 -0.07021293
0.009286434 0.21091068 -0.0024774102 0.14988121 0.08440381 0.208994 -0.033223573 0.18295951
-0.0055115814 -0.077842325 -0.068438396 0.1093819 0.039427858 0.16860792 0.1947482 -0.07683757
0.021368451 0.22226748 -0.07225534 0.03587565 0.1852215 0.078174345 0.14294109 0.045789596
0.021824827 0.016705928 0.15167671 0.12368586 -0.03519949 -0.05413415 0.15735407 0.14381436
0.15338647 0.12659834 0.045456238 0.12594494 0.0077580693 -0.034539 -0.08334623 0.025335016
0.1208336 0.20821038 0.02885035 0.20867953 -0.08152735 -0.010421914 -0.047289375 -0.07869029
0.17736836 -0.06598305 0.007919276 0.06802549 0.18057917 0.028359452 0.13819909 0.103957884
0.14373252 0.1206784 0.09873599 0.04689205 0.16714658 0.10169488 -0.040470928 0.13262218
0.062487837 -0.0020657647 0.093834445 0.0071408073 -0.086460054 -0.014383307 0.11843423 -0.016665043
0.038463734 0.15653436 0.08870609 0.11774171 0.13893385 -0.023380945 0.10678866 0.07094859
-0.068452656 -0.0040227543 0.15396455 -0.0002880213 0.20977001 -0.07591859 0.19177411 0.043312572

fc3.weight f4 [2, 128]
00000000: 5614 393e 1794 a53e 419f d03c e158 a8be
00000010: 63d9 55be 71db f13c d862 603e a486 30bd
00000020: 47c7 a33e 6fcc 5cbd ae0c 623e 3f10 8b3e
00000030: f771 97bc 174e 7d3e 5f4f 56be e9a5 55be
00000040: 518a b4bd e496 ad3c 158a 9a3e ec7d 8bbe
00000050: fd5b 8fbe b36b 553e 913c 4dbc 5cd5 953e
00000060: d497 71bd a60b 893e b717 6cbe 46d7 77be
00000070: 5a8e 993d dda8 5a3e aeb9 703c f163 d2bd
00000080: 2c92 34be 010b b43c 9863 893e 99f6 e43c
00000090: ffec 6abd b5a4 32be a2c4 1bbe 9458 a3be
000000a0: f62a ef3b ebfa 573e 0002 7dbe cf88 713e
000000b0: 8e9b 6fbe e55e 893e 35fd 1abd e7c1 8c3e
000000c0: d4e3 82be 5c30 78be 0d0a a5bd 10cf 363e
000000d0: b591 8ebe 541a 443e 9df7 8b3e 6f1f 8dbe
000000e0: 0194 49be fe7d a13e 0a5f 2dbc ccc7 17be
000000f0: 1106 5b3e 13c5 653e fd1c 863e d949 413e
00000100: c99c 4a3e 62fa b8bd 11f2 4b3e 88e9 943e
00000110: e998 b53b 8efe 56bd a008 b83e b6c0 893e
00000120: e582 743e d56e cd3e 703c 5a3e edb1 893e
00000130: bdcf 59be 497d 51be 2abd 76bd e5fb ccbe
00000140: bd21 7e3d 5097 a63e 2fab 6ebe 6b80 503e
00000150: 7cc7 a33d 6064 ee3c a20c 2d3d 4eed 1f3c
00000160: bcc5 5d3e fce0 b0bd 4a2b 9e3d ec10 773e
00000170: 88e0 6b3e 78cf 8abe 11a1 e33d bd78 793e
00000180: 9209 b33d 93dc 963e a14c 7d3e 8657 243e
00000190: bf97 4a3e c620 3a3e 28b4 18be c393 4b3e
000001a0: 9c7c 12be 285d 183e 370d 413e e029 7dbe
000001b0: 01d5 19bd 30d4 8dbe 0201 053e 67ba 57be
000001c0: 451c 9cbe 1abe ec3d 7ad5 603e 6c47 8a3e
000001d0: 0fe1 8b3e 21a1 c1ba d1d9 5a3e 0e32 683e
000001e0: e627 1ebc 765e 1cbd 3834 643e bae3 69be
000001f0: efe5 8c3e 9ced 78be 4ff5 8b3e 3453 5fbe
00000200: aa5d 5bbe b528 873e 3743 09bd 8066 46bc
00000210: e3d1 573d 83c6 803d e749 323e 7d0d 103d
00000220: 96c9 693e 91ff 533c 4d4d 6d3e 4d44 823e
00000230: 6319 3c3e ec51 5f3e 2690 67be 7269 82be
00000240: 6017 d5be 9116 09be 238a 9f3e e6d8 a4bd
00000250: e42b 6fbe c7fc 273c 0767 a2bc 1bae 60bd
00000260: 0077 1abd d704 133e 739d 9bbc c13f 77be
00000270: 63bc 483d 0411 a43e 69d4 963a 856b 85be
00000280: 46a8 11be c8b3 a13d 67e0 973e 2f60 3c3d
00000290: 997c 263d 525b 0bbe 5c6f 37bd d8a0 00be
000002a0: ceb3 74bd 3543 6d3e 527c ebbd d282 bc3e
000002b0: ff5a b73e 7a9d 9c3e 2748 963c e201 003e
000002c0: bc3b 8ebd 3900 a3be e8f2 2dbc cfa6 953e
000002d0: 1595 0cbe 5b50 6e3e 12d9 b93e ab75 6dbe
000002e0: 2b8a 1f3e d3c9 9a3e cd33 9b3c 9af9 97be
000002f0: 2ac8 813e 9006 ba3e 101c 413e 7b02 8c3e
00000300: 2b58 373e dd1c 4bbe 24ac a33e e3b2 c93e
00000310: ca53 a9bd 56d9 95bd 4f97 5c3d 8097 a03e
00000320: cef2 a13e b12f a53e b7cc b83e d2cc 883e
00000330: aabe dc3d bc7e 61be 3e10 9fbd fd54 893e
00000340: ab61 86be 9331 883e 1fa7 04bc 0152 463e
00000350: c9c1 81bd d478 4a3d 4849 0b3d 3f91 86bd
00000360: f4e2 233e ef3b 8ebc f5d5 a6bd 99e1 ab3e
00000370: cfac 903e 365a 5cbe e1bb 913e 9fe4 793e
00000380: 8a4a 963e 7e28 0a3e cab4 093e b152 43be
00000390: e1a9 8c3e b008 aa3e 45f4 babe 68a1 b53e
000003a0: 85a8 95be dff4 90be 6887 af3c f41c 9bbc
000003b0: 9766 253d b421 27be eb77 a23e 44e2 173a
000003c0: e022 25be 1a2c 67be d7eb 8f3e 1135 893d
000003d0: dac3 3e3e 7eec a4bd 69a7 513e 9d01 9f3e
000003e0: b7e9 183c 5a20 1a3d 4a7a 933e ac1c 543d
000003f0: b1ee e03d 430b 8abe 24cb 233e 7158 4bbe
0.18074164 0.32339546 0.025466563 -0.3288031 -0.20883708 0.029523583 0.21912706 -0.043097153
0.31987974 -0.0539059 0.2207515 0.27160832 -0.01848696 0.2473682 -0.20928715 -0.20864071
-0.08815444 0.021190114 0.30183473 -0.27244508 -0.2799987 0.20841865 -0.012526647 0.29264343
-0.058982685 0.267667 -0.23055921 -0.24203214 0.074978545 0.21353479 0.014692707 -0.102729686
-0.17633885 0.021977903 0.26833797 0.027949618 -0.057354923 -0.17445643 -0.15211728 -0.31903517
0.0072988225 0.21091811 -0.24707794 0.23587345 -0.23399183 0.2683021 -0.037839133 0.27491686
-0.25564444 -0.24237198 -0.08058558 0.17852426 -0.2784554 0.19150668 0.2733735 -0.27563044
-0.19685365 0.31541437 -0.010581741 -0.1482231 0.21389033 0.22438459 0.2619399 0.18875827
0.19786371 -0.09032132 0.1991656 0.2908442 0.00554191 -0.052488856 0.3594408 0.2690484
0.23878057 0.4012362 0.21312118 0.2689356 -0.21270652 -0.20457949 -0.060238995 -0.4003593
0.062043894 0.32537317 -0.23307489 0.20361488 0.07997033 0.029100597 0.042248376 0.009761168
0.21657461 -0.08636662 0.077231005 0.24127549 0.2303487 -0.2711141 0.11114705 0.24362464
0.0874206 0.2946516 0.24736263 0.16049013 0.19784449 0.18176565 -0.14912474 0.19880585
-0.14305347 0.14879286 0.18852697 -0.24723005 -0.037556652 -0.2770095 0.12988666 -0.210672
-0.30490318 0.115596965 0.21956435 0.27007616 0.27320144 -0.0014772752 0.21372153 0.22675344
-0.009653067 -0.038176022 0.22285545 -0.22840777 0.27519175 -0.24309391 0.27335593 -0.21809083
-0.21422449 0.26398245 -0.033511367 -0.012109399 0.052690398 0.06287863 0.17411004 0.035169113
0.22830805 0.01293935 0.23174019 0.25442734 0.1836906 0.21808594 -0.22613582 -0.25471073
-0.41619396 -0.13387515 0.31160077 -0.080491826 -0.23356587 0.010253138 -0.019824518 -0.05485354
-0.037711143 0.14357315 -0.018995976 -0.24145414 0.049007785 0.32044232 0.0011507395 -0.26058593
-0.14224347 0.07895619 0.29663393 0.045990165 0.04064617 -0.13609055 -0.044783935 -0.12561357
-0.059741788 0.23170169 -0.114983216 0.36818558 0.35811612 0.30588895 0.018344952 0.12500718
-0.06944987 -0.31836107 -0.010616995 0.29228827 -0.13728745 0.2327284 0.36298424 -0.23189418
0.1558005 0.30232105 0.018945599 -0.29682618 0.25348026 0.36333132 0.18858361 0.27345642
0.17904727 -0.19835229 0.3196727 0.39394292 -0.082679346 -0.07316844 0.053855237 0.31365585
0.31630558 0.32262948 0.36093685 0.26718765 0.10778554 -0.22021002 -0.0776677 0.26822653
-0.2624639 0.26600322 -0.008096485 0.1936722 -0.0633579 0.049431637 0.034005433 -0.06570672
0.16004544 -0.017362563 -0.08146278 0.33570555 0.28256842 -0.21518788 0.28463653 0.24403618
0.29353744 0.13492009 0.13447872 -0.19074513 0.27473357 0.33209753 -0.36514488 0.35474706
-0.29230133 -0.28311822 0.021426871 -0.018934704 0.04038104 -0.1632145 0.31732115 0.0005793909
-0.16126585 -0.22575417 0.2810962 0.06699575 0.18629399 -0.0805292 0.20474018 0.31055918
0.009333066 0.03762851 0.28804237 0.051785156 0.10983027 -0.26961717 0.15995461 -0.19857956

fc3.bias f4 [2]
00000000: 8d35 283e 6a4b 173e
0.16426678 0.14774862
