weights/tuning2/40000steps_4agents_64batch_10000cap_0.0003lr/run_8.pth (torch, 72253 bytes, 6 tensors)

fc1.weight f4 [128, 4]
-0.6207867 0.25467616 -0.5487722 0.053058334 0.023072189 0.19908197 0.02011764 0.37492746
-0.43248197 -0.48492453 1.0924199 0.44555235 0.4420764 0.13696678 1.6666443 0.20465858
-0.34515086 -0.12557948 -0.2213184 0.1414717 -0.27542007 0.26616448 0.86119014 -0.122380085
0.08048136 -0.423132 -0.5002035 0.11199455 -0.5733456 -0.1982982 0.4086021 -0.14766052
-0.13769048 0.21293268 0.61707044 -0.4813561 0.3480939 0.1866335 1.3350972 0.26954228
0.05370027 -0.15151863 -1.214091 0.1231367 0.05302203 -0.09861108 -0.2451651 -0.50587124
0.30160844 0.41889718 -0.95597565 0.4905806 -0.07846819 0.05478723 1.5110842 0.29348645
0.06552499 -0.029509531 -1.5128016 -0.1934991 0.123186246 0.16304484 -1.3396537 -0.31151575
0.40466276 -0.0016605697 -0.46619895 -0.2205784 0.038770877 0.2901468 0.1938949 0.14155722
0.46546805 -0.08713939 -0.9232325 -0.61365247 0.1701884 0.02738887 1.0618807 -0.537468
-0.03375087 0.17005403 -0.6363861 -0.0589726 -0.33597407 -0.34278107 0.5775748 -0.45206168
-0.2150056 -0.096757315 0.1045839 0.24206302 0.12148225 -0.096420996 -1.4308935 -0.3945241
-0.32752603 -0.20777424 0.5533923 -0.10538127 0.77405894 0.18829034 -0.24451818 0.32357684
-0.1116748 0.049068805 -0.36228132 0.31381863 0.33285588 0.36977538 -0.2906689 -0.15706894
0.58432835 -0.1214369 0.09094077 -0.6525489 -0.037107654 0.36661458 0.28479984 -0.035371084
0.064085305 -0.05825166 -0.14521673 -0.33705455 0.3976685 -0.05214114 -0.40686882 -0.19604483
-0.26592144 -0.033652954 -1.2319648 -0.27616405 0.29416454 0.43141258 -0.99241894 0.17992805
0.07220665 -0.14950328 -0.26351297 0.4969945 -0.29951575 -0.43673733 0.90529263 0.19861789
-0.34590566 0.17764243 0.7246526 -0.4223571 0.3889845 -0.058508907 1.5424715 0.24513867
0.34109563 -0.09227753 1.2119242 0.062305816 -0.0071620345 0.08336544 0.46215677 -0.08620137
0.34553343 0.47842857 0.7362714 -0.10532783 0.21788841 -0.24647711 0.2940867 -0.7001348
0.02141715 -0.4574956 0.3498442 -0.33599368 0.039899483 -0.32175505 -0.36561587 0.4224331
0.25174746 0.10348187 1.3162876 0.18259455 -0.13660389 0.29957262 0.59280443 -0.1914151
-0.06382167 -0.17409092 0.81668574 -0.0061819726 0.23097688 -0.27488732 -0.9614343 0.5447509
-0.055763807 0.069928735 1.8933659 0.46799245 0.007494573 -0.046633158 -1.6427773 -0.33359048
0.38269415 -0.30872354 0.18421863 -0.7170531 -0.31171328 -0.063219555 -0.37924787 -0.3257619
0.093598865 -0.06335743 -1.2681074 -0.22257265 0.5177798 0.115891084 0.23706366 -0.120727405
0.30615702 0.26306692 -0.15801218 -0.45632815 0.26062125 0.47134688 -0.6462417 -0.35113412
0.27219945 0.18671785 -1.0385605 -0.22322354 0.038831647 0.36301857 0.8219156 0.1272272
0.016364485 -0.24225521 0.7910603 -0.43539894 0.45265198 0.17855507 -1.0515093 -0.16147001
0.20123193 -0.38755396 0.7468131 0.31549242 -0.318933 0.24886301 -0.23121035 0.60036963
0.10403321 0.13180076 0.5318885 -0.0053587067 0.72750854 0.3180396 -0.027025314 0.09797236
00000000: e1eb 1ebf ea64 823e 567c 0cbf b253 593d
00000010: e301 bd3c 25dc 4b3e c0cd a43c 7ef6 bf3e
00000020: 476e ddbe 0748 f8be 6ad4 8b3f 701f e43e
00000030: d757 e23e 0541 0c3e 9a54 d53f 0592 513e
00000040: 9db7 b0be e897 00be 4aa1 62be f5dd 103e
00000050: dc03 8dbe b646 883e f576 5c3f 69a2 fabd
00000060: 69d3 a43d c2a4 d8be 560d 00bf 665d e53d
00000070: c7c6 12bf af0e 4bbe 4b34 d13e 5234 17be
00000080: bcfe 0cbe 060b 5a3e 54f8 1d3f 4f74 f6be
00000090: 5d39 b23e da1c 3f3e 77e4 aa3f 7201 8a3e
000000a0: d0f4 5b3d b327 1bbe 5567 9bbf 182f fc3d
000000b0: a12d 593d 9bf4 c9bd 8f0c 7bbe c780 01bf
000000c0: 6c6c 9a3e b179 d63e d2ba 74bf 612d fb3e
000000d0: eeb3 a0bd 9368 603d 356b c13f db43 963e
000000e0: f731 863d f9bd f1bc 7ca3 c1bf a124 46be
000000f0: 1249 fc3d 3af5 263e c679 abbf fe7e 9fbe
00000100: f52f cf3e 79a7 d9ba a1b1 eebe 4edf 61be
00000110: 36ce 1e3d 1f8e 943e 628c 463e 60f4 103e
00000120: d451 ee3e 2376 b2bd f758 6cbf 5418 1dbf
00000130: de45 2e3e a05e e03c b5eb 873f 8197 09bf
00000140: 5a3e 0abd a522 2e3e 33ea 22bf 418d 71bd
00000150: cb04 acbe 0081 afbe f1db 133f a174 e7be
00000160: 6e2a 5cbe b328 c6bd 1530 d63d 5edf 773e
00000170: b0cb f83d 5f78 c5bd 8527 b7bf 10ff c9be
00000180: 7eb1 a7be c5c2 54be 1eab 0d3f 23d2 d7bd
00000190: ba28 463f 2fcf 403e f962 7abe ddab a53e
000001a0: c2b5 e4bd 5ffc 483d f07c b9be d6ac a03e
000001b0: 166c aa3e 3353 bd3e 8ed2 94be aed6 20be
000001c0: 8b96 153f e9b3 f8bd 283f ba3d 720d 27bf
000001d0: 32fe 17bd e8b4 bb3e 49d1 913e 45e1 10bd
000001e0: 283f 833d 4b99 6ebd b2b3 14be 6a92 acbe
000001f0: 359b cb3e f391 55bd 1c51 d0be fabf 48be
00000200: db26 88be aed7 09bd 06b1 9dbf 6065 8dbe
00000210: bc9c 963e 1ce2 dc3e 2b0f 7ebf 0f3f 383e
00000220: 15e1 933d 6317 19be 2ceb 86be 1076 fe3e
00000230: 215a 99be 099c dfbe 42c1 673f 7d62 4b3e
00000240: 8c1a b1be e6e7 353e d582 393f 313f d8be
00000250: fa28 c73e 09a7 6fbd b56f c53f a205 7b3e
00000260: 16a4 ae3e 00fc bcbd 5520 9b3f 6234 7f3d
00000270: 80af eabb 80bb aa3d d09f ec3e 588a b0bd
00000280: c2e9 b03e 97f4 f43e 487c 3c3f 1eb6 d7bd
00000290: 241e 5f3e 7f64 7cbe 8892 963e 093c 33bf
000002a0: 0573 af3c dd3c eabe c71e b33e 5d07 acbe
000002b0: a46d 233d 14bd a4be 0132 bbbe 2749 d83e
000002c0: 0be5 803e 4dee d33d 1d7c a83f 11fa 3a3e
000002d0: e4e1 0bbe 9561 993e 08c2 173f 5202 44be
000002e0: f0b4 82bd e444 32be 5112 513f 2592 cabb
000002f0: 3485 6c3e 08be 8cbe 8f20 76bf cc74 0b3f
00000300: 9768 64bd cc36 8f3d d059 f23f b59c ef3e
00000310: 0995 f53b 6902 3fbd 8746 d2bf 5fcc aabe
00000320: 7df0 c33e 0311 9ebe cfa3 3c3e cb90 37bf
00000330: e298 9fbe 4179 81bd c72c c2be 44ca a6be
00000340: c3b0 bf3d 8ac1 81bd 5851 a2bf 16ea 63be
00000350: 388d 043f 4e58 ed3d d1c0 723e ee3f f7bd
00000360: 9dc0 9c3e b5b0 863e f2cd 21be d8a3 e9be
00000370: 2670 853e 6154 f13e 1970 25bf dac7 b3be
00000380: ba5d 8b3e f732 3f3e 8def 84bf b694 64be
00000390: ef0d 1f3d 92dd b93e 1069 523f d947 023e
000003a0: d00e 863c c011 78be ee82 4a3f 9cec debe
000003b0: 00c2 e73e 24d7 363e db97 86bf 6558 25be
000003c0: be0f 4e3e 796d c6be 252f 3f3f 3988 a13e
000003d0: 304b a3be f2d5 7e3e 68c2 6cbe d3b1 193f
000003e0: 5d0f d53d c7f6 063e d829 083f 1798 afbb
000003f0: 003e 3a3f 16d6 a23e 3164 ddbc bca5 c83d

fc1.bias f4 [128]
-0.23154843 0.4792528 -0.18295671 0.09265232 0.2637965 -0.13066414 -0.3948758 0.008382913
0.07205807 0.06307704 0.3640277 0.4705682 0.23511311 -0.17868467 -0.25215805 -0.026822919
-0.35045752 -0.395436 -0.42349243 -0.33987218 0.6305 0.022734944 0.30659515 -0.31320995
0.050220273 0.28235015 0.5329604 -0.57230526 -0.28219518 0.0106382845 0.31873578 -0.24832968
-0.35066825 -0.27722463 0.3938879 -0.52678585 0.48124054 -0.5786232 -0.42456973 -0.40838504
0.23479357 -0.13813582 -0.38799948 -0.5558563 0.055714894 0.5841405 0.59487987 0.026606353
-0.37850976 -0.34439296 0.48503342 -0.5009874 -0.25232717 0.20694603 0.3879404 -0.4374156
-0.44557318 -0.2824211 0.5357429 -0.44743183 -0.6944284 0.3801115 0.50714874 -0.4833218
-0.25100017 -0.2836059 -0.011006244 -0.30103981 0.22940882 -0.2998156 0.21542704 -0.061744075
0.10970798 0.6393331 -0.0484638 -0.61415976 0.6537008 0.25017104 -0.3869128 0.3858605
0.25098047 0.697756 -0.14961113 -0.4349625 0.17620388 0.4512032 -0.016281517 0.12666006
0.4137554 -0.2795869 -0.02809867 -0.31339583 0.2789625 0.04416952 -0.30194113 0.538282
-0.22131701 -0.27623674 -0.03832829 0.5320096 0.65247184 -0.13721536 0.45747745 -0.25295642
0.66124904 -0.42700645 0.67533636 0.39078593 -0.07868045 0.5760659 -0.2935954 -0.2562194
-0.34751204 -0.41710478 -0.37296978 0.20348719 0.60914344 -0.10230096 -0.47868624 -0.42787212
-0.5078429 -0.36721224 -0.49972463 0.33256987 -0.49450037 -0.35865086 -0.2728682 -0.49398062
00000000: 081b 6dbe 9f60 f53e 0159 3bbe 80c0 bd3d
00000010: 5610 873e d2cc 05be 292d cabe 7c58 093c
00000020: 2e93 933d 892e 813d d761 ba3e 51ee f03e
00000030: 7ec1 703e 1df9 36be dc1a 81be bdbb dbbc
00000040: 2b6f b3be 9676 cabe 00d4 d8be ba03 aebe
00000050: 7368 213f a23e ba3c 0afa 9c3e 0e5d a0be
00000060: c6b3 4d3d 3390 903e 1870 083f 9982 12bf
00000070: e37b 90be 334c 2e3c 5631 a33e 234a 7ebe
00000080: ca8a b3be 63f0 8dbe adab c93e 70db 06bf
00000090: 2965 f63e a620 14bf 3461 d9be d817 d1be
000000a0: ba6d 703e 7a73 0dbe dea7 c6be 994c 0ebf
000000b0: 4d35 643d 3b8a 153f 0c4a 183f 91f5 d93c
000000c0: 08cc c1be 4654 b0be 4d56 f83e b640 00bf
000000d0: 0731 81be a9e9 533e 20a0 c63e f0f4 dfbe
000000e0: 2b22 e4be 8099 90be 7226 093f c915 e5be
000000f0: 0fc6 31bf f99d c23e 80d4 013f f475 f7be
00000100: 1883 80be cb34 91be 8953 34bc e421 9abe
00000110: 25ea 6a3e 6e81 99be e898 5c3e 5be7 7cbd
00000120: 94ae e03d 56ab 233f fa81 46bd 9339 1dbf
00000130: f058 273f 6b16 803e 6f19 c6be 828f c53e
00000140: 8380 803e 23a0 323f a933 19be 68b3 debe
00000150: ca6e 343e 1b04 e73e d160 85bc 2db3 013e
00000160: bfd7 d33e 0426 8fbe 2f2f e6bc 6b75 a0be
00000170: 2cd4 8e3e 19eb 343d 0798 9abe d9cc 093f
00000180: eda0 62be e76e 8dbe 20fe 1cbd c831 083f
00000190: 6508 273f 2f82 0cbe 7c3a ea3e 8183 81be
000001a0: 9e47 293f 97a0 dabe d8e2 2c3f 1815 c83e
000001b0: 3723 a1bd 0e79 133f 2352 96be 302f 83be
000001c0: 19ed b1be c28e d5be e5f5 bebe f25e 503e
000001d0: d3f0 1b3f 2a83 d1bd 5d16 f5be 0e12 dbbe
000001e0: fe01 02bf 3e03 bcbe e8db ffbe 9946 aa3e
000001f0: 272f fdbe 16a1 b7be 61b5 8bbe 07eb fcbe

fc2.weight f4 [128, 128]
-0.07511966 -0.08568262 -0.080011554 -0.032513257 -0.0222038 -0.068259396 0.0003852303 0.034665048
0.032421954 -0.015204441 -0.010485132 0.008731646 -0.042173356 0.0029180364 0.05574591 -0.032842
0.030487211 0.026924133 -0.03343913 -0.08225499 0.018714536 -0.0049390825 0.08343813 0.018481465
-0.08943922 -0.07719123 0.013901867 -0.03471407 0.058995567 -0.032986533 -0.06740547 0.012976973
-0.0014769174 0.023950212 -0.041406322 -0.034264427 -0.05537301 0.07237476 -0.09369611 0.0042013978
-0.101246566 -0.036539175 0.10097585 -0.015076229 0.038360205 -0.02374086 0.050661657 -0.03464656
-0.004279785 0.07221588 0.078607656 -0.028089873 0.084727824 0.061898228 -0.1051879 -0.03771844
-0.0827111 0.016210422 -0.06334785 0.034322124 -0.031342406 0.034675587 -0.08696171 -0.048370846
0.050021432 -0.06360122 0.08868186 0.033297636 0.07238814 -0.056485184 0.07457571 0.038783398
0.03650931 0.0045692003 -0.003952305 0.0070374613 -0.034048736 -0.0009661255 -0.04110281 0.019911615
-0.0005605733 0.085002705 -0.041575484 -0.037748165 0.0018804776 -0.043978497 0.051275555 -0.0593132
0.08043163 -0.03124188 0.09293389 0.019835334 -0.05228749 0.038764987 0.097541384 0.045577474
0.039807405 0.065014064 -0.088749155 -0.011484289 0.063680634 0.014624914 -0.07268813 -0.009517521
-0.005140405 -0.03204757 -0.028689947 0.0104967505 0.03924441 0.07763057 0.006152843 0.019263063
0.051490285 -0.07104631 0.017723624 0.07170144 0.07685483 0.059663493 -0.07006185 0.010278944
0.043031383 -0.018174523 -0.05489219 0.01163102 0.076021954 0.012583394 -0.07357215 0.055488456
-0.18600276 0.12756163 -0.072796725 -0.010914617 0.11666445 0.0067440933 -0.17354032 0.052332953
0.027379861 0.08730293 0.121011555 -0.00020063063 -0.023359736 0.3450605 -1.0510845 -0.006767183
0.4688115 -0.12096097 -0.43836954 -0.14857702 0.007816494 0.21485159 0.07422469 -0.6431531
0.101959944 0.17211391 0.09006003 0.19029813 0.6207826 -0.04875282 0.08544084 0.29635945
-0.38492817 0.29578027 0.19005656 -0.17575815 0.021848755 -0.6339085 -0.51851225 -0.08803147
0.083004795 0.24974324 0.1235857 -0.3882048 -0.03779742 0.12981746 0.082371086 0.2688232
-0.47148848 -0.86936444 0.039332252 -0.23488498 -0.8088729 0.036814924 -0.09605126 -0.038722545
0.12102563 0.043979272 0.047014996 -0.0448303 -0.13865106 0.21535619 0.11664016 -0.007168428
0.020037089 0.09197485 0.11751764 -0.25649208 0.23711838 -0.14228803 0.010861389 -0.0047114505
0.038766388 0.09597405 -0.17823222 0.06626143 0.066084504 0.004388607 -0.09484291 0.12592562
0.05164183 0.07107192 0.0001943912 -0.5146697 0.13984562 0.033786766 -0.12615024 0.025755258
0.009786735 -0.7194215 0.20372805 -0.0122600235 0.09866116 0.15836425 0.063272946 0.1041503
-0.21308519 -0.9401162 0.26784545 0.043360703 0.14137316 -0.27482215 0.2394922 -0.47970653
0.029335381 -0.17980859 0.026085505 0.21953076 0.13571334 0.17658703 -0.5523163 -1.2400744
-0.33828932 0.066513926 -0.060186148 0.26225683 0.23146616 -0.103068456 -0.11911844 -0.64742875
0.12726979 -0.084285036 -0.21391968 0.023600247 -0.2423008 -0.6286161 -0.1104778 -0.08955532
00000000: 56d8 99bd 5f7a afbd 19dd a3bd 9f2c 05bd
00000010: bee4 b5bc 95cb 8bbd bcf8 c939 f0fc 0d3d
00000020: e2cc 043d 0c1c 79bc d5c9 2bbc 2e0f 0f3c
00000030: f8bd 2cbd 873c 3f3b d355 643d 5585 06bd
00000040: 51c0 f93c 0090 dc3c 78f7 08bd 4e75 a8bd
00000050: 3a4f 993c 07d8 a1bb 9ce1 aa3d 7166 973c
00000060: e92b b7bd 7016 9ebd a8c4 633c 5730 0ebd
00000070: 56a5 713d e31c 07bd e10b 8abd 5f9d 543c
00000080: 2095 c1ba 3c33 c43c ad99 29bd db58 0cbd
00000090: cfce 62bd 3839 943d bfe3 bfbd e1ab 893b
000000a0: 5c5a cfbd 1aaa 15bd 6dcc ce3d 4a02 77bc
000000b0: 971f 1d3d 317c c2bc 9982 4f3d 8de9 0dbd
000000c0: 703d 8cbb ebe5 933d 0dfd a03d bc1c e6bc
000000d0: c885 ad3d ff88 7d3d c16c d7bd a77e 1abd
000000e0: 7064 a9bd b8cb 843c 85bc 81bd 5b95 0c3d
000000f0: e560 00bd fd07 0e3d fb18 b2bd 8220 46bd
00000100: 46e3 4c3d 5b41 82bd d69e b53d 1a63 083d
00000110: 3c40 943d 025d 67bd 26bb 983d 57db 1e3d
00000120: c98a 153d 3bb9 953b 5682 81bb 819a e63b
00000130: b076 0bbd 9643 7dba 6c5b 28bd af1d a33c
00000140: 70f3 12ba e615 ae3d 0e4b 2abd d29d 1abd
00000150: 5c7a f63a cc22 34bd 5106 523d 66f2 72bd
00000160: 57b9 a43d f9ee ffbc 2054 be3d b67d a23c
00000170: 682b 56bd 09c8 1e3d c7c3 c73d 72af 3a3d
00000180: 170d 233d 1826 853d 1ec2 b5bd 9928 3cbc
00000190: fe6a 823d 569d 6f3c 84dd 94bd 60ef 1bbc
000001a0: d870 a8bb 5044 03bd 2e07 ebbc 90fa 2b3c
000001b0: bfbe 203d c7fc 9e3d ca9d c93b 92cd 9d3c
000001c0: 7ae7 523d ba80 91bd 2231 913c 34d8 923d
000001d0: 1166 9d3d b561 743d 967c 8fbd 0469 283c
000001e0: ad41 303d bde2 94bc a2d6 60bd 0990 3e3c
000001f0: 66b1 9b3d 942a 4e3c ffac 96bd dd47 633d
00000200: 8277 3ebe 849f 023e 7316 95bd 39d3 32bc
00000210: c5ed ee3d 8efd dc3b 8eb4 31be 145b 563d
00000220: bb4b e03c e1cb b23d e8d4 f73d 6060 52b9
00000230: eb5c bfbc c5ab b03e f089 86bf 3fbf ddbb
00000240: 1008 f03e 63ba f7bd f971 e0be 9324 18be
00000250: c110 003c 0e02 5c3e 1d03 983d aea5 24bf
00000260: 60d0 d03d a13e 303e 6571 b83d 83dd 423e
00000270: 9ceb 1e3f 09b1 47bd 9bfb ae3d 6dbc 973e
00000280: 4e15 c5be 8370 973e 309e 423e f2f9 33be
00000290: 29fc b23c d447 22bf 38bd 04bf d849 b4bd
000002a0: 6bfe a93d b1bc 7f3e 801a fd3d c8c2 c6be
000002b0: 78d1 1abd deee 043e 2cb2 a83d 32a3 893e
000002c0: f066 f1be ab8e 5ebf db1a 213d b085 70be
000002d0: 4b12 4fbf 3fcb 163d 86b6 c4bd 889b 1ebd
000002e0: 49dc f73d 9c23 343d cc92 403d fa9f 37bd
000002f0: 8bfa 0dbe 5586 5c3e 09e1 ee3d 22e5 eabb
00000300: d224 a43c 4f5d bc3d 17ad f03d ee52 83be
00000310: 29cf 723e f4b3 11be f8f3 313c 8362 9abb
00000320: 81c9 1e3d 0b8e c43d 8282 36be 13b4 873d
00000330: 5057 873d 4ece 8f3b 003d c2bd a5f2 003e
00000340: 6286 533d 288e 913d 7ed5 4b39 65c1 03bf
00000350: b133 0f3e fe63 0a3d 872d 01be b1fc d23c
00000360: 8b58 203c 022c 38bf 169e 503e 44de 48bc
00000370: dd0e ca3d 3d2a 223e 3f95 813d c14c d53d
00000380: 0133 5abe 75ab 70bf 0a23 893e fe9a 313d
00000390: 20c4 103e 7db5 8cbe 713d 753e 189c f5be
000003a0: c150 f03c be1f 38be 45b1 d53c accc 603e
000003b0: 70f8 0a3e 3bd3 343e 9a64 0dbf c2ba 9ebf
000003c0: 4234 adbe 7438 883d c085 76bd 8746 863e
000003d0: 7705 6d3e 8e15 d3bd 5ef4 f3bd e4bd 25bf
000003e0: 0353 023e a29d acbd c30d 5bbe 4e55 c13c
000003f0: b31d 78be fcec 20bf 2f42 e2bd c868 b7bd

fc2.bias f4 [128]
-0.025422167 0.047755327 0.18219808 -0.04210274 0.13169321 0.20795657 0.21360654 -0.1662905
0.02518709 -0.0418476 0.026399203 -0.02750853 -0.058780957 0.18261115 0.2504415 0.00049305765
0.046966713 0.17704062 -0.01969668 -0.06128039 0.20468476 0.19473349 0.20177099 0.098048426
0.16775724 -0.093549654 -0.048767842 -0.041974302 0.021699652 -0.051418595 0.032196276 -0.0638742
0.25267738 -0.2335424 -0.03168485 -0.08611948 0.14714894 -0.013798794 0.19484507 -0.08196517
-0.055472653 0.06742116 -0.0781761 -0.06327975 0.12371126 0.13030879 0.096358225 -0.11495594
0.17792627 0.015401467 -0.18034762 0.21414855 -0.06765987 0.14015822 0.1784621 -0.04763412
0.17891438 0.26259577 0.13844253 -0.05877005 0.0085447505 -0.006775353 0.08879459 -0.03412603
0.25407594 0.11544595 -0.11297129 0.15800263 -0.003993829 -0.028024828 0.17739321 0.17916654
0.17968479 -0.0052934145 0.15133084 0.03330256 0.19286507 -0.11200991 -0.018883703 0.18069573
0.12719381 0.12370157 0.23666434 0.010265242 -0.016298724 0.19582409 0.039493963 0.0066478513
0.22443718 -0.007225466 0.18110876 -0.06136284 0.19437276 -0.0842966 -0.09621131 0.23140313
0.21523508 -0.12637906 0.15922175 0.07583591 -0.086654425 0.19665314 -0.15587796 0.18356551
0.010838474 0.009096074 0.18133533 0.18438856 -0.059680652 0.20061801 0.11070525 0.21143946
0.16202722 0.014982013 0.27265504 0.12979728 0.16076201 -0.015194108 0.25147414 0.24503553
-0.019711072 -0.027843652 0.07835734 0.22406897 0.10854792 0.31146044 0.15858497 0.1556482
00000000: 2642 d0bc 179b 433d 2292 3a3e ec73 2cbd
00000010: 96da 063e 91f2 543e acbb 5a3e 0f48 2abe
00000020: 2855 ce3c 6468 2bbd 2443 d83c 9259 e1bc
00000030: 4dc4 70bd 6bfe 3a3e de39 803e 8a40 013a
00000040: 2b60 403d 234a 353e ef5a a1bc 2501 7bbd
00000050: e298 513e 3768 473e 0e9d 4e3e 9dcd c83d
00000060: 8ec8 2b3e f696 bfbd cac0 47bd 3fed 2bbd
00000070: 78c3 b13c 4e9c 52bd 3ee0 033d 7ad0 82bd
00000080: ee5e 813e bd25 6fbe f9c7 01bd 695f b0bd
00000090: 36ae 163e 5614 62bc 7785 473e 5bdd a7bd
000000a0: 4b37 63bd 1b14 8a3d cb1a a0bd d098 81bd
000000b0: 545c fd3d ab6f 053e 7657 c53d 056e ebbd
000000c0: 4e32 363e 6f56 7c3c 0cad 38be c249 5b3e
000000d0: 4291 8abd a385 0f3e c5be 363e ff1b 43bd
000000e0: 5535 373e f472 863e e1c3 0d3e ddb8 70bd
000000f0: 48ff 0b3c c803 debb f0d9 b53d bcc7 0bbd
00000100: 3e16 823e ed6e ec3d 7e5d e7bd 71cb 213e
00000110: aade 82bb 5394 e5bc 91a6 353e 6f77 373e
00000120: 4aff 373e 6174 adbb 79f6 1a3e 4468 083d
00000130: 6c7e 453e 7465 e5bd ffb1 9abc 4d08 393e
00000140: 183f 023e 4057 fd3d 2358 723e 8c2f 283c
00000150: e784 85bc 1c86 483e 6cc4 213d 38d6 d93b
00000160: dcd2 653e 9ac3 ecbb 9374 393e 9a57 7bbd
00000170: a709 473e b2a3 acbd 6f0a c5bd f1f4 6c3e
00000180: 9666 5c3e 8369 01be 070b 233e dc4f 9b3d
00000190: e077 b1bd 715f 493e 799e 1fbe 99f8 3b3e
000001a0: db93 313c b307 153c f8af 393e 5bd0 3c3e
000001b0: b373 74bd cf6e 4d3e 6fb9 e23d 9683 583e
000001c0: 77ea 253e 1e77 753c 7199 8b3e 94e9 043e
000001d0: cc9e 243e b5f0 78bc 38c1 803e 98ea 7a3e
000001e0: 1d79 a1bc 5f18 e4bc d079 a03d 5672 653e
000001f0: 5f4e de3d be77 9f3e 1964 223e 3e62 1f3e

fc3.weight f4 [2, 128]
-0.067973115 0.1634036 0.32902414 -0.05785387 0.58064127 0.5128708 0.51889074 -1.6161011
0.03968125 0.055475064 0.043872047 -0.24790806 -0.023811484 0.46409538 0.07417682 -0.40580627
-0.8039563 0.4043384 0.023210779 -0.44051957 0.4770842 0.44918904 0.39948392 0.56476396
0.4575657 -1.5369723 0.057774834 0.02673257 -0.038209293 -0.014512519 -0.8694218 -0.5083474
0.4201692 -0.8643432 -1.1765201 -0.9930959 0.44708407 -0.063203245 -1.0605297 -0.07005911
0.054914143 -0.008228644 -1.0677257 -0.86060065 0.38714352 0.41073138 0.5400571 -0.629512
0.67863333 -0.65733767 -1.4531775 -1.3225465 -0.875433 0.14727989 0.43215388 0.13323553
0.5027031 0.12576334 0.68083614 0.06753211 -0.020449735 0.0009877048 0.55887365 0.008490956
0.51662654 0.36003143 -1.2812022 0.33368865 -0.07058099 0.020385878 0.5110694 0.29556093
0.45226485 -0.9364581 0.54919404 -0.7466658 0.53923994 -0.79144037 -1.0040349 0.026480652
0.43466866 0.41253227 0.6726912 -0.05810439 -0.28462428 0.42142922 -0.34287095 -0.90246236
0.4798356 0.06347645 0.20515612 0.008761307 0.41570884 0.057676673 -0.07206178 0.48759717
0.36712304 0.11040673 0.4068814 0.11465646 -0.07868347 0.44752043 -0.2072153 -0.8577005
-0.05354971 0.015721276 0.49326178 0.29390323 -1.0245266 0.44259286 -0.4082201 0.4964146
0.5752406 0.012258122 0.7066632 0.6337602 0.38966736 0.003644233 0.50879675 0.43310332
-1.3976908 0.020268781 0.019704472 0.561139 0.41675034 -0.55337334 0.48716962 0.30558997
-0.039653648 0.4025286 0.25049695 -0.00089895504 0.65042 0.35763344 0.43826562 0.48369667
-0.008974137 0.023580205 -1.2028596 -1.3488687 -0.060715847 0.3920712 0.6494632 0.41104224
0.26846543 0.30899334 -0.08080679 -1.0294354 0.40451515 0.36533654 0.16179761 0.2776206
0.34034023 -0.8119314 -0.055268735 -0.031360153 -0.01637968 0.073941514 -1.2402503 -1.3668617
0.27231693 -1.0108693 -1.1381725 -1.3491266 0.21907152 0.07908098 0.36876336 0.034575645
-0.036688916 -0.02206118 -1.2476763 -0.88981146 0.4446185 0.26980335 0.31322017 -0.9128163
0.70423853 -1.3570344 -0.98430103 -0.7769879 -0.6849993 0.5427752 0.577841 0.28595945
0.35099676 0.6207476 0.52052385 -0.03518849 -0.03910803 0.0064005987 0.6547264 -0.06972938
0.16384606 0.23807377 0.1505972 0.57996887 0.035703197 -0.055921927 0.15973215 0.39429188
0.50251293 -1.0410966 0.5904369 -1.1442739 0.51438767 -1.0524541 -0.9498194 0.6113043
0.38878077 0.268216 0.59747475 -0.03823549 0.27366206 0.1884286 -0.8297599 -0.53665864
0.3573022 0.043972492 0.65058184 -0.06280426 0.26328647 0.018496523 -0.051910218 0.097255334
0.1513362 -1.1162723 -0.29592988 0.44555303 0.07016848 0.471951 -0.45496356 0.34833628
-0.06254377 -0.018762432 0.20727769 0.36048254 -1.2537107 0.62608075 0.12120935 0.22834235
0.6315157 -0.032207668 0.05859744 0.67977226 0.14458907 -0.046025995 0.5274464 0.51920074
-0.9858175 -0.05158127 -0.06583848 0.639979 0.36899245 0.04648712 0.08243818 0.48893407
00000000: 7d35 8bbd 4653 273e da75 a83e 2ef8 6cbd
00000010: e8a4 143f 804b 033f 06d6 043f 67dc cebf
00000020: ce88 223d d239 633d 2db3 333d 9cdb 7dbe
00000030: 4d10 c3bc e99d ed3e 04ea 973d d7c5 cfbe
00000040: 14d0 4dbf 7105 cf3e 8824 be3c c88b e1be
00000050: 6144 f43e 1bfc e53e 2889 cc3e 5f94 103f
00000060: 0d46 ea3e 82bb c4bf 4ea5 6c3d 43fe da3c
00000070: 5981 1cbd ebc5 6dbc 6d92 5ebf 0e23 02bf
00000080: 6b20 d73e 9945 5dbf 3698 96bf 883b 7ebf
00000090: 34e8 e43e b470 81bd 70bf 87bf 277b 8fbd
000000a0: a7ed 603d 6fd1 06bc 3cab 88bf 5350 5cbf
000000b0: ad37 c63e 624b d23e 2f41 0a3f b327 21bf
000000c0: eaba 2d3f 4847 28bf b801 babf 3449 a9bf
000000d0: 611c 60bf 8ad0 163e 4643 dd3e e56e 083e
000000e0: 26b1 003f 1bc8 003e 474b 2e3f 464e 8a3d
000000f0: 3486 a7bc e075 813a 5812 0f3f a71d 0b3c
00000100: a341 043f 0a56 b83e 6ffe a3bf 3dd9 aa3e
00000110: c48c 90bd 4900 a73c 72d5 023f c353 973e
00000120: 428f e73e b8bb 6fbf fb97 0c3f 7d25 3fbf
00000130: a10b 0a3f d69b 4abf 3784 80bf f4ed d83c
00000140: e48c de3e 6e37 d33e 7e35 2c3f defe 6dbd
00000150: 46ba 91be 92c5 d73e c88c afbe c607 67bf
00000160: 03ad f53e f1ff 813d 7214 523e 968b 0f3c
00000170: cad7 d43e 603e 6c3d 2095 93bd 56a6 f93e
00000180: 8df7 bb3e ec1c e23d c252 d03e 02d1 ea3d
00000190: cd24 a1bd 6621 e53e 3f30 54be 4392 5bbf
000001a0: f156 5bbd e8c9 803c cf8c fc3e 7c7a 963e
000001b0: b023 83bf 889b e23e 3a02 d1be 0e2a fe3e
000001c0: f842 133f 4ad6 483c e1e7 343f 1c3e 223f
000001d0: 7b82 c73e 16d4 6e3b 8140 023f b8bf dd3e
000001e0: 88e7 b2bf b70a a63c 466b a13c cea6 0f3f
000001f0: 4d60 d53e e0a9 0dbf 4c6e f93e 4a76 9c3e
00000200: dd6b 22bd 3b18 ce3e 2341 803e daa7 6bba
00000210: ed81 263f bb1b b73e 5a64 e03e 17a7 f73e
00000220: 4208 13bc 462b c13c 4ef7 99bf bba7 acbf
00000230: 2eb1 78bd 8ebd c83e 3843 263f 2174 d23e
00000240: 4d74 893e 6034 9e3e 087e a5bd 8ac4 83bf
00000250: 9c1c cf3e 640d bb3e 46ae 253e 4a24 8e3e
00000260: 1341 ae3e bcda 4fbf 7861 62bd 8173 00bd
00000270: ae2e 86bc a66e 973d 86c0 9ebf 53f5 aebf
00000280: 206d 8b3e 2a64 81bf a3af 91bf 2eb0 acbf
00000290: 4954 603e 35f5 a13d 8dce bc3e 319f 0d3d
000002a0: 1e47 16bd a6b9 b4bc dbb3 9fbf afca 63bf
000002b0: 09a5 e33e aa23 8a3e 655e a03e 54ae 69bf
000002c0: fa48 343f 4eb3 adbf 27fb 7bbf aee8 46bf
000002d0: 1d5c 2fbf 51f3 0a3f 63ed 133f 4769 923e
000002e0: d9b5 b33e 51e9 1e3f 0d41 053f ce21 10bd
000002f0: be2f 20bd 1dbc d13b 269c 273f 47ce 8ebd
00000300: 43c7 273e 9cc9 733e 2736 1a3e d778 143f
00000310: 843d 123d 640e 65bd d390 233e a0e0 c93e
00000320: b0a4 003f a742 85bf df26 173f 9177 92bf
00000330: e9ae 033f d1b6 86bf 5d27 73bf 707e 1c3f
00000340: 460e c73e 9c53 893e 1bf4 183f d19c 1cbd
00000350: 6f1d 8c3e 6df3 403e 256b 54bf 7662 09bf
00000360: 50f0 b63e 801c 343d 888c 263f 859f 80bd
00000370: 7ccd 863e 0586 973c cf9f 54bd ce2d c73d
00000380: e0f7 1a3e 03e2 8ebf 1f84 97be 871f e43e
00000390: 7eb4 8f3d 90a3 f13e fcf0 e8be 2259 b23e
000003a0: f316 80bd acb3 99bc 9a40 543e 2b91 b83e
000003b0: 9879 a0bf d446 203f 9c3c f83d 94d2 693e
000003c0: 03ab 213f 30ec 03bd df03 703d 8e05 2e3f
000003d0: 280f 143e c185 3cbd ba06 073f 57ea 043f
000003e0: 895e 7cbf e246 53bd 53d6 86bd aad5 233f
000003f0: 94ec bc3e 4769 3e3d 59d5 a83d 9155 fa3e

fc3.bias f4 [2]
0.14457664 0.09971271
00000000: e60b 143e 2d36 cc3d
