weights/tuning/20000steps_4agents_64batch_5000cap_0.0003lr_1decay/run_6.pth (torch, 72253 bytes, 6 tensors)

fc1.weight f4 [128, 4]
-0.55210626 -0.19727296 0.43948343 0.28009176 -0.33425876 -0.20186128 0.8929518 -0.19033514
0.11048443 -0.28325605 -0.440039 -0.16564763 -0.4081145 0.060209405 0.6594622 -0.05163674
0.44184157 -0.3619116 -0.716301 0.09841458 -0.36973405 -0.13729979 1.0403458 0.53537285
0.29366758 -0.21304679 -1.5743172 -0.6382354 0.1944328 0.034126025 0.46228653 -0.365185
0.46046478 0.53963906 0.14683029 0.397349 -0.0256335 0.31963924 0.65092033 -0.3624881
0.222698 0.21319708 -0.16331016 0.1724191 -0.45399007 -0.21020734 -0.5955891 0.1181747
-0.1498573 -0.20714918 0.042120058 -0.08200838 -0.6322222 0.047198206 0.843219 -0.3918651
0.018278087 -0.013923858 0.7239689 0.6410156 0.14317532 0.07229111 -0.66131866 -0.2432201
0.45109367 0.26981968 -0.81346494 -0.2674794 0.14621767 -0.13010365 -0.9211177 0.24594806
0.10599482 0.13691899 0.072505035 -0.11256923 -0.111555405 0.43149135 0.7724662 -0.3110695
-0.09659462 -0.45005193 -0.26390353 0.07081952 -0.49493128 -0.08705864 0.8971409 -0.19055344
-0.12265258 0.1111577 0.88680553 -0.5191918 -0.45170367 0.00018562832 0.96461266 0.4204269
-0.36625585 0.018320993 -0.68580866 -0.123944305 -0.13279471 0.010836334 0.36618933 -0.4271072
0.2746532 0.07668556 -0.17508161 -0.13437721 0.18079439 -0.23033461 1.021937 0.40295926
-0.022798324 0.35580477 -0.16357644 0.18399087 -0.7392762 0.047121394 -0.2176805 0.58400184
0.3005995 0.26108772 -0.44522324 0.42610756 -0.24013114 -0.012326235 -0.9929443 -0.47006536
-0.20948279 -0.10733802 0.6813681 0.055787634 0.34434587 -0.15645081 -0.1539676 0.12539184
-0.29262814 0.29999357 0.30131727 -0.26692688 0.10573629 0.035063565 -0.36235434 -0.5047875
-0.5843565 0.2454915 0.3167148 0.26453418 0.11710529 0.19235167 -0.16591467 -0.009515241
-0.3463243 -0.11223202 1.2396091 0.22362769 -0.005386244 -0.023746978 -1.1313621 -0.37491265
-0.002526496 -0.019884758 -0.08952299 -0.118791394 -0.39858434 0.15968302 -0.17013481 -0.34316513
-0.21876247 0.1274681 -0.50909674 0.2836082 -0.071534924 -0.31639203 -0.12795429 0.5558653
0.24167134 -0.00842045 0.079861835 0.218946 -0.5878048 0.02675543 0.88527554 0.6974737
0.03711704 -0.09320253 -0.881449 0.46545035 0.1615728 0.039271615 -0.54393417 0.41695517
0.44235402 0.39742208 0.5954085 0.6226919 0.23097885 0.46801868 1.0065217 0.030647218
-0.26839048 -0.00409327 1.0099484 0.24005032 -0.34776527 -0.39735425 -0.63038784 0.1487745
-0.3435247 0.2949679 0.8964652 0.034465604 0.3857059 -0.33283052 -0.48044252 0.3058869
0.13829085 -0.37441525 0.5442858 0.1847719 -0.27479354 0.19734237 0.6525962 -0.1877911
-0.11368823 -0.47412884 -0.88333267 0.014514395 0.21347448 0.18217257 0.24844559 -0.2862851
0.003091688 0.3718008 0.54379237 0.6336984 -0.2778865 -0.058246195 0.24948858 -0.047569524
0.46199694 0.21963474 -0.26196215 -0.4156733 -0.4981989 -0.10765519 0.31463727 0.49299964
0.2641035 0.085078076 -0.6524211 0.0080176685 -0.51370424 0.022949457 1.1477959 0.38479346
00000000: d656 0dbf ec01 4abe f903 e13e 3068 8f3e
00000010: f723 abbe b9b4 4ebe 7d98 643f 37e7 42be
00000020: a945 e23d f006 91be cb4c e1be 889f 29be
00000030: 62f4 d0be 239e 763d 84d2 283f 0c81 53bd
00000040: 0f39 e23e 7a4c b9be 815f 37bf 958d c93d
00000050: c84d bdbe 5198 0cbe 0d2a 853f 320e 093f
00000060: 995b 963e f028 5abe 3a83 c9bf 6563 23bf
00000070: 6419 473e bbc7 0b3d d2b0 ec3e 87f9 babe
00000080: 0ac2 eb3e c925 0a3f ae5a 163e 5471 cb3e
00000090: 59fd d1bc c1a7 a33e b7a2 263f 0a98 b9be
000000a0: f20a 643e 5650 5a3e c73a 27be a28e 303e
000000b0: 6371 e8be 9840 57be 8778 18bf 9405 f23d
000000c0: 3174 19be ea1e 54be 1586 2c3d 02f4 a7bd
000000d0: 50d9 21bf e852 413d 33dd 573f 8ba2 c8be
000000e0: edbb 953c e520 64bc 0756 393f 9919 243f
000000f0: 8d9c 123e 5d0d 943d 2e4c 29bf b10e 79be
00000100: c0f5 e63e ce25 8a3e 3d3f 50bf 0ff3 88be
00000110: 16ba 153e e439 05be 5fce 6bbf cfd9 7b3e
00000120: d013 d93d 7e34 0c3e 857d 943d b28a e6bd
00000130: 2977 e4bd 6fec dc3e 58c0 453f 8044 9fbe
00000140: 66d3 c5bd 356d e6be 5d1e 87be d309 913d
00000150: a267 fdbe cd4b b2bd 07ab 653f 7120 43be
00000160: 4731 fbbd a6a6 e33d b005 633f c1e9 04bf
00000170: b445 e7be 39a5 4239 dbf0 763f 3242 d73e
00000180: e385 bbbe e815 963c 2891 2fbf 83d6 fdbd
00000190: 56fb 07be e18a 313c 2b7d bb3e cbad dabe
000001a0: 589f 8c3e 520d 9d3d 9848 33be 2e9a 09be
000001b0: 2a22 393e d6dc 6bbe d5ce 823f ad50 ce3e
000001c0: 8dc3 babc 0b2c b63e 9580 27be 1a68 3c3e
000001d0: 3441 3dbf 5d02 413d a3e7 5ebe 2581 153f
000001e0: 2de8 993e 4aad 853e 4df4 e3be c52a da3e
000001f0: f0e4 75be faf3 49bc 9931 7ebf 68ac f0be
00000200: a882 56be 09d4 dbbd 246e 2e3f 9381 643d
00000210: 1a4e b03e a434 20be afa9 1dbe b866 003e
00000220: 5bd3 95be c298 993e 4246 9a3e a4aa 88be
00000230: 458c d83d d09e 0f3d 8286 b9be c139 01bf
00000240: 6398 15bf 2062 7b3e 7128 a23e 0671 873e
00000250: e6d4 ef3d d6f7 443e 89e5 29be d0e5 1bbc
00000260: 6b51 b1be e7d9 e5bd 83ab 9e3f a8fe 643e
00000270: 177f b0bb 0689 c2bc 79d0 90bf 8df4 bfbe
00000280: 9293 25bb 5ce5 a2bc d457 b7bd e748 f3bd
00000290: 3f13 ccbe f283 233e d237 2ebe 57b3 afbe
000002a0: 4503 60be ff86 023e 2a54 02bf 1835 913e
000002b0: e780 92bd 23fe a1be 7306 03be 304d 0e3f
000002c0: b178 773e edf5 09bc 9a8e a33d 6133 603e
000002d0: 607a 16bf 342e db3c 6ba1 623f a38d 323f
000002e0: 0a08 183d f8e0 bebd a4a6 61bf 824f ee3e
000002f0: 5773 253e 46db 203d 453f 0bbf 267b d53e
00000300: 3a7c e23e e87a cb3e b16c 183f bd68 1f3f
00000310: b885 6c3e 25a0 ef3e b4d5 803f e00f fb3c
00000320: 7a6a 89be d620 86bb fd45 813f c0cf 753e
00000330: 4a0e b2be 0472 cbbe 1961 21bf 5858 183e
00000340: 78e2 afbe 0806 973e be7e 653f ce2b 0d3d
00000350: 3e7b c53e c368 aabe 90fc f5be 359d 9c3e
00000360: 1e9c 0d3e 5bb3 bfbe 5056 0b3f d834 3d3e
00000370: bdb1 8cbe 1e14 4a3e 8b10 273f 4f4c 40be
00000380: 60d5 e8bd 04c1 f2be 1722 62bf c9cd 6d3c
00000390: 0e99 5a3e 728b 3a3e 8568 7e3e f693 92be
000003a0: eb9d 4a3b ad5c be3e fa35 0b3f 0f3a 223f
000003b0: 2447 8ebe 9093 6ebd ef79 7f3e 43d8 42bd
000003c0: dd8a ec3e eee7 603e e71f 86be 21d3 d4be
000003d0: ed13 ffbe 537a dcbd 2318 a13e 736a fc3e
000003e0: 9338 873e 6a3d ae3d 1205 27bf 8a5c 033c
000003f0: 1f82 03bf 8000 bc3c faea 923f a603 c53e

fc1.bias f4 [128]
-0.2138643 -0.272713 0.45739335 0.14455411 0.1480715 -0.3422474 -0.2890219 0.20551242
0.21453403 0.03440948 0.423533 0.35825413 0.6333298 0.09034944 -0.186669 0.48235768
-0.12088706 0.18086073 -0.5700186 -0.039569948 0.02750113 -0.27477762 -0.0024483094 -0.4088436
-0.2952198 -0.40906444 0.22753778 0.113634504 0.3661442 -0.40780652 0.042521697 -0.3649875
0.3994987 0.48813418 -0.045203008 0.5785788 0.1990018 -0.68038577 -0.385068 -0.18571247
0.49333602 -0.40930003 0.2141575 0.2937115 0.45696884 -0.30268094 0.2554305 0.4190186
0.005655879 0.12237168 -0.2840863 0.0042101718 0.50349873 -0.085404225 -0.47908303 -0.42262766
0.09401183 0.10209714 -0.54473585 -0.4261401 -0.32339618 -0.32143262 0.38863993 -0.37870172
0.37102035 -0.04862489 0.28980744 0.47241178 0.55253524 -0.47574 -0.14807877 0.46061528
0.26083887 0.1740991 0.47963938 -0.25198612 -0.02511615 -0.27492502 -0.21860904 -0.38923356
-0.40940195 0.25546438 0.23282969 0.5411304 -0.35945556 -0.5531737 0.48788273 0.0123512
-0.37392396 0.043648563 0.5244573 0.18194303 0.31778464 0.19523665 0.35172173 -0.27129334
0.3674052 -0.3223102 0.27032566 0.3938758 0.04748825 -0.056987416 -0.4743227 -0.45160314
-0.19807115 -0.27861696 0.017469903 -0.48721653 0.2289888 0.14802162 -0.18497671 0.1732721
0.26860803 -0.23040068 0.5431104 0.3496518 0.5834143 -0.39512324 0.013591673 0.40389496
-0.3584179 0.29573745 0.217092 -0.4457256 0.41906592 -0.46721017 -0.39354748 0.37534046
00000000: 3eff 5abe 0aa1 8bbe 762f ea3e fe05 143e
00000010: 0ea0 173e 0d3b afbe aefa 93be d971 523e
00000020: cfae 5b3e f4f0 0c3d 51d9 d83e 166d b73e
00000030: e721 223f 2109 b93d 2926 3fbe 96f7 f63e
00000040: a393 f7bd 8e33 393e bdec 11bf 1914 22bd
00000050: 0d4a e13c a7af 8cbe d173 20bb f353 d1be
00000060: 0d27 97be e570 d1be aaff 683e 35b9 e83d
00000070: 4177 bb3e 04cc d0be 3b2b 2e3d a4df babe
00000080: 188b cc3e b9ec f93e ca26 39bd be1d 143f
00000090: 21c7 4b3e c32d 2ebf a227 c5be 692b 3ebe
000000a0: 8a96 fc3e c68f d1be 1b4c 5b3e 5b61 963e
000000b0: d2f7 e93e fff8 9abe c9c7 823e 9b89 d63e
000000c0: f454 b93b 019e fa3d c273 91be 7bf5 893b
000000d0: 4be5 003f 69e8 aebd 5f4a f5be a762 d8be
000000e0: 4689 c03d 4e18 d13d cf73 0bbf 092f dabe
000000f0: 2f94 a5be d192 a4be d0fb c63e 31e5 c1be
00000100: 61f6 bd3e e52a 47bd a461 943e f5df f13e
00000110: f372 0d3f 3194 f3be f6a1 17be c4d5 eb3e
00000120: ac8c 853e 0947 323e 4b93 f53e 5304 81be
00000130: 62c0 cdbc f9c2 8cbe 0cdb 5fbe 9f49 c7be
00000140: 229d d1be 3acc 823e e86a 6e3e 8687 0a3f
00000150: 8f0a b8be cb9c 0dbf c4cb f93e b05c 4a3c
00000160: f672 bfbe d6c8 323d d542 063f 464f 3a3e
00000170: abb4 a23e 1eec 473e df14 b43e f6e6 8abe
00000180: 891c bc3e d805 a5be 2068 8a3e 17aa c93e
00000190: 0a83 423d a36b 69bd 6dda f2be 8738 e7be
000001a0: 2ad3 4abe e2a6 8ebe 0b1d 8f3c 7274 f9be
000001b0: 0a7c 6a3e fb92 173e 896a 3dbe 3e6e 313e
000001c0: fe86 893e 28ee 6bbe 4809 0b3f 9005 b33e
000001d0: a45a 153f 984d cabe 9caf 5e3c 52cb ce3e
000001e0: 8d82 b7be e66a 973e 5e4d 5e3e 2536 e4be
000001f0: cf8f d63e 2c36 efbe 0e7f c9be a02c c03e

fc2.weight f4 [128, 128]
0.17256479 -0.07387 0.060748834 0.025483742 0.08040203 -0.2741973 -0.81169736 -0.059216138
0.07830388 -0.075030886 0.04414486 0.0378296 0.2098539 0.09362318 -0.2971279 0.120531775
-0.13430126 0.1270932 0.46644863 -0.03620036 -0.042706758 -0.058079153 0.049294304 -0.16701716
-0.33318138 0.023606673 0.047590617 -0.19818145 0.03126271 0.27195448 0.040852357 -0.5363984
0.14555351 0.00031666446 0.025318949 -0.007314764 0.006578504 0.2782343 -0.4526755 -0.81101066
0.10324432 -0.29096368 0.15814087 0.14305224 0.011629624 -0.34657794 0.150019 0.14801642
0.036999457 -0.004640204 -0.64723533 0.14338925 0.08438102 0.013150456 -0.13479522 0.12858832
0.026251758 0.0105669275 -0.44357538 0.017641721 -0.08872299 0.2648631 0.11952776 -0.5037626
0.023427203 0.15657824 0.07038565 0.14068228 0.10740205 -0.11559954 0.10061952 0.04813692
0.12800278 0.050819717 0.009090009 -0.55331624 0.12604356 -0.1595758 0.016379323 0.16290095
-0.20474902 0.056464788 0.16857155 0.07923142 -0.27190766 -0.14753093 0.08271378 -0.23221292
0.07017719 0.14529599 0.11945694 0.06181847 0.0039824024 0.10504401 0.14005396 -0.98999774
0.082767464 -0.5936932 0.047084164 0.030883526 -0.33966243 -0.075163305 -0.14197235 0.17059536
-0.057734217 -0.12252159 0.03892122 -0.0419498 0.009166116 0.03451816 0.09661851 0.07946158
0.14381768 -0.10620025 0.16330895 0.10219894 0.03809788 -0.032660697 0.09580781 0.13136767
-0.19914944 0.15604542 0.16890034 -0.15737137 0.08938179 0.04941545 -0.0920537 0.16162775
-0.083452426 -0.032006294 0.04713321 0.0126787815 0.000103449434 0.08331598 -0.0009684924 -0.078492716
0.016805563 0.009705082 0.02242721 -0.031262044 0.0026927893 0.009942083 -0.07578031 0.058192104
-0.06289355 -0.027661292 0.066238396 -0.09299664 -0.07939288 0.018901976 -0.03582003 0.021784114
-0.032684587 0.03416647 -0.076679274 -0.047838725 0.06957005 0.0017781123 -0.083416134 -0.047203343
0.044623777 -0.0025748988 0.076323725 0.0789297 -0.057749897 0.019449737 0.023148797 -0.018083347
0.031145738 0.08518777 -0.04602644 0.0074612563 -0.045889717 0.056958273 0.020866103 -0.04144302
0.056451023 -0.044838145 -0.02548191 -0.00039549547 0.006235236 0.02005133 -0.016087377 -0.05902936
0.044516765 0.029307637 0.005016244 -0.06668361 -0.027651256 -0.045137674 0.005986315 0.066286094
-0.051027697 -0.048897546 -0.07106772 -0.015265502 0.008999756 0.0044967947 -0.0675921 0.0807779
0.022464702 0.06731679 -0.020625627 0.013480932 0.0030222978 -0.07865811 0.0062462264 -0.03731605
-0.0032624083 -0.033256095 0.016889337 -0.082381316 -0.045901712 0.017233867 -0.0811323 0.08417679
-0.0548855 -0.020009205 0.048055515 0.017271971 -0.05536604 0.072076336 -0.008602157 0.076568514
-0.042261288 -0.044260796 0.016102128 0.08275325 0.086679555 0.06611003 -0.08042354 0.0663706
0.016166436 -0.020506179 0.035151552 -0.06541968 0.055397734 0.05253066 0.044768382 0.05869492
-0.08546796 0.050622072 -0.084483616 -0.0612871 -0.063622184 0.045798652 0.057231452 0.039278682
-0.04758692 0.0045322296 -0.007004406 -0.049179725 -0.008961726 0.07783507 -0.03461531 0.042023014
00000000: d3b4 303e 2849 97bd c5d3 783d 48c3 d03c
00000010: d2a9 a43d 9763 8cbe 66cb 4fbf 9f8c 72bd
00000020: c95d a03d cba9 99bd 3ed1 343d 36f3 1a3d
00000030: f1e3 563e 83bd bf3d 2621 98be 5dd9 f63d
00000040: 4586 09be b824 023e 5bd2 ee3e d446 14bd
00000050: 48ed 2ebd 68e4 6dbd d3e8 493d 8c06 2bbe
00000060: c096 aabe c862 c13c 61ee 423d 14f0 4abe
00000070: 540d 003d 9e3d 8b3e cd54 273d 6851 09bf
00000080: fb0b 153e fc05 a639 af69 cf3c b0b0 efbb
00000090: 7e90 d73b ba74 8e3e 15c5 e7be 659e 4fbf
000000a0: c271 d33d 31f9 94be aeef 213e 497c 123e
000000b0: 2e8a 3e3c aa72 b1be 959e 193e 9e91 173e
000000c0: be8c 173d da0c 98bb 37b1 25bf a2d4 123e
000000d0: f5cf ac3d 0375 573c c207 0abe a8ac 033e
000000e0: ed0d d73c e820 2d3c 501c e3be 5f85 903c
000000f0: 66b4 b5bd 239c 873e f8ca f43d 96f6 00bf
00000100: 68ea bf3c 0c56 203e 5a26 903d 040f 103e
00000110: 9bf5 db3d 74bf ecbd 9b11 ce3d 382b 453d
00000120: 2913 033e 5628 503d 43ee 143c 22a6 0dbf
00000130: 9011 013e d767 23be ee2d 863c 82cf 263e
00000140: baa9 51be 9f47 673d 059e 2c3e 1544 a23d
00000150: 7b37 8bbe 5912 17be d865 a93d 39c9 6dbe
00000160: 0fb9 8f3d 79c8 143e d7a5 f43d 5d35 7d3d
00000170: d07e 823b 5021 d73d 4e6a 0f3e 7e70 7dbf
00000180: fd81 a93d 47fc 17bf 53db 403d 73ff fc3c
00000190: 3ce8 adbe 38ef 99bd 3361 11be 8db0 2e3e
000001a0: b77a 6cbd 99ec fabd db6b 1f3d 8ed3 2bbd
000001b0: 7a2d 163c ea62 0d3d eddf c53d c1bc a23d
000001c0: f144 133e 847f d9bd 763a 273e ae4d d13d
000001d0: 860c 1c3d 39c7 05bd e336 c43d 3f85 063e
000001e0: d5ed 4bbe 5fca 1f3e 36f4 2c3e f625 21be
000001f0: cd0d b73d db67 4a3d a686 bcbd bf81 253e
00000200: 1be9 aabd 0819 03bd c10e 413d aaba 4f3c
00000210: fef2 d838 92a1 aa3d 6de2 7dba cac0 a0bd
00000220: d2ab 893c 1002 1f3c 45b9 b73c a10c 00bd
00000230: 8279 303b 1ee4 223c b532 9bbd d85a 6e3d
00000240: 55ce 80bd ef99 e2bc ffa7 873d 0675 bebd
00000250: bc98 a2bd 51d8 9a3c 06b8 12bd 9974 b23c
00000260: 46e0 05bd 24f2 0b3d 060a 9dbd 8af2 43bd
00000270: be7a 8e3d 8c0f e93a 14d6 aabd 4b58 41bd
00000280: 6cc7 363d a2bf 28bb 9d4f 9c3d e5a5 a13d
00000290: 288b 6cbd 0e55 9f3c 8ca2 bd3c 8723 94bc
000002a0: 5925 ff3c ed76 ae3d 3886 3cbd 8e7d f43b
000002b0: dbf6 3bbd 144d 693d 64ef aa3c 28c0 29bd
000002c0: 3039 673d 34a8 37bd 70bf d0bc 815a cfb9
000002d0: f350 cc3b b042 a43c adc9 83bc c5c8 71bd
000002e0: 3657 363d 9216 f03c 4e5f a43b 6b91 88bd
000002f0: e384 e2bc 48e2 38bd da28 c43b 01c1 873d
00000300: 6b02 51bd cb48 48bd f48b 91bd 281c 7abc
00000310: b673 133c d959 933b ba6d 8abd e26e a53d
00000320: e507 b83c 63dd 893d 13f7 a8bc 21df 5c3c
00000330: be11 463b 8117 a1bd 25ad cc3b b7d8 18bd
00000340: 21ce 55bb 8b37 08bd 825b 8a3c 89b7 a8bd
00000350: 6f03 3cbd 0a2e 8d3c b128 a6bd e264 ac3d
00000360: 9ecf 60bd 58ea a3bc dcd5 443d f37d 8d3c
00000370: 80c7 62bd c29c 933d 10f0 0cbc f4cf 9c3d
00000380: 2c1a 2dbd cf4a 35bd 9ce8 833c 897a a93d
00000390: 0d85 b13d b264 873d 19b5 a4bd 4fed 873d
000003a0: 796f 843c 93fc a7bc 13fb 0f3d c1fa 85bd
000003b0: bce8 623d 642a 573d 0d5f 373d 166a 703d
000003c0: d309 afbd 1759 4f3d bf05 adbd 2f08 7bbd
000003d0: 594c 82bd 5e97 3b3d 876b 6a3d afe2 203d
000003e0: 81ea 42bd 1983 943b 3785 e5bb ae70 49bd
000003f0: 34d4 12bc fe67 9f3d c9c8 0dbd 5320 2c3d

fc2.bias f4 [128]
0.19165343 -0.08542561 -0.06291122 0.04142765 0.17772248 0.042995896 0.09587773 -0.026715469
0.083321564 0.13141407 0.09221339 0.09350517 0.18383037 0.040979996 -0.025948826 0.14499702
0.09108035 0.01352034 0.10941243 0.08292242 0.12182563 0.105996825 0.028223183 -0.19739723
-0.012244629 0.0026946603 0.13533 -0.01163321 0.043579873 0.00072338234 0.123418376 0.07023348
0.17611271 -0.083274834 0.16539016 -0.0060685594 0.21528988 0.059097644 0.08823829 -0.08532726
-0.061403595 -0.0027315365 -0.02071466 0.13620977 0.14400358 0.08201451 0.11828856 0.12819289
0.005849144 -0.013546162 -0.058370717 0.16966225 0.16559352 0.19584544 0.14530714 0.10675727
0.016163059 0.056690548 0.060409334 0.14300542 0.05137994 0.09079323 -0.07832465 -0.069451414
0.021429941 -0.06554571 0.1941932 -0.122921504 -0.045829624 -0.033530302 0.045010827 0.18827824
-0.005066968 0.020071343 0.12593743 0.11479928 0.028263988 0.20652854 0.1603732 -0.035143062
0.14670694 0.14271587 0.017000582 -0.12753528 -0.075077236 0.20186217 0.10366007 0.08752798
0.018495955 0.09728753 -0.08151693 0.081403784 -0.075183146 0.08085662 -0.019723484 0.21044946
0.115956426 0.0764799 0.0028771441 -0.095992886 0.025790002 0.039982278 0.045651738 0.12337935
0.04264026 0.09074206 0.085888244 0.095516995 0.051725674 0.11535968 0.20709133 0.119230196
0.12871987 0.0001643616 0.07199502 0.011317836 0.1949845 0.07276489 0.102663934 -0.065555446
0.027892126 0.05602076 0.026121682 0.06976686 -0.08333427 0.051772136 0.05531365 -0.10815047
00000000: cc40 443e 9ff3 aebd 99d7 80bd 0ab0 293d
00000010: e2fc 353e 771c 303d 8b5b c43d 66da dabc
00000020: 7fa4 aa3d 6991 063e 60da bc3d a37f bf3d
00000030: 073e 3c3e a4da 273d a292 d4bc 197a 143e
00000040: 5688 ba3d 6b84 5d3c a013 e03d 3bd3 a93d
00000050: b77f f93d dd14 d93d 4e34 e73c 8022 4abe
00000060: b29d 48bc e698 303b f393 0a3e 3899 3ebc
00000070: cf80 323d 5ea1 3d3a c6c2 fc3d 92d6 8f3d
00000080: e456 343e ff8b aabd 0a5c 293e c4da c6bb
00000090: f374 5c3e 5f10 723d 47b6 b43d 0fc0 aebd
000000a0: 5682 7bbd 9403 33bb cab1 a9bc 937a 0b3e
000000b0: ad75 133e 39f7 a73d 4641 f23d ff44 033e
000000c0: 2daa bf3b b9f0 5dbc 2216 6fbd f1bb 2d3e
000000d0: 5991 293e b58b 483e 65cb 143e 8ea3 da3d
000000e0: 6468 843c 5934 683d c76f 773d 0370 123e
000000f0: c673 523d cdf1 b93d ad68 a0bd 8b3c 8ebd
00000100: d88d af3c d43c 86bd 95da 463e 45be fbbd
00000110: d8b7 3bbd 1257 09bd 465d 383d 03cc 403e
00000120: cf08 a6bb a86c a43c bef5 003e e31b eb3d
00000130: e189 e73c 387c 533e df38 243e 2cf2 0fbd
00000140: 583a 163e 1c24 123e ce44 8b3c 9c98 02be
00000150: 18c2 99bd f5b4 4e3e bb4b d43d df41 b33d
00000160: d484 973c af3e c73d 59f2 a6bd 07b7 a63d
00000170: 9ff9 99bd 2898 a53d 2593 a1bc 1080 573e
00000180: 907a ed3d 7ea1 9c3d 788e 3c3b eb97 c4bd
00000190: 8e45 d33c 75c4 233d 51fd 3a3d 50ae fc3d
000001a0: 8ea7 2e3d f9d6 b93d 2de6 af3d 6a9e c33d
000001b0: 4dde 533d b241 ec3d c00f 543e f62e f43d
000001c0: 24cf 033e 7b58 2c39 2072 933d 726e 393c
000001d0: 04aa 473e c205 953d 7841 d23d ef41 86bd
000001e0: 077e e43c 0676 653d 23fd d53c ede1 8e3d
000001f0: 28ab aabd 050f 543d 9190 623d fe7d ddbd

fc3.weight f4 [2, 128]
0.2423653 -0.031773955 -0.72020936 -0.36023748 0.3915468 0.29766014 0.3425008 -0.3959901
0.29523444 0.26551718 0.26582354 0.2344228 0.3018889 -0.16016084 -0.061247002 0.24585922
0.4116281 0.0018843851 0.27850044 0.3568801 0.3502619 0.4603227 -0.06593391 0.18540157
0.07825797 -0.022688802 0.2926064 -0.10154873 0.03078746 0.26881677 0.27464733 -0.81103885
0.4103415 -0.052232042 0.2679367 0.08095224 0.3136804 0.33336112 -0.06412914 -0.5461198
0.0003619466 0.20971194 0.009997737 0.4151821 0.296746 0.31194064 0.40483674 0.25555092
-0.53110737 -0.13196136 -0.8205415 0.32238346 0.22564137 0.1891084 0.23451631 0.34105667
-0.5217003 -0.07136839 -0.0028563007 -0.5556976 -0.6813125 0.37860548 0.066723585 0.14443399
0.17555389 -0.06458065 0.4425729 -0.62121123 -0.9417936 -0.45319444 -0.5473012 0.14754054
-0.4915692 -0.07262182 0.29955286 0.46951863 -0.070930585 0.27429602 0.2114987 -0.07947151
0.39331695 0.3649195 0.051716227 0.19877774 -0.048012976 0.4335759 0.38331193 0.27586225
-0.041525383 0.24802722 0.013292075 0.33844897 -0.074058585 0.13169038 -0.58323634 0.41797218
0.149581 0.3895052 -0.05805564 -0.008576903 0.010517533 0.14245749 -0.63456774 0.32399088
0.3651751 0.30798054 0.23197088 0.38345683 -0.3682302 0.42016864 0.25117943 0.3727102
0.31314674 -0.8032892 0.33537665 -0.22905913 0.31123477 0.15151693 0.359578 -0.8385791
-0.7593615 0.0490563 -0.020532472 -0.3462334 -0.27924466 0.051320326 -0.014281818 -0.78440166
0.3071563 0.0027496498 -0.6794375 -0.74220484 0.5258756 0.24435437 0.24673356 -0.90506834
0.27735925 0.35986394 0.12185015 0.29314625 0.27252996 -0.78144944 -0.014920316 0.39064422
0.22131674 -0.01633001 0.30934843 0.46089008 0.32048863 0.41895774 -0.03659536 0.4015701
-0.05627266 -0.05116048 0.3461052 -1.0279636 -0.011385497 -0.13331586 0.15333071 -0.7162626
0.3331733 0.03247526 0.15387394 -0.47536203 0.21120533 0.3394402 0.26867563 -0.89406675
0.032952987 -0.2447364 -0.080705926 0.3170262 0.37657586 0.2324091 0.10530421 0.27917105
-0.16971666 -0.6177694 -0.383019 0.48259178 0.1976974 0.27822688 0.39580172 0.24645723
-0.68380815 0.16207238 -0.026525497 0.04098252 -0.6744378 0.18320659 -0.08220766 -0.399086
0.28836176 0.0050216927 0.4665995 0.21173017 -0.49414873 -0.7024864 -0.0048057223 0.2758291
-0.82586735 0.009876848 0.19112837 0.35476777 0.06297034 0.30430242 0.26556146 -0.017807906
0.20159025 0.36100313 0.056385383 0.52385104 -0.06948144 0.44399038 0.2876694 0.35236716
-0.010680145 0.45984268 -0.009422358 0.18528551 -0.03206826 0.35636306 -0.6907897 0.12888253
0.28581846 0.35454682 0.030523043 -0.0052316147 0.047293577 0.42769003 -0.7623815 0.13513605
0.3176053 0.33536223 0.43864465 0.39806446 -0.16705869 0.45433363 0.44307923 0.19186558
0.23981065 -0.39089054 0.42767355 0.47673294 0.39650288 -0.5508376 0.3325968 -0.3038163
-0.83259845 -0.07163583 -0.027986478 -0.3214621 -0.17921747 -0.07181765 0.08278024 -0.44646966
00000000: 9c2e 783e 6825 02bd a45f 38bf 0c71 b8be
00000010: d278 c83e e966 983e 445c af3e 37bf cabe
00000020: f828 973e def1 873e 061a 883e 880c 703e
00000030: 2f91 9a3e 3401 24be 23de 7abd 85c2 7b3e
00000040: ebc0 d23e 79fd f63a 9c97 8e3e fdb8 b63e
00000050: 8755 b33e 6baf eb3e 5c08 87bd e9d9 3d3e
00000060: b745 a03d dedd b9bc 82d0 953e c8f8 cfbd
00000070: fc35 fc3c 5aa2 893e 939e 8c3e 3ea0 4fbf
00000080: 4818 d23e 44f1 55bd 002f 893e 4aca a53d
00000090: b89a a03e 4fae aa3e 2356 83bd 82ce 0bbf
000000a0: a6c3 bd39 babe 563e 8ccd 233c c092 d43e
000000b0: 17ef 973e afb6 9f3e c346 cf3e 92d7 823e
000000c0: a7f6 07bf e120 07be 020f 52bf 720f a53e
000000d0: 880e 673e a2a5 413e 0b25 703e fb9e ae3e
000000e0: 278e 05bf 9729 92bd c630 3bbb 3342 0ebf
000000f0: 7f6a 2ebf 94d8 c13e 60a6 883d 81e6 133e
00000100: 66c4 333e dc42 84bd ea98 e23e b307 1fbf
00000110: 6319 71bf 1a09 e8be ee1b 0cbf de14 173e
00000120: f5ae fbbe c0ba 94bd fe5e 993e bf64 f03e
00000130: 0e44 91bd 8770 8c3e 1d93 583e f6c1 a2bd
00000140: d760 c93e bbd6 ba3e 65d4 533d 648c 4b3e
00000150: 41a9 44bd a9fd dd3e 7641 c43e d13d 8d3e
00000160: 8516 2abd d9fa 7d3e 01c7 593c 2f49 ad3e
00000170: 07ac 97bd d8d9 063e fa4e 15bf 7300 d63e
00000180: c32b 193e 3a6d c73e c0cb 6dbd 2386 0cbc
00000190: bb51 2c3c 60e0 113e 0873 22bf 22e2 a53e
000001a0: 3bf8 ba3e a0af 9d3e c689 6d3e 7454 c43e
000001b0: ab88 bcbe 5820 d73e 979a 803e dfd3 be3e
000001c0: c554 a03e 5ca4 4dbf 7db6 ab3e 7a8e 6abe
000001d0: 2a5a 9f3e 4127 1b3e 9c1a b83e 1fad 56bf
000001e0: 8465 42bf 42ef 483d b733 a8bc 8145 b1be
000001f0: 28f9 8ebe 4335 523d 49fe 69bc 8cce 48bf
00000200: 9743 9d3e 7833 343b 9eef 2dbf 2301 3ebf
00000210: c99f 063f 0838 7a3e b9a7 7c3e 8fb2 67bf
00000220: 0802 8e3e 1640 b83e 928c f93d 4417 963e
00000230: 0c89 8b3e 120d 48bf 5774 74bc 8502 c83e
00000240: dba0 623e 83c6 85bc eb62 9e3e c9f9 eb3e
00000250: 1617 a43e a181 d63e 04e5 15bd 999a cd3e
00000260: 297e 66bd a78d 51bd b334 b13e 5094 83bf
00000270: 3c8a 3abc f483 08be ba02 1d3e fc5c 37bf
00000280: b195 aa3e c704 053d 2191 1d3e a762 f3be
00000290: 3646 583e 1bcb ad3e da8f 893e 8fe1 64bf
000002a0: b6f9 063d 2e9c 7abe 2649 a5bd 4251 a23e
000002b0: 8dce c03e a7fc 6d3e bca9 d73d 82ef 8e3e
000002c0: 34ca 2dbe 2326 1ebf 111b c4be 4516 f73e
000002d0: 3071 4a3e c173 8e3e 86a6 ca3e 495f 7c3e
000002e0: 0d0e 2fbf 4df6 253e 004c d9bc 49dd 273d
000002f0: f5a7 2cbf 829a 3b3e 7d5c a8bd 0055 ccbe
00000300: 27a4 933e 038d a43b 21e6 ee3e cbcf 583e
00000310: 1001 fdbe 26d6 33bf 5279 9dbb 7939 8d3e
00000320: 0b6c 53bf 81d2 213c 28b7 433e 1fa4 b53e
00000330: 98f6 803d 87cd 9b3e acf7 873e e3e1 91bc
00000340: ad6d 4e3e 67d5 b83e 5cf4 663d 1a1b 063f
00000350: 494c 8ebd b552 e33e 6749 933e 7869 b43e
00000360: c6fb 2ebc 8070 eb3e 3c60 1abc 7cbb 3d3e
00000370: 025a 03bd 3875 b63e 98d7 30bf c8f9 033e
00000380: cc56 923e 2987 b53e 760b fa3c f76d abbb
00000390: e9b6 413d 30fa da3e 6f2b 43bf 1b61 0a3e
000003a0: 299d a23e 99b4 ab3e 0896 e03e 1bcf cb3e
000003b0: 6f11 2bbe 6b9e e83e 48db e23e 6978 443e
000003c0: ec90 753e ce22 c8be 07f8 da3e 5716 f43e
000003d0: 6d02 cb3e b103 0dbf 214a aa3e cf8d 9bbe
000003e0: 2c25 55bf ceb5 92bd e643 e5bc ae96 a4be
000003f0: c984 37be 2215 93bd b088 a93d ac97 e4be

fc3.bias f4 [2]
0.12363903 0.16727032
00000000: 7636 fd3d e948 2b3e
