weights/tuning2/20000steps_4agents_64batch_10000cap_0.0003lr/run_2.pth (torch, 72253 bytes, 6 tensors)

fc1.weight f4 [128, 4]
0.11342804 -0.03584888 0.66486883 -0.3666032 -0.045684718 0.33929002 -0.39092168 0.10665886
-0.454767 0.40940526 0.78477335 -0.36474034 0.26223662 -0.24021275 0.15052643 0.09308724
-0.11306012 0.14147416 -0.19272445 0.49546373 -0.28990352 0.09666026 0.36174104 -0.037581302
0.6506924 -0.061987817 -1.1261446 -0.07110319 -0.35260215 0.1617292 0.2782304 0.5521397
0.652913 0.30901313 0.2067225 0.09492386 -0.049140226 0.07150718 0.5249525 0.35986403
0.41122365 -0.1586468 -1.0194336 -0.5116151 0.13025858 -0.09608254 0.7261312 0.1611896
-0.09548532 0.24751121 -1.4264112 -0.4376259 0.7873458 0.14592871 -1.5136966 -0.39355373
-0.19013911 0.49344614 -0.69965357 -0.11793437 -0.006485417 0.06776287 1.6689161 0.46812347
0.3416824 0.3505898 -0.018430319 -0.12875943 -0.49336672 0.04071669 1.2370558 0.25244838
-0.058481187 0.45811784 0.8277911 0.3239662 0.27066267 0.43110162 0.8014758 0.07812262
0.29850268 -0.3337488 0.8659086 0.55238366 -0.06141586 -0.074798994 -0.9428967 -0.35139227
-0.18930653 0.25375897 0.6465211 0.6052436 0.11091681 -0.21148486 -0.34697148 0.40928304
-0.2545697 0.042251296 -0.84036946 -0.09427428 -0.08586186 0.22107857 0.5303442 -0.27574512
0.44038245 0.12512763 -0.93314314 0.33981556 -0.16454655 -0.034333106 0.7086857 -0.1257195
-0.20671071 -0.37476653 -0.2481974 0.2301561 0.17974126 -0.059139885 0.68040377 0.18939137
0.046439584 0.2271695 -0.29874298 0.012533272 0.33828145 -0.13445987 1.4662746 0.44643438
-0.11499936 -0.3887536 -1.0749545 -0.33858445 0.37681377 -0.22645594 -1.047357 -0.5814953
0.03895092 -0.26567456 1.1366749 -0.0020492887 0.4660479 -0.36419907 -0.48881412 -0.54516125
-0.1589623 0.20594849 0.7109515 -0.49529186 -0.08665077 -0.50509506 0.7573197 0.03733216
0.109912075 -0.01133977 -0.23927301 -0.2398067 0.07810754 0.17520075 -0.28176132 0.14402828
0.65104973 0.17556669 -0.98357075 0.085768476 -0.19791512 -0.015419253 1.0576243 0.17696738
0.26064008 -0.42692778 -0.42491424 0.51565385 -0.32766002 0.06379401 -0.9475852 -0.23592928
-0.22265817 -0.03802389 -0.784129 0.0032371033 -0.06216105 -0.4609038 -0.48222336 -0.049115323
-0.14554033 0.26218337 0.81147575 -0.1650094 -0.44185433 0.2738259 -0.13218158 0.1818607
-0.26584074 0.36340594 0.43469557 -0.20268227 -0.16017754 0.22229427 -0.003401769 -0.07426056
-0.0117250495 0.24833699 -1.2983953 -0.23553951 0.26902857 0.0062419395 0.036236443 0.5621831
-0.091324046 0.049989097 -1.4094753 -0.11932624 0.07477702 -0.07405009 -1.0783275 -0.23461209
0.43798956 -0.19754253 -0.2609988 -0.07920555 -0.15886116 0.04512056 -0.6849856 -0.25084233
-0.19311137 0.31198442 -0.03798434 0.6722508 0.30117077 -0.018309273 0.12947917 -0.3749404
-0.33181378 0.012689206 0.5085517 -0.373676 0.084730476 0.16167443 0.08334796 -0.17033361
0.38081622 0.60394233 0.4790365 0.3998114 0.32313374 -0.26451695 -0.06634692 -0.0570888
0.36732683 0.42380914 0.3868219 0.4213432 0.1129634 -0.11892182 1.4838154 -0.035719626
00000000: f64c e83d 46d6 12bd d834 2a3f 6ab3 bbbe
00000010: e61f 3bbd 6cb7 ad3e e326 c8be f66f da3d
00000020: 38d7 e8be 919d d13e e8e6 483f 3fbf babe
00000030: e143 863e 55fa 75be 9a23 1a3e 86a4 be3d
00000040: 108c e7bd 9ade 103e 8f59 45be 6cad fd3e
00000050: 3c6e 94be d0f5 c53d 1f36 b93e daee 19bd
00000060: c793 263f f0e6 7dbd 8225 90bf 8d9e 91bd
00000070: 4588 b4be 579c 253e 3774 8e3e 0759 0d3f
00000080: 4e25 273f f836 9e3e 10af 533e 7167 c23d
00000090: 4347 49bd 5b72 923d 4963 063f 1940 b83e
000000a0: e88b d23e 4f74 22be cd7c 82bf 35f9 02bf
000000b0: 8162 053e ecc6 c4bd bce3 393f e30e 253e
000000c0: cf8d c3bd 9473 7d3e a494 b6bf 8110 e0be
000000d0: 7f8f 493f 566e 153e cfc0 c1bf e07f c9be
000000e0: d4b3 42be f9a4 fc3e 7f1c 33bf 9387 f1bd
000000f0: 9f83 d4bb 42c7 8a3d 0b9f d53f e1ad ef3e
00000100: fff0 ae3e 8280 b33e 2efb 96bc 83d9 03be
00000110: 909a fcbe 8bc6 263d d857 9e3f ea40 813e
00000120: f889 6fbd 6c8e ea3e 1eea 533f e6de a53e
00000130: 4c94 8a3e 5ab9 dc3e 852d 4d3f c1fe 9f3d
00000140: 58d5 983e 1fe1 aabe 30ac 5d3f 0469 0d3f
00000150: 328f 7bbd 3730 99bd ae61 71bf b0e9 b3be
00000160: 92d9 41be b2ec 813e 6882 253f 3ff1 1a3f
00000170: 5a28 e33d 7d8f 58be 3fa6 b1be 8c8d d13e
00000180: f656 82be b20f 2d3d 7422 57bf e012 c1bd
00000190: 58d8 afbd 6c62 623e a3c4 073f 772e 8dbe
000001a0: cf79 e13e 7521 003e 78e2 6ebf 4efc ad3e
000001b0: e47e 28be dfa0 0cbd 6d6c 353f 9dbc 00be
000001c0: f9ab 53be 66e1 bfbe 7627 7ebe 0aae 6b3e
000001d0: 180e 383e aa3c 72bd f12e 2e3f d0ef 413e
000001e0: 6f37 3e3d 1f9f 683e d7f4 98be 5a58 4d3c
000001f0: 3a33 ad3e d9af 09be e3ae bb3f 0c93 e43e
00000200: c984 ebbd b60a c7be 1c98 89bf f15a adbe
00000210: bced c03e 11e4 67be cb0f 86bf e0dc 14bf
00000220: 008b 1f3d 7f06 88be 907e 913f 5c4d 06bb
00000230: d59d ee3e 4d78 babe d845 fabe b08f 0bbf
00000240: 03c7 22be 29e4 523e eb00 363f e596 fdbe
00000250: f575 b1bd e94d 01bf b4df 413f 9be9 183d
00000260: 9519 e13d 71ca 39bc fc03 75be e38f 75be
00000270: d9f6 9f3d d367 333e 0543 90be 267c 133e
00000280: 32ab 263f c1c7 333e 4bcb 7bbf 62a7 af3d
00000290: 43aa 4abe 09a1 7cbc 3c60 873f f036 353e
000002a0: 9e72 853e 4796 dabe 5c8e d9be e401 043f
000002b0: 0ec3 a7be 6fa6 823d f294 72bf 7297 71be
000002c0: 8100 64be f0be 1bbd aebc 48bf 9525 543b
000002d0: 969c 7ebd 95fb ebbe fbe5 f6be 262d 49bd
000002e0: 8608 15be e63c 863e e0bc 4f3f 39f8 28be
000002f0: bb3a e2be e932 8c3e 9c5a 07be b139 3a3e
00000300: 471c 88be 5810 ba3e 6b90 de3e f18b 4fbe
00000310: 9505 24be 1ca1 633e 37f0 5ebb ec15 98bd
00000320: 6c1a 40bc 0d4c 7e3e d131 a6bf 4531 71be
00000330: 1dbe 893e 2f89 cc3b aa6c 143d 3beb 0f3f
00000340: 1a08 bbbd 5ec1 4c3d b069 b4bf 5161 f4bd
00000350: b224 993d 93a7 97bd a306 8abf 273e 70be
00000360: 2b40 e03e 9748 4abe a2a1 85be 8536 a2bd
00000370: 80ac 22be 56d0 383d 375b 2fbf 686e 80be
00000380: fdbe 45be 6cbc 9f3e 7895 1bbd a118 2c3f
00000390: 0e33 9a3e 54fd 95bc 3096 043e 30f8 bfbe
000003a0: 7fe3 a9be 63e6 4f3c 7230 023f 7652 bfbe
000003b0: 2c87 ad3d fb8d 253e 56b2 aa3d ef6b 2ebe
000003c0: 58fa c23e f79b 1a3f 4644 f53e 14b4 cc3e
000003d0: c971 a53e c46e 87be e5e0 87bd f2d5 69bd
000003e0: 4312 bc3e 83fd d83e 850d c63e 4cba d73e
000003f0: 5b59 e73d 488d f3bd aaed bd3f be4e 12bd

fc1.bias f4 [128]
0.19214185 -0.43965164 0.2630166 0.60110855 0.17758483 0.3317816 0.48466197 0.39474872
-0.34150782 0.31335276 -0.2927823 0.530117 -0.09437507 -0.006641167 -0.35519785 -0.2636234
0.14777666 -0.2123167 -0.13525012 0.26022682 -0.27242312 -0.18044202 0.49597773 -0.29621094
-0.0058061276 0.117229916 0.19538751 0.28912562 -0.04370042 0.49475646 0.51841694 -0.15584773
0.16260025 0.55923086 -0.32180342 0.39841506 -0.057837553 -0.30515382 -0.47175124 0.53134596
-0.031964503 0.42871892 -0.25244752 0.5468317 0.28634867 0.0940813 0.4055413 0.39604813
0.022403967 0.60854185 -0.0236353 -0.4122346 -0.22285329 -0.19732393 0.43842772 0.54242367
0.24438596 0.42483965 0.09192129 -0.71568817 -0.16633849 -0.1421274 0.475947 -0.16117144
0.023066305 0.3028485 -0.34751806 0.20985436 -0.38799766 0.43593568 -0.045935728 -0.037073083
-0.10891462 -0.36905357 0.3586326 0.22307652 -0.64749146 -0.074613474 0.4507705 -0.27629164
-0.18372683 -0.17569879 -0.012615277 -0.2796567 0.016188398 0.5409511 0.33616605 0.30820325
-0.29983726 0.022751378 0.57851815 -0.029848801 0.33059955 0.40524206 0.40811327 0.41977414
-0.07946772 -0.48221648 0.24405108 -0.21509461 0.5212673 -0.1586627 -0.16348 0.41388077
-0.13345958 -0.28352895 0.21839897 -0.23503561 0.23182826 -0.18417543 0.4946844 -0.19076127
-0.45561355 -0.20428213 0.5682584 0.5066558 0.20094593 0.20876448 -0.6260873 0.40458834
0.3030046 0.17354468 -0.09756207 -0.108688526 0.15872382 0.50081706 -0.2493428 0.39741957
00000000: d5c0 443e 051a e1be 1daa 863e 40e2 193f
00000010: ccd8 353e 47df a93e 9d25 f83e 811c ca3e
00000020: 1dda aebe c66f a03e 90e7 95be bfb5 073f
00000030: b747 c1bd 269e d9bb 7edc b5be a5f9 86be
00000040: c452 173e 8d69 59be 027f 0abe 733c 853e
00000050: 0b7b 8bbe cbc5 38be cbf0 fd3e f6a8 97be
00000060: 5441 bebb 3d16 f03d aa13 483e 4608 943e
00000070: 36ff 32bd b850 fd3e f9b6 043f 8c96 1fbe
00000080: ae80 263e c129 0f3f 6bc3 a4be 0ffd cb3e
00000090: 12e7 6cbd 1f3d 9cbe 6189 f1be 4a06 083f
000000a0: 36ed 02bd 0c81 db3e cd40 81be 2afd 0b3f
000000b0: 4b9c 923e b2ad c03d 1ca3 cf3e d2c6 ca3e
000000c0: 8688 b73c 66c9 1b3f d19e c1bc 6a10 d3be
000000d0: a733 64be 490f 4abe 9979 e03e 47dc 0a3f
000000e0: 5040 7a3e 9584 d93e 3b41 bc3d 5737 37bf
000000f0: a354 2abe d889 11be 53af f33e 200a 25be
00000100: 8cf5 bc3c f50e 9b3e e3ed b1be 10e4 563e
00000110: a1a7 c6be f632 df3e 1a27 3cbd f2d9 17bd
00000120: a10e dfbd 97f4 bcbe b19e b73e 2c6e 643e
00000130: 00c2 25bf f3ce 98bd 64cb e63e 1976 8dbe
00000140: e322 3cbe 62ea 33be 4fb0 4ebc 2a2f 8fbe
00000150: 889d 843c c57b 0a3f f51d ac3e d1cc 9d3e
00000160: 4584 99be 1961 ba3c c419 143f 7985 f4bc
00000170: 5844 a93e e37b cf3e 39f4 d03e a3ec d63e
00000180: f9bf a2bd 14e5 f6be 87e8 793e c341 5cbe
00000190: c671 053f 7a78 22be 4d67 27be 2ee8 d33e
000001a0: a1a9 08be b52a 91be fba3 5f3e 2dad 70be
000001b0: 6364 6d3e 7c98 3cbe 4647 fd3e ec56 43be
000001c0: 2e46 e9be 562f 51be 6279 113f 32b4 013f
000001d0: c5c4 4d3e 5bc6 553e 4247 20bf 3426 cf3e
000001e0: 6b23 9b3e b2b5 313e 9fce c7bd 1798 debd
000001f0: 7f88 223e 8c35 003f b853 7fbe 947a cb3e

fc2.weight f4 [128, 128]
0.1527802 -0.11947212 0.14347795 0.06401716 0.02317155 0.024236897 0.0895687 -0.012801728
-0.55352676 -0.108110845 -0.37157655 0.13325089 -0.01663654 0.022607855 -0.07540266 -0.49202707
0.0047535603 -0.26182905 -0.5095245 0.022047797 -0.012699425 -0.22268282 -0.008918067 0.10027445
-0.13551219 0.012859865 0.068070695 0.017660536 -0.013481781 0.0025703092 0.16293979 -0.21093182
0.08294064 0.2187194 -0.23117405 0.21287473 0.010304736 -0.13622187 0.26443762 0.07959154
0.036428895 0.00916213 0.020695442 0.03068745 0.10909884 -0.016028794 0.011784709 0.00042999667
0.06585355 0.05060985 0.019957332 0.57479924 -0.5502467 -0.770408 0.060651153 0.025206335
-0.028494773 0.016251165 0.039112944 -0.010041801 -0.30718672 -0.37796983 0.031108744 -0.37987503
-0.039556753 0.077371806 -0.020421641 0.16149129 -0.30561534 0.13362657 -0.20610045 -0.101629056
-0.34264493 -0.16924874 0.14864461 0.010526842 0.032459863 0.07146951 0.11519223 0.19084974
0.0065907883 -0.15420033 0.026527297 -0.14783332 0.042826243 0.15432219 0.08991477 0.16508196
-0.56328464 0.06323667 0.096781366 -0.06813715 0.03916931 0.13320486 -0.0155614475 0.15406752
-0.018906027 -0.09418002 0.025501756 0.048496034 0.15856937 -0.62399584 -0.12293743 0.08249692
-0.039829653 -0.18195923 0.038049337 -0.07049431 0.18341552 -0.16488267 0.12187495 -0.32609534
-0.09356974 -0.08864607 0.090942286 0.0430427 0.114686325 0.13781066 -0.080505304 0.03906321
-0.013370478 0.026702845 -0.034603775 -0.07563967 0.09546306 0.1699329 -0.36581463 0.04732522
-0.03969286 0.066006936 -0.065533176 -0.01422864 0.045400545 0.04904212 -0.033738732 -0.011908778
0.009342982 -0.004116402 0.07311142 -0.08541622 0.018352328 0.03724091 -0.0155404415 0.013833565
0.022462558 0.023656784 0.06521413 -0.043814987 -0.04081329 -0.09234229 -0.011626639 0.075698845
-0.081079125 0.047263023 -0.06574406 -0.08322905 0.030579941 -0.063874245 0.039376624 0.011201589
-0.04182279 -0.020178959 0.012374041 -0.081189826 0.018283326 -0.06312098 -0.06613334 -0.04939812
-0.08448153 -0.033336934 -0.06108036 -0.031756945 0.0093865115 -0.010298867 0.0216392 -0.008098922
-0.0027205194 -0.014502703 -0.034133058 -0.02985377 0.06476749 0.079542294 -0.053321138 -0.010743857
-0.07635802 0.025181595 0.03572506 -0.037369423 0.015061401 0.07697684 -0.0065827444 0.082510866
-0.0326353 -0.0036970272 -0.018228248 0.024757588 -0.079305865 -0.032008752 0.02809263 -0.0890905
0.059389275 0.060988795 0.06472849 0.07895375 -0.08174426 -0.08730853 0.07253259 0.08344454
-0.07293756 -0.07130128 0.078590564 -0.06727692 -0.017980183 -0.05903085 -0.07768331 0.072343014
-0.022907749 0.085505426 0.05435869 -0.018881278 0.017761355 -0.06324544 0.051405266 0.07022618
0.010517546 -0.008477365 -0.08438797 -0.018646697 0.051126044 0.031789985 0.0058386186 0.049034286
-0.085152335 -0.05500743 -0.055699453 0.083941124 -0.042903963 -0.041319225 -0.03681542 -0.025409708
-0.014244215 0.023844147 -0.002210846 0.06506456 -0.058499467 -0.08628462 -0.017000353 0.023182193
0.05596613 -0.07233908 -0.008493359 -0.028461996 -0.020185221 -0.04754983 0.082990594 -0.088276744
00000000: 6a72 1c3e cdad f4bd e2eb 123e 6e1b 833d
00000010: 43d2 bd3c 758c c63c cb6f b73d 57be 51bc
00000020: eeb3 0dbf 3869 ddbd 483f bebe ec72 083e
00000030: 5a49 88bc 1c34 b93c b66c 9abd f9ea fbbe
00000040: c1c3 9b3b 750e 86be 3370 02bf 959d b43c
00000050: 4011 50bc f706 64be 161d 12bc b15c cd3d
00000060: b5c3 0abe 2fb2 523c a668 8b3d d4ac 903c
00000070: b0e2 5cbc a272 283b b0d9 263e 83fe 57be
00000080: c8dc a93d faf7 5f3e e4b8 6cbe d5fb 593e
00000090: 32d5 283c bf7d 0bbe 5e64 873e e400 a33d
000000a0: 7736 153d c21c 163c 7d89 a93c 3f64 fb3c
000000b0: 366f df3d d14e 83bc a714 413c 2d71 e139
000000c0: 3ade 863d 464c 4f3d 8f7d a33c 0b26 133f
000000d0: f8dc 0cbf 7539 45bf 586d 783d 847d ce3c
000000e0: df6d e9bc 2a21 853c e534 203d 5e86 24bc
000000f0: 9447 9dbe 4385 c1be c4d7 fe3c fb7e c2be
00000100: 4306 22bd 1c75 9e3d 494b a7bc f95d 253e
00000110: 9d79 9cbe 67d5 083e ff0b 53be e522 d0bd
00000120: 286f afbe 8b4f 2dbe 4b36 183e c778 2c3c
00000130: a2f4 043d 9b5e 923d e7e9 eb3d 1d6e 433e
00000140: 8af7 d73b b1e6 1dbe c64f d93c 9e61 17be
00000150: 926a 2f3d a306 1e3e 3c25 b83d 3f0b 293e
00000160: 6c33 10bf 3a82 813d 4f35 c63d 7d8b 8bbd
00000170: 0070 203d db66 083e 71f5 7ebc e0c3 1d3e
00000180: d0e0 9abc 74e1 c0bd 0fe9 d03c c7a3 463d
00000190: 0260 223e 31be 1fbf 9fc6 fbbd 25f4 a83d
000001a0: 6b24 23bd 8553 3abe 9fd9 1b3d 525f 90bd
000001b0: 47d1 3b3e 01d7 28be 9399 f93d f8f5 a6be
000001c0: 7ea1 bfbd 128c b5bd f33f ba3d 8b4d 303d
000001d0: aae0 ea3d 3d1e 0d3e f7df a4bd bf00 203d
000001e0: d90f 5bbc edbf da3c b0bc 0dbd f9e8 9abd
000001f0: 2382 c33d e402 2e3e 0e4c bbbe 17d8 413d
00000200: fb94 22bd a52e 873d 4236 86bd 3e1f 69bc
00000210: ecf5 393d 64e0 483d a031 0abd 091d 43bc
00000220: 4f13 193c e2e2 86bb 71bb 953d b3ee aebd
00000230: 9f57 963c ed89 183d 569d 7ebc 2da6 623c
00000240: 6603 b83c dfcb c13c fc8e 853d 5877 33bd
00000250: d62b 27bd f41d bdbd a97d 3ebc ff07 9b3d
00000260: d00c a6bd df96 413d d2a4 86bd fe73 aabd
00000270: c982 fa3c 80d0 82bd 6249 213d df86 373c
00000280: 604e 2bbd 584e a5bc 7dbc 4a3c da46 a6bd
00000290: eac6 953c 9345 81bd eb70 87bd af55 4abd
000002a0: a704 adbd 4f8c 08bd 662f 7abd 9213 02bd
000002b0: e2c9 193c 94bc 28bc b144 b13c 57b1 04bc
000002c0: be4a 32bb bf9c 6dbc 1bcf 0bbd e58f f4bc
000002d0: d1a4 843d 12e7 a23d 4467 5abd 0107 30bc
000002e0: 9861 9cbd a249 ce3c 7154 123d ae10 19bd
000002f0: 18c4 763c 09a6 9d3d 10b4 d7bb 75fb a83d
00000300: 98ac 05bd d349 72bb 6853 95bc 6dd0 ca3c
00000310: 1d6b a2bd 9c1b 03bd 8422 e63c 1475 b6bd
00000320: 2b42 733d 63cf 793d 5f90 843d 81b2 a13d
00000330: 8969 a7bd d1ce b2bd f78b 943d f9e4 aa3d
00000340: 4a60 95bd 6806 92bd 17f4 a03d 7bc8 89bd
00000350: 2d4b 93bc 55ca 71bd 6d18 9fbd 9328 943d
00000360: 08a9 bbbc 781d af3d 38a7 5e3d e9ac 9abc
00000370: 4380 913c d386 81bd 548e 523d bed2 8f3d
00000380: c951 2c3c a5e4 0abc 9ad3 acbd f5c0 98bc
00000390: 8b69 513d 3736 023d e251 bf3b 2dd8 483d
000003a0: 5964 aebd 794f 61bd 1c25 64bd 53e9 ab3d
000003b0: 11bc 2fbd 593e 29bd c4cb 16bd 0528 d0bc
000003c0: 9160 69bc cd54 c33c d7e3 10bb 9140 853d
000003d0: 239d 6fbd feb5 b0bd 5344 8bbc 95e8 bd3c
000003e0: be3c 653d 8326 94bd bb27 0bbc 2229 e9bc
000003f0: 7a5b a5bc 9cc3 42bd f9f6 a93d 70ca b4bd

fc2.bias f4 [128]
0.098154046 -0.063964605 0.15712456 -0.06551154 -0.039687537 0.047028773 -0.09158958 0.119707815
0.17821181 0.01341386 0.17855912 0.1398153 -0.057845797 0.17316896 0.059516918 0.18575658
0.16683 0.04279966 0.04548162 0.030257981 0.07571653 0.19080451 -0.047565993 0.06292385
-0.023159046 0.011600008 0.13421395 0.05044923 -0.08058633 0.081005484 -0.055302218 0.046617366
-0.04799908 -0.06591641 -0.07261642 0.14490625 0.006025028 0.14954506 -0.06807949 0.13736756
0.17127968 0.16513729 0.15709952 0.15680912 0.14117238 0.0071337647 -0.025831934 0.012334084
-0.09570708 0.03230685 0.111633465 0.16267437 0.16846418 0.11927509 -0.0027804738 0.05538176
0.17255451 -0.05714282 0.016301192 0.04160259 0.0022563967 -0.037146963 0.0037669165 0.04712747
0.08466661 0.021077128 0.17438225 0.014158098 0.14036064 0.013399243 0.08517945 0.049023777
0.16856773 0.15050827 -0.0050457045 0.12535186 0.015322616 0.027216315 0.14070512 -0.047329213
-0.17135341 0.02584898 -0.021273129 0.18357413 0.13759898 -0.08264312 0.11366579 -0.048672788
0.0068790005 -0.06729211 0.13801844 -0.12338985 -0.061092068 -0.07227046 0.049278453 -0.08634678
0.080911316 0.17385422 0.070997804 0.0036864106 -0.011063022 0.08570582 0.038472664 -0.12748197
-0.08935611 0.044850275 -0.073341146 -0.059494816 0.06506162 0.008317333 0.08948954 0.13136032
0.06823561 0.061900247 -0.0881846 0.114828594 0.0022762723 0.042391934 0.1336028 0.18836129
-0.06743555 0.09616461 0.11771422 0.06199155 0.080438904 -0.049713805 -0.027490223 -0.072825395
00000000: fd04 c93d e0ff 82bd 43e5 203e ea2a 86bd
00000010: 668f 22bd 3ea1 403d 5193 bbbd 5f29 f53d
00000020: 287d 363e cfc5 5b3c 34d8 363e be2b 0f3e
00000030: b7ef 6cbd 3453 313e 03c8 733d f936 3e3e
00000040: 7cd5 2a3e b24e 2f3d ef4a 3a3d 96df f73c
00000050: 4511 9b3d 4262 433e 8fd4 42bd 38de 803d
00000060: 0ab8 bdbc f60d 3e3c 626f 093e daa3 4e3d
00000070: 720a a5bd 34e6 a53d 9484 62bd daf1 3e3d
00000080: af9a 44bd 2fff 86bd ebb7 94bd 4e62 143e
00000090: 996d c53b 5722 193e 426d 8bbd 15aa 0c3e
000000a0: f163 2f3e c019 293e b2de 203e 9292 203e
000000b0: 7e8f 103e 5bc2 e93b 7e9d d3bc e614 4a3c
000000c0: 1302 c4bd 3054 043d 16a0 e43d 1c94 263e
000000d0: e081 2c3e 8046 f43d 9c38 36bb fcd7 623d
000000e0: 21b2 303e 970e 6abd 148a 853c 7a67 2a3d
000000f0: 0ee0 133b 6a27 18bd 5fde 763b bc08 413d
00000100: b065 ad3d f1a9 ac3c 4391 323e 5ef7 673c
00000110: b3ba 0f3e 8088 5b3c 9072 ae3d 28cd 483d
00000120: 059d 2c3e d71e 1a3e 7056 a5bb 3d5c 003e
00000130: b60b 7b3c c0f4 de3c 0115 103e 47dc 41bd
00000140: 4577 2fbe 3dc1 d33c fc44 aebc dbfa 3b3e
00000150: bfe6 0c3e cc40 a9bd 9cc9 e83d 1e5d 47bd
00000160: 3d69 e13b 72d0 89bd b554 0d3e d1b3 fcbd
00000170: ad3b 7abd 8902 94bd 34d8 493d 95d6 b0bd
00000180: d5b4 a53d d706 323e 4c67 913d b597 713b
00000190: ad41 35bc 8886 af3d 8395 1d3d a28a 02be
000001a0: 5600 b7bd ecb4 373d e233 96bd d6b0 73bd
000001b0: 073f 853d 6c45 083c 4b46 b73d 5283 063e
000001c0: 1dbf 8b3d 1d8b 7d3d 219a b4bd 412b eb3d
000001d0: 832d 153b 2aa3 2d3d 2ccf 083e c8e1 403e
000001e0: a61b 8abd f3f1 c43d 2714 f13d daea 7d3d
000001f0: 27bd a43d b4a0 4bbd 2d33 e1bc 7b25 95bd

fc3.weight f4 [2, 128]
0.24865763 -0.03576815 0.24210253 0.5912612 -0.031840038 -0.998358 0.07544707 0.18347059
0.28861907 0.031023078 0.38865775 0.3625351 -1.145695 -0.2692208 0.24840622 0.2678216
0.30749562 -0.18705884 -0.52488416 -0.00024070953 0.28135243 0.32678062 -0.111315355 0.36851013
-0.011391938 -0.053498182 0.37184662 0.22919087 0.08530812 0.31107852 -0.041786514 0.19421151
-0.026879473 -1.0955085 0.06726674 -0.58566684 -0.94958806 0.15568627 -0.06467919 0.24366039
0.2912002 0.2854917 0.24962024 0.3833677 0.26863506 0.03333005 -0.23537695 -0.019352939
-0.08834889 0.2851611 0.36457968 0.23656248 0.29523042 0.11388444 -0.88442236 0.27253747
0.24892694 -0.5637197 -0.2611333 -0.06260957 -0.024207633 0.47519827 -0.26200682 -0.86369145
0.30074173 0.27097845 0.27319813 0.1278301 0.3098194 -0.6039059 0.24642776 0.114963464
0.27543747 0.32957062 -0.062421538 0.24691811 -1.0927365 0.18331444 0.27266556 0.05558146
-0.41503778 0.013206197 -0.03918207 0.31884062 0.3276942 -0.009770904 0.2815796 0.031601205
0.052320816 0.043477505 0.3019506 -0.9664297 0.08103784 -0.1865268 -0.4130161 0.06421854
0.2213766 0.32002726 0.27583218 -0.2590669 0.08487 0.33385396 0.057106514 -0.8550806
0.012398176 0.4914766 -0.8480173 0.08534088 0.22495818 0.026225496 0.25575906 0.28352547
0.024342502 -0.10438405 -0.09381785 0.2971169 0.16430588 0.041157268 0.27770036 0.33686838
0.079814136 0.29157636 0.13234289 0.013658133 0.37294534 0.5668662 0.021084571 -0.7409392
0.16307424 -0.06417429 0.10300008 -0.24978152 -0.018664964 -0.73222625 0.019297313 0.30352864
0.22124965 -0.057350587 0.2830013 0.2902165 -0.6736132 0.3959197 0.3027206 0.12978493
0.23406401 -0.31366006 -0.18482459 -0.045231137 0.23373082 0.22757222 -0.009598958 0.292547
-0.67136884 -0.015277558 0.32329914 0.32210067 0.005695356 0.29358783 -0.04495638 0.31261072
-0.051263686 -0.7697479 -0.0415838 0.3082179 -0.81808543 0.31830794 0.02457721 0.21798229
0.24625543 0.15160365 0.16178942 0.24301416 0.32538766 -0.041806135 -0.92981875 -0.013170178
-0.122118376 0.22098477 0.1998499 0.34304136 0.28470713 0.501957 -0.71610934 0.32132557
0.23074302 -0.92075926 0.111600645 -0.8382766 -0.05184519 -0.24992475 0.33054534 -0.84708095
0.20188776 0.30288658 0.14722396 -0.56634265 0.3249945 -0.5643957 0.16460012 -0.0833768
0.29087085 0.21996601 0.08041821 0.29946002 -0.6707595 0.29702908 0.12567024 0.064853296
0.38008913 -0.022027656 -0.04335153 0.30162367 0.25079915 0.0068503274 0.26031977 -0.04250761
-0.76880836 0.018613653 0.27835354 -0.6742091 -0.070662156 0.2842234 -0.76677555 -0.020487225
0.32422245 0.23070422 0.28302908 -0.3960841 -0.08022114 0.28896165 0.5696533 -0.65448624
-0.06667146 -0.03383484 -0.91135734 -0.062353328 0.32129008 -0.013788352 0.21004884 0.2853647
-0.0357999 0.23827098 0.033130743 0.2727255 0.3122689 -0.048230734 0.08019385 0.27592877
0.08762142 0.26826546 0.268856 -0.018062701 0.23216753 -0.3380103 0.07034387 -0.8458813
00000000: 1ba0 7e3e a081 12bd bae9 773e e55c 173f
00000010: b36a 02bd 6494 7fbf fe83 9a3d b7df 3b3e
00000020: e1c5 933e 1c24 fe3c 26fe c63e 339e b93e
00000030: 22a6 92bf 4fd7 89be 335e 7e3e ea1f 893e
00000040: 1170 9d3e 5a8c 3fbe cf5e 06bf f966 7cb9
00000050: 6d0d 903e ca4f a73e 4ef9 e3bd 5cad bc3e
00000060: 40a5 3abc e920 5bbd ae62 be3e 03b1 6a3e
00000070: 06b6 ae3d af45 9f3e 5628 2bbd 62df 463e
00000080: 5732 dcbc 9f39 8cbf 25c3 893d 43ee 15bf
00000090: 3418 73bf 396c 1f3e 8676 84bd 1c82 793e
000000a0: 3118 953e f82b 923e 739c 7f3e c548 c43e
000000b0: 898a 893e 1785 083d a806 71be 0e8a 9ebc
000000c0: 43f0 b4bd a300 923e 30aa ba3e 6f3d 723e
000000d0: 7128 973e 3f3c e93d 8169 62bf 088a 8b3e
000000e0: b4e6 7e3e ef4f 10bf 44b3 85be 7239 80bd
000000f0: 164f c6bc 304d f33e c225 86be e21a 5dbf
00000100: d2fa 993e b0bd 8a3e a0e0 8b3e e5e5 023e
00000110: a6a0 9e3e 9499 1abf 8f57 7c3e f771 eb3d
00000120: 2406 8d3e 7bbd a83e baad 7fbd 1ad8 7c3e
00000130: cade 8bbf c8b6 3b3e d29a 8b3e 63a9 633d
00000140: d57f d4be ce5e 583c 617d 20bd 143f a33e
00000150: 89c7 a73e 2416 20bc 342b 903e 4470 013d
00000160: 5a4e 563d 7815 323d 4599 9a3e f067 77bf
00000170: 2bf7 a53d e200 3fbe d976 d3be 0385 833d
00000180: 8cb0 623e 9dda a33e e039 8d3e 6ba4 84be
00000190: 53d0 ad3d e8ee aa3e 85e8 693d 90e6 5abf
000001a0: b821 4b3c d2a2 fb3e a917 59bf 33c7 ae3d
000001b0: 705b 663e dad6 d63c daf2 823e 402a 913e
000001c0: ed69 c73c 4ec7 d5bd 9323 c0bd b51f 983e
000001d0: cd3f 283e 8694 283d be2e 8e3e 037a ac3e
000001e0: 9875 a33d 7f49 953e e584 073e 5dc6 5f3c
000001f0: b1f2 be3e 251e 113f 8db9 ac3c 31ae 3dbf
00000200: effc 263e cf6d 83bd b5f1 d23d bac6 7fbe
00000210: 44e7 98bc 2e73 3bbf 6615 9e3c 1b68 9b3e
00000220: 458f 623e 73e8 6abd 8ce5 903e 4297 943e
00000230: ea71 2cbf fdb5 ca3e 32fe 9a3e 57e6 043e
00000240: 7aae 6f3e 0d98 a0be a842 3dbe 4944 39bd
00000250: 2257 6f3e b108 693e f344 1dbc b8c8 953e
00000260: d4de 2bbf b94e 7abc 7787 a53e 61ea a43e
00000270: 1ca0 ba3b 2551 963e 2e24 38bd 830e a03e
00000280: dff9 51bd 330e 45bf c653 2abd bdce 9d3e
00000290: 0c6e 51bf 42f9 a23e 2556 c93c c036 5f3e
000002a0: 622a 7c3e fd3d 1b3e 20ac 253e b4d8 783e
000002b0: 3699 a63e e93c 2bbd 9a08 6ebf bbc7 57bc
000002c0: 3319 fabd d549 623e 74a5 4c3e 1ea3 af3e
000002d0: 22c5 913e 4180 003f f152 37bf c984 a43e
000002e0: e647 6c3e e1b6 6bbf e18e e43d 4c99 56bf
000002f0: 9f5b 54bd 46ec 7fbe 3d3d a93e 4cda 58bf
00000300: aabb 4e3e f313 9b3e e1c1 163e d5fb 10bf
00000310: ae65 a63e 3d7c 10bf ef8c 283e 75c1 aabd
00000320: 06ed 943e c53e 613e 4db2 a43d d352 993e
00000330: e5b6 2bbf 3214 983e b3af 003e ced1 843d
00000340: 0b9b c23e 5873 b4bc 6091 31bd 6b6e 9a3e
00000350: bf68 803e b678 e03b a248 853e 761c 2ebd
00000360: a0d0 44bf a97b 983c 5b84 8e3e f898 2cbf
00000370: 52b7 90bd bb85 913e 674b 44bf d3d4 a7bc
00000380: 7c00 a63e ba3d 6c3e 30e9 903e 89cb cabe
00000390: fb4a a4bd c8f2 933e ccd4 113f 698c 27bf
000003a0: 0c8b 88bd 6796 0abd b74e 69bf 3466 7fbd
000003b0: 2280 a43e 8ae8 61bc 0b17 573e 521b 923e
000003c0: eaa2 12bd 4ffd 733e 1ab4 073d ada2 8b3e
000003d0: b6e1 9f3e 978d 45bd ac3c a43d 8946 8d3e
000003e0: dc72 b33d 175a 893e 7ea7 893e 3bf8 93bc
000003f0: 53bd 6d3e b00f adbe 7210 903d ad8b 58bf

fc3.bias f4 [2]
0.18635431 0.044680804
00000000: aad3 3e3e 3803 373d
