weights/tuning2/20000steps_4agents_64batch_10000cap_0.0003lr/run_5.pth (torch, 72253 bytes, 6 tensors)

fc1.weight f4 [128, 4]
00000000: 7fff a43c 6bb0 3a3d 35d9 693f d040 ec3e
00000010: e565 0abf f998 873e 64f6 62be b596 7b3e
00000020: 77f9 26be bd3e cdbd a3b2 2fbf 8fd4 9fbe
00000030: 560d c53d 3cef 123d 6acf 9c3f 6762 e13e
00000040: d741 2fbf 478d 363d 3db2 443f 14b9 ee3e
00000050: 7b5e 3abe 676d 1e3e e86d 27bf c64c cbbe
00000060: f43a 21be e5fb 1a3e 5f60 8d3f 5077 0f3f
00000070: fc00 dfbe 97d6 263e 922e 043f 51bb 253e
00000080: 4404 233d 3b7e 9dbe 1a02 563e 9c50 31be
00000090: dae0 ac3d 0d8a cd3d 8fdc 353f b072 8ebd
000000a0: 3938 923e 5a9d dabe 6848 8f3f 3b29 fa3d
000000b0: 1eaa 9dbd 8b8f e3bc 6c99 0c3e f993 51be
000000c0: 9f5e 11be 8463 993e ec84 3e3e 7d8a f53e
000000d0: 83e2 093e 363c 1cbe d0ca 99bf e044 edbe
000000e0: 2de9 83be 2173 c23c 9adf b7bf f49d 0bbe
000000f0: f858 293e 1557 4bbe 7cc5 113f a3b7 0a3e
00000100: 53c8 a03b b1d5 0d3d d7f2 f7be 43c9 a03e
00000110: cfd2 f7be e9fd e9be f87d 553f e3bd be3c
00000120: 7647 cd3d 7c1a 913e d3b7 513f 9277 a9be
00000130: bfcf 1c3e 1be2 b7bd 3e40 383f c259 7a3e
00000140: 4b70 94be 0474 2e3e d7f6 ba3f 23cd 543e
00000150: 783a 95be 41fe 573e 2e0b 043e 22c8 b4be
00000160: f9ee babe baa0 a43e 809b 8a3d 5766 0abe
00000170: 33b3 313e 73d3 d33e 06b6 143d 52b1 223d
00000180: b9ad 03be 4b0d 213e 1a8e 8a3f 19c1 253f
00000190: a091 acbd 2f25 1a3d 6240 a9bf 48db 9dbe
000001a0: da72 073e 7588 fcbd 82a6 c3bf 88e4 0fbf
000001b0: 153b 1fbf 9dd1 49be 977b 5e3e 5193 71be
000001c0: fc21 0ebf f2bf e73e b335 9dbe 187f c93e
000001d0: 0351 f6be 6f3c 8b3e 22b0 53bf bb80 7d3e
000001e0: 39ea 163f 5fdc 063f ec9b 2a3f d3be fabe
000001f0: d1fc 25be e561 9d3e 4acb 2d3f 82cd 8abe
00000200: efc5 adbe 240e fa3d 9d04 aabf 1b0f 6ebe
00000210: d1f4 aa3d 5667 bcbd b885 883f 46bd bb3e
00000220: b7bd 14bf ee7d f83e 8ea3 c6be f650 9bbd
00000230: 6200 683e 0467 d7be ef45 88be 73a0 db3e
00000240: 8910 993c b41d 8e3e 1347 653f 2adb 30be
00000250: eb2e 9a3e 33f8 ae3e cd57 42bf 3c2d 27bd
00000260: 58f7 ddbe 6ad2 913e dacc e93e 37e1 34bf
00000270: 774f 49be 7162 9abe 92a8 ecbe 70d8 6cbe
00000280: 48b4 05bf 0f4a 30be ace0 d83d c282 693d
00000290: 9d30 913d ac31 143e e304 44bf 9c66 debc
000002a0: d83c d23e 3cdf a3be 00d9 39bf 30d8 8f3d
000002b0: 60c5 ffbe e3ba fcbe 5e9c 9abe 8fb9 c7be
000002c0: 9e50 d73c 1c18 993c c69f 94bf 95ca f4be
000002d0: 1dfb 883e 999b b9be 9d63 92be 89ea 8abe
000002e0: db9c 06be d555 12be 0fc9 9cbf 52bf c13e
000002f0: 2a65 10bf b95e 73be e50b 933c b065 75be
00000300: 68cc 1cbf 91d4 ce3e 4a43 403e 6864 d83e
00000310: 57db 32be b056 3d3d 1ce5 f23d dd3d 83be
00000320: 062e 983e a5ba 573e f9d8 8dbf f39c eb3e
00000330: 514f 0bbf 66a4 b83e ba67 78bf fec4 8cbe
00000340: 96f8 613e f420 83bd e0b5 c7be e45f 6a3e
00000350: c6ff d6be 5e1d d03c 2c94 933f e94b ac3e
00000360: 18ea 953e 55de dcbd 7650 99bf 7b00 10bf
00000370: a5a0 c3be 0ab0 0bbd ea6b ff3e c45b 463e
00000380: 3e44 f1be 8789 0b3f 9840 f8bd 33c6 7c3e
00000390: caed 4b3e dd45 03bd 20b0 a3bf 30f4 89be
000003a0: d944 ebbd eb31 90bd 3432 87be 1e49 133f
000003b0: 44bb 03bf b917 8d3e 13ff 773f 7b1e c3be
000003c0: 72c5 863e b8f4 6dbe 6524 f3bd 82ac 11bf
000003d0: 590b 46bd 1cb7 9c3e b3b0 75bf a169 a83b
000003e0: 46dd a6bd a660 89be 999b 86bf f25f 033e
000003f0: 0de8 ee3e a00f 9f3e 2b29 4b3e 4f94 623e
0.020141361 0.0455784 0.91347057 0.46143198 -0.5406173 0.26483896 -0.22164303 0.24569209
-0.16306101 -0.10021732 -0.68631953 -0.31216857 0.09621684 0.035872683 1.2250798 0.44020388
-0.6845984 0.044568326 0.7683447 0.46625578 -0.18200104 0.15471421 -0.6540208 -0.3970701
-0.15745145 0.15135153 1.1045035 0.5604143 -0.4355544 0.16292797 0.5163356 0.16184737
0.03979899 -0.3076037 0.20899239 -0.17315906 0.084413245 0.10036097 0.7103967 -0.06955469
0.2855852 -0.42698175 1.1193972 0.12214895 -0.07698463 -0.027778408 0.13730401 -0.20466603
-0.14196251 0.29958737 0.18605393 0.4795722 0.13465314 -0.15257344 -1.2015018 -0.4634161
-0.25763837 0.023736538 -1.4365113 -0.13634473 0.16537845 -0.19857438 0.5694196 0.13546614
0.004906693 0.03462762 -0.4842746 0.3140355 -0.48403022 -0.4570153 0.8339534 0.023283904
0.10023396 0.28340518 0.8192112 -0.33099037 0.15313624 -0.08978673 0.71973026 0.24448302
-0.28991923 0.17036444 1.460658 0.20781378 -0.2914617 0.21093084 0.1289489 -0.3530894
-0.36510447 0.32153875 0.067679405 -0.13515602 0.17353515 0.4137226 0.036306404 0.039719887
-0.12859239 0.15727727 1.0824616 0.6474777 -0.08426213 0.037633117 -1.3222773 -0.3083136
0.13227406 -0.123307146 -1.5285189 -0.56208086 -0.6219953 -0.19708867 0.21726833 -0.23591353
-0.55520606 0.4526363 -0.30705032 0.39354777 -0.48108682 0.27194545 -0.8269063 0.24756138
0.58951145 0.5268001 0.6664417 -0.48973712 -0.16209723 0.3073875 0.6788832 -0.27109915
-0.33940074 0.12209728 -1.3282658 -0.2324795 0.08347476 -0.09199397 1.0665808 0.36667842
-0.5810198 0.48533577 -0.38796657 -0.075838014 0.22656396 -0.42070782 -0.26615855 0.4289585
0.018684642 0.27757037 0.89561576 -0.17271104 0.3011392 0.34173736 -0.75915223 -0.040814623
-0.4335277 0.28480846 0.45664102 -0.7065615 -0.1965922 -0.3015323 -0.4622236 -0.2312944
-0.5222821 -0.17215751 0.10589728 0.057009466 0.070893504 0.14472073 -0.76569957 -0.027148537
0.41062045 -0.32006252 -0.7259674 0.07023656 -0.49955273 -0.49361333 -0.30197424 -0.39008757
0.026283558 0.018688254 -1.1611259 -0.47810808 0.26754084 -0.36251524 -0.28591624 -0.2713206
-0.13145773 -0.14290555 -1.2248858 0.37841278 -0.56404364 -0.23766603 0.017950008 -0.23964572
-0.612494 0.4039655 0.18775669 0.42264104 -0.17466484 0.04622525 0.118601054 -0.25633135
0.29722613 0.21067293 -1.108184 0.4601818 -0.544179 0.36062926 -0.97033274 -0.27494043
0.22067484 -0.0640277 -0.39005947 0.22888142 -0.41992015 0.025404628 1.1529593 0.33651665
0.29280162 -0.10784594 -1.197768 -0.56250733 -0.382085 -0.03410343 0.4988702 0.19370943
-0.47122377 0.54506725 -0.12121695 0.24684982 0.19914928 -0.03204905 -1.2788124 -0.26944113
-0.11487741 -0.07040771 -0.2640549 0.5753344 -0.5145762 0.2755716 0.9687359 -0.38109192
0.26322514 -0.23237884 -0.11872176 -0.5690385 -0.048350666 0.3060845 -0.95972747 0.005139545
-0.08147673 -0.2683155 -1.0516235 0.12829569 0.46661416 0.31066608 0.19839923 0.22126888

fc1.bias f4 [128]
00000000: 2bbf 81be 0f13 b83e e137 203f 18bf 7abe
00000010: 25cc a4be 5e54 a43d c26b 41be b2c6 933e
00000020: 17a2 11bf 069e 093f ddf2 98be e754 c63e
00000030: 1b48 073f ab39 4abe f07a 47be 9985 043f
00000040: dd5d 393e 6ec7 b2bb 0809 22be 6200 033f
00000050: 5fd7 e33e a17f a73e f164 a8be 0e00 b33e
00000060: b117 98be 3d4c a0be 2fef 9ebe 53bc 92bd
00000070: fb1a 0a3f 5bf9 c73e 0e58 a43e d268 5e3e
00000080: 1ad9 a7be b419 bcbe 669d babe 817d e83d
00000090: cf23 6c3e 8b60 e2be 476c 1dbf 83d3 f3be
000000a0: 7bfd e3be d6b9 f43e aacf 343e c34f dcbe
000000b0: 2a5f cdbe 3cf9 f23e 485c 933e 945f eabd
000000c0: a83b 85be a2fb ff3e e3fc 903e 47b5 c3bc
000000d0: b487 923e 7567 a4be 66a4 85be ea3d fb3e
000000e0: 9f08 63bd 7421 68be edec d1be b599 963c
000000f0: 208b 9c3e 6dc9 553d 9123 d63e 88e5 8d3e
00000100: 0d83 b9be e8c9 fa3e 345d f8bd 4c19 91be
00000110: 6e98 7d3d adda 74be c976 aabe fab7 d5be
00000120: 6f1b 083f f8f7 043f 5fe1 673e 433d 6d3e
00000130: edcc 0bbf 0fec 163f c15a fc3e 6bfd 073f
00000140: dd21 83be 9cea cd3e ab2d f0be 1d96 713e
00000150: cb68 753d f7cd b33e 28ee f93e f98d 093f
00000160: dd95 92bd 4500 c1be bde9 ae3e 33ea 1d3e
00000170: ad8f 06be 5a63 0dbe 7bcc 9b3d 8e2e b73e
00000180: 7338 81be a364 16bf 67c2 a43e b831 6ebe
00000190: f983 c83e 2bec 2f3e 0eca 01bf 3d13 fb3d
000001a0: 45c9 a13e 18c9 b23e 4147 823e 02a3 f43e
000001b0: b8db e73e 7c3e 003e ca7d f8be 5b3f a03e
000001c0: d90a 903e 885c 53bd cf6c 843e 6c72 3dbe
000001d0: 6e54 123f 996c 113f 160c 52bd 5141 da3e
000001e0: 52fb d3be f503 013f 0b70 6abe 77d0 913d
000001f0: 2e5b cebe 8bb9 58be 3213 8f3e 7df4 c3be
-0.25341162 0.3595204 0.62585264 -0.24486959 -0.32187 0.08023904 -0.18888763 0.2886253
-0.56887954 0.5375675 -0.2987279 0.3873665 0.528444 -0.19748561 -0.1948049 0.51766354
0.18102212 -0.005455903 -0.15823758 0.5117246 0.44500253 0.3271456 -0.32889512 0.3496098
-0.29705575 -0.31308165 -0.31041858 -0.07164826 0.5394742 0.3905743 0.3209843 0.21719673
-0.32782823 -0.3673836 -0.3644821 0.11352063 0.23060535 -0.4421428 -0.61493343 -0.47622308
-0.44529328 0.47798032 0.17657343 -0.43029603 -0.40111667 0.47455776 0.28781343 -0.11444011
-0.26022077 0.49996668 0.28317937 -0.02389015 0.28619158 -0.3211018 -0.2610199 0.49070674
-0.055428144 -0.22669011 -0.41001073 0.01838384 0.30574894 0.052194048 0.4182401 0.2771418
-0.36232796 0.48982167 -0.12127152 -0.28339612 0.061912946 -0.23911543 -0.3329375 -0.41741925
0.5316686 0.5194087 0.22644566 0.231679 -0.54609567 0.58953947 0.4928799 0.5312106
-0.25611773 0.40218055 -0.46909842 0.2359242 0.05991439 0.35118076 0.4881451 0.5373226
-0.071574904 -0.37695518 0.34162703 0.15421371 -0.13140745 -0.13807431 0.07607361 0.35777706
-0.2523838 -0.5874731 0.32179567 -0.23261154 0.39163187 0.17179935 -0.50698936 0.12259529
0.3159887 0.34919047 0.25444987 0.47780615 0.4528482 0.12523836 -0.4853347 0.31298336
0.28133276 -0.051601917 0.25864264 -0.1850068 0.5716008 0.5680633 -0.051281057 0.42627957
-0.4140268 0.5039666 -0.22894304 0.0711984 -0.4030394 -0.21164529 0.27944332 -0.38272467

fc2.weight f4 [128, 128]
00000000: 1bc9 e1bd 76eb 143e d415 fa3d 4215 8cbe
00000010: 4378 30be 274a 41be be6a ba3c 32cb 6a3e
00000020: dfb3 6a3e edb0 963d 301a 45be f733 343e
00000030: e57d 373e 98f5 25bf a369 24bf 6333 2a3e
00000040: 34de e13d 7175 913c 0138 89bb 8af7 823d
00000050: cc05 e0bb d011 5abd aa23 b33c 9355 943c
00000060: a069 d2be ddb2 9dbe f1d5 2ebf 07eb 363d
00000070: 6a15 dd3d 0f0b b83d 1d99 c93d 5f4a e83d
00000080: 528f 12bf 6615 01be ca1f 84be e622 183e
00000090: 3088 f33d 2fd3 9dbe 6022 45bd bddd cdbd
000000a0: cce6 08be 9a13 e33d 73b9 393e a8e1 47be
000000b0: d5e2 01bf 26b6 033e cb80 0f3e fc55 fd3d
000000c0: cb33 863d fc12 633d c792 6c3d 6e26 f9bd
000000d0: b3ed d03d 04ed 1ebf 92fa 40bf a6a3 0a3e
000000e0: b35b 193d 5005 57bf 8e29 7b3e 3268 733d
000000f0: 74ba 3c3d c0e0 06be 36a2 343d 5c43 613d
00000100: dbee e0be 5d0a 753d 8014 78bd 1436 09be
00000110: 7bb6 6e3d b6b4 dc3c e8bc 59bf 48db 02bf
00000120: e1f3 c3bc e67b 013e 6d33 623e 3d0f e6bc
00000130: f4b9 8ebd d0d2 7b3d 1409 323e 1b90 c23d
00000140: 4876 36bc 6507 d23d a94c 00be 65cf 0c3e
00000150: 1ed3 323d 9ed8 3c3e ea35 203e f0aa 0b3d
00000160: eca6 fb3d 132e 6fbe a9c9 073d 1a37 b83d
00000170: 0976 70bd 1b13 74bd d146 893c 0fde e43d
00000180: 52b2 c7bd a6d3 363e 19f1 723d 6d96 eabd
00000190: 7827 433e 6f7d 953d b332 09be 4b12 773e
000001a0: 2b35 c43d 50d3 333e 336e 1c3e f202 123e
000001b0: a6af 393e 7756 373c 3928 803d ea8f f4ba
000001c0: df5b 0b3e 4645 463e 4a28 283e cbe9 98bd
000001d0: 731a 923d 24da 223d 197a 023f bf9b 8d3d
000001e0: 066a 6fbe 5282 e83a bc55 86be 82b0 56bc
000001f0: 602c ecbe 016e 42bf 20cc 203e 709b 8bbe
00000200: c9c9 8abc bf46 513d 663d e93c 5e81 8d3d
00000210: 6e92 393c ab83 95bc 71d4 9abd eb8f 8c3d
00000220: 0aa4 a83d 4f19 9dbd 369d 003c 38a5 bfbd
00000230: 7160 cebc 5896 873d 41a9 c1bd 1fd0 743d
00000240: 9336 6ebd 8a8e 76bd 1743 7ebb c285 a1bc
00000250: 60c0 94bd 3b45 bfbd bc24 f23c c7d6 bd3b
00000260: 09c3 babd 68a2 72bc 3360 913d 6513 32bc
00000270: 5e52 8f3d 9736 7a3d 713e 8d3d 5acb 3bbd
00000280: e7ff e8bc 1f9c b9bb a6f7 30bd b042 8b3d
00000290: 17d8 783b 2260 aabb 40e6 1fbd 071e ab3d
000002a0: c2bb 60bd c9fd 893d ff5f 9e3c 9d41 a73d
000002b0: cc37 bd3a 23a9 73bd 57f7 7fbc 67eb 4ebd
000002c0: 02f7 87bd f372 063d 37a6 48bd af51 79bd
000002d0: 9b06 dcbc 7a72 26bc 65f4 733d 7489 063c
000002e0: 3e90 473c bb18 f93c 29a6 893d b515 02bd
000002f0: ca88 683d 793b 85bd 00d4 77bd 63c4 5cbd
00000300: cf39 5e3d b941 80bd 3413 5d3c 9117 9bbd
00000310: fdaf c2bd aba6 41bd 70b7 76bd cbd8 52bd
00000320: acb9 8abc 19dc 0abd 57b5 58bd ae9b 923d
00000330: 4d43 9e3d 2884 76bd dd00 74bd ac2b 96bd
00000340: c9ee 743d 8451 683c 1a7d 84bd db8a ba3c
00000350: 9b7e f2bb 3bcd b4bd 3d7d b2bd f747 813d
00000360: 5393 6c3c 2b4f 59bd 4bc9 cb3c 0bb6 b8bd
00000370: b8f2 fa3c 4d0b 463c f0e8 693d 859d 89bd
00000380: f5fd 093d 14b9 0abd 4439 73bd 0264 3c3c
00000390: 58dc 54bd 30ec c03b b5ae 2b3d 3c67 97bd
000003a0: 95aa a53c 3d0b 743d 1614 23bd bdf6 5d3d
000003b0: ba04 843d ff75 84bd 202a 7fbc 2ce3 7f3d
000003c0: 415d 31bd bb09 40bd 61db 703c fa34 723d
000003d0: cd7e 27bd de19 a0bc 6eae 163d 44ef 9fbd
000003e0: 9309 83bd 2140 41bd 85db 773d 6478 64bd
000003f0: 176e d1bd 49fc febc bc9f 5d3c 4124 983d
-0.11024686 0.14542946 0.12211195 -0.27359968 -0.17233376 -0.18875943 0.022755977 0.22929075
0.22920178 0.07357965 -0.19248271 0.17597948 0.17919119 -0.6482787 -0.6422369 0.16621165
0.1102871 0.017756196 -0.0041875844 0.063948706 -0.0068366285 -0.053239644 0.021867592 0.018107211
-0.4109621 -0.30800524 -0.682952 0.044657733 0.107951 0.08986484 0.09843657 0.1134231
-0.5724994 -0.12605819 -0.25805503 0.14857063 0.1189121 -0.30825183 -0.048128486 -0.10052059
-0.13369292 0.11087723 0.1813715 -0.19519675 -0.50736743 0.12862453 0.14013974 0.12369916
0.065528475 0.055438027 0.057757165 -0.12165533 0.102015875 -0.6208041 -0.7538234 0.1353899
0.037440967 -0.8399248 0.2452757 0.05942554 0.046076253 -0.13171673 0.04410001 0.05499588
-0.43932232 0.059824336 -0.060566425 -0.13399535 0.058279496 0.026941638 -0.85053873 -0.51115847
-0.023920001 0.1264492 0.2208993 -0.028083438 -0.069690615 0.061480343 0.17386276 0.09500142
-0.011136599 0.10255317 -0.12529244 0.1375099 0.04365837 0.18442008 0.15645567 0.034098566
0.12287697 -0.2335742 0.033151302 0.08994885 -0.058706317 -0.059588533 0.0167574 0.11175167
-0.09750809 0.17854175 0.05931196 -0.11454473 0.19058025 0.07299315 -0.13398246 0.24128072
0.095804535 0.17561078 0.15276413 0.14258936 0.18133411 0.011190048 0.06257672 -0.0018658612
0.13609265 0.19362363 0.16421619 -0.074664675 0.07133951 0.039758816 0.50967556 0.06914472
-0.23380288 0.0017739034 -0.26237285 -0.013103606 -0.46127605 -0.759491 0.15702868 -0.27267027
-0.016941922 0.05109286 0.02847166 0.069094405 0.011326415 -0.01825126 -0.07560051 0.06863388
0.08234413 -0.07670843 0.007849982 -0.09357685 -0.025192471 0.06620473 -0.09456111 0.059768792
-0.058157515 -0.06019453 -0.0038797313 -0.019717101 -0.07263255 -0.093393765 0.029558532 0.0057934257
-0.09119231 -0.0148092285 0.07098427 -0.010868882 0.06998132 0.061087217 0.068966754 -0.045848228
-0.028442336 -0.005664363 -0.043204926 0.06799829 0.0037970596 -0.005199448 -0.039037943 0.08355337
-0.05486656 0.06737859 0.019332884 0.081668116 0.0014436184 -0.059487473 -0.015622935 -0.050517466
-0.0663891 0.032824468 -0.04898664 -0.060868915 -0.026858618 -0.010159129 0.059559245 0.008211482
0.012180386 0.0304073 0.06721146 -0.031758983 0.056771077 -0.06505484 -0.060504913 -0.053898226
0.05425435 -0.062625356 0.013493348 -0.07572854 -0.09506223 -0.047278088 -0.060233533 -0.05147628
-0.016934238 -0.033901308 -0.052907314 0.071586 0.0772768 -0.060184628 -0.059571136 -0.073325485
0.059798036 0.014179591 -0.06469174 0.02277129 -0.0074003465 -0.08828207 -0.087152936 0.06312554
0.014439422 -0.053054016 0.024876257 -0.09019097 0.030633315 0.012087655 0.057106912 -0.067194976
0.033689458 -0.03386791 -0.059380785 0.011498453 -0.05196795 0.0058875307 0.04191466 -0.07392737
0.020222941 0.05958103 -0.039814077 0.054190386 0.06446214 -0.064678185 -0.015574008 0.062472507
-0.043301824 -0.04688428 0.0147007415 0.059132554 -0.04089241 -0.019543584 0.036787443 -0.07809308
-0.063983105 -0.0471803 0.060512085 -0.055778876 -0.10226076 -0.031126158 0.013526853 0.0742879

fc2.bias f4 [128]
00000000: 5cab 4d3d af55 7b3c 1327 9ebc 2898 3f3d
00000010: ffca 753d 529c 953c f3b4 c23d ea09 9fbd
00000020: 47ea 933d 060f b13c 3db1 cb3d b62e bd3d
00000030: 9331 de3d 40aa e4bc b63b acbd de63 a33c
00000040: e70c 2e3e cfc1 263d f527 c03d da2f 6e3d
00000050: 9507 66bd 4e46 d3bb 942a 83bd e4c7 95bd
00000060: 7a97 a53c a1c5 a83d bc5e 443d 8584 233c
00000070: 4acd fd3d 7648 713d dcb6 ad3c 9864 80bd
00000080: 9488 a2bb 2bbe 123e fb27 a43d 1141 313c
00000090: caab 033c da05 763d eb26 aabd 5589 0f3e
000000a0: ce1e cfbd 5065 c33d 4ec6 bebd 64e2 ff3c
000000b0: c5e7 b4bd 0c46 3e3d fc42 4cbd ec5e b83d
000000c0: 54a5 f83d 421c 5dbd 62ab 343e 2a26 e4bc
000000d0: 6175 9a3d b285 1a3e 7978 593d 4905 6f3e
000000e0: d171 943d d230 feb9 991b 8c3d 9881 94bd
000000f0: 1c25 623d d3fc f43d 99bc f0b9 0deb 983d
00000100: 5c9d dc3d 6c39 8fbd b96d 063d ee7e c0bd
00000110: d632 243e c154 d53c 243c 193d 14ae 90bd
00000120: 66c4 403e 6ebe 77bd 1666 ee3d 8558 c0bc
00000130: 3ed2 1b3e 0200 b8bc e292 a43d f5a2 463d
00000140: bd80 0b3e 36a6 403d ff53 603c b721 473d
00000150: 1866 473d 49e2 9cbc 1a17 0f3e 2c4e 39bc
00000160: 492f 9f3d b392 d1bc 145e 403e 2a4b e03d
00000170: d585 ad3d 8594 2b3e 5aca a53c d145 cd3d
00000180: 2a65 b9bd 9a23 ea3d 73b2 8a3c 13db 583d
00000190: 2a8a a33d c64a 693d 259e 733d 42af 9e3c
000001a0: 277a 8c3c d56d 163d cea5 72bd 8426 abbd
000001b0: 8a01 843c 6275 0f3e a8f9 cdbc ff84 3c3e
000001c0: ddd5 2ebc 38c5 95bd 16d5 20bd 2424 07bd
000001d0: 0682 dc3d ee31 c1bd 6b37 3e3d 1e91 9f3d
000001e0: 285f 103e daba d33c 7a6a 263d baa4 3d3e
000001f0: 5b37 913d 861e 6abd 8744 a5bd 11f0 2f3d
0.05021225 0.015340253 -0.019305741 0.046775967 0.060008045 0.018263016 0.095071696 -0.07765563
0.07222419 0.021613609 0.09945915 0.09237425 0.10849299 -0.027913213 -0.084098265 0.019945081
0.1699711 0.040712174 0.09382621 0.058151104 -0.056159575 -0.00644759 -0.064046055 -0.07313517
0.020213831 0.0824082 0.04794191 0.009980326 0.123926714 0.058906995 0.021205358 -0.06269187
-0.004960129 0.14330356 0.08015438 0.010818736 0.008036563 0.060064174 -0.08308204 0.14017232
-0.101132974 0.09540808 -0.09315167 0.031235881 -0.08833269 0.04645352 -0.04986857 0.0900248
0.12140909 -0.053982027 0.17643502 -0.02785023 0.075419195 0.15090063 0.053093407 0.2334186
0.07248271 -0.0004848303 0.06841201 -0.072512805 0.05521117 0.11962285 -0.00045916883 0.074667074
0.107722014 -0.06993374 0.032819483 -0.0939921 0.16035017 0.02604139 0.03741087 -0.07064453
0.1882492 -0.060484342 0.11640565 -0.02347971 0.1521692 -0.022460941 0.08035828 0.04849525
0.13623329 0.04703351 0.013691901 0.048616137 0.04868135 -0.01915087 0.13973656 -0.0113101415
0.07772691 -0.025582647 0.18785888 0.109518364 0.08472792 0.16755874 0.02023809 0.10023082
-0.09052499 0.11432572 0.016930794 0.0529433 0.07985337 0.056956075 0.05947699 0.019370679
0.01714809 0.036725838 -0.059240155 -0.08356956 0.016114015 0.14009622 -0.02514346 0.18410109
-0.010671106 -0.07313007 -0.039265715 -0.03299345 0.107669875 -0.094333515 0.04643957 0.07791351
0.14098799 0.025845934 0.040628888 0.1851987 0.07090636 -0.057158016 -0.08069711 0.042953555

fc3.weight f4 [2, 128]
00000000: ea4b 8a3e 9565 0a3c 53f2 533d e3a3 c93e
00000010: 541b 403f 43e2 30bd 14e6 d83e 39c4 9cbd
00000020: 8942 793e 3521 a53e 3791 b63e 9ecc c83e
00000030: 3161 cc3e b99b 58bf 3e45 91bf 3b64 c03e
00000040: 5280 a93e 5bef 723e 7fba b73e b6e3 e93e
00000050: ac48 173d c547 37bf 693b 86bd 3e0c 07bd
00000060: 1e89 05bf 6bbd 8ebd 5452 f43d ddc4 bbbe
00000070: c474 cf3e 0e99 763d 992a 4ebf 623d 65bf
00000080: e886 e6bb e8e9 8ebe 8199 303e 5399 54bd
00000090: 4c63 8f3e fcc9 903e 28ea 3b3f 1879 b23e
000000a0: 06fd 58bd 9e50 903e a771 d8be ed94 813e
000000b0: 673a 88bf 4f42 b63d f256 083d 272d f43c
000000c0: 2f8d e43e 8f9a 7bbf b42e 623e a9f2 3dbf
000000d0: 3e88 0abf 7e1e f73e e72d f73c 9b88 1b3e
000000e0: 247d 2bbf d192 76bd ce6e e23e ce67 06bc
000000f0: 83d5 ac3e f00d 473f 82c9 753d 84e7 0c3d
00000100: 94c8 183f 12e0 f53c cca7 f6bc bd0e 2abf
00000110: 096e c43e f2e6 9e3d a2cc f23b f46c 19bf
00000120: fc9f bd3e 1a41 5a3c 54b9 143e 6cef b93e
00000130: 71c9 8b3e 455c 8f3c 8f52 773e c5db ae3e
00000140: bf1f ab3c b125 003e e15b 41bd 87a0 933a
00000150: 2007 883e 4152 643e 79fe 6b3e b236 913e
00000160: be54 9d3e b03c 463d f788 c53e 84d3 863e
00000170: b2c4 173e 6356 e13e 0620 53bd 8f77 e73e
00000180: 47ea 9f3d 99be dc3e 8a71 853e 7f08 39bf
00000190: 7e8b 823e 226a 3fbd b9c3 ccbc 44ba 7d3d
000001a0: 4af2 813d fea0 2abd 88c5 7cbf 0351 dabc
000001b0: 3185 b23e 2b90 923e 1b47 a6be 9ccf d73e
000001c0: bb88 42bd 2e3b 303b d048 e8be b250 0ebf
000001d0: 4108 bcbd e892 56bf a5a3 78bd af39 333b
000001e0: 96e2 9a3e 5b91 50bf 6e08 293e ef4b 813e
000001f0: 85bd 21bb 7ac9 c6bc 6b29 fcbc 9016 d2be
00000200: 5c4e e23e b57c 7dbd dced 4d3c d761 443e
00000210: b0ac 5cbe dd88 0b3d 2129 883e 4052 88bd
00000220: 5f59 8d3e 897d c93e ba6e a43e f155 8b3e
00000230: 507c e83e 5199 3fbf 6aee d5be e78b f93d
00000240: f88b fd3e 2a5a 433e bd49 b23e db85 263e
00000250: cb34 09bd fc06 6abf f791 1cbd 04ae 40bb
00000260: 6fa1 4fbf ec97 6f3e d8d3 973e 378d fc3e
00000270: a1a5 f13d 3829 7dbd 68cc 11bf eca7 95be
00000280: 740c 72bd 2760 9c3e 1224 a53e 1149 9f3d
00000290: b976 603e 70cd ac3e 74fc 4f3f 581c 5e3e
000002a0: 30bf 0a3d ee2b 573e d572 31bf 89f7 bf3e
000002b0: e194 e8be 9a14 903e 0ea3 7d3d 4261 7b3e
000002c0: 47ba 533e bd3c 28bf 8d03 653e 3b7b 2ebf
000002d0: 340f 43bf 4531 c33e e9a7 923d fc03 063f
000002e0: f4bb 44be 4c9c 69bd 519c 773e d674 9dbd
000002f0: 526b ee3e 7b7b 9fbe c4e3 613c 23bb 77bd
00000300: 3a56 9e3e 5479 f3bc ab7c 9cbc 4e88 1ebf
00000310: db0c aa3e 1bd4 113d ab0b 16bd fbb0 71bf
00000320: d1e0 f03e f0b0 a2bd 2be4 803e 61f5 483f
00000330: 58ca 243e c1bb babc 1018 0dbf bff1 df3e
00000340: 36c6 65bf 3729 8a3e 4308 b1bd 2331 9d3b
00000350: 5231 d03e 27bc d13e 9357 8a3e d58f 37bf
00000360: d0b8 bb3e 4d52 75bd e919 c23e d2f8 923e
00000370: 9f4c f63e bf10 483e 5ad8 34bd 5540 2e3e
00000380: e187 8fbc 1531 033f 952b 993e b0b6 79bf
00000390: cf9e ec3e 949a 49bc 99af 803e dbe4 51bd
000003a0: 4215 81bd b67f 283d c188 9dbe 6678 65bd
000003b0: 7dad a43e 9c04 013f 4771 2a3f b3b4 c03e
000003c0: 16c5 ad3d 2b6a 063d e26e 80bf 72b2 4bbf
000003d0: 3bdb be3e e08e 47bf cb5a 15bd 7466 1ebd
000003e0: db85 883e 7ca9 253e 5b4f 7f3e 2f98 9a3e
000003f0: 61b3 793d d7b4 8fbd 41c2 af3d 43b6 94bf
0.27011043 0.008447071 0.05174477 0.39382848 0.750417 -0.04318453 0.42363036 -0.07654614
0.24341787 0.32251897 0.35657665 0.3921861 0.399179 -0.84612614 -1.1349256 0.3757647
0.33105713 0.2372412 0.35884473 0.45681542 0.03693454 -0.71593887 -0.065543 -0.03297066
-0.5216235 -0.06969722 0.11929765 -0.36673632 0.40518773 0.060204558 -0.8053375 -0.8954679
-0.007035125 -0.2791283 0.17246057 -0.051904034 0.28005445 0.28279102 0.7340417 0.34858012
-0.052975677 0.28186506 -0.4227421 0.25308934 -1.0642823 0.08899366 0.033286043 0.029806687
0.44638965 -0.9828271 0.22088128 -0.74198395 -0.5411414 0.4826545 0.030173255 0.1518883
-0.66987824 -0.06019861 0.44225162 -0.00820346 0.33756647 0.7775564 0.060006626 0.034400478
0.5968106 0.030014072 -0.030109309 -0.6642874 0.383652 0.07758893 0.007409648 -0.59931874
0.3703612 0.0133211855 0.14523822 0.36315477 0.27302125 0.017500052 0.24152587 0.34152046
0.020889161 0.12514378 -0.047206763 0.0011263051 0.26567936 0.22297002 0.23046292 0.28362042
0.30728716 0.04839772 0.38581058 0.2633325 0.14821127 0.4401122 -0.05154421 0.45208403
0.07808357 0.43114164 0.26063186 -0.7227859 0.2549705 -0.046732076 -0.024995672 0.061945215
0.06345041 -0.04165744 -0.9873891 -0.026649958 0.34867242 0.28625616 -0.32476124 0.4215058
-0.047493678 0.0026890743 -0.45368052 -0.5559188 -0.09181262 -0.8381791 -0.06070294 0.0027347615
0.30250996 -0.81471795 0.16507122 0.25253245 -0.0024679613 -0.024265993 -0.030781468 -0.4103284
0.44200408 -0.061886508 0.012568917 0.19177948 -0.2155025 0.03406607 0.2659388 -0.06656313
0.27607247 0.39353588 0.32115728 0.27214006 0.45407343 -0.7484332 -0.41783458 0.121848874
0.4952085 0.19077364 0.34821883 0.16262 -0.033497613 -0.9141691 -0.03822514 -0.0029400596
-0.81105703 0.23397797 0.2965381 0.49326488 0.11799169 -0.061806887 -0.56952524 -0.29229677
-0.059093907 0.30542108 0.32254082 0.07777608 0.21920289 0.33750486 0.8124459 0.216905
0.033873737 0.21012852 -0.69315845 0.37493542 -0.45426086 0.28140718 0.06192308 0.2454882
0.20676528 -0.6571768 0.22364636 -0.68156785 -0.76195073 0.38123527 0.071609326 0.5234983
-0.19212323 -0.057033822 0.24180724 -0.076883 0.46566254 -0.31148896 0.013787214 -0.0604812
0.3092516 -0.02972094 -0.019102415 -0.61926734 0.33212933 0.03560267 -0.03663222 -0.94410676
0.4704652 -0.079439044 0.25174078 0.7849942 0.16092813 -0.022794606 -0.5511484 0.43739125
-0.8975557 0.2698457 -0.08644154 0.0047971173 0.40662628 0.4096386 0.2701994 -0.71703845
0.36664438 -0.05989294 0.37910393 0.2870546 0.48105332 0.19537638 -0.04415164 0.17016728
-0.017520847 0.5124677 0.29916063 -0.97544384 0.4621491 -0.012304921 0.2513397 -0.051243644
-0.06302883 0.04113742 -0.30768397 -0.056023024 0.3216361 0.5039766 0.665791 0.37637863
0.08484857 0.032816093 -1.0033839 -0.7956916 0.37276635 -0.77952385 -0.03646354 -0.038671926
0.26664624 0.16177934 0.24932615 0.30194232 0.060962085 -0.07016914 0.08581973 -1.1618122

fc3.bias f4 [2]
00000000: b5df f03d bea1 f03b
0.11761419 0.0073435
