weights/tuning2/20000steps_4agents_64batch_10000cap_0.0003lr/run_4.pth (torch, 72253 bytes, 6 tensors)

fc1.weight f4 [128, 4]
-0.042375267 -0.12010713 -0.9340537 0.009383308 0.22601546 -0.3874753 1.1016146 0.4535136
0.4751715 0.39963168 0.327218 0.26842833 0.1227527 0.2344567 0.17091782 -0.5900544
-0.06901098 -0.4984216 1.1703098 -0.20784828 -0.39773124 -0.40824553 -0.5874619 0.26539797
0.25873622 -0.17326383 0.96629703 0.12391516 -0.41953468 -0.3773121 0.0805983 0.47029307
0.2747507 0.22687985 -1.1902944 -0.37141928 0.26679513 0.064024344 -1.3248762 0.3597505
-0.5081407 -0.21964744 -0.16290206 -0.11847543 -0.04850116 0.0241016 0.3897227 0.3078096
-0.43143412 -0.21900594 0.6554551 -0.13233984 -0.25065622 -0.058914766 -0.6597777 0.36303806
-0.020279953 0.48814562 -1.2606347 -0.0009715893 0.5884821 0.41708067 -0.22590473 0.26051888
0.12891714 -0.25691757 0.9765691 0.253876 -0.078013636 0.08576307 -1.0591191 -0.15613587
0.58168966 -0.5445046 0.33894905 -0.11206426 -0.27970463 0.56309634 0.3374067 -0.0013099024
-0.6261151 0.064234465 0.983034 0.5489295 -0.59183604 -0.12909147 0.64862466 0.34020293
-0.19440359 0.10107304 -0.95699525 -0.4415025 -0.058210336 0.4074401 0.9101966 -0.5036749
0.0052136537 -0.3092628 -0.19896564 -0.18871833 -0.48826197 -0.23508836 -0.2778611 -0.2343503
-0.5490932 -0.31313023 0.5724698 -0.1733568 0.07597901 0.060112253 -0.58256793 0.5004635
-0.49691468 -0.36559683 0.3058586 0.04985401 0.81784564 0.3970484 0.92024666 0.26632068
-0.06526304 0.22332546 -0.08706063 -0.018981691 -0.34332746 -0.22351646 -0.34736824 -0.16122505
0.38569608 0.2245649 -1.2453566 -0.2163999 0.51728106 -0.07354311 0.64733946 -0.3408624
-0.37255976 0.03162244 0.42411786 0.2060582 -0.34537688 0.33061895 -0.45819807 -0.2758225
-0.20767893 0.28282267 1.2084801 -0.27139652 -0.2179434 -0.45169944 -0.5226098 0.12654746
-0.14672028 -0.33559144 -0.7990179 0.05949147 -0.055762444 0.26914072 0.9380674 -0.55309993
-0.27981645 -0.018813135 0.1890483 0.3262997 -0.23886162 0.11926349 0.8104016 0.31866685
-0.18598522 0.24849404 1.4168874 0.5559471 0.23534793 -0.06779181 0.15571696 0.017189275
0.15925363 -0.33588213 -0.48867965 -0.03968318 -0.03578999 0.12809251 0.7330391 0.63806826
-0.091494404 -0.3910322 1.1955227 -0.11366293 0.12351278 0.07189218 0.053930826 0.03746489
0.16135111 0.25069016 0.7088342 -0.31221026 -0.49467972 0.3093027 0.93768597 -0.07469715
-0.21120998 -0.3744661 1.0574656 0.32611158 0.073271565 -0.018509408 0.751843 0.17848809
-0.025377268 -0.37561563 0.35005197 0.13364519 -0.19034715 0.56567925 -0.3590212 0.34074047
-0.061309874 -0.13948345 -1.3934706 -0.64074147 0.14157604 0.39135507 -0.76277506 -0.3210942
-0.5112177 -0.30992734 0.25950402 -0.46610442 -0.45145404 -0.2874631 -0.13045818 -0.1607523
0.18961924 -0.10017021 -0.71162033 0.42834458 -0.11524294 0.3511849 0.2980976 0.13862307
0.37632355 -0.4643873 -1.2533367 0.033444375 -0.32525897 0.16887072 -1.0749557 -0.08758681
0.47887483 0.055894423 -1.0470642 -0.23137023 0.18426543 -0.12735665 -1.2111384 0.118485406
00000000: b091 2dbd bafa f5bd 251e 6fbf 72bc 193c
00000010: 9970 673e 2a63 c6be b501 8d3f ef32 e83e
00000020: ae49 f33e 869c cc3e 1e89 a73e 706f 893e
00000030: c465 fb3d 6b15 703e 1505 2f3e ce0d 17bf
00000040: a155 8dbd 1e31 ffbe b6cc 953f 2ed6 54be
00000050: 6ea3 cbbe 8f05 d1be e763 16bf 3ee2 873e
00000060: 1379 843e 136c 31be 3e5f 773f 3bc7 fd3d
00000070: 40cd d6be 0d2f c1be b910 a53d 41ca f03e
00000080: 20ac 8c3e 3153 683e 915b 98bf ab2a bebe
00000090: 5f99 883e 321f 833d 8b95 a9bf 3831 b83e
000000a0: 8215 02bf 42eb 60be cccf 26be 3fa3 f2bd
000000b0: 27a9 46bd b870 c53c bc89 c73e 3899 9d3e
000000c0: efe4 dcbe 1843 60be e8cb 273f 1884 07be
000000d0: 0356 80be 9c50 71bd 31e7 28bf 20e0 b93e
000000e0: 2522 a6bc 39ee f93e 7a5c a1bf 41b2 7eba
000000f0: c3a6 163f 998b d53e 9253 67be bb62 853e
00000100: db02 043e b38a 83be 6f00 7a3f 09fc 813e
00000110: 9dc5 9fbd 8ca4 af3d 3791 87bf 15e2 1fbe
00000120: 9de9 143f a764 0bbf bb8a ad3e f281 e5bd
00000130: 7235 8fbe 1527 103f 92c0 ac3e 08b1 abba
00000140: 1449 20bf 5c8d 833d 1ea8 7b3f a586 0c3f
00000150: 9182 17bf 8e30 04be 440c 263f 142f ae3e
00000160: bc11 47be 62ff ce3d a4fd 74bf 9e0c e2be
00000170: f66d 6ebd fd9b d03e a502 693f d7f0 00bf
00000180: 4cd7 aa3b b257 9ebe a6bd 4bbe 613f 41be
00000190: 79fd f9be 01bb 70be cf43 8ebe 86f9 6fbe
000001a0: 5f91 0cbf 9b52 a0be 618d 123f 7284 31be
000001b0: e29a 9b3d 4438 763d 2c23 15bf 601e 003f
000001c0: 9a6b febe 822f bbbe 8099 9c3e b833 4c3d
000001d0: 555e 513f ee49 cb3e 4995 6b3f 2f5b 883e
000001e0: a1a8 85bd 6eaf 643e d84c b2bd 7e7f 9bbc
000001f0: 9ec8 afbe 80e1 64be 40da b1be 2e18 25be
00000200: f579 c53e 57f4 653e d867 9fbf ef97 5dbe
00000210: 886c 043f c59d 96bd 0ab8 253f 8485 aebe
00000220: 27c0 bebe 8886 013d fa25 d93e ec00 533e
00000230: 3dd5 b0be e346 a93e f098 eabe 9b38 8dbe
00000240: c9a9 54be 22ce 903e 7aaf 9a3f 7cf4 8abe
00000250: 8e2c 5fbe 2645 e7be c1c9 05bf a895 013e
00000260: d73d 16be a4d2 abbe 708c 4cbf 54ad 733d
00000270: 2967 64bd d0cc 893e 2f25 703f f597 0dbf
00000280: 1a44 8fbe 011e 9abc e195 413e c110 a73e
00000290: 2498 74be 6b40 f43d 7b76 4f3f 4d28 a33e
000002a0: e972 3ebe 3975 7e3e 915c b53f 8d52 0e3f
000002b0: 0cff 703e 6fd6 8abd 4474 1f3e 86d0 8c3c
000002c0: 6213 233e bef8 abbe 3834 fabe d58a 22bd
000002d0: 8698 12bd af2a 033e 73a8 3b3f 7158 233f
000002e0: 6b61 bbbd 5f35 c8be e306 993f 1cc8 e8bd
000002f0: 45f4 fc3d 353c 933d 92e6 5c3d c974 193d
00000300: 3a39 253e 765a 803e 2876 353f 06da 9fbe
00000310: a946 fdbe ec5c 9e3e 300c 703f d2fa 98bd
00000320: 6e47 58be 05ba bfbe 085b 873f 19f8 a63e
00000330: 670f 963d 0ba1 97bc c878 403f 95c5 363e
00000340: fde3 cfbc b150 c0be 033a b33e 49da 083e
00000350: 5dea 42be 5bd0 103f a0d1 b7be 8975 ae3e
00000360: 1020 7bbd c0d4 0ebe 3f5d b2bf a207 24bf
00000370: 4ff9 103e b15f c83e 3a45 43bf 7566 a4be
00000380: 2adf 02bf ccae 9ebe b6dd 843e 3da5 eebe
00000390: fc24 e7be 5d2e 93be d496 05be 409c 24be
000003a0: 8c2b 423e 0a26 cdbd c02c 36bf fb4f db3e
000003b0: 7e04 ecbd 82ce b33e 40a0 983e 35f3 0d3e
000003c0: 7bad c03e 2cc4 edbe 566d a0bf f8fc 083d
000003d0: 5888 a6be 72ec 2c3e 2698 89bf b760 b3bd
000003e0: 152f f53e 8df1 643d 3306 86bf 51ec 6cbe
000003f0: 14b0 3c3e c869 02be 9506 9bbf 7aa8 f23d

fc1.bias f4 [128]
0.42661983 0.22421719 0.42866588 0.30859584 -0.13953175 0.13394131 0.5843067 -0.5473987
-0.4583482 0.30644342 0.19852225 0.34419566 0.57733 0.20902508 -0.3685644 -0.30558413
-0.4205969 0.4667405 -0.25318435 -0.4027254 -0.38971427 -0.4772577 0.03211376 -0.10098099
0.5456561 -0.26624936 -0.125427 0.25611475 -0.54879504 0.14055921 0.3660495 -0.26548484
-0.46983314 0.18569641 0.41373086 0.20334144 0.30508056 -0.08221671 0.048309464 0.30664283
0.5255684 0.36888558 -0.253291 0.5147749 -0.31798297 -0.18199746 -0.1862094 0.4346728
0.64116436 0.13811508 0.027485274 0.35732335 0.35572127 -0.48528984 -0.31804657 -0.46748152
-0.015797613 0.5101258 0.15421322 0.49377105 0.43753904 -0.073965624 -0.12584674 0.42916325
-0.36089107 0.20258033 -0.33484533 0.5023443 0.53184676 0.29095984 -0.30061084 -0.494223
-0.18533888 0.59261364 -0.25674188 -0.5139106 -0.4581613 -0.47932273 -0.44808257 -0.20946488
-0.22876982 -0.4201307 0.28372765 0.29264334 0.05145419 -0.27607328 0.42858732 -0.3085996
0.65213233 0.25683895 -0.31210214 0.4397784 0.31704018 0.48561934 0.48119515 0.057128783
-0.15320279 -0.23198695 0.57962054 0.5510828 0.53719044 0.15215984 -0.10691657 -0.24058889
0.4424617 0.38391474 0.567255 0.28279203 0.041061718 0.26112428 0.10950791 0.25661686
-0.13581762 -0.2474113 -0.12961231 -0.27698505 -0.29691836 0.0072286357 0.63243175 0.11656644
-0.3204682 0.051260076 -0.2997648 -0.36655673 0.42362505 0.07884328 -0.24878128 0.23318383
00000000: ea6d da3e 3199 653e 187a db3e 4600 9e3e
00000010: 69e1 0ebe e927 093e 2095 153f 5222 0cbf
00000020: 9eac eabe 27e6 9c3e 6b49 4b3e 6a3a b03e
00000030: e6cb 133f ac0a 563e 79b4 bcbe 8675 9cbe
00000040: 7a58 d7be 9cf8 ee3e 61a1 81be 0632 cebe
00000050: a188 c7be 1f5b f4be b889 033d 1fcf cebd
00000060: 1eb0 0b3f d651 88be ef6f 00be 7921 833e
00000070: d57d 0cbf c1ee 0f3e d76a bb3e a1ed 87be
00000080: f88d f0be 3327 3e3e 88d4 d33e bd38 503e
00000090: 8533 9c3e 3c61 a8bd 25e0 453d 4a00 9d3e
000000a0: a78b 063f 92de bc3e 5caf 81be 4ac8 033f
000000b0: aace a2be 8b5d 3abe adad 3ebe 6f8d de3e
000000c0: 5923 243f 0a6e 0d3e cc28 e13c 16f3 b63e
000000d0: 1921 b63e e977 f8be 00d7 a2be bd59 efbe
000000e0: ff69 81bc 9b97 023f 12ea 1d3e 8fcf fc3e
000000f0: 1e05 e03e 4a7b 97bd f8dd 00be 49bb db3e
00000100: b7c6 b8be 3871 4f3e d970 abbe a399 003f
00000110: 1c27 083f b0f8 943e aae9 99be cc0a fdbe
00000120: 7ac9 3dbe 87b5 173f ac73 83be a58f 03bf
00000130: 1e94 eabe ca69 f5be 146b e5be f67d 56be
00000140: a342 6abe 5f1b d7be c044 913e 59d5 953e
00000150: a1c1 523d 7a59 8dbe cc6f db3e c400 9ebe
00000160: 25f2 263f 6580 833e dacb 9fbe a22a e13e
00000170: 1753 a23e 19a3 f83e 365f f63e dfff 693d
00000180: 31e1 1cbe fd8d 6dbe 0362 143f c313 0d3f
00000190: 5085 093f cacf 1b3e 13f7 dabd ef5c 76be
000001a0: 578a e23e 7990 c43e a037 113f 1eca 903e
000001b0: 5530 283d 15b2 853e af45 e03d 4963 833e
000001c0: c613 0bbe 6359 7dbe 17b9 04be fcd0 8dbe
000001d0: af05 98be 31de ec3b 0ce7 213f 63ba ee3d
000001e0: 6814 a4be 16f6 513d c67a 99be 53ad bbbe
000001f0: 62e5 d83e 9678 a13d 85c0 7ebe bec7 6e3e

fc2.weight f4 [128, 128]
0.14251919 0.043311656 0.09217138 0.007282007 -0.10685565 -0.008401425 -0.0019287415 0.107747704
-0.2140111 0.12605992 0.16172536 0.02393102 0.16905369 0.1771513 -0.29662502 0.05854761
-0.073520504 0.17736024 -0.3331793 -0.15417627 -0.09367663 0.05752925 -0.046395756 -0.008680507
0.14212091 -0.0068223113 -0.032993432 0.10854318 -0.07551758 0.100029536 0.06424323 0.04087663
-0.33339977 0.1976429 0.12792145 -0.05723839 0.166509 0.0141 0.18572226 0.096930854
0.16187641 0.10051703 -0.33620894 0.13066341 -0.12222476 -0.13895951 -0.12923868 0.041260432
0.12432025 0.18061894 -0.03416849 0.08726899 0.084442556 0.062986344 -0.6337807 -0.18306904
0.28800884 -0.017982196 0.099942766 0.077591546 0.030531177 -0.43475544 0.0030136423 0.16230138
-0.27927458 0.074521735 -0.39673454 0.08394335 -0.0030841727 0.031781673 -0.8316837 -0.43594724
-0.12582096 0.11916159 -0.2983349 -0.43996757 0.05070677 -0.12534578 0.20137484 -0.42870486
-0.22532892 -0.46468413 -0.010174724 0.09220716 -0.010188516 -0.3067258 0.022187548 -0.33439833
0.14300874 0.030158637 -0.4964843 -0.0029990089 0.13370706 0.11574493 0.0901154 0.11839194
0.022293841 -0.8288582 0.10665452 0.113239944 0.13691552 0.15198125 -0.11786092 -0.9016379
0.0024703506 0.18196133 0.09010948 0.1007666 0.15618184 0.12378828 0.011196756 0.07136226
0.001980719 0.06697533 0.009317191 -0.07160805 0.059431367 0.07698965 0.17625412 0.080493554
-0.7644879 0.19443327 -0.2757033 0.52005714 0.064712256 0.15670069 -0.08533111 0.15425837
0.101438075 -0.4839455 0.0815945 0.017232537 -0.05411106 0.056972105 -0.11680732 -0.16270691
-0.06775496 -0.0522795 -0.01320817 -0.11603778 0.047588613 0.05538419 0.18707427 0.12493647
-0.07641824 0.13911612 -0.17788409 0.09049254 -0.32452163 -0.06670275 0.2089992 0.110639684
0.084993824 0.110656455 0.111964084 -0.24814276 -0.042811546 -0.012676909 0.028110469 0.109486945
0.10467831 -0.029286215 -0.0069310605 0.17761154 -0.005882705 0.061560974 0.048488352 -0.006698401
-0.005440555 -0.15252422 -0.6551238 -0.13503622 -0.3149397 -0.14600223 -0.12897542 0.022701673
-0.04696988 0.1059928 -0.1519341 -0.34930363 -0.049531255 0.1113645 0.15381461 -0.024202548
0.13581842 -0.043880306 -0.25732878 -0.03476965 -0.041240785 0.26283544 -0.08791734 -0.058635406
-0.20612311 0.0380187 -0.3126839 -0.037336532 0.04682516 0.09094328 0.20488125 0.20406677
-0.27102 -0.012956864 -0.004945531 0.026679922 -0.14235498 -0.011263158 0.011151271 0.30680862
-0.031494025 -0.16815154 0.089517884 -0.06796719 -0.12817374 -0.085223965 -0.08041108 0.19433892
0.08614603 0.10649641 -0.18618022 -0.011808815 -0.14176649 0.012968824 -0.21800433 -0.009056956
-0.32686436 0.045546908 -0.059538566 0.030328378 -0.053605918 0.09633616 0.023171777 -0.022763202
0.0010302989 0.06554512 0.062078223 0.04026373 0.017879177 -0.61227703 -0.18303859 -0.002340795
-0.5875863 0.082785174 0.06350266 -0.06650695 -0.13806386 -0.08628078 0.10341921 0.16970839
0.105432436 -0.14778538 0.10522739 -0.14720428 0.04051385 0.1436063 0.110526934 -0.18266818
00000000: 8df0 113e 9067 313d 59c4 bc3d e79d ee3b
00000010: 23d7 dabd 21a6 09bc d3cd fcba d4aa dc3d
00000020: ba25 5bbe da15 013e 559b 253e fd0a c43c
00000030: 691c 2d3e 2667 353e 3cdf 97be 9ecf 6f3d
00000040: eb91 96bd ec9d 353e 7a96 aabe 62e0 1dbe
00000050: 88d9 bfbd caa3 6b3d 7a09 3ebd af38 0ebc
00000060: 2588 113e b28d dfbb 1f24 07bd e34b de3d
00000070: f6a8 9abd 49dc cc3d f491 833d 416e 273d
00000080: 60b3 aabe e662 4a3e d7fd 023e cd72 6abd
00000090: 5681 2a3e b003 673c fa2d 3e3e af83 c63d
000000a0: eec2 253e dfdb cd3d 9423 acbe a1cc 053e
000000b0: fa50 fabd 674b 0ebe 2557 04be b300 293d
000000c0: 9d9b fe3d 2cf4 383e 42f4 0bbd 16ba b23d
000000d0: 38f0 ac3d fcfe 803d 743f 22bf 7376 3bbe
000000e0: e575 933e 664f 93bc cbae cc3d 51e8 9e3d
000000f0: 851c fa3c 4498 debe 8780 453b 5532 263e
00000100: 14fd 8ebe da9e 983d ca20 cbbe 7eea ab3d
00000110: d51f 4abb 802d 023d 39e9 54bf 7a34 dfbe
00000120: 36d7 00be fe0a f43d 5abf 98be 6e43 e1be
00000130: e7b1 4f3d a55a 00be 3535 4e3e 347f dbbe
00000140: a0bc 66be 14eb edbe e3b3 26bc 1cd7 bc3d
00000150: bced 26bc 2a0b 9dbe a9c2 b53c 4236 abbe
00000160: e270 123e 3f0f f73c 3133 febe 058b 44bb
00000170: 81ea 083e ae0b ed3d 6c8e b83d 7977 f23d
00000180: 93a1 b63c 0d30 54bf af6d da3d 58ea e73d
00000190: 9533 0c3e f9a0 1b3e 1161 f1bd bed1 66bf
000001a0: 9be5 213b 1254 3a3e 528b b83d b85e ce3d
000001b0: 22ee 1f3e b684 fd3d 9972 373c 6026 923d
000001c0: f3ce 013b 5d2a 893d 22a7 183c 3ea7 92bd
000001d0: 4e6e 733d c0ac 9d3d f67b 343e ced9 a43d
000001e0: 7bb5 43bf 8419 473e fc28 8dbe 7722 053f
000001f0: dc87 843d 2576 203e 14c2 aebd e8f5 1d3e
00000200: c4be cf3d b4c7 f7be 041b a73d 402b 8d3c
00000210: 8fa3 5dbd 955b 693d ad38 efbd a49c 26be
00000220: 1dc3 8abd 0723 56bd 1567 58bc 37a5 edbd
00000230: 47ec 423d 88da 623d 6690 3f3e b1de ff3d
00000240: 2b81 9cbd 7574 0e3e 3f27 36be 2754 b93d
00000250: b327 a6be 749b 88bd e303 563e 0f97 e23d
00000260: 3e11 ae3d da9f e23d 6d4d e53d 2319 7ebe
00000270: 295b 2fbd cfb2 4fbc ed47 e63c b13a e03d
00000280: 9561 d63d a5e9 efbc f31d e3bb cddf 353e
00000290: b5c3 c0bb 5c27 7c3d b99b 463d 437e dbbb
000002a0: af46 b2bb 4f2f 1cbe 31b6 27bf ef46 0abe
000002b0: c73f a1be 9c81 15be 2212 04be dcf8 b93c
000002c0: 7d63 40bd c112 d93d 9d94 1bbe edd7 b2be
000002d0: 49e1 4abd 1213 e43d 9481 1d3e 6c44 c6bc
000002e0: fc13 0b3e d6bb 33bd 99c0 83be 9f6a 0ebd
000002f0: 19ec 28bd 5e92 863e 020e b4bd ae2b 70bd
00000300: f011 53be 7fb9 1b3d 1b18 a0be 31ee 18bd
00000310: bdcb 3f3d 7840 ba3d 64cc 513e e1f6 503e
00000320: 22c3 8abe 0749 54bc 1f0e a2bb da8f da3c
00000330: 81c5 11be 1c89 38bc d2b3 363c 0516 9d3e
00000340: e1ff 00bd eb2f 2cbe 2755 b73d 6232 8bbd
00000350: fa3f 03be e789 aebd 90ae a4bd c800 473e
00000360: 546d b03d ca1a da3d 07a6 3ebe c379 41bc
00000370: 3c2b 11be 317b 543c 873c 5fbe a063 14bc
00000380: c45a a7be 658f 3a3d b6de 73bd 3873 f83c
00000390: e191 5bbd e54b c53d bdd2 bd3c e579 babc
000003a0: 180b 873a 853c 863d bc45 7e3d 95eb 243d
000003b0: 5a77 923c 30be 1cbf 786e 3bbe 0668 19bb
000003c0: 0e6c 16bf 468b a93d af0d 823d cc34 88bd
000003d0: 9d60 0dbe fab3 b0bd 73cd d33d 09c8 2d3e
000003e0: f6ec d73d 0d55 17be 7581 d73d b8bc 16be
000003f0: daf1 253d 880d 133e f25b e23d 5e0d 3bbe

fc2.bias f4 [128]
0.10352029 -0.051206917 0.04397188 0.0819253 0.03296474 -0.089455456 0.12476857 -0.031708132
0.22580771 0.07593159 -0.060521964 0.14679416 0.09587382 0.14128342 0.07566477 -0.06915758
-0.0697197 0.01600906 -0.051381245 -0.07797623 -0.11341002 0.04044093 0.105082564 0.045986567
0.0900347 -0.0216945 -0.088611454 -0.071251705 0.18760787 0.10297087 -0.10247134 0.16524276
-0.057382904 -0.06575309 0.13817574 0.12699033 -0.044927537 0.037436068 0.11051201 -0.01015808
-0.025767593 0.19919483 0.16820446 0.0075420314 -0.004455764 0.10901578 0.084570095 0.13865457
0.019663645 0.19035704 0.12846538 0.019306818 0.17746672 -0.065999985 0.08075706 0.03591242
-0.08346994 -0.06341838 0.18938252 -0.083584525 -0.08046218 0.0099019315 -0.051379647 -0.043804184
-0.027603544 0.008611889 0.10315458 0.08426512 -0.06764694 -0.099208325 0.18473472 0.06864126
0.02429916 0.13484137 0.12233463 0.06984587 0.04833086 0.19213754 -0.044596747 0.041214857
0.100371644 0.07296152 -0.116506346 -0.06700887 -0.061569702 -0.07915478 -0.012840268 0.03483252
-0.05753357 -0.007543535 0.13122532 0.09188602 0.07076153 0.17073548 -0.070641 -0.060048956
0.061523467 0.029097175 -0.09272235 -0.018546088 0.1437008 -0.08219572 0.10614106 0.10281315
0.12818077 -0.074943036 0.05605476 0.03551203 0.13451909 0.061502073 0.0091841575 -0.08435361
0.16474786 0.09255421 0.17837395 0.0523731 -0.03540809 0.099383436 -0.08473428 0.13086994
0.13923521 -0.05083618 0.06595146 0.05643771 0.19425298 0.08585126 0.15413138 0.025327025
00000000: 7202 d43d 58be 51bd dc1b 343d 74c8 a73d
00000010: 0906 073d 6c34 b7bd aa86 ff3d 63e0 01bd
00000020: 233a 673e 0582 9b3d e1e5 77bd 3551 163e
00000030: 7e59 c43d 9aac 103e 22f6 9a3d 7da2 8dbd
00000040: 34c9 8ebd 6f25 833c 2475 52bd 00b2 9fbd
00000050: 8343 e8bd 63a5 253d 8735 d73d 695c 3c3d
00000060: 1d64 b83d aab8 b1bc ec79 b5bd 6aec 91bd
00000070: 471c 403e 64e2 d23d 7edc d1bd 6635 293e
00000080: 560a 6bbd 8ea9 86bd f17d 0d3e c109 023e
00000090: f005 38bd 9056 193d 1f54 e23d 136e 26bc
000000a0: 8f16 d3bc bbf9 4b3e ca3d 2c3e 2523 f73b
000000b0: a801 92bb aa43 df3d 1633 ad3d 77fb 0d3e
000000c0: a715 a13c f5ec 423e 6e8c 033e 5529 9e3c
000000d0: d6b9 353e 002b 87bd f563 a53d e718 133d
000000e0: 4af2 aabd 7fe1 81bd 7eed 413e 5d2e abbd
000000f0: 5bc9 a4bd b63b 223c 7773 52bd 046c 33bd
00000100: d420 e2bc e118 0d3c b542 d33d 3193 ac3d
00000110: 7b8a 8abd bc2d cbbd 192b 3d3e ca93 8c3d
00000120: 080f c73c db13 0a3e 948a fa3d 5a0b 8f3d
00000130: 94f6 453d b4bf 443e 14ab 36bd e9d0 283d
00000140: a68f cd3d d96c 953d e19a eebd f23b 89bd
00000150: 8330 7cbd e71b a2bd fd5f 52bc 8bac 0e3d
00000160: 52a8 6bbd c22f f7bb ee5f 063e bd2e bc3d
00000170: 6ceb 903d 48d5 2e3e 3bac 90bd e5f5 75bd
00000180: 0800 7c3d 335d ee3c 37e5 bdbd f7ed 97bc
00000190: 4d26 133e 3b56 a8bd 7c60 d93d b38f d23d
000001a0: d241 033e bc7b 99bd ad99 653d 1075 113d
000001b0: 5fbf 093e 99e9 7b3d 2679 163c 96c1 acbd
000001c0: aab3 283e 108d bd3d a9a7 363e 2d85 563d
000001d0: 1308 11bd 8b89 cb3d 2b89 adbd c502 063e
000001e0: ad93 0e3e 9939 50bd 8f11 873d 3a2b 673d
000001f0: 41ea 463e c9d2 af3d 9ed4 1d3e 9f7a cf3c

fc3.weight f4 [2, 128]
0.30003026 -0.22066814 -0.020360276 0.12445599 -0.06493444 -0.066869184 0.32094678 0.010295364
0.15548743 0.439889 -0.7855653 0.36890766 0.42082852 0.39973897 0.26987198 -0.01729317
-0.0018955328 0.3440932 -0.022425454 0.019180678 0.021461815 -0.064875685 0.32323125 0.020460695
0.43427658 -0.5189515 -1.0579268 -0.65340936 0.49709862 0.4711241 -0.57308 0.2232656
0.083273575 -0.08685002 0.43878335 0.3226095 -0.03022668 -0.59133095 0.33339918 0.009074389
0.047020026 0.49744055 0.4019098 0.0019448152 -0.8610795 0.3147699 -0.8270923 0.4402152
-0.6211041 0.24768397 0.32804048 -1.0546131 0.16438837 0.01243678 0.49225533 0.2753555
0.2734048 -0.16218379 0.30558065 -0.033256408 0.03477618 0.39132926 -0.90731925 -0.030844064
-0.05295348 -0.004937651 -1.0237948 0.3796983 0.0154028395 -0.5797423 0.2336916 0.40405238
-0.0026272198 0.2010738 0.7991334 -0.46311983 0.35239002 0.2820837 0.045087222 0.03473542
0.283954 0.00079984183 -0.41516924 0.049387235 0.23083475 -0.05842748 -0.23862617 -0.92226964
0.049101327 -0.8039389 0.07024353 0.24730311 -0.005469797 0.19354257 0.06553142 0.0047441334
0.20034808 0.1056498 0.027258307 -0.075340934 0.38921443 -0.03716511 0.26994503 0.25619847
0.29110053 0.025584074 0.36525267 0.27048644 0.30704668 0.33156562 0.30470142 0.033197343
0.4935461 0.31716096 0.09460294 0.24694526 0.0073932842 0.45944154 -0.005355135 0.14435723
-0.1875912 -0.028343238 0.3245137 -0.7852072 -0.16135152 0.31835443 0.46991667 -0.96155554
0.24576947 0.25008386 -0.0049702325 0.31306365 0.3517061 -0.021533 0.24817905 -0.06860357
0.41249722 0.29331544 -0.23482102 0.37335852 0.43487796 0.30024973 0.26004353 -0.060019996
0.045491554 0.1732014 -0.032644104 -0.060597762 -0.06461522 0.31708393 0.21028696 -0.42973474
0.056689117 -1.0243661 -0.75109744 -0.8552114 0.14092791 -0.1602248 -1.0474738 0.3823022
-0.037979554 0.0075430884 0.40690705 0.15772727 -0.0054764007 -0.7185468 0.27970576 -0.025008067
-0.025406865 0.15475649 0.36833268 0.088105075 -0.81624824 -0.04392358 0.13577034 -0.019860134
-0.71822196 0.4546836 0.3885514 -0.439886 0.30888236 -0.023357054 0.32028353 0.29113
0.036150075 -1.1887239 0.36608317 0.02148744 -0.064781636 0.20524381 -0.66135913 -0.027041024
-0.0047010253 -0.06162903 -0.62479454 0.22919717 0.04360184 -0.010118554 0.19257574 0.30112413
0.018345876 0.25533494 0.15108256 -0.9450854 0.34570038 0.31386447 0.009713454 -0.05986715
0.3092719 0.05638387 -1.0962261 -0.0809828 -0.9475667 0.06886195 -0.8723072 -0.6454456
-0.069245145 -0.08390319 0.3519536 0.24691 -0.06378211 0.29459518 -0.035834078 -0.05009872
0.27772528 -0.42575315 -0.009214133 0.0037346869 0.27206212 0.008364148 0.3924716 0.22165975
0.34561855 -0.04631692 0.30258936 0.29752195 0.29172593 0.22509181 0.15716371 -0.07394801
0.19985656 0.28251082 0.41928673 0.42350703 -0.0018419081 0.32573342 -0.0685535 0.41936532
0.32584915 -0.026405524 0.23775648 -0.87486494 0.2270884 0.15806176 0.29657274 -0.82885784
00000000: 919d 993e d4f6 61be 98ca a6bc c8e2 fe3d
00000010: 59fc 84bd b6f2 88bd 2353 a43e e3ad 283c
00000020: 1938 1f3e 2239 e13e cf1a 49bf 77e1 bc3e
00000030: d676 d73e 96aa cc3e a92c 8a3e 68aa 8dbc
00000040: 8773 f8ba fc2c b03e 96b5 b7bc cc20 9d3c
00000050: b0d0 af3c 8bdd 84bd 917e a53e 309d a73c
00000060: 8059 de3e 01da 04bf 256a 87bf d645 27bf
00000070: b683 fe3e 2e37 f13e 5fb5 12bf bd9f 643e
00000080: 568b aa3d 6cde b1bd 36a8 e03e 132d a53e
00000090: f19d f7bc 7761 17bf 4cb3 aa3e bfac 143c
000000a0: 1298 403d 87b0 fe3e 1fc7 cd3e 2be9 fe3a
000000b0: b56f 5cbf 8529 a13e 52bc 53bf e363 e13e
000000c0: ae00 1fbf dea0 7d3e ecf4 a73e 90fd 86bf
000000d0: 6d55 283e a3c3 4b3c e408 fc3e 65fb 8c3e
000000e0: b7fb 8b3e 8213 26be 1175 9c3e df37 08bd
000000f0: 7871 0e3d 4f5c c83e 1346 68bf b1ac fcbc
00000100: c0e5 58bd 05cc a1bb b50b 83bf d167 c23e
00000110: 315c 7c3c fe69 14bf da4c 6f3e f4df ce3e
00000120: 6f2d 2cbb 4ae6 4d3e 0294 4c3f 0b1e edbe
00000130: 776c b43e 466d 903e 61ad 383d ba46 0e3d
00000140: 6b62 913e 7aac 513a 1091 d4be 454a 4a3d
00000150: f25f 6c3e a751 6fbd 6b5a 74be dd19 6cbf
00000160: 791e 493d f1ce 4dbf d7db 8f3d 073d 7d3e
00000170: fc3b b3bb 0630 463e 5635 863d ad74 9b3b
00000180: 0c28 4d3e ec5e d83d d04c df3c 594c 9abd
00000190: 1d47 c73e 713a 18bd 3c36 8a3e 722c 833e
000001a0: 210b 953e b195 d13c 6602 bb3e 337d 8a3e
000001b0: 3935 9d3e f8c2 a93e d301 9c3e f0f9 073d
000001c0: 13b2 fc3e ec62 a23e 30bf c13d 38df 7c3e
000001d0: 5d43 f23b ec3b eb3e 217a afbb 62d2 133e
000001e0: e817 40be 1430 e8bc a926 a63e 5703 49bf
000001f0: 5539 25be 5aff a23e eb98 f03e 8128 76bf
00000200: feaa 7b3e fe0a 803e 55dd a2bb e149 a03e
00000210: d212 b43e f965 b0bc a622 7e3e 0780 8cbd
00000220: d632 d33e 712d 963e ec74 70be d928 bf3e
00000230: 53a8 de3e 55ba 993e 6d24 853e 87d7 75bd
00000240: 5a55 3a3d b55b 313e d3b5 05bd 5c35 78bd
00000250: fc54 84bd d358 a23e 7755 573e 3106 dcbe
00000260: d932 683d 6e1e 83bf ec47 40bf 22ef 5abf
00000270: 684f 103e f811 24be 9f13 86bf 1dbd c33e
00000280: 7390 1bbd 032c f73b 1f56 d03e 4283 213e
00000290: 6173 b3bb aff2 37bf 9835 8f3e b8dd ccbc
000002a0: 0f22 d0bc 7c78 1e3e 1a96 bc3e 6f70 b43d
000002b0: a5f5 50bf 36e9 33bd 6107 0b3e b8b1 a2bc
000002c0: 65dd 37bf 4acc e83e 36f0 c63e bd38 e1be
000002d0: d425 9e3e 4b57 bfbc 34fc a33e fe0e 953e
000002e0: 1a12 143d 1b28 98bf 416f bb3e 6e06 b03c
000002f0: 3cac 84bd 6f2b 523e d54e 29bf 2385 ddbc
00000300: 0f0b 9abb b96e 7cbd 89f2 1fbf aab2 6a3e
00000310: d897 323d 4bc8 25bc 9332 453e f12c 9a3e
00000320: 174a 963c 43bb 823e 63b5 1a3e 1ef1 71bf
00000330: a4ff b03e d8b2 a03e 2e25 1f3c 4237 75bd
00000340: e358 9e3e c6f2 663d 2351 8cbf 4fda a5bd
00000350: bb93 72bf 7e07 8d3d 864f 5fbf ec3b 25bf
00000360: 66d0 8dbd 70d5 abbd 4333 b43e fad5 7c3e
00000370: 32a0 82bd 2ed5 963e c1c6 12bd 5134 4dbd
00000380: 0232 8e3e 51fc d9be e0f6 16bc a6c1 743b
00000390: ba4b 8b3e c809 093c 0af2 c83e c6fa 623e
000003a0: eaf4 b03e d0b6 3dbd feec 9a3e cc54 983e
000003b0: 1a5d 953e 787e 663e 86ef 203e 0e72 97bd
000003c0: 33a7 4c3e 42a5 903e c0ac d63e ead5 d83e
000003d0: 2e6c f1ba 88c6 a63e c765 8cbd 0db7 d63e
000003e0: b3d5 a63e 6650 d8bc 6f76 733e 26f7 5fbf
000003f0: dd89 683e f1da 213e 62d8 973e 0730 54bf

fc3.bias f4 [2]
0.017367654 0.06912509
00000000: 9c46 8e3c 7591 8d3d
