weights/tuning2/20000steps_4agents_32batch_15000cap_0.0003lr/run_6.pth (torch, 72253 bytes, 6 tensors)

fc1.weight f4 [128, 4]
-0.25909215 -0.018703794 -0.58826035 -0.28878462 0.0064944434 0.20156153 0.37967083 0.20884766
0.23175305 -0.38135242 0.35744858 0.03742746 0.27042955 0.4781593 0.4613945 0.36957535
-0.22374023 0.37003908 -0.9171787 -0.48119617 -0.3986154 0.5162334 0.6409312 -0.39210343
0.004868488 0.11523541 0.09974329 -0.29000434 -0.122957595 0.115544125 1.2059371 0.47754276
0.55452454 -0.3704169 -0.85351515 -0.058543976 -0.22499585 -0.007824429 0.32604358 0.33603057
0.22311625 0.16639534 -0.4418478 0.17503984 -0.13231651 -0.18889034 -1.1798619 -0.6386183
-0.025201265 0.15409048 -0.70801115 0.10407358 0.28102857 0.24597594 -0.53849185 -0.054024074
-0.21394199 0.3400271 -0.78579444 -0.28119436 -0.45066172 0.12795691 -1.0863688 -0.49811545
0.13352461 0.20767389 -1.2412789 -0.5084905 0.55770457 -0.17336737 -0.70725536 -0.18790351
0.5482236 0.4738907 0.17470983 -0.05220118 -0.02652598 0.46661007 0.8466795 0.043094333
0.16749136 -0.2210629 -0.04451971 0.17726976 -0.46112496 -0.35847363 0.35378277 -0.10175427
-0.17665847 0.08214221 -0.46799427 -0.06848454 0.09014745 0.19433595 0.57634056 -0.30468473
0.1418904 -0.025433004 0.40133542 0.016985 0.44418052 -0.14907692 0.4001009 -0.14403242
0.3246326 -0.40693566 0.18626963 -0.35072786 -0.4375936 -0.4124664 0.8078843 -0.061164033
0.4496196 -0.03277826 -0.06726915 0.03747732 -0.4711784 0.15310057 0.615741 -0.3810302
0.36030227 -0.4326701 -0.49657854 -0.2866292 -0.33044127 -0.0968618 0.37720358 -0.3519947
-0.4583381 -0.21575627 0.6921797 0.070985235 -0.40032488 0.02543602 0.89997154 -0.32668597
-0.09988343 0.18919176 -0.621833 0.0298615 -0.09867906 -0.45654395 -0.22078878 -0.15305085
-0.11150712 0.13313116 0.78140676 0.21989046 0.09906331 -0.3862737 -0.54095733 0.095771536
-0.3422156 0.3790872 0.53398466 -0.35742816 -0.74032354 0.20465428 -0.005971314 -0.28275654
0.24930799 -0.37933484 -0.7351857 -0.17812538 0.55124795 -0.46352407 -1.0072627 0.29486996
0.44627506 -0.37832427 1.1887727 0.25553158 -0.18141334 -0.021023797 1.0637105 0.36929357
0.009047493 -0.5092431 -0.13396399 -0.35367495 0.0035056027 -0.38809174 -0.7084252 0.16782616
-0.2855112 -0.12108602 0.673065 -0.22014192 0.02090828 -0.25199255 0.47553104 -0.3330802
0.12391561 0.005435562 -0.3739543 0.15374132 -0.066209994 0.34382635 0.76414245 -0.3697895
0.07930204 -0.034512043 0.3968139 -0.3838515 -0.15050334 -0.366254 0.18762963 -0.1362028
-0.38655338 0.40495378 0.47228417 0.10282015 -0.4882814 0.45772672 0.87001604 0.18649018
-0.17966597 -0.15285355 0.9933021 0.18003955 0.42666295 -0.40047446 -1.00058 0.38358852
-0.5740022 -0.111601174 0.05647997 0.18469611 -0.38023135 -0.050976235 0.52685744 -0.045877796
0.21496597 -0.14291424 -1.3364215 -0.38851917 0.0384987 -0.08613302 -0.07881419 -0.2851601
-0.07263602 -0.48030105 -0.8882547 -0.08228399 0.14033765 -0.050868317 -1.0486325 -0.52591777
0.33014315 -0.06932692 -1.1896892 -0.42061692 0.22527419 0.0005630641 0.23912007 -0.16700993
00000000: baa7 84be b338 99bc 3b98 16bf 94db 93be
00000010: 57cf d43b 2566 4e3e 3764 c23e 29dc 553e
00000020: ac50 6d3e a040 c3be 8003 b73e 894d 193d
00000030: be75 8a3e 4cd1 f43e e63b ec3e fb38 bd3e
00000040: 291c 65be c375 bd3e 39cc 6abf 585f f6be
00000050: 5117 ccbe df27 043f 1114 243f c8c1 c8be
00000060: d687 9f3b 8b00 ec3d 3646 cc3d 737b 94be
00000070: 31d1 fbbd 66a2 ec3d 265c 9a3f 7c80 f43e
00000080: 52f5 0d3f 49a7 bdbe f87f 5abf cfcb 6fbd
00000090: 5065 66be 0932 00bc 2fef a63e 330c ac3e
000000a0: 9678 643e 8a63 2a3e e039 e2be a53d 333e
000000b0: fb7d 07be 786c 41be b705 97bf 7d7c 23bf
000000c0: e272 cebc e5c9 1d3e 3840 35bf 8724 d53d
000000d0: fae2 8f3e 1ee1 7b3e 9ada 09bf 5948 5dbd
000000e0: 9c13 5bbe 0818 ae3e d329 49bf b5f8 8fbe
000000f0: 22bd e6be 2307 033e 220e 8bbf fd08 ffbe
00000100: adba 083e 77a8 543e 3ae2 9ebf 6f2c 02bf
00000110: bac5 0e3f 3787 31be b00e 35bf c769 40be
00000120: 6258 0c3f cda1 f23e 22e7 323e e8d0 55bd
00000130: 034d d9bc 84e7 ee3e fdbf 583f af83 303d
00000140: db82 2b3e 505e 62be 4d5a 36bd 3486 353e
00000150: 9218 ecbe db89 b7be 0423 b53e 8b64 d0bd
00000160: f5e5 34be 2d3a a83d f29c efbe 9f41 8cbd
00000170: 3a9f b83d 0100 473e 0e8b 133f a3ff 9bbe
00000180: b84b 113e e058 d0bc d67b cd3e 2024 8b3c
00000190: a16b e33e 9fa7 18be 06da cc3e 3c7d 13be
000001a0: 3f36 a63e df59 d0be 77bd 3e3e 9a92 b3be
000001b0: 450c e0be cc2e d3be 81d1 4e3f 2387 7abd
000001c0: 8a34 e63e 7f42 06bd 68c4 89bd d181 193d
000001d0: 4c3e f1be 65c6 1c3e 34a1 1d3f 6416 c3be
000001e0: 8a79 b83e ef86 ddbe 8b3f febe 10c1 92be
000001f0: 992f a9be 7b5f c6bd d420 c13e a638 b4be
00000200: 4bab eabe 36ef 5cbe b032 313f b560 913d
00000210: 62f7 ccbe 335f d03c 8964 663f 6243 a7be
00000220: af8f ccbd 7cbb 413e 7330 1fbf 1ba0 f43c
00000230: 3f18 cabd 21c0 e9be 7416 62be 5db9 1cbe
00000240: d85d e4bd 8953 083e 460a 483f f72a 613e
00000250: b4e1 ca3d abc5 c5be 2e7c 0abf de23 c43d
00000260: e236 afbe b817 c23e 38b3 083f d300 b7be
00000270: d885 3dbf e490 513e 03ab c3bb 77c5 90be
00000280: 984a 7f3e 2d38 c2be 2135 3cbf 8066 36be
00000290: 961e 0d3f 0753 edbe fced 80bf 32f9 963e
000002a0: 2a7e e43e b8b3 c1be b429 983f 09d5 823e
000002b0: 6bc4 39be 193a acbc aa27 883f 0c14 bd3e
000002c0: f03b 143c c15d 02bf db2d 09be e214 b5be
000002d0: 41be 653b f6b3 c6be 5b5b 35bf 9fda 2b3e
000002e0: 862e 92be f2fb f7bd fd4d 2c3f e26c 61be
000002f0: d747 ab3c 2b05 81be ce78 f33e 7d89 aabe
00000300: 78c7 fd3d cd1c b23b f076 bfbe 5d6e 1d3e
00000310: 1b99 87bd 020a b03e d79e 433f 0d55 bdbe
00000320: 1c69 a23d 805c 0dbd 312b cb3e 2f88 c4be
00000330: 8c1d 1abe a585 bbbe fb21 403e bf78 0bbe
00000340: 53ea c5be 1a56 cf3e 3bcf f13e 5f93 d23d
00000350: 0500 fabe 285b ea3e 5fb9 5e3f 48f7 3e3e
00000360: 5bfa 37be a485 1cbe 0c49 7e3f 4a5c 383e
00000370: 9173 da3e fd0a cdbe 0113 80bf b765 c43e
00000380: cff1 12bf 288f e4bd 8b57 673d fa20 3d3e
00000390: afad c2be 75cc 50bd 21e0 063f 5bea 3bbd
000003a0: 0a20 5c3e 1c58 12be dc0f abbf fceb c6be
000003b0: d0b0 1d3d 8266 b0bd 5669 a1bd 8100 92be
000003c0: 32c2 94bd 05ea f5be a964 63bf 8284 a8bd
000003d0: acb4 0f3e 4c5b 50bd 9739 86bf 8ca2 06bf
000003e0: 8608 a93e 46fb 8dbd bc47 98bf 1a5b d7be
000003f0: 47ae 663e 989a 133a e4db 743e a704 2bbe

fc1.bias f4 [128]
0.6367695 0.46861395 -0.46206617 -0.44053555 -0.16150305 0.38598397 0.4915714 -0.21924135
0.08043965 -0.20940466 0.26154968 -0.22380346 0.57695657 -0.28795287 -0.30816662 -0.039923884
-0.51963127 -0.33957234 -0.43692008 -0.08729651 -0.119071975 -0.42714554 0.2968051 0.3536213
-0.43134964 0.52360725 0.24621816 -0.53300554 0.54618967 0.1736267 0.35872385 0.0051594917
-0.2497219 -0.033817142 0.5408008 0.24721278 0.35345522 0.44349095 0.1889539 -0.39853102
0.4481885 0.29803896 -0.27346793 -0.09009309 -0.20046154 0.37679785 0.54678905 0.44961554
-0.40376684 -0.39638352 0.21243115 -0.24147646 0.30143782 0.35348147 -0.38673252 0.10437487
-0.3961883 0.26552153 -0.2560413 0.2461776 0.10974866 -0.12815434 -0.3062915 0.32813275
0.28059742 -0.08984085 -0.31213078 -0.46194804 -0.14539152 -0.341655 -0.25743392 0.32081124
0.48941982 -0.48482996 0.16134302 -0.5365795 0.5295995 0.4294576 0.25338653 0.26909176
0.3492234 0.0066934694 -0.15298231 0.5785034 0.20663205 -0.5728286 -0.2459697 -0.06600504
0.46504587 0.33217546 -0.27423692 0.13610268 -0.3150358 -0.23295505 -0.34458867 0.034293305
-0.22915202 -0.40218124 -0.41798297 -0.21347915 0.08591609 -0.22974859 -0.21411262 0.30293366
0.31230894 -0.107683785 -0.39417225 0.006326018 0.31735682 -0.3796361 0.6343698 0.4740376
-0.12575316 0.4933933 0.21250328 0.47579405 -0.22191943 -0.21537441 -0.28037688 0.5356292
-0.31036305 -0.21499264 -0.29092604 0.64693713 -0.058293138 0.41720417 0.57441115 0.5467065
00000000: 5303 233f 2bee ef3e f093 ecbe e08d e1be
00000010: 0e61 25be b19f c53e 3faf fb3e ce80 60be
00000020: 8bbd a43d 2d6e 56be d7e9 853e bc2c 65be
00000030: 6db3 133f 8f6e 93be 04c8 9dbe 3a87 23bd
00000040: 8e06 05bf 6ddc adbe fdb3 dfbe 83c8 b2bd
00000050: 02dc f3bd d2b2 dabe d7f6 973e da0d b53e
00000060: dcd9 dcbe 200b 063f 9d20 7c3e 0d73 08bf
00000070: 16d3 0b3f 33cb 313e a7aa b73e f410 a93b
00000080: 19b7 7fbe d883 0abd ec71 0a3f 5925 7d3e
00000090: 15f8 b43e 3f11 e33e 227d 413e 420c ccbe
000000a0: f778 e53e 9098 983e fd03 8cbe ba82 b8bd
000000b0: ca45 4dbe a6eb c03e 5efa 0b3f 0234 e63e
000000c0: 87ba cebe c8f2 cabe 8d87 593e 9b45 77be
000000d0: 0f56 9a3e 86fb b43e ce01 c6be 7ec2 d53d
000000e0: 31d9 cabe 70f2 873e d817 83be fb15 7c3e
000000f0: e8c3 e03d e43a 03be 3dd2 9cbe 0401 a83e
00000100: 77aa 8f3e 7bfe b7bd 9bcf 9fbe 7484 ecbe
00000110: 84e1 14be 67ed aebe 61ce 83be 5f41 a43e
00000120: 3c95 fa3e a23b f8be 1b37 253e 465d 09bf
00000130: d593 073f dee1 db3e e1bb 813e 65c6 893e
00000140: 69cd b23e e454 db3b 65a7 1cbe cc18 143f
00000150: 5a97 533e e5a4 12bf 7bdf 7bbe a72d 87bd
00000160: 7e1a ee3e e712 aa3e c868 8cbe 805e 0b3e
00000170: 5f4c a1be c58b 6ebe ed6d b0be 2377 0c3d
00000180: d4a6 6abe b3ea cdbe dd01 d6be 479a 5abe
00000190: c6f4 af3d 3743 6bbe 5740 5bbe 1f1a 9b3e
000001a0: f5e6 9f3e 5189 dcbd f2d0 c9be 7c4a cf3b
000001b0: 987c a23e aa5f c2be 0f66 223f 0eb5 f23e
000001c0: 70c5 00be 0c9e fc3e 769a 593e 479b f33e
000001d0: d93e 63be 1c8b 5cbe 8f8d 8fbe ff1e 093f
000001e0: e8e7 9ebe 0827 5cbe 42f4 94be ac9d 253f
000001f0: c9c4 6ebd c99b d53e 9c0c 133f f5f4 0b3f

fc2.weight f4 [128, 128]
-0.027317777 -0.09691613 -0.03276609 0.006736341 -0.0501006 -0.092658244 0.0015235731 0.06337013
-0.090348445 -0.081294276 -0.019110417 -0.01163978 -0.06669838 0.06397104 0.074770465 0.015344617
0.07395841 -0.016323874 -0.06844842 -0.059772488 0.07185295 -0.030070059 0.055854723 -0.010247724
-0.06668694 -0.057463992 0.039660573 0.009565501 -0.03224218 0.0695018 0.01855575 0.0016016866
0.024908302 0.07246175 0.0304096 -0.0051159 -0.027508393 0.047737688 -0.019973256 0.059730805
-0.07098709 0.018104747 0.024241501 0.021086136 0.035434876 0.06268428 0.005496278 0.034238797
-0.039224524 0.07419422 -0.03462414 0.04030319 -0.023421047 -0.08012358 -0.08129647 -0.0604266
-0.07678551 -0.07566649 -0.0770878 -0.09321515 -0.03717242 -0.09421006 -0.030831838 -0.023175102
-0.0045735664 -0.01727988 -0.015662568 -0.06012262 -0.020046279 -0.01692296 0.05141725 0.053067364
-0.06657546 -0.057085957 -0.07959089 0.005814951 -0.018705802 0.025368908 -0.044998523 -0.050772887
-0.057436727 0.03899597 -0.037829656 -0.10214622 0.034361947 0.074820876 -0.050348427 0.024702685
0.07172921 -0.07107145 0.010947584 0.038454805 0.09797564 0.08048563 -0.042454213 -0.041661732
-0.013546194 -0.024205504 0.08549185 -0.04769236 0.03271396 -0.03617958 -0.08232323 -0.0043923208
-0.08261335 -0.081122205 -0.055592228 -0.036129706 0.010809051 0.045349512 0.06691934 -0.017639814
-0.043302458 0.078507066 0.035543952 -0.03521274 -0.0039393506 0.043776594 0.045631506 0.041686334
-0.046373554 0.041914504 -0.012892204 -0.02706299 0.023329802 -0.101855904 0.044116456 0.02486648
-0.17286009 0.04043791 0.13559997 0.11650658 -0.08744283 -0.028674312 0.031021195 0.433769
-0.35146466 -0.116642095 -0.04634253 -0.18757546 -0.047404923 -0.10467386 -0.25226682 -0.10435748
-0.732942 -0.04087533 0.06392731 0.092588834 0.023187824 0.18288276 -0.22938094 0.13274504
-0.0007306578 0.11875158 0.12545432 0.31846437 0.05687091 0.019877004 -0.17612006 0.058711916
0.11457407 0.088559605 -0.1622148 -0.023380507 0.11777548 -0.1850781 -0.0042439494 -0.16743296
-0.052550163 -0.09406915 0.102909066 0.08752864 0.11710914 -0.107557185 0.14223385 0.18697248
0.074274525 -0.17485264 0.17643204 0.11732678 0.21552317 0.28221437 0.28279057 -0.14140804
0.049086656 0.12229374 -0.50766027 0.059291415 -0.29730245 -0.43402857 -0.5592223 0.18755972
0.23586202 0.31012627 -0.16314912 -0.07944214 -0.08894738 0.12262447 -0.2857975 -0.08920096
0.08658608 0.08437397 -0.1499896 -0.5174741 -0.15996437 0.07836931 0.32272106 0.046882972
0.24290809 -0.02245985 -0.024077678 0.061179873 0.15602446 -0.23868291 -0.20418656 -0.26732323
0.19349954 0.17921162 -0.7394695 0.08350094 0.2712561 0.14931616 -0.7149539 0.26003647
-0.6402811 0.29071018 -0.5751319 -0.6900324 0.07380896 -0.39955178 0.4417986 0.4004924
-0.083007716 -0.16948122 -0.007869528 0.060718745 -0.026695125 -0.02181996 -0.14557016 0.05336175
0.48600107 0.08794833 -0.11212296 -0.14651832 0.18461116 -0.22134228 -0.9947137 0.11621348
-0.28152665 -0.36737928 0.008797754 0.094483644 0.36386523 0.034477275 0.015538288 0.0038633007
00000000: 88c9 dfbc f77b c6bd bc35 06bd 86bc dc3b
00000010: 4936 4dbd 9bc3 bdbd a1b2 c73a 33c8 813d
00000020: 9b08 b9bd 9d7d a6bd 738d 9cbc c7b4 3ebc
00000030: 2999 88bd 4003 833d 4221 993d fd67 7b3c
00000040: 8277 973d a5b9 85bc af2e 8cbd ffd3 74bd
00000050: a427 933d 7c55 f6bc ecc7 643d 12e6 27bc
00000060: 2a93 88bd 5d5f 6bbd 2073 223d 9eb8 1c3c
00000070: 6010 04bd f656 8e3d 3a02 983c afef d13a
00000080: 7f0c cc3c d366 943d 8e1d f93c 48a3 a7bb
00000090: 4859 e1bc 9888 433d f49e a3bc 4aa8 743d
000000a0: ae61 91bd 6850 943c 1d96 c63c d5bc ac3c
000000b0: 2924 113d 9e60 803d 1f1a b43b fb3d 0c3d
000000c0: e5a9 20bd 24f3 973d 0bd2 0dbd f514 253d
000000d0: 7fdd bfbc d517 a4bd c37e a6bd e281 77bd
000000e0: b941 9dbd 08f7 9abd 35e0 9dbd 96e7 bebd
000000f0: 1c42 18bd 34f1 c0bd 0d93 fcbc b6d9 bdbc
00000100: dbdd 95bb 898e 8dbc c94e 80bc 2343 76bd
00000110: 1838 a4bc 05a2 8abc e59a 523d 2a5d 593d
00000120: b758 88bd f7d2 69bd 8c00 a3bd 588b be3b
00000130: e93c 99bc 75d2 cf3c 5f50 38bd 3bf7 4fbd
00000140: c642 6bbd 3dba 1f3d 45f3 1abd 0a32 d1bd
00000150: 1dbf 0c3d b03b 993d 273a 4ebd 495d ca3c
00000160: c4e6 923d e98d 91bd 7f5d 333c c982 1d3d
00000170: 74a7 c83d a6d5 a43d 78e4 2dbd 7ea5 2abd
00000180: dbf0 5dbc 9f4a c6bc 5a16 af3d 1059 43bd
00000190: 13ff 053d 0a31 14bd 1599 a8bd 75ed 8fbb
000001a0: 3031 a9bd 6623 a6bd adb4 63bd befc 13bd
000001b0: 7218 313c 69c0 393d 020d 893d 5f81 90bc
000001c0: eb5d 31bd 50c8 a03d 8996 113d 3c3b 10bd
000001d0: ab15 81bb 164f 333d 1ae8 3a3d 4abf 2a3d
000001e0: 32f2 3dbd 8bae 2b3d d339 53bc 34b3 ddbc
000001f0: 241e bf3c d499 d0bd 75b3 343d cab4 cb3c
00000200: 3c02 31be 39a2 253d b8da 0a3e 009b ee3d
00000210: 3a15 b3bd 64e6 eabc 2920 fe3c f816 de3e
00000220: 2df3 b3be 0de2 eebd aad1 3dbd c813 40be
00000230: aa2b 42bd 405f d6bd 1e29 81be 60b9 d5bd
00000240: 16a2 3bbf e46c 27bd 52ec 823d 379f bd3d
00000250: 64f4 bd3c 9e45 3b3e d6e2 6abe 51ee 073e
00000260: 9d89 3fba 0734 f33d 1977 003e c30d a33e
00000270: 79f1 683d 19d5 a23c d158 34be e87b 703d
00000280: cfa5 ea3d bd5e b53d a31b 26be 7a88 bfbc
00000290: 4534 f13d 1d85 3dbe d410 8bbb 8c73 2bbe
000002a0: d73e 57bd 54a7 c0bd fdc1 d23d 3742 b33d
000002b0: ebd6 ef3d f146 dcbd c0a5 113e b775 3f3e
000002c0: 3e1d 983d 920c 33be 9aaa 343e 0649 f03d
000002d0: 1bb2 5c3e 677e 903e edc9 903e 45cd 10be
000002e0: 170f 493d 2475 fa3d 06f6 01bf 8edb 723d
000002f0: 0738 98be fe38 debe 3129 0fbf a80f 403e
00000300: d085 713e dfc8 9e3e 9010 27be 90b2 a2bd
00000310: 0b2a b6bd 8a22 fb3d 0d54 92be feae b6bd
00000320: 0b54 b13d 43cc ac3d e096 19be 2f79 04bf
00000330: b3cd 23be 1780 a03d b23b a53e 5c08 403d
00000340: e6bc 783e b8fd b7bc 8d3e c5bc bf97 7a3d
00000350: e0c4 1f3e 4b69 74be 4816 51be 97de 88be
00000360: be24 463e 4083 373e e04d 3dbf 8a02 ab3d
00000370: 14e2 8a3e 56e6 183e 3807 37bf 8023 853e
00000380: 76e9 23bf f7d7 943e d83b 13bf f7a5 30bf
00000390: 2729 973d 0d92 ccbe 6d33 e23e 570d cd3e
000003a0: f3ff a9bd 7c8c 2dbe 31ef 00bc 38b4 783d
000003b0: bcaf dabc c6bf b2bc 5810 15be da91 5a3d
000003c0: 22d5 f83e 411e b43d b9a0 e5bd e608 16be
000003d0: b50a 3d3e 8da7 62be 8fa5 7ebf 5501 ee3d
000003e0: 4324 90be 2319 bcbe 7424 103c a480 c13d
000003f0: 8b4c ba3e 0b38 0d3d 4e94 7e3c 6e2f 7d3b

fc2.bias f4 [128]
-0.09568859 0.0024892814 0.17460392 0.0056070765 0.017044462 0.08040439 0.16133143 0.13629487
-0.041412536 0.12856771 0.09809865 0.03881944 0.09236148 -0.06946171 0.16646285 0.03429713
-0.03549546 -0.064427756 -0.09090278 0.049471408 0.051437277 0.1591361 0.07786464 -0.05517217
0.035684653 0.15757705 0.033797402 -0.04618791 0.120706424 -0.065253675 0.20100261 0.09350891
-0.00084965973 -0.102581985 0.12815787 -0.036372703 0.12687562 0.08259649 0.06655347 0.20127267
0.06759348 0.16991712 0.17965238 0.012898663 0.15777786 0.16755605 0.09994054 0.093293674
0.016483892 0.0894267 -0.030734682 0.14242283 0.1749309 0.07088846 -0.047781236 0.027226478
0.056404687 0.14450663 0.07150614 0.045353636 -0.18147732 0.08958951 0.1357338 -0.06625719
-0.042758178 0.074895136 -0.07335394 -0.020258933 0.13704537 -0.057523515 0.08578576 0.11885452
0.10681307 0.10284885 0.033417206 0.010108004 -0.04983764 0.16244806 0.18594709 0.042717323
0.038404178 0.08713489 -0.080602445 0.017909525 -0.079674065 0.14187445 0.12502588 -0.009126659
0.1487171 0.062219627 0.19539581 -0.07091012 0.18326586 -0.08951289 0.084341615 -0.035842944
0.082415804 -0.0693821 0.17405027 0.0024290765 0.024277918 0.043381494 -0.05777393 0.1048866
0.09233794 0.19340685 0.142995 -0.020643825 -0.0760615 0.046049766 0.1315253 0.14339374
-0.09133134 0.15151104 0.022336677 0.17162931 -0.018746987 0.036379986 -0.08150811 0.19826359
0.19623 -0.051655117 0.020763434 0.14511824 0.06290973 0.13669102 0.026644396 0.19398135
00000000: 61f8 c3bd 3623 233b 5fcb 323e 91bb b73b
00000010: d4a0 8b3c 0fab a43d 1134 253e e290 0b3e
00000020: 31a0 29bd 41a7 033e f2e7 c83d 2201 1f3d
00000030: 0428 bd3d f141 8ebd 3d75 2a3e 267b 0c3d
00000040: b063 11bd b3f2 83bd 3d2b babd 88a2 4a3d
00000050: e5af 523d 93f4 223e 7f77 9f3d 37fc 61bd
00000060: 122a 123d e15b 213e 256f 0a3d 892f 3dbd
00000070: ee34 f73d b8a3 85bd a1d3 4d3e 9981 bf3d
00000080: b3bb 5eba 8116 d2bd d13b 033e 8bfb 14bd
00000090: afeb 013e 5928 a93d 304d 883d 6c1a 4e3e
000000a0: 736e 8a3d c1fe 2d3e cbf6 373e ea54 533c
000000b0: 8590 213e d093 2b3e a0ad cc3d c110 bf3d
000000c0: 3a09 873c 5825 b73d 4dc7 fbbc 4ad7 113e
000000d0: 1621 333e f82d 913d 42b6 43bd 100a df3c
000000e0: 9a08 673d 8cf9 133e d071 923d bcc4 393d
000000f0: 31d5 39be b47a b73d cdfd 0a3e dab1 87bd
00000100: 3323 2fbd 9f62 993d 973a 96bd 10f6 a5bc
00000110: 9f55 0c3e c79d 6bbd 72b0 af3d 006a f33d
00000120: d0c0 da3d 6ba2 d23d 7be0 083d 0b9c 253c
00000130: 8e22 4cbd c958 263e ea68 3e3e 5cf8 2e3d
00000140: b34d 1d3d c773 b23d e512 a5bd ffb6 923c
00000150: 282c a3bd 8947 113e c906 003e fb87 15bc
00000160: 4c49 183e 02da 7e3d d715 483e 5339 91bd
00000170: 0caa 3b3e 8952 b7bd 4cbb ac3d 0dd0 12bd
00000180: 9ec9 a83d 3418 8ebd 3c3a 323e 2431 1f3b
00000190: 7ce2 c63c cbb0 313d 5ba4 6cbd c9ce d63d
000001a0: ad1b bd3d 720c 463e 486d 123e 3d1d a9bc
000001b0: 22c6 9bbd ae9e 3c3d 91ae 063e cfd5 123e
000001c0: ed0b bbbd b625 1b3e 68fb b63c 98bf 2f3e
000001d0: 4893 99bc 2e03 153d b9ed a6bd 9c05 4b3e
000001e0: 84f0 483e 5194 53bd 1418 aa3c e099 143e
000001f0: d1d6 803d bbf8 0b3e 5945 da3c 0ca3 463e

fc3.weight f4 [2, 128]
-0.026232481 -0.44876507 0.3654942 -0.6928201 0.39811376 0.29993317 0.2593347 0.23602207
-0.29630747 0.35083827 0.088533044 0.055409536 0.35222405 0.049681034 0.406318 -0.17582686
-0.031930655 -0.06935099 0.05388579 -0.7298966 0.033194683 0.45105168 -0.277018 -0.044993736
-0.045996584 0.31805772 0.15097626 -0.07134825 0.3550088 -0.08105089 0.31919044 0.339804
-0.038723595 -0.046913203 0.42367935 -0.08511836 0.02033942 0.35351846 0.41921845 0.27568108
-0.014818789 0.34690318 -0.17490068 0.04174227 0.3779167 0.37024862 0.342373 0.4290422
0.40235618 0.2720782 0.08424527 0.04489157 0.33496994 -0.6399727 -0.42791212 -0.15099905
0.41312286 0.34326646 -0.043313615 0.26138538 -0.57025945 -0.54826206 0.3183353 0.054297723
-0.0085959975 0.40074474 -0.08366758 -0.3938303 0.35709766 -0.009133021 0.3110349 0.4004716
-0.51137394 0.35130557 0.24906726 -0.04273484 0.06937353 0.31035888 0.45729563 -0.005488607
-0.31139013 0.39965615 -0.08205558 0.04452453 0.2357121 0.23214561 0.4200613 -0.08339407
0.34038243 -0.044987112 0.18382572 -0.36518747 0.39876747 -0.3805695 0.41145438 -0.054971833
0.23144795 -0.40653 -0.059416763 -0.39089963 -0.032441963 0.30578756 0.012867675 0.15755875
0.030907746 0.42022896 0.30904883 0.009173555 -0.053549603 0.21133831 0.38451183 0.402696
0.045883022 0.12580079 0.36567363 0.14519387 -0.35797474 0.044812806 0.39567944 0.11065069
0.20159253 -0.07997376 -0.027822055 0.2877173 -0.7876504 0.2589972 -0.20692195 0.18977049
0.04179709 -0.43091556 0.38149026 -0.4706935 0.054314584 -0.046048608 0.112328805 0.36589554
-0.35161084 0.015396111 0.42098236 0.38204172 0.23150305 0.011273386 0.11601525 0.31361505
-0.046208944 0.010430639 -0.0375699 -0.4544247 -0.026958158 0.28217608 -0.52503496 -0.035615984
-0.049720448 0.2577296 0.26953143 -0.046351485 0.42772257 -0.011280097 0.4253024 0.28171787
-0.030843979 0.079560764 0.24453326 0.03425396 -0.31130695 -0.014734486 0.23445633 0.3105763
-0.0003088245 0.36216408 0.3343168 -0.018015577 0.33861962 0.3742569 0.07531849 0.1270635
0.27449992 0.3400629 0.047968224 0.3920176 0.09681369 -0.058748454 -0.45531687 0.30027094
0.25613385 0.25172925 -0.03892663 0.20916131 0.5391353 -0.58603555 0.19631392 0.033661842
0.041259646 0.31862426 -0.04454947 -0.4962709 0.26643485 -0.02928795 0.21698566 0.2621753
0.3772182 0.09272458 0.29594067 0.045456924 -0.046460677 0.16654 0.23142415 -0.024052404
0.28039792 0.24929288 0.06887249 -0.085538335 -0.23014176 0.29499188 0.31072855 -0.04141877
0.36644801 0.017678067 0.4196962 -0.47146595 0.18428192 -0.5547389 0.1737348 0.076668456
0.28620625 -0.47547105 0.33859053 -0.47758904 -0.00945979 0.15313858 0.024837432 0.41649076
0.3667205 0.2616817 0.23310584 -0.084350675 0.06283194 0.3635612 0.4065648 0.23549381
-0.058631364 0.193971 0.120984316 0.28629175 0.39011303 0.007815477 -0.33387643 0.4354987
0.33904463 -0.027413879 0.41198948 0.24870081 -0.324256 0.37290376 -0.7127771 0.4172666
00000000: 80e5 d6bc 89c4 e5be 0e22 bb3e a85c 31bf
00000010: 91d5 cb3e d790 993e 85c7 843e c5af 713e
00000020: 9db5 97be 13a1 b33e d050 b53d 1cf5 623d
00000030: b656 b43e 577e 4b3d ea08 d03e f50b 34be
00000040: b8c9 02bd e407 8ebd 59b7 5c3d 81da 3abf
00000050: 26f7 073d 3ff0 e63e 4ed5 8dbe 5a4b 38bd
00000060: ea66 3cbd 76d8 a23e 8599 1a3e 081f 92bd
00000070: b7c3 b53e 02fe a5bd ee6c a33e cafa ad3e
00000080: a29c 1ebd 0f28 40bd 80ec d83e 8952 aebd
00000090: db9e a63c 5f00 b53e cda3 d63e 1226 8d3e
000000a0: 82ca 72bc 4b9d b13e 2a19 33be f1f9 2a3d
000000b0: 4c7e c13e 3a91 bd3e 844b af3e 6bab db3e
000000c0: a101 ce3e d54d 8b3e c988 ac3d 39e0 373d
000000d0: 2e81 ab3e 40d5 23bf 4c17 dbbe 7f9f 1abe
000000e0: d784 d33e 9fc0 af3e 9e69 31bd 4ed4 853e
000000f0: 86fc 11bf e75a 0cbf d8fc a23e 4a67 5e3d
00000100: 3ad6 0cbc 6a2e cd3e e859 abbd 20a4 c9be
00000110: 81d5 b63e aba2 15bc f73f 9f3e 9d0a cd3e
00000120: 67e9 02bf 53de b33e 7d0b 7f3e ba0a 2fbd
00000130: b613 8e3d 5ce7 9e3e a722 ea3e c6d9 b3bb
00000140: 876e 9fbe bb9f cc3e c20c a8bd 5b5f 363d
00000150: 835e 713e 94b7 6d3e 4612 d73e 83ca aabd
00000160: 9b46 ae3e 6844 38bd cf3c 3c3e daf9 babe
00000170: 402b cc3e 01da c2be 26aa d23e 252a 61bd
00000180: b100 6d3e b324 d0be fe5e 73bd ff23 c8be
00000190: dde1 04bd 3090 9c3e f1d2 523c 1557 213e
000001a0: 3e32 fd3c 4028 d73e a63b 9e3e ae4c 163c
000001b0: d456 5bbd 1269 583e bcde c43e 2c2e ce3e
000001c0: d6ef 3b3d ecd1 003e 9339 bb3e b4ad 143e
000001d0: 7748 b7be a28d 373d 7f96 ca3e d49c e23d
000001e0: 466e 4e3e 48c9 a3bd 14eb e3bc af4f 933e
000001f0: 75a3 49bf 489b 843e 59e3 53be 3253 423e
00000200: 6d33 2b3d f7a0 dcbe b152 c33e bdfe f0be
00000210: f878 5e3d 779d 3cbd a50c e63d a956 bb3e
00000220: 5606 b4be f83f 7c3c 008b d73e f99a c33e
00000230: 230f 6d3e 02b4 383c 6799 ed3d 2792 a03e
00000240: 9745 3dbd 45e5 2a3c e5e2 19bd 5baa e8be
00000250: 5bd7 dcbc 6279 903e b168 06bf 11e2 11bd
00000260: aba7 4bbd 22f5 833e 0600 8a3e 0edb 3dbd
00000270: 74fe da3e 28d0 38bc 3cc1 d93e 533d 903e
00000280: 83ac fcbc c1f0 a23d ed66 7a3e e14d 0c3d
00000290: a063 9fbe ea68 71bc 5215 703e db03 9f3e
000002a0: b9e9 a1b9 926d b93e 922b ab3e 6795 93bc
000002b0: 8d5f ad3e 9a9e bf3e 9540 9a3d ef1c 023e
000002c0: 418b 8c3e b91c ae3e 547a 443d 88b6 c83e
000002d0: 4246 c63d 38a2 70bd 4b1f e9be 1dbd 993e
000002e0: fa23 833e a8e2 803e 8871 1fbd 622e 563e
000002f0: c504 0a3f 6d06 16bf 8406 493e 00e1 093d
00000300: e0ff 283d b822 a33e 8179 36bd 3817 febe
00000310: 266a 883e 48ed efbc 7d31 5e3e d73b 863e
00000320: be22 c13e 62e6 bd3d 8985 973e 0a31 3a3d
00000330: 8d4d 3ebd 7689 2a3e 74fa 6c3e 8c09 c5bc
00000340: 5190 8f3e a246 7f3e 050d 8d3d b92e afbd
00000350: 48aa 6bbe 2d09 973e d017 9f3e baa6 29bd
00000360: 139f bb3e 98d1 903c 6ce2 d63e fc63 f1be
00000370: 66b4 3c3e 5e03 0ebf 89e7 313e 5a04 9d3d
00000380: a089 923e f170 f3be bd5b ad3e 8d86 f4be
00000390: 3cfd 1abc 5cd0 1c3e df77 cb3c 473e d53e
000003a0: cac2 bb3e 25fb 853e 4cb3 6e3e 0cc0 acbd
000003b0: 08ae 803d b224 ba3e 4329 d03e 4a25 713e
000003c0: 7127 70bd 55a0 463e a0c6 f73d d594 923e
000003d0: e5bc c73e 7d0c 003c daf1 aabe b0f9 de3e
000003e0: 4297 ad3e 1293 e0bc 49f0 d23e 6dab 7e3e
000003f0: e204 a6be 3eed be3e 8f78 36bf f8a3 d53e

fc3.bias f4 [2]
0.09007399 0.016908016
00000000: b678 b83d ae82 8a3c
