weights/tuning2/20000steps_4agents_64batch_15000cap_0.0003lr/run_3.pth (torch, 72253 bytes, 6 tensors)

fc1.weight f4 [128, 4]
00000000: 5301 d4be 2c3b 473e 0db7 3e3f 870c 9b3e
00000010: 7e9d a5bd 2b5f e63d 857f 14bf 3e33 2abe
00000020: 5780 43be e088 4d3e 4e3e 8a3f 988e ab3e
00000030: 0849 3c3e 1cdc 58bd a0e4 083f 5108 b0bb
00000040: 65da c53c 5ef8 a23d 1b7a c8be fdbb 113f
00000050: e4ae 9dbe fd71 783e 4344 103f ac36 08be
00000060: e193 00bf b171 b03d ab65 3dbf d84b 73ba
00000070: 80da 073e 8cb8 263e 52e3 3fbe a307 de3e
00000080: dc03 103c fbf5 873d e767 413c ed2d ddbc
00000090: 3cff 11bf 0939 b73e 8d55 de3e cc7e bcbe
000000a0: ef9b bbbe b1ef ccbe 340a 89bf 10e9 173e
000000b0: d703 babe fb7a eb3c d7c1 9c3f 9740 0d3f
000000c0: 0a59 4b3e 0bff 60be 1db2 d73d e722 3bbf
000000d0: 0af3 b43e fa4f 14be 09db 4e3f 4b72 363e
000000e0: 83a7 0a3e a766 d63e 1a98 68bf a98e b7be
000000f0: 70c5 0abf 80e5 14be 4cab 303f 927d fa3d
00000100: 65ce 4b3e 3f38 71be cff3 8cbf 7031 57be
00000110: 0b13 d53e 4bfc d9bd 4f4d 403f 3104 96be
00000120: 1e79 1dbf 4f49 6fbd 4a79 ef3e 80a0 ae3e
00000130: cba2 80bc 58a2 ecbd 17a0 703e b975 4abe
00000140: 58ba 20bf a493 bbbe c0bc fa3e ed40 423e
00000150: e13f d2be c318 cc3d 3d96 7c3f 3c50 3ebe
00000160: c7e6 c8bd b053 84bd 9d49 69bf b8a9 d0be
00000170: d6ed 1a3f a9e1 0f3f 018e 833e 7bf7 ed3c
00000180: 588f fe3e 7ec7 a2bd 944d a6be 16db 9dbe
00000190: 42c5 6dbd a534 153d 98f9 4bbf 0d16 d3bd
000001a0: 11be 38be 39e8 9abe eaf7 3b3e 4c45 0d3f
000001b0: d33c af3a 8f62 09bf 6f57 90be e2c1 cabd
000001c0: 7916 0cbe ca67 d93e 085f 5d3f 5e34 5b3e
000001d0: d3e0 cebe e7d4 cf3e e8a9 22bf 0a1d a73d
000001e0: db7c a83d 1d9d 5abd dade 513f b61c dc3d
000001f0: 0302 1e3f 08de 43be 26d7 af3e 3b3a 023f
00000200: 3ba5 163e e053 983e 649d 5c3b f212 033e
00000210: ee13 eb3e 9fed be3e b3cf 14bf 5050 93be
00000220: 95dd 843e fe52 15be 2e33 a93f 4304 133f
00000230: 2bea a8be d60d aa3e 9c75 43bf 5bda 03bf
00000240: bfd6 ba3e 56e0 033f 2082 8abe 2328 e9bd
00000250: 3139 42bf ae6d acbd 6f33 a0bd 0490 dc3e
00000260: 9ddd 66be 36f5 993e d39c eb3e c514 82be
00000270: 3039 e83d 3973 9a3e d525 173f d66c ab3e
00000280: bd81 acbd 97fd c73d acca b9be a8c6 3b3f
00000290: 2691 31bf 0362 0a3f 4e93 093f 6324 13bf
000002a0: 4f02 8d3e a93f ff3e 9422 923f 185d 8e3e
000002b0: f16f 923b d764 d7bc e152 b7bf b3ad 84be
000002c0: 96b4 90bd 17ab 033d 472d f2be 870e a3be
000002d0: f938 43be 7647 b93d 1d8c 123f 205c d4be
000002e0: 2cc1 333e 7da8 d8bd 98cc 6d3f 30d3 bc3d
000002f0: f60b a13e a65f 6f3e 7941 3dbe 713f 113f
00000300: 952c 4b3d e4ae 58be 2252 1bbf 21f0 5b3e
00000310: 59b3 40be 40ee d8be f99a a8bf 3b4e f1be
00000320: 9285 66bc bfb8 00bf 8968 d6be 42c6 593e
00000330: ec58 48bd 21ed d23d f3bc 973f 989a ee3e
00000340: 506f 89be e783 b3be 8d96 eb3a 4422 15bf
00000350: 9c7b 78be cd73 45be 9556 59bf ed26 7d3d
00000360: 3bdc 663e 594f 053e be7b 5dbf 6ff7 dbbe
00000370: 5729 15bf 9944 7b3e 51ae 323f 29d2 0abf
00000380: 9792 4d3d efe4 da3d adb1 9d3f 4bd3 083f
00000390: ffec 903e f902 073f 0b36 0ebf 93e8 4fbe
000003a0: e42b 62be 4cfe 653e 2486 4c3f d236 713e
000003b0: e51f c23d 2901 98be 03ac 643f 85dc bf3e
000003c0: 930f 123d ce85 993e 5885 1c3f cad9 07bf
000003d0: 61f1 353d 12bb c23c 17fc 943d f4ca ca3e
000003e0: ad9b 0fbf 7d45 eebe 1329 6dbe a289 96be
000003f0: 7a3c fa3e 679f 8abe b8d3 f73e 4a9b 19be
-0.4140726 0.19456166 0.74498063 0.30282995 -0.0808668 0.112486206 -0.5800708 -0.1662111
-0.19091927 0.20071745 1.0800264 0.33507228 0.18387234 -0.052944288 0.53473854 -0.005372085
0.02415199 0.079575285 -0.3915566 0.5692747 -0.30797493 0.24262233 0.5635416 -0.13302106
-0.50225645 0.08615435 -0.7398326 -0.0009281016 0.13266945 0.16281337 -0.1873906 0.433652
0.008789983 0.06638714 0.011804557 -0.026999438 -0.5703008 0.35785702 0.43424645 -0.36815488
-0.36642405 -0.4002662 -1.0706239 0.14835 -0.36331055 0.028745165 1.2246655 0.5517668
0.19858184 -0.21972291 0.10532019 -0.7310013 0.35341674 -0.14483634 0.8080297 0.17817037
0.13540463 0.41875193 -0.9085709 -0.3585103 -0.54207516 -0.14540672 0.6901138 0.12230982
0.19902952 -0.23556612 -1.1011904 -0.21014953 0.4161609 -0.10643824 0.75117964 -0.29300073
-0.61512935 -0.058419522 0.46772224 0.34106827 -0.015702626 -0.11554402 0.2349857 -0.1977147
-0.6278434 -0.36636078 0.4897213 0.1897008 -0.4106436 0.099656604 0.98666745 -0.18585294
-0.09809642 -0.064612746 -0.9112795 -0.40754485 0.6051916 0.56203705 0.25694278 0.029048672
0.49718738 -0.07948206 -0.32481062 -0.30831212 -0.058049448 0.03642716 -0.79677725 -0.1030694
-0.18041255 -0.30255297 0.1835629 0.55183864 0.0013369567 -0.53666013 -0.28191707 -0.099002615
-0.13680448 0.42461997 0.8647313 0.21406695 -0.40405902 0.4059212 -0.63540506 0.08159836
0.08226939 -0.05337249 0.8198067 0.10747664 0.6172182 -0.19127667 0.34343833 0.508701
0.14711468 0.29751492 0.0033663148 0.12800196 0.45913643 0.37290666 -0.58129424 -0.2877221
0.25950304 -0.1458244 1.3218744 0.5742838 -0.32991156 0.3321368 -0.7635133 -0.5150506
0.36491963 0.51514184 -0.27052402 -0.113846086 -0.7586852 -0.08419357 -0.0782231 0.43078625
-0.22545476 0.30069894 0.46018085 -0.2540647 0.11339033 0.30166033 0.590421 0.33481473
-0.08423183 0.09765165 -0.3628744 0.7335 -0.69362104 0.54055804 0.53740394 -0.57477397
0.27540824 0.49853256 1.1416802 0.278054 0.004468911 -0.026293201 -1.4322168 -0.25913772
-0.07065694 0.032145586 -0.4730017 -0.3184702 -0.19064702 0.09046833 0.57245046 -0.41476536
0.17554158 -0.105790116 0.9289031 0.09219968 0.31454438 0.2337633 -0.18482007 0.5673743
0.049603064 -0.21160465 -0.606722 0.2147832 -0.18818416 -0.4236927 -1.3172294 -0.47129998
-0.014069932 -0.502819 -0.4187663 0.21267036 -0.048912928 0.10299135 1.1854538 0.4660232
-0.26842737 -0.3506157 0.0017973945 -0.5825541 -0.24265903 -0.19282456 -0.8489774 0.0618047
0.22544949 0.1301855 -0.8651694 -0.42962214 -0.58266205 0.24537887 0.69797236 -0.5422693
0.050188627 0.10688197 1.2319847 0.5344741 0.28305814 0.5273891 -0.55551213 -0.20303564
-0.22087055 0.22460288 0.7989218 0.23556069 0.0947874 -0.29688385 0.8932497 0.3747293
0.035659384 0.29984897 0.61140966 -0.53066695 0.04441965 0.023770843 0.07274645 0.39607966
-0.5609692 -0.4653739 -0.231602 -0.2940188 0.48874265 -0.2707474 0.48403716 -0.15000644

fc1.bias f4 [128]
00000000: cfb1 44be 737b 90be ce0a d03e 67d6 103f
00000010: b863 9f3e f124 37be b3ce 8abe d565 0cbe
00000020: 6e47 243e 8d34 a73e 044e f63e 230f aebe
00000030: 08b8 9bbe 445c 92be 0108 35be 2701 94be
00000040: 98a7 c23e b120 153f 5848 6bbe 3904 a33e
00000050: 8b0b f3be 6274 453e 7369 2ebe f6ca 433d
00000060: 8d25 cebe d5ff 963e 7284 e5be c617 873e
00000070: cac7 db3e 7a4d 81be 753c a13e 42d3 963e
00000080: 730b 053f 2360 04bf 0ecb 5dbe abb3 bbbd
00000090: de59 e93e 36ce e7be 68a9 163e 51a1 e83e
000000a0: 44e7 8bbe 206c 20be e026 003e 6f11 65be
000000b0: 0569 e23e 4add 3c3e 0644 c03e 1ccc ad3d
000000c0: 17e7 163f 1498 49be 9d17 15bb de07 63be
000000d0: 1c5b 813e 2242 103f 6099 d7be 9efd 5bbd
000000e0: c9bd 84be 7040 6f3e 4b9f 043e f06b 19bf
000000f0: a9c6 673e a673 c43e 61fa 0e3b 20bd fe3e
00000100: 50a4 60bd 3044 b7be 2f21 c53e e22f 173f
00000110: 92f1 acbe 85d4 8cbe b680 25be a9ba 99be
00000120: 8539 683d 4b94 1d3c b840 26be 460c 853e
00000130: 7a31 a83e d61e ab3e d132 00bf 9b31 52be
00000140: c360 1f3e 4316 0d3e 9d0b bc3e 654f b0be
00000150: 7e9a 8fbe e4d9 14be 8f35 abbe de8d 47be
00000160: dafd a2be d013 b53e de65 073f f600 b63e
00000170: df81 d6be e192 f43e d37c 153f f71f 933e
00000180: a3d6 c2be 380c fb3e daf9 8cbe caf3 b33e
00000190: c8db a63e e840 cdbe 2a04 00be 24ce 5abc
000001a0: 331d f2be a920 fdbe 8bd3 d2bd 62ec 803e
000001b0: 8704 55be 1895 47be b8ea db3e bb63 143f
000001c0: 3ec8 e03e f056 dd3e 0e27 4ebe f737 24be
000001d0: 1ee4 bc3e b420 053f a9bb 023e fb09 483e
000001e0: 9dea 063f 6e15 95be e494 933e 6a0b 3c3e
000001f0: 0a73 f7be 398d 1d3e 442b 563e fb51 92be
-0.19208454 -0.28219184 0.40633243 0.5657715 0.31130767 -0.17885186 -0.27110824 -0.13710721
0.16042873 0.3265728 0.48106396 -0.33995923 -0.30413842 -0.28586018 -0.17678834 -0.2890713
0.3801849 0.5825301 -0.22976816 0.3183916 -0.47469744 0.19282678 -0.17032413 0.04780098
-0.40263024 0.2949206 -0.4482761 0.26385325 0.42925864 -0.25254422 0.31491438 0.29458052
0.51970595 -0.51709193 -0.2165949 -0.09165128 0.45576376 -0.45274514 0.14713061 0.45435575
-0.2732488 -0.15666246 0.1251483 -0.22369932 0.4422075 0.1844379 0.37551898 0.084861964
0.58946365 -0.1968692 -0.002274967 -0.2217097 0.25264823 0.5635091 -0.42109203 -0.053708665
-0.25926045 0.23364425 0.1295139 -0.59930325 0.22634377 0.38369483 0.0021816718 0.49753666
-0.0548442 -0.3579421 0.3850188 0.5905744 -0.33778054 -0.2750589 -0.1616238 -0.30025223
0.05669548 0.009617875 -0.16235626 0.25985926 0.32850248 0.33421963 -0.5007754 -0.20526735
0.15564255 0.13778023 0.3672761 -0.34435573 -0.28047556 -0.14536244 -0.334393 -0.19487712
-0.31834298 0.35366678 0.5288981 0.35547608 -0.4189596 0.4776831 0.5839359 0.28735325
-0.3805438 0.4903276 -0.27534372 0.35146934 0.32589555 -0.40088582 -0.12501588 -0.013354812
-0.47287902 -0.4943898 -0.10294255 0.25180346 -0.20802508 -0.19490469 0.42952514 0.57964677
0.43902773 0.4323039 -0.20132086 -0.16036974 0.3689279 0.52003026 0.12766899 0.19535057
0.5270174 -0.29117912 0.28824532 0.18363729 -0.48329955 0.15385903 0.20914942 -0.2857817

fc2.weight f4 [128, 128]
00000000: a840 bdbe feb2 18bd 4af9 01bd 5487 6d3d
00000010: d40d fb3d 5793 fdbd ea5f ffbd c802 963e
00000020: b6a5 463d c984 ed3d d247 c73d 3e42 c0be
00000030: 4259 d73e e4f5 77be 001e e03d 64f5 15be
00000040: 2de7 f43d edd4 ee3d 59f0 bcbd 9ecb 1f3e
00000050: ecc9 9cbd 2193 8b3d 6e65 74be 1606 e3ba
00000060: 616a c93e 69e5 ab3d 90e8 15bd 2543 1ebd
00000070: a8d0 8f3c 072d 11be b95c 5b3d ec65 a13d
00000080: 8606 0c3e 0df3 69bc ee4f c5be b2a5 45bd
00000090: 624e 673d ff1e c93d fec8 b83c bff7 1a3e
000000a0: 951a 563e 46d9 8c3c 5608 21bd e78d 43bf
000000b0: 7ad1 6e3d 5e30 3e3e 3c70 253e 403c d03d
000000c0: 2252 f63d 55bc 14bf 11d6 893d 6084 dcbe
000000d0: e7fe 1c3e 496e f7ba f995 c5bc 48c2 913c
000000e0: be91 54bf 5989 263e 3d6b 70be e4fe d0bd
000000f0: 3019 993a 39e8 433d 7a3d b2be 0861 2c3e
00000100: 4933 5fbc b837 85be aa5f ec3c 17df 833d
00000110: 74c0 0dbe 9cff 65be 9244 a9bd e1b7 cebe
00000120: 1d1c b23d 1b6f a63d f04d 36be 5854 9d3d
00000130: 3af9 053e 5708 f73d 63bb f5bc c9d0 18bf
00000140: 0bcc 973d 08da 1b3e 211f c13d 6799 9f3d
00000150: 90f3 96be 7a7a 673e 693a 1fbe 2f7f 0fbe
00000160: 07ff 85bf df72 183e dd33 293e ce28 153e
00000170: ae3e 293d 5e7a 4d3d 609d 933d af20 0b3e
00000180: 0348 dabd 3fbb d43d e71a 7abf 1f2d a03d
00000190: 8207 123e a8d6 3dbd cb6a 8e3e 467d 79be
000001a0: e3f8 803e 4cdf abbe 172f 3b3e 2e58 bb3c
000001b0: ed13 23be 96c8 22be 5809 903d b96e 273e
000001c0: 6e79 433c 0e7b 813d 6350 c4bd 2c1b 23bf
000001d0: fdeb 2f3e 542e ed3d 6d93 193e 6f25 1d3e
000001e0: cbff 8c3d 07b0 debe b29d d73c 2eaf 903d
000001f0: bd5a 21be 1420 ab3d 0c18 323e a26f bcbe
00000200: 179b 72bd 83b7 b43d 6a14 95bd a9c2 95bd
00000210: 8df3 9ebd 1147 67bd f96f 7d3d 94dc 1b38
00000220: 8b03 143d cb2b 283c b7f1 a13d adb5 633d
00000230: d5fe 2dbd 4e20 0fbd 84b6 9fbd 0b39 c8bc
00000240: 98e5 3fbc 27d6 6f3c bcdc 83bd a6d3 24bd
00000250: 223a 40bb a9fe 283d e0db 223d 9719 06bc
00000260: 0ef3 7b3c 9b11 35bd b257 97bd 2d88 3b3d
00000270: cb10 873d e178 85bc 59eb 33bd f406 2d3d
00000280: 278b 993d cc57 473d 93ea 013d e177 a5bd
00000290: a886 1abd 0e83 2239 1f48 58bd 8cba 93bd
000002a0: f638 bbbd d811 76bc e1b0 55bc 4809 283c
000002b0: d2ee a7bb 155e 53bb 055a 69bd e4c8 6e3d
000002c0: 41f4 373d 3f65 dbbc f87d 1fbc d585 a8bd
000002d0: 443a a5bd 5867 b6bc ebec 36bd 48ea 77bc
000002e0: 2a43 80bd 999a 653d 6456 763d f7c6 4a3d
000002f0: 0e0c abbd b9d1 a7bd fa82 fbbc 7670 313d
00000300: f752 bd3c 80cf 12bd 298f 2fbd 7e20 343d
00000310: 2091 1f3c 7861 5b3d cbf0 8a3b 2485 9fbd
00000320: 2bf9 00bd 7bda 8ebd 1099 0fbd 2084 76bd
00000330: cf30 50bc 92e1 813c 37aa 283d 44bd 693d
00000340: 64ef 883c 3487 2d3c 7158 5dbd 4bc9 b73c
00000350: 4744 6cbc 6ef9 1ebd 2054 d6bb 1841 d73b
00000360: 974f 8e3d 5cbc 24bd 1bb2 d13c 439b 28bd
00000370: 2fe1 8c3d 309d 8f3d ce9d 7d3d 342f 98bb
00000380: 3028 a13c 7501 bebd 006a 67bd 2289 443d
00000390: 7394 5ebb 6892 00bb a6c3 353d a03d bdbd
000003a0: 1f83 b33c 014a 023d d981 a3bc aa68 9e3d
000003b0: 9c6b a0bd 7fae fa3c fb07 a43b cb31 bdbc
000003c0: 747e 6f3c b96f 9d3d 4c53 043d 3952 923d
000003d0: 7f8d f1bc 7154 aebd 3350 afbd a784 b0bd
000003e0: 982a 243d ba96 e7bc a684 053d 0c43 78bc
000003f0: 25eb 9cbd 88ac 71bd f280 2ebd fde4 4ebd
-0.3696339 -0.037280075 -0.03173188 0.057990387 0.12258497 -0.123816185 -0.12469466 0.29298997
0.048497878 0.115975924 0.097304955 -0.3755054 0.42060286 -0.24214894 0.10943222 -0.1464439
0.11958156 0.11661706 -0.0922553 0.15605018 -0.07655701 0.06815172 -0.23866817 -0.0017320539
0.39338973 0.08393366 -0.036598742 -0.038638253 0.01755555 -0.14177333 0.053555224 0.07880768
0.13674363 -0.014279139 -0.38537544 -0.048253722 0.056471236 0.09820365 0.022556778 0.1513357
0.20908578 0.017193448 -0.03931459 -0.763884 0.05830524 0.18573138 0.16156095 0.10167742
0.12027384 -0.5809987 0.06730283 -0.43069744 0.15331613 -0.0018877472 -0.024119364 0.017792836
-0.83034885 0.16263331 -0.23478408 -0.102048665 0.001168048 0.047828887 -0.34812528 0.1683389
-0.013623067 -0.26019073 0.02885421 0.064390354 -0.13842946 -0.22460788 -0.08265032 -0.40374663
0.086967684 0.081266604 -0.17803168 0.07682103 0.13083354 0.120621376 -0.02999658 -0.5969358
0.07411965 0.15219891 0.094297655 0.07792931 -0.29482698 0.22605315 -0.15549625 -0.1401336
-1.0468453 0.1488757 0.1652369 0.14566347 0.04131954 0.050165527 0.07207751 0.13586687
-0.106582664 0.10387277 -0.976973 0.07821106 0.14260677 -0.04634729 0.27815852 -0.24364194
0.25189885 -0.335688 0.18279682 0.022869196 -0.1592557 -0.1589683 0.07033032 0.16350831
0.011930807 0.06322299 -0.09585645 -0.63713336 0.17179866 0.11581102 0.14997645 0.15346311
0.06884726 -0.43493673 0.026320312 0.07064663 -0.1575727 0.08355728 0.17391986 -0.3680392
-0.059229936 0.088240646 -0.07279284 -0.07312519 -0.077612974 -0.05646426 0.061874364 3.716031e-05
0.03613619 0.010264347 0.079074316 0.05559318 -0.042479355 -0.034942918 -0.07798484 -0.024441263
-0.011712454 0.01463846 -0.06438586 -0.040240906 -0.0029331525 0.041258488 0.03976047 -0.008184812
0.015377773 -0.044206243 -0.073897734 0.045784164 0.06595 -0.016292991 -0.043925617 0.04224296
0.07497244 0.048667714 0.031717848 -0.08079506 -0.037726074 0.00015498346 -0.052803155 -0.07213315
-0.09141724 -0.015018903 -0.0130426595 0.010256119 -0.005124905 -0.0032252122 -0.056970615 0.058297053
0.044910673 -0.026781676 -0.009734623 -0.082286514 -0.08067754 -0.022266075 -0.044659536 -0.015131541
-0.062628105 0.05605564 0.060140982 0.049506154 -0.083519086 -0.08194298 -0.030702103 0.04332014
0.02311085 -0.03584242 -0.042861138 0.0439763 0.00973919 0.05355975 0.0042401305 -0.077890664
-0.031487625 -0.069752656 -0.03505808 -0.060184598 -0.012706949 0.01585463 0.041177955 0.057065263
0.016715713 0.010591317 -0.054039422 0.022434851 -0.014420575 -0.038812093 -0.00654079 0.006569039
0.06948774 -0.040218696 0.025597623 -0.041163694 0.06878888 0.07012403 0.061918072 -0.004644299
0.019672483 -0.09277622 -0.056497574 0.047982343 -0.0033962994 -0.0019618515 0.044376038 -0.0924027
0.02191311 0.031808857 -0.019959377 0.07734807 -0.07833025 0.030600784 0.005005834 -0.023095032
0.014617551 0.07687325 0.032306 0.07144589 -0.029486416 -0.085122 -0.08560219 -0.086190514
0.040079683 -0.028270114 0.032597207 -0.015152704 -0.07662038 -0.05900243 -0.04260344 -0.05051135

fc2.bias f4 [128]
00000000: 1e6e 273e 4fde 50bd 083d 4fbd 37f4 2f3e
00000010: 0e82 d93d 4959 403e 00ba 823d b6e6 223e
00000020: e1a6 193b 5168 2f3e 4579 3b3e 4ae4 073d
00000030: 2e2d 8abc 8d8a ad3c 1637 da3d e2b7 063e
00000040: 70be 6c3d fe30 bd3b e17c b0bd 9a5c 1c3c
00000050: ed68 4c3e ed55 ecbc 97d2 93bd 85ab b9bd
00000060: d50f ed3d 0b75 0f3d 7986 abbd 1085 4a3d
00000070: 5e45 323e 3a02 7d3d 7d75 58bd e501 36bd
00000080: b4a3 273e aa3d 353e b9e8 80bc 8fd7 433e
00000090: e4fa cd3d 7af5 43bc acf8 b13a f9d3 bb3d
000000a0: 0ef2 c73d db13 cb3c e527 85bc 339b 943a
000000b0: a6b5 d9bc 7a08 dabc 00a6 c2bc af0e 13bd
000000c0: 17bd 7f3d 8fff dd3d 11d3 cd3d c857 ce3c
000000d0: 61a6 413d 4e43 cb3d 7134 8d3d 694d 373e
000000e0: a05f ba3d 34cb 91ba 8983 443e 331b 253d
000000f0: 20d1 963d 14b2 71bd 64c9 243d 8ec9 a5bd
00000100: 14cd 8fbd 60ab 6cbd 78a9 62bd 9886 95bd
00000110: f0fc 2d3e d7b3 1b3d fa39 e9bc 1391 253d
00000120: 8d25 e13d 3e81 4e3e 124b 203e 1d1e d43d
00000130: 264c f93b 2a23 403e 24de 41bd c38d 4c3e
00000140: ef9e bdbd aac9 8a3d 1e69 013e b255 863d
00000150: 0292 9f3d 840a 113e 8c08 aebd 92f2 163c
00000160: d048 913d a3be 8e3d d535 963c a554 8a3d
00000170: 2fef 453d e49a 103e 5de7 6a3d b173 5b3d
00000180: 366c 373e 4fb6 af3a 4357 a13c a7fc 4abd
00000190: bf94 d03d 01d0 02be e599 c8bd 5dc6 1f3e
000001a0: cc0d acbd 6d39 a53d 04ed e7b9 b361 6e3d
000001b0: fe74 8f3d 0e46 f83c d351 98bd 37c4 b4bc
000001c0: 0a48 8cbd 1dbd 3d3d ef70 be3d 34cf 1f3e
000001d0: fdce 043e 7ac3 093e f2c4 1b3d 1e3c b2bb
000001e0: f222 f93b 6fbd fa3d 40f1 133d b1ac 50bc
000001f0: 63c8 a93d a57a 3a3d 4c92 453c 825f 67bd
0.163506 -0.05099326 -0.050595313 0.17183004 0.10620509 0.1878406 0.06383133 0.15908322
0.0023445415 0.17129637 0.1830798 0.033176698 -0.016867246 0.02118423 0.10655038 0.13156083
0.057798803 0.0057736626 -0.08617569 0.009543562 0.19961901 -0.028849566 -0.07217901 -0.09065918
0.11575285 0.03502373 -0.08375258 0.049443305 0.17409274 0.0617697 -0.05284642 -0.0444354
0.16371042 0.17699304 -0.01573597 0.19125198 0.10057619 -0.011960382 0.0013578138 0.0917129
0.09762965 0.024789741 -0.016254375 0.0011337757 -0.026575875 -0.02661537 -0.023760796 -0.035902675
0.06243619 0.108397596 0.10050023 0.025188342 0.047277812 0.09924947 0.06894768 0.17900623
0.0910027 -0.0011123181 0.19190802 0.040309142 0.07364106 -0.05900772 0.040231124 -0.08095084
-0.070215374 -0.057780623 -0.0553374 -0.07301062 0.16991019 0.038013306 -0.028470028 0.040421557
0.1099349 0.2016649 0.15653637 0.10357306 0.0076079546 0.18763414 -0.04733099 0.19975953
-0.0925883 0.067767456 0.12637755 0.06559314 0.07791521 0.14164168 -0.08497724 0.009213107
0.07093966 0.06969955 0.018336216 0.06754426 0.048323806 0.14121586 0.05734955 0.05357713
0.17912373 0.0013405773 0.01969493 -0.049557354 0.10184621 -0.1277466 -0.09794978 0.15603013
-0.08401069 0.08067594 -0.00044236344 0.058198642 0.07004736 0.030306842 -0.07437482 -0.022066219
-0.06849678 0.04632293 0.09298884 0.15606385 0.12969585 0.13453475 0.03802962 -0.0054392954
0.0076030428 0.12243163 0.036118746 -0.012736485 0.08290174 0.04552712 0.012058806 -0.056487568

fc3.weight f4 [2, 128]
00000000: 22e7 ac3e 6020 3cbd 9fc4 7ebf 6a60 e03e
00000010: 0009 413e 6828 fa3e 2e23 5cbf 0f3e a33e
00000020: 1b42 82be 3f53 f33e 3ce3 d63e 7c33 c5be
00000030: 24de 63bf 67f8 11bf f7b3 d03e 2d8e a63e
00000040: 7109 10bc c14c a2bd 6c46 86bd cdab 3f3b
00000050: 0a20 f73e 80ef 4bbf 7f16 9ebd bc4f 86bf
00000060: b35f c53e 60d2 b63d d71a 5cbf e2d8 973e
00000070: da13 9e3e bf65 053c b61e 853e 581e abbe
00000080: 763f 2b3e 901c f33d 01a4 85bf bda4 dc3e
00000090: 25d7 8b3d e887 98bd bf52 9b3d 73c3 9c3e
000000a0: 9c31 2cbe a89d 9abd afd8 a5bd 9e24 dcbe
000000b0: 9b74 58bd 0e3a 67be dd77 55bd 83f5 1abc
000000c0: 2982 853e 22ff a63e 5377 983e 1702 2d3d
000000d0: 64ad aa3e 2820 c83e 4e77 ee3e 1b4c c53e
000000e0: e74f bd3e 2023 74bd 88be da3e adad 9e3e
000000f0: 6cc6 533e 55a5 ed3e c000 8cbf 696a ddbe
00000100: f039 843c edb9 3ebd 336d b5be b900 6f3d
00000110: 3895 df3e 513e c83a 7d0b 28bb 7073 af3e
00000120: 3c98 dd3e b1d0 bfbd c0d3 483e e51b be3e
00000130: d10a e1bc d7dc 823e 58fd fdbe c477 7e3e
00000140: 65e9 6cbf 73cc e53e aaac 9e3e 0b54 483e
00000150: fab7 e33e ae61 393e 6ddf 5fbd 0891 a7bd
00000160: a940 a03e a8d3 e23e 45a9 2e3e 44dc 833e
00000170: 4b82 95bd 45b5 c93e 86c9 40bd e38e 533c
00000180: 1d61 db3e 5849 64bf 4f81 293e 951e 003d
00000190: 7dd0 a73e 59fd 38bf f4d0 2a3c dba2 963e
000001a0: acfc 3abf 6e84 d03e 62dc 89bd e8ff 89bd
000001b0: e521 88bc de5e c8be 1656 45be 6f00 e5bc
000001c0: 36df cc3e 3b5e 53bd 5ad1 0b3e 2c41 033e
000001d0: f26d 9e3e 7a28 b03e c186 73bd 978f 3cbf
000001e0: 5eeb 333e 6c20 9c3e 9842 af3e 9a61 803d
000001f0: 9f90 10bf b2e6 c03e cb60 9c3d a7f5 f5bc
00000200: 8881 753e ddc2 773b 5e3d f6be e164 8c3e
00000210: 3918 20be 383a 663e c11f 1dbf d5f6 013f
00000220: bd65 3cbf 34b0 1abd 6cc8 0a3f 7e26 ceb9
00000230: e774 01bf 061a 65bf e33d 933e f17f e33e
00000240: 85cc 3cbd 7f06 023d 0cf5 b1bb 8ca6 5abd
00000250: 8e6a fe3e f96e 51bf 3c02 bbbb 9097 a5be
00000260: 1788 953e 547c 45bf 561c 0bbf 7278 993e
00000270: 13f7 c03e 7727 8bbd f5e8 37be 7f5c d8be
00000280: 321e 973e 0313 073f 7ace dabe 92da 023f
00000290: c8bc 033f 9b95 473d ef3c 8439 457b f33d
000002a0: f14a 51be ab10 95bd 5c73 d8ba 31f5 32bf
000002b0: 44ac 51bc 410c 22bf 8be9 0dbd d7c4 bfbc
000002c0: f0d3 eb3e 71f2 393e 4f3c ed3d f20d 78bd
000002d0: 5948 953e 7899 693e d448 e73e 50f7 a73e
000002e0: 516a 013f ab46 8bbb a1b4 fe3e 68ed 173e
000002f0: 7575 11bf 7a1f 52bb 4882 b4be 31d8 1b3f
00000300: 2766 683d 888d 803d 83e2 0bbf 2ad5 41bd
00000310: f41d 703e a9a5 873b 32ab fd3b 904e 913e
00000320: ae66 973e 4298 c03e a0e7 a03e e7ee a73e
00000330: 757f 6e3d c54a 813e 8911 7dbf 27c3 e2be
00000340: 84c2 0ebf 9af9 833e 00f8 073f 4b07 e93e
00000350: f51e 653e 5bd0 9d3e 08e4 123d 5760 543c
00000360: 8630 d53e e47b 5c3e e82a a33e 1865 cf3e
00000370: 2764 97bc 019c 7a3e 1036 d23c 6b81 26bd
00000380: 321c ae3e 1c35 c4be 2b57 b63e 968d 9c3d
00000390: 6b88 c93e ac07 36bf 4c1c f8bc 5217 a63e
000003a0: 7e7c 21bf f56a 913e 63b5 26bd 85c3 a73c
000003b0: 0139 e23b bcdd bd3e b883 153e 0c20 87bc
000003c0: 6310 97be b2df 58bd 1757 37bf 39eb fe3e
000003d0: 2419 383e 10f7 4c3e 71b0 29bb f070 94bf
000003e0: 2579 a43e bd4a 1b3e d874 cc3e cb40 5e3a
000003f0: 6b5d 0ebf 44f2 a93e 4b28 a8bd 1727 84bc
0.3377009 -0.045929313 -0.9951877 0.43823558 0.1885109 0.48858953 -0.8599118 0.31883284
-0.2544106 0.4752445 0.4197024 -0.38515842 -0.89010835 -0.57019657 0.40762302 0.32530347
-0.0087913135 -0.07924796 -0.06556401 0.0029246688 0.4826663 -0.79662323 -0.077191345 -1.0493083
0.38549575 0.089268446 -0.85978454 0.29657656 0.3087452 0.008141934 0.25999993 -0.33421588
0.16723427 0.11870682 -1.0440675 0.43094435 0.06828145 -0.07447797 0.07584142 0.30617866
-0.168158 -0.07549602 -0.0809797 -0.42996687 -0.05284558 -0.2258074 -0.052116264 -0.009457949
0.26075867 0.32616526 0.29778537 0.04223832 0.33335412 0.39087033 0.46575397 0.38534626
0.36975023 -0.05960381 0.4272349 0.3099188 0.2068116 0.464152 -1.0937729 -0.43245247
0.016140908 -0.04656403 -0.35434875 0.0583503 0.43668532 0.0015277361 -0.0025641613 0.3426776
0.43280208 -0.093659766 0.19612026 0.37130657 -0.027470978 0.25559112 -0.49607348 0.24850374
-0.9254363 0.44882545 0.30991107 0.1956331 0.444763 0.18103668 -0.054656435 -0.081819594
0.31299332 0.44302106 0.17056759 0.25753987 -0.07300242 0.3939611 -0.047067188 0.012912485
0.4284753 -0.89174414 0.16553234 0.031279165 0.3277625 -0.7226158 0.010425795 0.29421124
-0.73041797 0.40726036 -0.06731488 -0.06738263 -0.016617725 -0.39134878 -0.1927112 -0.027954308
0.40014046 -0.051603537 0.1365408 0.1281783 0.30943257 0.3440588 -0.059454683 -0.736566
0.17570254 0.30493486 0.34230494 0.06268616 -0.56470674 0.37676007 0.07635649 -0.030024363
0.23975194 0.0037805357 -0.48093694 0.27420714 -0.1563424 0.22483146 -0.6137658 0.5076726
-0.7359274 -0.037765697 0.5421207 -0.0003932006 -0.50569004 -0.89492834 0.28758153 0.4443355
-0.046093483 0.031744476 -0.005430823 -0.053381488 0.4969067 -0.81809956 -0.0057070535 -0.32342196
0.2920539 -0.77142835 -0.5434011 0.29974705 0.37688503 -0.06794637 -0.1795996 -0.4225807
0.29515225 0.52763385 -0.42735654 0.5111476 0.5145993 0.04872666 0.000252224 0.11888746
-0.20438744 -0.0727857 -0.0016513872 -0.6990538 -0.012797419 -0.6329995 -0.034646552 -0.02340929
0.46060133 0.1815889 0.115837686 -0.060560174 0.2915676 0.2281245 0.4517275 0.32805872
0.5055285 -0.0042503676 0.49747184 0.14836657 -0.5681985 -0.0032062219 -0.35255647 0.60876757
0.056738045 0.06276995 -0.54642504 -0.04732243 0.23448926 0.0041396213 0.0077413553 0.2838025
0.29570526 0.37616163 0.31426716 0.32799456 0.05822702 0.25252357 -0.9885488 -0.44289514
-0.5576556 0.25776368 0.5311279 0.45513377 0.2237509 0.30823025 0.035862 0.012962422
0.41638583 0.21531636 0.31868672 0.40506816 -0.018480374 0.24473573 0.025660545 -0.040650766
0.34005886 -0.3832177 0.3561338 0.07644193 0.3936189 -0.71105456 -0.03028693 0.32439667
-0.63080585 0.28401914 -0.040700328 0.020478973 0.006903768 0.37083232 0.14601028 -0.016494773
-0.2950469 -0.052947707 -0.71617264 0.49788836 0.1797834 0.20016122 -0.002589252 -1.1596966
0.32123676 0.15165229 0.39932895 0.0008478283 -0.55611295 0.33192647 -0.0821081 -0.01613192

fc3.bias f4 [2]
00000000: 4582 983d 8841 c23c
0.07446722 0.023712888
