weights/tuning2/40000steps_4agents_32batch_15000cap_0.0003lr/run_4.pth (torch, 72253 bytes, 6 tensors)

fc1.weight f4 [128, 4]
0.48589653 0.32214054 -0.0616342 -0.032866426 0.6097933 0.18221492 0.08489562 0.11037983
-0.05366391 -0.41079286 -0.9964754 -0.05220796 0.118107766 0.21404895 -1.2111772 -0.18688023
0.19468658 -0.3460264 -0.01150973 -0.159555 -0.3298346 0.0109403245 0.7150899 -0.14594564
0.3075686 0.3704074 -0.24219498 0.06858509 0.18747464 -0.13548459 -1.0480516 -0.5567348
0.37094668 -0.29323357 1.4872661 0.00053010444 -0.123067215 0.09818037 -0.7031968 -0.11747128
0.07877768 0.09496352 0.1435614 -0.36015052 -0.43670186 0.13512766 -1.3480315 -0.1343053
-0.21505919 -0.11700396 0.8594917 -0.052472796 0.45390993 -0.22739014 0.7438592 0.2587547
0.34906054 -0.024926344 -0.81647694 -0.25767657 -0.15801848 0.38151288 0.30412278 0.21526912
-0.19070427 0.016439714 -1.5302718 -0.07947507 -0.31986514 0.16162758 0.17738065 -0.10425739
0.51102656 -0.39757857 -0.5465454 0.38227 0.5221582 0.252918 -0.252892 0.10683385
0.028123617 0.1314526 0.7331469 -0.09577252 -0.018631682 0.10126824 -0.832119 0.38765568
-0.7984316 -0.06839758 -0.1307167 0.5280467 -0.36940888 -0.2833935 -0.42556462 -0.20352662
-0.23586129 0.071392804 -0.3087466 0.13620043 -0.60500723 0.29971763 0.089862496 -0.56922454
0.0500349 -0.30190387 0.3055355 -0.3896376 -0.5723788 0.0075140735 0.96160555 0.29025298
-0.5855415 -0.30158982 0.37874594 0.17125416 -0.1776561 0.19554967 1.1107067 0.4354892
-0.1430564 -0.0076823826 -1.4436003 -0.15269478 -0.1800204 -0.010454706 -0.36608168 -0.41385978
-0.2625053 0.09805321 1.0878788 0.37756366 -0.019923095 0.19444638 0.16024236 0.13362257
0.38756526 0.20383997 -0.5927585 0.3005329 -0.2992677 0.18049999 -0.8973631 -0.5261379
0.64386857 -0.100979306 -0.35364145 -0.16960886 -0.4405272 -0.026970036 0.7563222 -0.14647843
-0.23322707 -0.3329033 0.93170315 -0.0060837804 -0.4142947 -0.50835425 1.0896726 -0.0891301
-0.123523585 0.100892745 -0.40430877 0.28704682 -0.41621578 -0.051955283 1.162598 0.16540185
0.16858634 -0.22437106 0.4721514 -0.587339 -0.28810415 -0.033519693 0.8455847 -0.2730312
-0.3529471 -0.32671812 -0.02508759 -0.37441632 0.20994784 0.16458486 1.4059767 0.4876912
-0.35449645 -0.2412286 0.2874944 -0.48096138 -0.33546484 -0.40528175 0.3894966 0.20215729
-0.11628195 -0.11522855 0.15904191 -0.16101968 -0.4109296 0.50373214 0.6280767 -0.53880763
6.6826715e-07 0.28117037 -0.27993393 0.24016778 0.073484726 -0.13832779 -0.751393 -0.5915468
-0.1513512 0.17755386 1.0168891 0.46782 -0.46600756 0.14922854 0.13869937 -0.19691359
-0.009111303 -0.0043214057 1.2054731 0.16923563 0.37338585 0.2665243 -0.7565308 0.39558285
-0.6482104 -0.40114763 -0.49878204 -0.23464951 -0.32060066 0.35987273 1.0813739 0.053578615
0.3614198 -0.35362932 -0.8584661 -0.32361847 -0.33474237 -0.12502079 0.961717 -0.25957057
0.3151816 -0.21898247 1.1266708 0.49263853 -0.12253839 0.13037293 1.3714556 0.41279516
0.026052384 -0.29450098 0.1767595 -0.17673567 0.39179495 -0.34094512 -0.80276626 0.13569307
00000000: 6ec7 f83e 9bef a43e 2574 7cbd f29e 06bd
00000010: 6a1b 1c3f 8c96 3a3e c1dd ad3d d20e e23d
00000020: b0ce 5bbd 7153 d2be 0319 7fbf 04d8 55bd
00000030: 7ce2 f13d a62f 5b3e db07 9bbf 885d 3fbe
00000040: eb5b 473e 5f2a b1be 4e93 3cbc 6362 23be
00000050: 15e0 a8be 0c3f 333c 2210 373f c672 15be
00000060: a279 9d3e 0aa6 bd3e f601 78be 5776 8c3d
00000070: 5af9 3f3e 79bc 0abe 8e26 86bf 2c86 0ebf
00000080: b9ec bd3e b622 96be bc5e be3f b5f6 0a3a
00000090: aa0a fcbd ca12 c93d b504 34bf c894 f0bd
000000a0: 3156 a13d 3c7c c23d c201 133e a665 b8be
000000b0: 6397 dfbe e85e 0a3e 4c8c acbf 5487 09be
000000c0: 7a38 5cbe c69f efbd a607 5c3f b7ed 56bd
000000d0: e266 e83e f6d8 68be 8e6d 3e3f 7f7b 843e
000000e0: 10b8 b23e 5532 ccbc a204 51bf 2fee 83be
000000f0: 99cf 21be a855 c33e fbb5 9b3e 826f 5c3e
00000100: fb47 43be 94ac 863c f2df c3bf d3c3 a2bd
00000110: 5dc5 a3be b381 253e 46a3 353e e684 d5bd
00000120: a3d2 023f 6b8f cbbe 66ea 0bbf e5b8 c33e
00000130: 29ac 053f 787e 813e 0f7b 81be b5cb da3d
00000140: 8063 e63c 839b 063e 84af 3b3f 6224 c4bd
00000150: 78a1 98bc b965 cf3d c005 55bf ce7a c63e
00000160: 0366 4cbf 0814 8cbd 99da 05be 122e 073f
00000170: 2923 bdbe f418 91be 9be3 d9be 4869 50be
00000180: 9f85 71be 6436 923d 0914 9ebe 2078 0b3e
00000190: c1e1 1abf 9774 993e d409 b83d b3b8 11bf
000001a0: 65f1 4c3d 2593 9abe 266f 9c3e 947e c7be
000001b0: 6b87 12bf 9e38 f63b c82b 763f 0a9c 943e
000001c0: 0ce6 15bf fb69 9abe fdea c13e 405d 2f3e
000001d0: 7beb 35be 2c3e 483e a32b 8e3f 71f8 de3e
000001e0: 607d 12be 7fbc fbbb e5c7 b8bf 055c 1cbe
000001f0: 4557 38be 374a 2bbc 0f6f bbbe 6ee5 d3be
00000200: 1867 86be 1fd0 c83d 9d3f 8b3f 0650 c13e
00000210: c235 a3bc f41c 473e 9316 243e 5bd4 083e
00000220: f46e c63e 6dbb 503e 05bf 17bf 73df 993e
00000230: 9e39 99be fdd4 383e 97b9 65bf f9b0 06bf
00000240: 92d4 243f 3dce cebd 7e10 b5be f2ad 2dbe
00000250: c88c e1be 44f0 dcbc 559e 413f 71fe 15be
00000260: 14d3 6ebe 4d72 aabe 1984 6e3f 735a c7bb
00000270: 6f1e d4be 8123 02bf 647a 8b3f d889 b6bd
00000280: eff9 fcbd dba0 ce3d 8f01 cfbe cdf7 923e
00000290: 3c1a d5be 10cf 54bd 03d0 943f 1a5f 293e
000002a0: e6a1 2c3e 87c1 65be d4bd f13e d95b 16bf
000002b0: 6382 93be f24b 09bd 3d78 583f bfca 8bbe
000002c0: 7bb5 b4be 9947 a7be 7d84 cdbc 7fb3 bfbe
000002d0: 91fc 563e ef88 283e 0bf7 b33f a9b2 f93e
000002e0: 8f80 b5be a104 77be 7732 933e 9240 f6be
000002f0: 0cc2 abbe 1781 cfbe 196c c73e 5202 4f3e
00000300: 3b25 eebd f2fc ebbd e2db 223e 58e2 24be
00000310: 5d65 d2be 97f4 003f a2c9 203f 4cef 09bf
00000320: f862 3335 90f5 8f3e 8053 8fbe 8bee 753e
00000330: 297f 963d cda5 0dbe 4b5b 40bf 9c6f 17bf
00000340: cffb 1abe aed0 353e 6c29 823f 1a86 ef3e
00000350: 8b98 eebe 5ecf 183e 3507 0e3e b7a3 49be
00000360: 9347 15bc 949a 8dbb f14c 9a3f 1b4c 2d3e
00000370: 6e2c bf3e e075 883e 01ac 41bf d689 ca3e
00000380: 1ef1 25bf 3963 cdbe 5c60 ffbe f647 70be
00000390: c525 a4be 3d41 b83e 766a 8a3f 4075 5b3d
000003a0: 040c b93e e70e b5be 6fc4 5bbf 52b1 a5be
000003b0: 5a63 abbe 7305 00be 1633 763f 6fe6 84be
000003c0: 7c5f a13e f13c 60be c036 903f 1e3b fc3e
000003d0: 68f5 fabd 7b80 053e db8b af3f e359 d33e
000003e0: cf6b d53c d5c8 96be 7100 353e 32fa 34be
000003f0: 5999 c83e 5c90 aebe 1782 4dbf 20f3 0a3e

fc1.bias f4 [128]
-0.46502843 -0.281543 0.10043064 -0.41211143 0.3313109 0.24710867 0.41653153 -0.29389107
-0.23337275 0.60638183 0.61426127 -0.35633937 0.36228284 0.028880378 -0.27901947 0.47708285
-0.24700217 0.6383405 -0.17573617 0.36658633 0.471563 0.12247794 -0.15800186 -0.3521544
0.48297173 0.17148489 0.47971335 -0.35125288 -0.5403257 -0.1859371 -0.2673277 0.43022788
-0.33015278 0.43956938 0.0032025066 -0.09593296 -0.19004764 0.47645292 -0.54112 -0.23397136
0.26091477 -0.38034993 0.19211306 0.17117034 -0.44092125 -0.24584645 0.1271003 -0.28627515
0.4722836 0.4652377 0.62897897 -0.23502108 -0.19876763 0.48670313 -0.22970189 0.17369236
0.1767363 0.36966306 0.52946943 0.34357417 -0.14540793 -0.2993204 0.55977565 0.21260415
0.026004449 -0.34778255 -0.28691757 -0.255805 -0.2814706 -0.34668043 0.066932976 0.636069
0.3695602 0.2945005 -0.32062826 -0.24498963 0.04824535 -0.2692031 0.552869 0.5348126
-0.49637204 -0.51345307 -0.07262127 0.47265795 -0.30352232 -0.39339793 -0.30931255 0.3458009
0.24465807 0.43432987 0.26958108 0.5009753 -0.24234383 0.32046658 0.39737114 -0.33149233
-0.36646718 -0.035548702 0.5801018 0.26407233 -0.5410846 0.26019314 0.3108143 0.59798324
-0.31444064 0.5166659 -0.17226045 0.5909835 0.23409179 -0.10661307 -0.19777675 -0.09976042
-0.07634774 -0.45992228 0.09462333 -0.18732047 -0.31958264 0.16490066 0.34231186 0.29343477
0.01613002 -0.26072854 -0.19948502 -0.22717547 0.54231876 -0.1778271 -0.15593804 -0.32089704
00000000: 3518 eebe 6726 90be 94ae cd3d 4500 d3be
00000010: 95a1 a93e 0e0a 7d3e 9f43 d53e e478 96be
00000020: 44f9 6ebe d73b 1b3f 3a40 1d3f 1d72 b6be
00000030: 237d b93e 8b96 ec3c a4db 8ebe 3444 f43e
00000040: 23ee 7cbe 486a 233f 2ff4 33be 34b1 bb3e
00000050: b570 f13e b7d5 fa3d 3dcb 21be 954d b4be
00000060: 1248 f73e bc99 2f3e fd9c f53e 6bd7 b3be
00000070: c952 0abf 4c66 3ebe 2ddf 88be d446 dc3e
00000080: c909 a9be 3d0f e13e 25e1 513b 8078 c4bd
00000090: d99b 42be a3f1 f33e d786 0abf 3096 6fbe
000000a0: 9f96 853e 3abd c2be 49b9 443e 4747 2f3e
000000b0: 6ec0 e1be 2cbf 7bbe 9526 023e a892 92be
000000c0: 28cf f13e a333 ee3e c404 213f 5ea9 70be
000000d0: be89 4bbe 2731 f93e f936 6bbe 69dc 313e
000000e0: 5cfa 343e 7a44 bd3e 4f8b 073f f4e8 af3e
000000f0: d1e5 14be 8640 99be 754d 0f3f e7b4 593e
00000100: 4807 d53c 8e10 b2be dce6 92be dff8 82be
00000110: ea1c 90be 1980 b1be 2814 893d 6bd5 223f
00000120: ff36 bd3e c5c8 963e 6329 a4be 90de 7abe
00000130: eb9c 453d fdd4 89be d388 0d3f 7be9 083f
00000140: 7a24 febe a971 03bf 76ba 94bd 3900 f23e
00000150: 4767 9bbe 746b c9be 375e 9ebe d10c b13e
00000160: a587 7a3e 7c60 de3e 8806 8a3e eb3f 003f
00000170: fb28 78be 3214 a43e 3b74 cb3e 5db9 a9be
00000180: 96a1 bbbe 849b 11bd 8d81 143f 7d34 873e
00000190: 8584 0abf 0938 853e 0d23 9f3e 6e15 193f
000001a0: 5dfe a0be 3744 043f 0b65 30be b24a 173f
000001b0: c2b5 6f3e f457 dabd fd85 4abe 314f ccbd
000001c0: 345c 9cbd ef7a ebbe e0c9 c13d f0d0 3fbe
000001d0: 56a0 a3be b8db 283e 8043 af3e 153d 963e
000001e0: 1b23 843c 367e 85be cd45 4cbe b0a0 68be
000001f0: 67d5 0a3f 4f18 36be 39ae 1fbe 9e4c a4be

fc2.weight f4 [128, 128]
-0.23501796 -0.14117235 -0.053184245 -0.52829945 0.09097415 0.12178402 -0.024064614 -0.2742194
-0.3709081 0.12246843 0.06347149 -0.4038813 0.19556187 -0.14489251 -0.32198906 0.13030764
-1.0475414 0.14696993 0.04128297 0.083267376 0.15108255 0.16408485 0.15012828 -0.2570704
0.15030693 0.029226065 0.15216686 -0.5930324 0.0035169246 -0.19536108 -0.91928303 0.1463019
-0.4782424 -0.008272472 0.09446367 0.09190276 0.10285857 0.18621963 -0.26651153 -0.1193243
0.17612836 -0.69494975 0.15721366 0.30042467 -0.36314568 -0.3351984 0.09709613 0.070389345
0.047161248 0.16872843 0.17413999 -0.29179782 -0.13226683 0.15937367 -1.2381845 0.1316502
0.023559013 0.03910992 0.19657835 0.055326354 -0.087206066 -0.90737635 0.05758011 0.06276032
0.16875418 -0.33142355 0.1638141 -0.93076855 -0.49227953 -0.74120516 0.43098435 0.13053776
0.089473315 0.134466 -0.9240032 -0.017579217 0.09292767 -0.1336558 0.15278749 0.04869518
-0.31395307 -0.21852444 -0.04304378 -0.031095898 -0.12245685 -0.6074103 -0.9472273 0.095289335
0.007157261 0.16296053 0.08508131 0.103227675 -0.47764063 0.08439177 0.08255654 -0.13752688
-0.06610343 -0.009027504 0.15811974 0.10791835 -0.030711953 0.15947081 0.061567802 0.1353447
-0.30376825 0.07776333 -0.555108 0.06666973 0.084823154 -0.030526748 -0.29366538 0.096985534
0.018261109 -0.5257681 0.11714499 -0.059744146 -0.2101028 -0.01581707 0.17169994 -0.012869802
0.08158873 0.014837998 -0.10586686 0.05747674 0.11594878 0.12650156 -0.15696639 -0.79398245
0.04270889 0.11114564 0.05919952 -0.15513 -0.04182739 -0.062159885 0.064492226 -0.35713378
-0.047359288 0.12393063 0.096707575 -0.26453122 -0.007549328 -0.13001513 -0.0834483 0.101621285
-0.67834646 0.14065313 0.08706144 -0.08513851 -0.076913156 0.107887305 0.30766156 0.050526552
0.056657184 -0.0043411725 -0.06030666 -0.15341921 -0.022434695 -0.12835 -0.4127617 0.12693357
-0.07099787 0.08204516 0.17096739 0.05995859 0.035026755 -0.04703376 -0.03214417 0.22371222
0.23047513 -0.20583065 -0.0136991935 -0.04532455 0.20574914 -0.29710633 0.06551247 0.23036458
0.02740051 -0.02943314 0.1673084 -0.47081426 -0.051094957 0.10920505 -0.788582 0.20696421
0.04049876 0.06729808 0.087594256 0.07674558 -0.08347593 -0.56180537 0.12219178 0.14614782
0.16867818 -0.10143055 0.05434906 -0.52081364 -0.2116967 -0.6471707 -0.26739505 0.058495104
-0.011964195 -0.058306634 -0.33322707 -0.025415659 0.07445078 0.081776105 -0.063279316 -0.026539894
0.035247173 0.13454872 0.037538905 -0.049977954 -0.175698 -0.6440746 -0.7435976 0.027069861
-0.005844976 -0.124918066 0.029937785 -0.00090590195 -0.31043738 0.16611667 0.21693242 -0.1408804
0.15059912 -0.033279542 0.13500254 0.1818299 0.08739414 -0.018731272 0.11197754 0.1852724
-0.3678786 -0.10026063 -0.29377285 0.060008578 0.2422073 0.019433593 -0.16516821 -0.10641598
0.13899592 0.15310866 0.33506957 0.250244 -0.26418692 0.22003168 0.08889569 0.03852581
0.1877475 0.13151911 0.026949182 0.15036128 0.025995173 0.08002237 0.040568322 -0.34081963
00000000: 8ca8 70be 7c8f 10be b9d7 59bd a23e 07bf
00000010: a850 ba3d e669 f93d 2723 c5bc 7c66 8cbe
00000020: abe7 bdbe bad0 fa3d 57fd 813d 88c9 cebe
00000030: 5f41 483e b45e 14be c0db a4be 5e6f 053e
00000040: d615 86bf 497f 163e 5518 293d 1688 aa3d
00000050: 62b5 1a3e dc05 283e 3abb 193e bb9e 83be
00000060: 0fea 193e 806b ef3c a1d1 1b3e f9d0 17bf
00000070: 347c 663b bc0c 48be 2256 6bbf 2ad0 153e
00000080: 30dc f4be 4389 07bc 2b76 c13d 8437 bc3d
00000090: 84a7 d23d 5cb0 3e3e 3374 88be 4c60 f4bd
000000a0: fe5a 343e 3ae8 31bf 9efc 203e 43d1 993e
000000b0: 3bee b9be 209f abbe 56da c63d 4a28 903d
000000c0: 272c 413d 25c7 2c3e c151 323e 8666 95be
000000d0: f570 07be da32 233e d47c 9ebf 4fcf 063e
000000e0: d5fe c03c b931 203d d64b 493e e39d 623d
000000f0: 1899 b2bd d149 68bf 1fd9 6b3d 7c88 803d
00000100: e5cd 2c3e 59b0 a9be e2be 273e d946 6ebf
00000110: 100c fcbe 9fbf 3dbf fba9 dc3e b1ab 053e
00000120: c93d b73d 75b1 093e 798b 6cbf 4a02 90bc
00000130: dd50 be3d 11dd 08be 5374 1c3e 9974 473d
00000140: 75be a0be dfc4 5fbe ad4e 30bd d3bc febc
00000150: a8ca fabd 3e7f 1bbf 7d7d 72bf 0e27 c33d
00000160: 7587 ea3b 20df 263e 1c3f ae3d 0869 d33d
00000170: 508d f4be 98d5 ac3d 6713 a93d d9d3 0cbe
00000180: 3c61 87bd 19e8 13bc 24ea 213e 4c04 dd3d
00000190: a297 fbbc 514c 233e 852e 7c3d cd97 0a3e
000001a0: 8387 9bbe 6142 9f3d 8f1b 0ebf 248a 883d
000001b0: c3b7 ad3d 3b13 fabc 4f5b 96be 5aa0 c63d
000001c0: 5298 953c bd98 06bf b6e9 ef3d 47b6 74bd
000001d0: 3025 57be cd92 81bc 1cd2 2f3e dddb 52bc
000001e0: fe17 a73d 131b 733c b9d0 d8bd bb6c 6b3d
000001f0: 8e76 ed3d a089 013e ccbb 20be 6f42 4bbf
00000200: 84ef 2e3d 53a0 e33d 327b 723d 66da 1ebe
00000210: 3353 2bbd 5d9b 7ebd 8014 843d 3dda b6be
00000220: d0fb 41bd 58cf fd3d 9f0e c63d a370 87be
00000230: 5a60 f7bb b022 05be f1e6 aabd d21e d03d
00000240: 1da8 2dbf 6007 103e 454d b23d 195d aebd
00000250: a584 9dbd 05f4 dc3d d185 9d3e eef4 4e3d
00000260: 5d11 683d 6540 8ebb 1e04 77bd ed19 1dbe
00000270: f7c8 b7bc 2f6e 03be 8055 d3be e0fa 013e
00000280: 5567 91bd 4b07 a83d 1312 2f3e 2397 753d
00000290: 3778 0f3d 79a6 40bd 9ba9 03bd d114 653e
000002a0: ac01 6c3e 45c5 52be 9572 60bc 3ca6 39bd
000002b0: e7af 523e 521e 98be 672b 863d b1e4 6b3e
000002c0: 0977 e03c c51d f1bc e552 2b3e 910e f1be
000002d0: f248 51bd e6a6 df3d 83e0 49bf 6dee 533e
000002e0: 07e2 253d 93d3 893d 9e64 b33d c92c 9d3d
000002f0: 6ef5 aabd 7ad2 0fbf af3f fa3d c6a7 153e
00000300: f9b9 2c3e d2ba cfbd 1f9d 5e3d 0b54 05bf
00000310: 05c7 58be fbac 25bf 01e8 88be 9098 6f3d
00000320: 7905 44bc f0d2 6ebd bd9c aabe 8034 d0bc
00000330: a779 983d 3b7a a73d 9698 81bd 316a d9bc
00000340: 575f 103d 24c7 093e 65c2 193d afb5 4cbd
00000350: 2dea 33be 13e2 24bf 6a5c 3ebf 9dc1 dd3c
00000360: 3687 bfbb 0bd5 ffbd 1640 f53c 0d7a 6dba
00000370: a6f1 9ebe 7d1a 2a3e 8823 5e3e f442 10be
00000380: a836 1a3e 2150 08bd 1b3e 0a3e 9e31 3a3e
00000390: b3fb b23d 5372 99bc 7b54 e53d 0cb8 3d3e
000003a0: 955a bcbe 7255 cdbd 6569 96be 8ecb 753d
000003b0: 3105 783e 3333 9f3c db21 29be 9ff0 d9bd
000003c0: f254 0e3e 84c8 1c3e 3d8e ab3e fb1f 803e
000003d0: 8243 87be fc4f 613e f20e b63d 3dcd 1d3d
000003e0: e140 403e f2ac 063e 88c4 dc3c 4ff8 193e
000003f0: d4f3 d43c c5e2 a33d f82a 263d e97f aebe

fc2.bias f4 [128]
0.13111053 0.029863806 -0.04437951 0.20467715 -0.08898136 0.09342567 0.19387186 0.11289512
0.026690988 0.1343172 -0.010829283 -0.049483985 0.05548234 0.12505494 0.15478282 0.0034138209
0.054625433 -0.04135749 -0.085853316 -0.05163582 -0.07773579 -0.020315148 0.12606172 0.13007192
0.092682846 0.2276133 0.2279038 0.086059354 0.05956978 -0.09305008 0.005525636 -0.0013468444
-0.07160451 0.21315841 0.10926017 0.06314201 -0.01775963 0.13471787 0.105485536 0.016176086
0.15612528 0.22418867 0.21195336 0.043088883 0.08730042 0.10612512 -0.028143842 0.06846732
0.12749279 0.060861044 0.083646104 0.12443847 0.18073781 -0.014569603 0.057814825 -0.046420388
-0.08291366 0.09558364 0.22294533 0.06529354 0.093234725 0.057837375 0.05389116 -0.06838213
-0.06828331 -0.07166057 0.14411338 0.15888079 0.033324935 0.17782748 0.022556588 0.12406922
0.18182804 0.15210442 -0.011353612 0.14852597 0.04832668 0.014933365 -0.01989235 -0.08053264
0.14238335 -0.03911483 0.20646529 0.04830874 -0.01588422 -0.06944179 -0.034658838 -0.04886829
-0.053754702 0.02946624 0.14969705 0.051414076 0.1880221 0.08655699 0.13017511 0.06952468
0.07401363 0.16842282 0.12839344 0.20104885 -0.037629288 -0.06063128 0.0054748734 -0.054401822
0.039305687 0.09251115 0.14536844 -0.043075036 -0.030693468 0.07313491 0.072047494 0.10382265
-0.045511786 -0.03744749 0.039143052 0.0818706 0.03349128 0.16067468 0.037496753 0.11177818
-0.05952191 0.063276224 0.07812589 0.025852593 0.11239466 0.16626486 0.20814306 0.0029517205
00000000: d741 063e f1a4 f43c 4ac7 35bd e396 513e
00000010: dc3b b6bd f555 bf3d 5886 463e 8f35 e73d
00000020: 0fa7 da3c 738a 093e 4e6d 31bc b8af 4abd
00000030: 7341 633d 670e 003e 637f 1e3e 69ba 5f3b
00000040: ebbe 5f3d 7966 29bd ddd3 afbd 1580 53bd
00000050: f133 9fbd f46b a6bc 5316 013e 9331 053e
00000060: 81d0 bd3d 7613 693e 9d5f 693e e33f b03d
00000070: 71ff 733d 0a91 bebd 6510 b53b 9988 b0ba
00000080: 63a5 92bd 3346 5a3e ccc3 df3d 9950 813d
00000090: a57c 91bc 7bf3 093e cd08 d83d b683 843c
000000a0: 4edf 1f3e b791 653e 4d0a 593e f87d 303d
000000b0: 90ca b23d 2058 d93d ea8d e6bc 9838 8c3d
000000c0: 788d 023e 6e49 793d a64e ab3d 99d9 fe3d
000000d0: 5513 393e 58b5 6ebc 3dcf 6c3d 4e23 3ebd
000000e0: a3ce a9bd 5bc1 c33d c84b 643e 9fb8 853d
000000f0: d9f1 be3d e2e6 6c3d fabc 5c3d ee0b 8cbd
00000100: 1fd8 8bbd c7c2 92bd 7592 133e a5b1 223e
00000110: ba7f 083d 6818 363e 98c8 b83c 0118 fe3d
00000120: 2131 3a3e 43c1 1b3e 8004 3abc 3117 183e
00000130: 32f2 453d 13ab 743c 48f5 a2bc 4cee a4bd
00000140: f1cc 113e df36 20bd a36b 533e 63df 453d
00000150: a01f 82bc 7f37 8ebd 6df6 0dbd 1e2a 48bd
00000160: e42d 5cbd 2f63 f13c 2f4a 193e 9197 523d
00000170: de88 403e cb44 b13d a04c 053e f562 8e3d
00000180: 7594 973d 0877 2c3e 9279 033e c0df 4d3e
00000190: 2b21 1abd 8158 78bd 9166 b33b 72d4 5ebd
000001a0: 00ff 203d 7c76 bd3d 77db 143e 736f 30bd
000001b0: de70 fbbc c1c7 953d a38d 933d f8a0 d43d
000001c0: 916a 3abd 8a62 19bd 7754 203d c6ab a73d
000001d0: 272e 093d e787 243e 3296 193d f5eb e43d
000001e0: 3fcd 73bd f796 813d 7700 a03d d1c8 d33c
000001f0: 2c2f e63d 5641 2a3e 7423 553e a771 413b

fc3.weight f4 [2, 128]
0.45678028 0.48895013 -0.036952164 0.3982567 -0.055243514 0.4451851 0.43685967 -0.042837176
-0.041725297 0.216891 -0.012542355 0.6146271 0.4612623 0.37465778 0.40014222 0.01895193
-0.5145772 -0.7552128 -1.2779117 0.04526485 0.048030045 -0.0753353 0.21593949 0.32392606
-0.37819737 -0.05385159 0.18918325 0.43115377 0.5116903 0.00084291224 -1.0491421 -0.95705426
0.040592402 0.47788712 0.4891423 0.2759076 -0.77486306 0.66142935 0.5474584 -0.029355891
0.5090484 0.21016888 0.5058951 0.43442595 0.5275542 0.4468244 0.024579315 0.0001794608
0.38769823 0.2112344 0.3155552 0.5543286 0.45914605 0.014184575 0.32145137 -0.0701645
-0.05926602 0.10932923 0.43400443 0.030419672 0.3001256 0.035507724 0.51564616 0.061821457
0.30068865 -0.28994447 0.5390568 0.66425675 0.49387756 0.15219128 0.33444047 0.48677602
0.637089 0.53284657 -0.8642363 0.35472193 0.5198002 0.52168024 -0.014722001 0.08462556
0.53087056 -0.040799532 -0.17985621 -0.7970217 -0.066719025 -1.0812521 -0.43376663 -0.9892095
-0.9252181 -1.0144483 -0.16505946 -0.074605964 0.46488693 0.3989116 0.5202392 0.48297036
0.03244273 0.53687197 0.48163414 0.4007284 -0.41681746 -0.063903704 -0.85515624 -0.043860197
-0.07005317 0.5267993 0.5778506 -1.3234538 0.044733096 0.46213892 0.48182788 -0.968451
-0.0022333174 0.5445423 0.007248016 0.102437675 -1.0535175 0.41469902 0.53269136 0.5455075
0.004918877 0.5492393 0.2716338 -0.7183234 0.41818246 0.33565685 0.46784645 0.022122106
0.40259078 0.3575251 -0.0872365 0.56878674 0.021825828 0.3832438 0.43269992 0.40610042
0.0507761 0.48410356 -0.05233981 -0.47216982 0.4661586 0.5347736 -0.04159936 0.046703026
-0.37437946 -0.9567627 -0.49344492 -0.07090392 -0.047802735 0.008461468 0.44190934 0.5899621
0.4947656 0.4792444 0.52602345 0.43923822 0.3833544 0.007477314 -0.13862537 -0.67915154
-0.06306281 0.06409276 0.64862174 -0.57058054 -0.96931833 0.53544754 0.6457267 0.08560539
0.54970914 -0.8496191 0.08870239 0.34865105 0.16663009 0.6529301 0.04471043 -0.05521613
0.3381801 0.37281877 -0.37505364 0.57763 0.24265717 -0.024444522 0.39612755 -0.056375988
-0.009199382 0.58263934 0.63823533 -0.040759284 0.4459997 -0.05036236 0.5342728 0.029586624
-0.30309936 0.0797866 0.4731 0.46037528 0.5104265 0.5332105 0.38330695 0.17233327
0.55794376 0.2476012 -0.65006596 0.038672093 0.4784369 0.7201085 -0.04720547 0.029755706
0.40615508 -0.0507931 0.6083769 -0.68006897 0.030122448 0.26361012 -0.2195851 -0.7645791
-1.1393924 0.44558 0.48925462 -0.014872736 0.4715329 0.49869707 0.56391114 0.43244162
-0.054891 0.21088849 0.6748 0.57411814 -1.3511826 -0.015392664 -1.0587748 0.060732994
0.03151937 0.22708142 0.5319451 -0.2912432 -0.067973495 0.38055056 0.3101058 -0.56053597
-0.004182938 -0.5523755 -0.0445643 0.50121814 -0.5783453 0.37463206 0.6358128 0.4669808
0.009154372 0.4399331 0.5542531 -1.0121417 0.3334038 0.23321109 0.588835 -0.05854571
00000000: 1bdf e93e ac57 fa3e 275b 17bd 4de8 cb3e
00000010: 0647 62bd 4def e33e 12ac df3e 0976 2fbd
00000020: 25e8 2abd ad18 5e3e 737e 4dbc 3458 1d3f
00000030: 922a ec3e 25d3 bf3e 71df cc3e 1441 9b3c
00000040: 55bb 03bf a055 41bf 9c92 a3bf a367 393d
00000050: 27bb 443d 6549 9abd 3e1f 5d3e a3d9 a53e
00000060: 16a3 c1be 7c93 5cbd 41b9 413e 30c0 dc3e
00000070: 23fe 023f e2f6 5c3a 4a4a 86bf 8201 75bf
00000080: 3844 263d 9fad f43e dc70 fa3e c343 8d3e
00000090: 6d5d 46bf 6f53 293f 3c26 0c3f c47b f0bc
000000a0: ff50 023f 8336 573e 5782 013f 146d de3e
000000b0: cb0d 073f 2bc6 e43e 8f5a c93c a42d 3c39
000000c0: 6280 c63e d54d 583e 7490 a13e 7be8 0d3f
000000d0: 3115 eb3e 6b66 683c 4695 a43e 68b2 8fbd
000000e0: edc0 72bd 01e8 df3d d435 de3e ad32 f93c
000000f0: 10aa 993e 8c70 113d 6301 043f 7f38 7d3d
00000100: ddf3 993e 9a73 94be a0ff 093f bb0c 2a3f
00000110: 85dd fc3e 08d8 1b3e c83b ab3e b53a f93e
00000120: 4418 233f a268 083f 973e 5dbf 1d9e b53e
00000130: a011 053f d68c 053f 8c34 71bc 2a50 ad3d
00000140: 22e7 073f 691d 27bd 3a2c 38be 9d09 4cbf
00000150: fca3 88bd 7866 8abf a916 debe d53c 7dbf
00000160: 18db 6cbf 71d9 81bf 5905 29be 03cb 98bd
00000170: a905 ee3e 243e cc3e 652e 053f e447 f73e
00000180: abe2 043d 7170 093f c098 f63e 462c cd3e
00000190: 1969 d5be f2df 82bd 85eb 5abf c0a6 33bd
000001a0: 0978 8fbd 52dc 063f 04ee 133f ef66 a9bf
000001b0: 0d3a 373d 799d ec3e 25b2 f63e 68ec 77bf
000001c0: d95c 12bb 2067 0b3f c480 ed3b d8ca d13d
000001d0: a9d9 86bf 6e53 d43e 765e 083f 61a6 0b3f
000001e0: 882e a13b f29a 0c3f 9613 8b3e 0be4 37bf
000001f0: 031c d63e 37db ab3e 9289 ef3e 6b39 b53c
00000200: 6120 ce3e 880d b73e 0da9 b2bd 029c 113f
00000210: 14cc b23c 8838 c43e d88a dd3e 65ec cf3e
00000220: 9afa 4f3d 6cdc f73e 4562 56bd 3ec0 f1be
00000230: 57ac ee3e ece6 083f 1764 2abd ac4b 3f3d
00000240: aaae bfbe 66ee 74bf d0a4 fcbe 1336 91bd
00000250: cdcc 43bd f8a1 0a3c f141 e23e c207 173f
00000260: eb51 fd3e 865f f53e 79a9 063f d5e3 e03e
00000270: 0747 c43e 4204 f53b cff3 0dbe e0dc 2dbf
00000280: 1327 81bd 1143 833d 130c 263f 9111 12bf
00000290: 3f25 78bf 1713 093f 584e 253f e151 af3d
000002a0: bdb9 0c3f a380 59bf 99a9 b53d 6482 b23e
000002b0: 14a1 2a3e 6d26 273f 4922 373d 4f2a 62bd
000002c0: f125 ad3e 1ae2 be3e 0807 c0be 8fdf 133f
000002d0: 1f7b 783e e13f c8bc 3bd1 ca3e 82ea 66bd
000002e0: 01b9 16bc da27 153f 6463 233f 35f3 26bd
000002f0: 135a e43e c348 4ebd 1ac6 083f a65f f23c
00000300: d72f 9bbe 2867 a33d 2a3a f23e 4fb6 eb3e
00000310: 50ab 023f 7c80 083f cf40 c43e 2278 303e
00000320: 67d5 0e3f 2b8b 7d3e b96a 26bf a166 1e3d
00000330: aef5 f43e 0859 383f 865a 41bd 3dc2 f33c
00000340: 8ff3 cf3e 6d0c 50bd 97be 1b3f 0019 2ebf
00000350: 5ac3 f63c e8f7 863e ebda 60be 75bb 43bf
00000360: 9cd7 91bf 1023 e43e 957f fa3e c7ac 73bc
00000370: c36c f13e 3955 ff3e 7b5c 103f fd68 dd3e
00000380: 63d5 60bd 27f3 573e b1bf 2c3f 68f9 123f
00000390: 8df3 acbf 8331 7cbc ef85 87bf 29c3 783d
000003a0: 741a 013d 0888 683e 8e2d 083f d41d 95be
000003b0: b035 8bbd 86d7 c23e 30c6 9e3e 497f 0fbf
000003c0: 0711 89bb 7b68 0dbf 0e89 36bd d54f 003f
000003d0: 700e 14bf c6cf bf3e a1c4 223f 1b18 ef3e
000003e0: 38fc 153c e93e e13e 88e3 0d3f dc8d 81bf
000003f0: e7b3 aa3e e3ce 6e3e e4bd 163f a0cd 6fbd

fc3.bias f4 [2]
0.11141311 0.044085298
00000000: 8e2c e43d c992 343d
