weights/tuning2/20000steps_8agents_64batch_15000cap_0.0001lr/run_7.pth (torch, 72253 bytes, 6 tensors)

fc1.weight f4 [128, 4]
00000000: 198e bbbe 6220 b33d fb1d 413e 1a32 d63e
00000010: b206 64be f542 ce3e e915 073e ad8d 8abe
00000020: db03 59bc 2a6e 133e d373 443f 57a4 b7be
00000030: ea0c 2d3c 96fb 3f3e d182 123f 13cf 92be
00000040: 5a99 70be aaef f5be e3fa 27bf da56 a5be
00000050: 2bec 1bbf d9c8 39be 551b 503f ad29 13bd
00000060: 52e8 79be d8f3 ef3e df7f 1fbf ed0b 0f3e
00000070: 2538 0dbf 7e08 373e 5076 0f3f afd4 e33e
00000080: ee0a a9bd ad15 d5bd c58b 61bf 8743 17bf
00000090: 39d3 043f d443 5bbd 5cb7 3ebf 9c0a 09bd
000000a0: d47e aebd eb55 bcbe 7908 383e 9dfd a2be
000000b0: 9eea 383f 4d73 b93e b379 dcbd 90eb dabe
000000c0: 9e81 243f c101 c23e 12b2 3abe f139 dd3d
000000d0: da4f 41be 496a 4cbe 560c 18bf 6230 8ebe
000000e0: 24e7 b73e 68a6 5b3e 0399 bcbe eea2 0d3e
000000f0: cc80 733e cb99 b1be e9df f23d 14d7 983e
00000100: 6fc4 bc3e 5242 8b3e 7aac 00bf 8851 c33e
00000110: 291d 7abe ee9a b83e 1a6f 2a3f 2fea 323d
00000120: c6a3 13be baac c13e 1293 4cbf d334 523e
00000130: 8628 f2be 4c20 f93e 1b55 3c3f e072 4fbe
00000140: ed81 89bc eef6 f1bd f760 89bf 6e82 04bf
00000150: 7a87 f7be 644b d9be f043 97bd 699a 533e
00000160: 50b8 463d d9a8 aabe 130a e73d 5528 4c3e
00000170: ce19 153f e84c 853e 4a46 f3be 605d 62be
00000180: 85d4 563e f521 82be b953 d1be 26dc 893e
00000190: 6a3e 01be 1d71 b43e abee 1d3f f525 2dbd
000001a0: 28cb 76bd 2279 103f 3a12 0e3f e633 003f
000001b0: 8e5a c6be a78a 6a3d bf70 2c3e 3722 aa3e
000001c0: b471 8dbe 6163 073f a135 dcbe 48f6 2c3e
000001d0: 9648 e2bd b639 e93e e25c 65be 1de1 80bd
000001e0: c39a aebc 0966 cb3e f91e e83e 7ab4 e03e
000001f0: 8c6a a63e 94e3 b8be 1605 62bf 7826 2ebe
00000200: 198c 6abe b37b 94be 43f4 003f a752 fc3e
00000210: 27e1 393c e3f2 02be 68b2 78bf 9c13 04bf
00000220: 8473 85be 8d7f 823e 4193 803f 8612 d83e
00000230: c1f0 a2be e9cc 6dbe 0a57 d93e 34fb a1be
00000240: fc6d 893c 0a0d 15be 5a00 963e df0b 42be
00000250: fb60 5e3e 4ad4 babb f3d1 643f 2f28 063f
00000260: 1d95 b5be 0780 c4bd ce73 93bb 458e 803e
00000270: 9bc6 f43d 69f9 583e 02cd f93d 7471 bd3d
00000280: b2b4 68be bb7b ecbd a252 93be 5db3 45bd
00000290: 28c1 b4be e82d 12bf 6b72 49bd 786d 13be
000002a0: 00f3 6ebe 21d3 7abe c9bb 2abf 3ff7 173e
000002b0: 3dc8 b23d 0503 6b3e 1906 03bf 04b6 ba3e
000002c0: 37b3 d53e 624d 67be dcf9 a33e 2ff7 d1be
000002d0: c5f7 1bbe 5e52 9ebe 84ca 2e3f 5541 1a3e
000002e0: 09f0 87be 1a85 c03e 0fa3 e23e 2381 49be
000002f0: d05e f93d fc03 04be 7061 243e f893 d1bd
00000300: 1148 123e 8387 6f3d 3587 693f 786c 153f
00000310: 9c74 0f3f cbae e53e 4887 02bf 9f7d 42bc
00000320: d451 a8be d2de 953d 3666 1d3f 4cd6 833e
00000330: dbbc 863e 993c 05bf 357a ecbd cac3 453e
00000340: b087 083f e996 f23d 5750 62bf 8e54 a5be
00000350: 41f3 013e 32a8 f9be 57e3 3b3e 7e05 dd3e
00000360: 7ff5 f03d 5842 2e3c 64e5 4a3e 434b 9f3e
00000370: 0d48 18bf 0df7 b0be e5f1 943e 6c26 d8bc
00000380: 1248 acbe ae8f 893e 0f56 8fbf 1d9a 5d3d
00000390: 7032 2f3e df6f d6bd 6233 2fbf 0a6d b33e
000003a0: 26fc 923e 6a3e b73e a672 f2be 9e74 27be
000003b0: 3275 26bf 746d 0abd f8dd 383f 201b 903e
000003c0: b434 02bf 904e f63e 6af1 a63e 4cc4 32bd
000003d0: 9aa8 7c3c 9c9f a0be 4769 473e 82d1 d1be
000003e0: 79b1 0e3f 0478 103f 6431 43bf 1de1 093e
000003f0: eeec 993e 625a 0dbd 3404 5f3f 2542 0c3f
-0.3663185 0.08746411 0.18859093 0.418351 -0.22268179 0.4028546 0.13191952 -0.27061215
-0.013245548 0.14397493 0.76739234 -0.3586757 0.010562161 0.18748316 0.5723086 -0.2867361
-0.23495999 -0.48034412 -0.656172 -0.32292825 -0.6090724 -0.18143024 0.81291705 -0.035928417
-0.2440503 0.46865726 -0.6230449 0.13969393 -0.55163795 0.17874333 0.56039906 0.44498202
-0.08254038 -0.10404525 -0.88103896 -0.59087414 0.518848 -0.053531483 -0.74498534 -0.033457384
-0.08520284 -0.367843 0.17971982 -0.31834117 0.72233 0.3622078 -0.107654 -0.42757845
0.6426028 0.37891963 -0.18231991 0.10802067 -0.18878117 -0.1996242 -0.59393823 -0.27771288
0.35918534 0.21450198 -0.3683549 0.13831684 0.23779601 -0.34687647 0.11859114 0.29851592
0.36868617 0.27199036 -0.5026318 0.3814814 -0.24425186 0.36055702 0.6657578 0.043680366
-0.14417943 0.37827092 -0.7991191 0.20527963 -0.47296542 0.48657453 0.7356736 -0.20258665
-0.016785586 -0.11814676 -1.0732716 -0.5176152 -0.48345548 -0.4244033 -0.07386005 0.20664372
0.048515618 -0.33331946 0.112812184 0.1993726 0.582425 0.26035237 -0.47514564 -0.22105932
0.20979507 -0.25416532 -0.40884188 0.26925772 -0.12621465 0.3524255 0.61692303 -0.042272527
-0.06025234 0.56434834 0.5549656 0.5007919 -0.38740963 0.057261135 0.16839884 0.3322923
-0.2762581 0.52886015 -0.43009666 0.16890824 -0.11049001 0.45551842 -0.22398713 -0.06292937
-0.02131403 0.39726284 0.4533613 0.43887693 0.32503164 -0.36111128 -0.8828901 -0.17006862
-0.22905006 -0.29000625 0.50372714 0.4928181 0.011345184 -0.12787966 -0.97147226 -0.5159242
-0.26064694 0.2548794 1.0044938 0.42201632 -0.31824306 -0.23222698 0.42449218 -0.31636965
0.016776077 -0.14555755 0.29297143 -0.18949841 0.21716683 -0.0057015764 0.8938286 0.52405065
-0.35465327 -0.09594732 -0.004499889 0.25108543 0.119519435 0.21188892 0.12197305 0.09250155
-0.2272518 -0.11547037 -0.2877398 -0.048266757 -0.35303617 -0.571013 -0.049181383 -0.14397228
-0.23334885 -0.24494602 -0.6669279 0.1484041 0.08729599 0.2295037 -0.5118118 0.36466992
0.41738293 -0.22588113 0.32026565 -0.410089 -0.15231235 -0.30922216 0.68277764 0.15063985
-0.2655032 0.37601548 0.4426503 -0.19678168 0.12176287 -0.12892145 0.16052794 -0.10233301
0.14285304 0.058478843 0.91221935 0.58368635 0.56037307 0.4485992 -0.5098767 -0.011870771
-0.3287493 0.0731789 0.61484087 0.25749433 0.2631596 -0.5204559 -0.11546747 0.19312969
0.5333204 0.1184519 -0.8840384 -0.32291073 0.1269045 -0.48761135 0.18348442 0.43168253
0.11765575 0.010635935 0.19814068 0.31112108 -0.5948494 -0.34563485 0.290908 -0.026385508
-0.33648735 0.2686743 -1.1198138 0.054102052 0.17109084 -0.104705565 -0.6843778 0.35044128
0.28708 0.35789806 -0.47353095 -0.1635308 -0.65022576 -0.03379579 0.722137 0.28145695
-0.5086167 0.48106813 0.3260606 -0.043644235 0.015421057 -0.31371772 0.19473754 -0.40980154
0.5573955 0.5643313 -0.7624724 0.1346478 0.30063576 -0.034510024 0.8711579 0.5478843

fc1.bias f4 [128]
00000000: 6886 ce3e 0bfc bcbc e942 1f3e 915e 9a3e
00000010: 3e8a 913e 020d 38be cf10 8f3c fef4 83be
00000020: 8047 3abe d3dc 8b3e f20e 053f c03b fdbe
00000030: 7336 28be 84bb 5dbb b044 043f e5c4 be3e
00000040: f4da 103f 4220 9f3e c588 1abd 733e 823e
00000050: 4517 5cbe b850 c3be 5edc 833e 5461 7a3d
00000060: ef89 f93e 5cd0 dd3d 0d53 bbbc a37d c63e
00000070: 09f4 94be f307 483e 50f2 0f3f 4209 b23e
00000080: d514 a2be b0d0 4fbe 1a46 07be 497c 943e
00000090: 126d ef3e ed99 d9bd 6a48 083f 0da2 b03e
000000a0: 371b 8cbe 5ee6 ebbe 099f 043f c0bb c23e
000000b0: da76 163e dd27 90be 6411 883e 3486 b8be
000000c0: f24a 61be a512 76be 9498 c03e 54a2 7abe
000000d0: 7eb6 2c3e 724b a13e bda6 aa3e aa75 c0be
000000e0: a48f b6bd 40b8 053e 7368 b73e fc4e c0be
000000f0: 1141 ce3d 4f43 213f 18e2 a3be d72a a4be
00000100: 7746 61be 8ebf d33e b5f8 bf3e da5e fe3c
00000110: 7868 033f 86bd 3cbe 57d0 103f d8ef 68be
00000120: a0cd 073f 0ac3 c93e ae91 3cbe 8ec4 3dbe
00000130: cda2 fb3e 7bdc eb3e 2f4a 1a3f d74c 87be
00000140: 6c9a edbd f695 3ebe 832d 073e 11b6 943e
00000150: 59a1 99be b7c4 fbbe 063f e13e 1f53 a73e
00000160: a69b 943c d532 bcbe 66c3 1f3f 31a8 bebe
00000170: 89cf 28be d18f 313e 5673 a6be d537 083f
00000180: 92f9 96be d28a 1dbe a5a4 d1bc 54fe d6bd
00000190: 0981 6fbe 54c4 a53e 9a0a 063e 5360 35be
000001a0: 051a a8be bfee 98be 9f5d 52be fb9b e73e
000001b0: b0da aa3d 7d9c bdbd e6a6 8dbd 6368 8fbc
000001c0: 1696 713e 8c2d 173e 141a 523e 9e3a 48bd
000001d0: bc54 943e 6130 073f c5f9 edbd fe94 0b3f
000001e0: 49e7 c2be 5609 a43e b7fb fc3e 676d b83e
000001f0: 0016 19be 37db 52be ed7b 2cbe cd8f f13e
0.4033692 -0.023069402 0.15552868 0.30150273 0.28425783 -0.17973712 0.01746407 -0.25772852
-0.18191338 0.27316913 0.5197593 -0.49459648 -0.1642702 -0.0033833692 0.5166731 0.37259594
0.56584096 0.31079298 -0.03772809 0.2543827 -0.21493252 -0.3814752 0.25754064 0.061127976
0.48738047 0.10830757 -0.02286675 0.38767728 -0.29092434 0.19534282 0.56229115 0.34772688
-0.3165652 -0.20294452 -0.13210335 0.29001072 0.46762902 -0.10625062 0.53235495 0.34498635
-0.27364513 -0.46074194 0.5180517 0.38033867 0.14693776 -0.28155413 0.26575768 -0.3603989
-0.22001246 -0.2403055 0.37616408 -0.24475986 0.1686649 0.31502873 0.33330336 -0.3758977
-0.08914116 0.13058567 0.35821876 -0.3756026 0.10071004 0.6299333 -0.32008433 -0.32063934
-0.21999536 0.41357082 0.37494436 0.031051088 0.5133128 -0.18431672 0.565679 -0.22747743
0.53048134 0.39406615 -0.18414947 -0.18532011 0.49147645 0.4606665 0.60269445 -0.26425812
-0.11601719 -0.18611893 0.13200955 0.29045156 -0.3000591 -0.4917352 0.43993396 0.32680604
0.018140625 -0.36757532 0.6240753 -0.37237695 -0.16485418 0.17340018 -0.3250987 0.5321019
-0.29487282 -0.15384987 -0.025591204 -0.10497728 -0.23389067 0.3237635 0.13089982 -0.17712526
-0.3283235 -0.2986965 -0.20543526 0.4523619 0.083424926 -0.092583634 -0.06916599 -0.01750583
0.2359241 0.14763469 0.2051776 -0.048884027 0.28970897 0.52808195 -0.116199054 0.5452422
-0.38067082 0.32038373 0.49410793 0.36020967 -0.14949799 -0.20591436 -0.16844149 0.47180024

fc2.weight f4 [128, 128]
00000000: a6ee 103d ba64 de3d 4eaf 153e 2662 583e
00000010: 8668 173e 60b7 6bbc 128f 023d c776 afbd
00000020: 257b 06be e432 1b3e d818 f83d a78b 15be
00000030: 301f 3bbd 57f3 afbc 2178 523e 580f 9cbd
00000040: a2cb ed3d 9d79 fa38 a7ae bcbc b546 ef3d
00000050: 99dd 33be 812c 1d3d ce17 76bd 41bf ba3d
00000060: 464d 3f3d 9c2d 0c3e 8868 e3bd 30e5 8b3d
00000070: 3ae8 03bd 5744 b43d 9af1 693c 52fa 423e
00000080: d1ec a8bd ffcb 98be 2267 a3be 793d cf3d
00000090: 64fa 9b3d c3a8 60be 411a d43c 7dc5 163e
000000a0: 1e31 a53d 4069 783b 31c0 a3bb a2d5 8b3d
000000b0: 7f16 6d3e cc9f a6bd 1170 a03d cdfe a0bc
000000c0: 79ad 79be cad3 46bb 1945 863d e552 0cbd
000000d0: b5fc 113e 052d b2bd bf0f 8b3d 585f 1dbd
000000e0: aaaf d0bd dae3 903d 04fc 8b3d dc1c 31bd
000000f0: 14fe ad3d 908c b53d 028d 3ebe 63e8 31be
00000100: feb9 87be 2ed6 293e b454 cb3b 9cce f73d
00000110: 8226 8cbd a237 9abd f885 813d fd7b 293d
00000120: 4009 503e bf07 fb3b 54ff 26ba a18a 17be
00000130: ded8 763e a027 703d 8fd2 b63d 1846 c2bd
00000140: 7aa5 54bd 0b25 ecbd c346 0f3e 2c21 a23c
00000150: 8d7c a7be 5520 08be 6b91 8d3d d898 713d
00000160: 82ac 8fbe cefb d7bc 5778 f13d 0b1a ac3c
00000170: f5b8 f0bd 72e9 bf3d c7e3 c7bd 5992 1c3e
00000180: 0a23 f93c c7c4 84be d239 a8bd 630e e3bd
00000190: a133 97be 9146 1d3e 4ee6 113e ec88 cfbd
000001a0: 2e5a 86bd a91b 85bd da8e d33d 6054 853e
000001b0: daff 043e ecc0 b33d 42a0 a6bc cdd0 063c
000001c0: 1cc9 93bc 93ac 643d 1cc0 263e b85b 2d3e
000001d0: aa6e 0a3d 0e72 f93d cef5 99bb 9e27 463c
000001e0: 0f05 7bbe 8908 d73c 2db1 e63d 4d78 953d
000001f0: 339a f0bd d91a 7ebe 6eed 36be d90a 003e
00000200: 6426 bfbc ba2f 2d3d 481f c83c bd01 c1bc
00000210: 66f4 303d 687c a53d e664 95bd 403c 6ebd
00000220: a115 bd3b d91c 9a3d 0c33 adbd e359 56bd
00000230: 752c 5dbc f403 43bd 2124 a73d 11ce 8f3d
00000240: cc35 29bd 035c bdbc ad99 503d e246 24bc
00000250: 0e41 26bb 0b32 433c 2bd0 7a3d fd09 033d
00000260: adbf fabc f968 c23b bc00 6e3d 7969 8abd
00000270: 7021 523d be62 5fbd 11ec a63d 4e8f 3b3a
00000280: 774f 9cbc 4544 433d 52d8 61bd c3b8 e83c
00000290: 16e2 153c b86b 513d 1a79 0cbd eca0 9e3d
000002a0: 4102 e83c 174e 0e3d 6ce0 80bd 0169 f03c
000002b0: 09ce 55bd 0db4 2bbd 34fd a03d 821c 1bbd
000002c0: 8359 2dbd 6468 a6bd 5343 e83c 8643 3cbd
000002d0: 46bd 14bd b346 91bd 29fa a13d ef2a a93d
000002e0: 84b7 2fbd 5066 84bd aa8e aabd 4f65 a8bd
000002f0: 5c21 b8bd b210 523d 81ac 96bd e853 823d
00000300: 30fa 25bd e377 8abc 6aa7 e53c 9420 ca3c
00000310: e608 9fbd 96f2 c73a 6bf0 1a3c 9be2 70bc
00000320: dfb6 77bd ffc8 673d 9f43 8cbc 836f 1ebc
00000330: 592e 933c 9022 88bd 4671 17bc 7964 33bc
00000340: a142 a2bd acff 74bd 8479 86bc bf6d 8ebc
00000350: 84b4 733d d962 5fbb 9beb 84bd 4e08 033d
00000360: c41a 8abd 25a2 02bd d832 64bd e1fa b03d
00000370: b1b6 fcbb c8e6 843d 0afc a5bd f66b 923d
00000380: 9346 efbc fb28 bdbd 3ffe c13c f593 73bd
00000390: e833 743d 8290 3a3c 7445 813d a943 023d
000003a0: 3492 1dbc f5f9 733d aede 143d ef2c ea3c
000003b0: 7c16 b3bd 11e2 bbbd e3b8 52bd 0921 87bc
000003c0: d989 42bb ab39 193d 776e 713c 96c1 093c
000003d0: c61f cebc b3f7 943a b492 2a3d d277 8ebd
000003e0: 7cbc 40bd af36 8abc 9533 ac3d 66b1 33bd
000003f0: caa6 ab3d 3555 4c3d e179 2ebd 3ef6 aebd
0.035383843 0.10859056 0.14617655 0.2113119 0.14785966 -0.014386982 0.031874724 -0.08567577
-0.13132913 0.15156132 0.121141136 -0.14604054 -0.04568404 -0.021478338 0.20553638 -0.07620114
0.116111055 0.00011943581 -0.0230325 0.11683408 -0.17565002 0.03837252 -0.060081296 0.0911851
0.046704553 0.13689274 -0.11103922 0.068308234 -0.03220389 0.08802097 0.014278794 0.19040802
-0.08248294 -0.29843137 -0.31914622 0.10119147 0.076161176 -0.21939377 0.025891425 0.14723773
0.08066009 0.003790453 -0.0049972762 0.068278566 0.23153113 -0.081359476 0.07833875 -0.019652748
-0.24382581 -0.0030338638 0.06556148 -0.034258742 0.14256556 -0.08699993 0.06790113 -0.038421005
-0.10189755 0.07074709 0.068351775 -0.043240413 0.08495727 0.08864701 -0.18608478 -0.17373805
-0.26509088 0.1658561 0.0062051658 0.120999545 -0.06843282 -0.07530142 0.06324381 0.04137801
0.20316029 0.0076608355 -0.00063704443 -0.14798976 0.24106166 0.05863154 0.089268796 -0.094860256
-0.051915623 -0.11530503 0.13991837 0.019791208 -0.32712212 -0.13293584 0.06912502 0.058983654
-0.280613 -0.026365187 0.11790531 0.021008512 -0.11754028 0.09370698 -0.09760242 0.15290202
0.030412216 -0.2593138 -0.08214153 -0.110867284 -0.29531577 0.1535895 0.1424801 -0.10133538
-0.06560169 -0.064994164 0.10329981 0.26040936 0.12988225 0.08777031 -0.020340089 0.008228493
-0.018040232 0.055828642 0.16284221 0.16929519 0.033796944 0.12179957 -0.0046984917 0.012094406
-0.24513648 0.026249187 0.11264262 0.07298336 -0.11748161 -0.24814929 -0.1786401 0.12504138
-0.023333736 0.042281844 0.024428979 -0.0235604 0.043201827 0.08080369 -0.072946355 -0.058162928
0.0057704006 0.075250335 -0.08457002 -0.052331816 -0.013499369 -0.047611192 0.08161188 0.07021726
-0.04131107 -0.023115164 0.050927807 -0.010026665 -0.0025368365 0.011913787 0.06123368 0.031991947
-0.030608976 0.005932924 0.05810617 -0.067583986 0.05130142 -0.054537527 0.08150495 0.0007154838
-0.01908086 0.04767253 -0.05513794 0.028408414 0.009148141 0.05112812 -0.03429518 0.07745537
0.028321387 0.03474244 -0.06292805 0.029346945 -0.052198444 -0.041919757 0.07860795 -0.037868984
-0.042321693 -0.0812538 0.028352415 -0.045962833 -0.036313318 -0.07093563 0.079090424 0.08260142
-0.042899624 -0.06464827 -0.08327992 -0.08222448 -0.08990738 0.051285453 -0.07357121 0.0636366
-0.0405218 -0.01690287 0.02803393 0.024673738 -0.07765369 0.0015254791 0.009456734 -0.014702464
-0.060477134 0.05658817 -0.017122088 -0.009670141 0.017966436 -0.06647217 -0.009243315 -0.0109492475
-0.07922865 -0.05981414 -0.016415365 -0.017386315 0.059498325 -0.0034086017 -0.06490251 0.03199034
-0.067433864 -0.031892914 -0.05571255 0.08641601 -0.007712208 0.064893305 -0.08104713 0.07149498
-0.029208457 -0.09236332 0.023680804 -0.059467275 0.059619814 0.011386992 0.06312075 0.031802807
-0.009617377 0.05956455 0.036345176 0.02858588 -0.08744523 -0.09173978 -0.051445853 -0.016495245
-0.0029684214 0.037408512 0.0147358095 0.008407971 -0.025161635 0.0011365324 0.041643813 -0.06956448
-0.047054753 -0.016871778 0.08408276 -0.043870352 0.08381422 0.049885947 -0.0425967 -0.08543061

fc2.bias f4 [128]
00000000: 06cf 143e 5944 56bd 168f 5d3d c33c 263e
00000010: 7762 8b3d d585 883d 1860 bdbd 2a02 2f3e
00000020: cb2d ad3d 88ac 4abd 1486 1c3e ed40 ba3c
00000030: 32c5 993d 9de7 98bd 6f97 ae3d f99c 73b8
00000040: b30f 063e f772 b83c 2cf3 223e 5b8b 973d
00000050: 9c5e 3e3d b593 e23d a003 1b3e f313 133e
00000060: dfcb 453e 643a ec3d ef92 173d 6399 213e
00000070: d807 26bd 1200 bf3d 0261 90bd 2949 6a3d
00000080: fa69 b23d 908d 993c b48a cf3d e008 0ebd
00000090: d59a 873d 9ec9 673c 585d 1d3d 6c14 fb3d
000000a0: 7051 b9bd 45bf 103e f1d7 84bd 8c28 fb3d
000000b0: 95a0 b13d afc2 7a3d 619c 483e 54da 303e
000000c0: f797 493e 1692 853d 7087 543d 20ed babc
000000d0: 7afe 243e c0fb 62bd c63b 1d3e 8f18 3b3e
000000e0: 278d 4c3d 1efb 3b3d 88fa c6bb 6601 01be
000000f0: fa25 4e3e 8d12 1bbc 3df8 a23d 83eb 353d
00000100: e6e3 2a3e 3fa3 1a3e f32c 113d 2bee ba3d
00000110: 1c18 913d 9ea7 333d 540b 683c 4c70 28bb
00000120: 434b 403e e592 cf3d bebb b8bb a125 933d
00000130: 4f0a 8a3d 058d 153e ca36 86bd e752 0a3d
00000140: 6a27 a8bd e4d9 38bd a774 c13b 00cc 80bd
00000150: 3cde ebbc c624 513d b292 813d 0d3c 1f3e
00000160: 68b8 043e 3c65 253e c069 283b 26f2 2f3e
00000170: c8f8 3f3d 4272 5fbd 1a28 0c3e 172a 9fbd
00000180: 75dc b63d d420 493d 5c4f 433e 30bb db3d
00000190: 0bd7 19bc 3edd 203e e808 253e 4d66 9ebb
000001a0: 6169 303e 1a1c 3e3e 81d4 b33c 6cc1 f73d
000001b0: 9b9e 083e 0401 1dbe 7abb d23d 6bee aebd
000001c0: 95c3 dd3d e6e8 2b3e 9a3f e73d 10dd 1b3d
000001d0: 9c3e 843c 9480 1e3e b0e7 a03c 703d 453e
000001e0: 6014 a63d 1b2c 893d fb34 97bc ffd8 a8bd
000001f0: b0e5 2c3e 8e4c a93d 8e93 61bd 8197 643d
0.14532098 -0.052311275 0.054091536 0.16234116 0.0680589 0.066661514 -0.09246844 0.1709067
0.08456 -0.049480945 0.15285522 0.022736037 0.07508315 -0.07466052 0.085249774 -5.8081907e-05
0.13091926 0.022515757 0.15913075 0.07399627 0.046476945 0.11063329 0.15138102 0.14363079
0.19316052 0.11534575 0.03700536 0.15781169 -0.040534824 0.09326185 -0.07049753 0.057198677
0.0871162 0.01874426 0.101338774 -0.034676433 0.06621329 0.01414719 0.038419098 0.122597545
-0.09048736 0.14135464 -0.064865 0.12263593 0.08673207 0.06122082 0.19590904 0.17270786
0.19686876 0.06522004 0.051886976 -0.022818148 0.161127 -0.05541587 0.15354833 0.18271087
0.0499393 0.04589378 -0.006072346 -0.1259819 0.20131674 -0.009464872 0.07957504 0.044414055
0.16688499 0.15101336 0.035443258 0.09127458 0.070846766 0.043861024 0.014162857 -0.00257017
0.1877871 0.1013544 -0.005637615 0.071849115 0.067402475 0.14604576 -0.06553419 0.033770468
-0.08210643 -0.04512967 0.0059037986 -0.0628891 -0.028792493 0.05106046 0.06326808 0.15550251
0.1296097 0.16151899 0.0025697798 0.17182216 0.046868116 -0.054552324 0.13687173 -0.077717
0.089287676 0.049103573 0.19073242 0.107290626 -0.009389649 0.15709397 0.16116679 -0.0048339725
0.17227699 0.18565407 0.021951916 0.12097439 0.13341753 -0.15332419 0.102896646 -0.08541568
0.1082832 0.16788062 0.11291428 0.03805262 0.016143136 0.15478736 0.019641727 0.19261718
0.08109355 0.066978656 -0.01845788 -0.08244514 0.16884494 0.08266555 -0.05507236 0.055808548

fc3.weight f4 [2, 128]
00000000: 6b6f 643e 5263 ae3d 53b2 a63e 64e1 babe
00000010: 6bd0 00bf ed6a 803e 8f87 a8bd d39d a33e
00000020: 3fc3 9d3e 32e2 b7be 9171 c23e b68d f7be
00000030: 4501 59bd 25fd 68bd 25c1 353e a68b 9bbe
00000040: 5a12 9f3e e8e9 75be 2fe5 ad3e 9dfc 873e
00000050: 3ad1 f13d a46f dc3d 4c18 963e 78a3 c13e
00000060: f7f5 793e a2da d63d 9b99 5abd 7b82 793e
00000070: 80e9 c6bb 9f97 993e 3461 14bf eda3 ffbe
00000080: 5ac4 74be 9792 b7bd 3b88 a43e f3e6 85be
00000090: 5d18 a33d a628 d4bc d0ed 6e3e 9956 83be
000000a0: 1c7e 05bf f3a2 ac3e 187c 60bd b9a5 793e
000000b0: 0caa a63e fd2b 523e 28fb b53e 9121 903e
000000c0: 0168 943e bd64 853e 61e7 86bd 42af e6be
000000d0: 60fc 313d 0905 873c 21f3 a53e b513 963e
000000e0: 781b 5dbe b4c1 9dbe 05ac 57be 63d0 6d3e
000000f0: 030f 623e 2225 f13b 4072 f6bb f284 c8bc
00000100: 63fd a13e 35c7 623e dc6f 773e edb9 d3be
00000110: 32f3 7cbe dc47 8f3e cd4b 76bd c45d 58bd
00000120: 9a8c 943e a872 c13e 36d7 aabe 0b78 96bc
00000130: d3ad cabe 41d9 7e3e aeaa 9bbc 988a 90be
00000140: cb3d 7f3b 35c4 833d 089a 753e 9cf0 943a
00000150: e4c4 5a3d 2d68 903e e357 883e 4c1d 893e
00000160: b017 a43e f93b 7d3e a2b0 333c ac8a aa3e
00000170: 16d7 5f3e 2350 aabd a631 8b3e dc0d 89be
00000180: 8cf1 853e 6f30 acbd cb6e 583e baac 923e
00000190: fe3c bcbe 538b be3e c2e3 673e afec 97bd
000001a0: 90ba 983e 8441 4b3e 68e8 11bf 1292 a53e
000001b0: fb5b cc3e 6c48 bd3d 3956 c0be 6981 bdbd
000001c0: 8ca9 9c3e 8f57 2e3e c06c a83e e124 853d
000001d0: cad9 283d 80f8 993e 35f2 a7be 39be 7a3e
000001e0: 1203 313d 32de 8a3e c203 dabd 368f a43c
000001f0: 7130 bf3e d3ed c13e cd66 a03d 8afa fe3c
00000200: 5e8a 403d e227 cd3b 989b 5d3e 1245 d73d
00000210: 6e46 a3be 4266 a53e 6f62 20bd e092 6c3e
00000220: 33f0 5a3e f2d0 51be daa0 493e 7f7a cabe
00000230: 943b 19bd e332 19bd 3a8e 613e 84de bebe
00000240: b5e1 863e 3063 25bf 8939 893e 6b2d 8b3e
00000250: 6c46 9e3e 28e3 8e3e 1262 a43e 4999 c93e
00000260: ec0c 833e f8a2 c63e 69aa ca3e 9ec4 943e
00000270: 9410 b03d 80ec 5d3e b02e 8bbe a3c9 c1be
00000280: 3ef8 533e 968d babe 36da 853e efb6 13be
00000290: 33b7 a53e abf4 533d 6832 a53e 6f43 033e
000002a0: d4b5 a2be 7b51 953e cf1e 363d 765b 833e
000002b0: c561 3f3e 6b3a 9b3e d3cb 913e ec73 e93d
000002c0: 9738 e03d bd8f 6c3e 3194 a9be 6ab9 e2be
000002d0: 0430 b33e 3709 c1bc 4faa a73e 8ec7 e23d
000002e0: ce27 a0be 57e1 b4bc cc30 1dbd 06ad c9be
000002f0: 2ada c53e 1f78 e8bd 4b5f e0bc fc97 c23b
00000300: e39e 823e ffea 7b3e bacb ad3e 99ed c8be
00000310: 99d6 67bc aeaf e63d e2bd a5bd 971a ec3c
00000320: ba73 a23e 725c 223e 73c2 dfbe 2bc0 fa3a
00000330: abc8 4fbe 2666 823e 9a97 343d 26e5 86be
00000340: dcc6 91bd 68b3 d7bc aa60 eb3e d593 633d
00000350: 5f7a 96bd 11c2 923e e190 523e d580 683e
00000360: 5a0d 1d3e 2136 433e 2c26 613c b64e 523e
00000370: ed8b f53c ced4 d8bb d150 253e 7991 c2be
00000380: fd3f 4d3e bf35 20bd 5cfa 6a3e 371e a83e
00000390: 49fe a4be 8cb4 0a3e 2709 a93e f4c7 f5bb
000003a0: d02b 213e 706d 673e c512 2fbe 14e3 a23e
000003b0: 801b 863e 9cc5 e2be e044 5f3e 22d0 063d
000003c0: b7f9 143e 40e1 8c3e 432a 463e a2a2 82bd
000003d0: d652 233d 0dc1 803e 5475 d7be 8b06 7a3e
000003e0: 2030 813e 4e86 a03d 0e2d cdbe 86cc 2e3d
000003f0: 4d24 b63e ddd0 e33d 72d8 843d 3677 ffbe
0.22308128 0.085150376 0.32557926 -0.36500084 -0.5031802 0.25081578 -0.08228981 0.31956348
0.30813023 -0.3591476 0.3797727 -0.48350304 -0.052979726 -0.056882042 0.1774946 -0.3037998
0.3106869 -0.2401501 0.33963916 0.26559916 0.11807485 0.10763481 0.29315412 0.3782003
0.24410234 0.1049092 -0.053369146 0.2436618 -0.006070316 0.2999849 -0.5796082 -0.49929753
-0.23903027 -0.08963507 0.32135186 -0.26152763 0.07963631 -0.025898289 0.23332906 -0.25652006
-0.5214555 0.3371807 -0.054805845 0.24379624 0.3255161 0.20524593 0.3554318 0.2815061
0.289856 0.2605342 -0.06587101 -0.45055586 0.043453574 0.016481893 0.32412055 0.2931191
-0.2159251 -0.30811846 -0.21061714 0.23224024 0.22076039 0.007359163 -0.007520944 -0.024477456
0.3163863 0.22146304 0.24163765 -0.41352788 -0.24702147 0.27984512 -0.060130883 -0.052823797
0.2901352 0.37782788 -0.33367318 -0.018367788 -0.39585742 0.24887563 -0.019002285 -0.2823074
0.0038946744 0.06433908 0.2398454 0.0011363211 0.053410426 0.2820448 0.26629552 0.26780164
0.32049322 0.24729909 0.0109674055 0.33308923 0.21859393 -0.08316066 0.27186316 -0.26768386
0.26160848 -0.084076755 0.21136014 0.28647405 -0.36765283 0.3721567 0.22645476 -0.07418191
0.29829836 0.19849211 -0.5699525 0.32338005 0.39913926 0.09242329 -0.37565783 -0.09253199
0.30598104 0.17025588 0.3289547 0.06501175 0.041223325 0.30072403 -0.32801977 0.24486627
0.04321582 0.27122647 -0.10645248 0.02008782 0.37341645 0.37876758 0.07832108 0.031125326
0.047006957 0.006260858 0.21641386 0.10511221 -0.3188967 0.3230458 -0.039156374 0.23102903
0.21380691 -0.20489863 0.19690266 -0.39546582 -0.037410334 -0.037402045 0.22026911 -0.3727914
0.26344076 -0.64604473 0.26801708 0.2718309 0.30913103 0.2790768 0.32106072 0.3937476
0.25595796 0.3879621 0.39583138 0.29056257 0.08596912 0.21672249 -0.27184057 -0.3784915
0.20700166 -0.36436146 0.26143044 -0.14425252 0.32366332 0.051747005 0.3226502 0.12818693
-0.3177935 0.29163727 0.044462975 0.25655717 0.1868964 0.30318007 0.28475818 0.113990635
0.10948294 0.23101707 -0.33120874 -0.44282085 0.3499757 -0.023563964 0.32747123 0.11073218
-0.3128037 -0.022080107 -0.038376614 -0.3938982 0.38643008 -0.11351036 -0.02738919 0.005938528
0.25511846 0.24601363 0.33944494 -0.39243773 -0.014150285 0.11263977 -0.08092858 0.028821273
0.31728917 0.15855578 -0.4370304 0.0019130757 -0.20291393 0.25468558 0.04408989 -0.263467
-0.071180075 -0.026330665 0.45972186 0.055560905 -0.07347559 0.28663686 0.2056308 0.22705396
0.15337124 0.19063617 0.013742011 0.20537838 0.029973948 -0.006617165 0.1614411 -0.38001612
0.20043941 -0.039113756 0.22947067 0.32835552 -0.32225254 0.13545436 0.33014795 -0.007500643
0.1573937 0.22600341 -0.17097004 0.31813872 0.26192856 -0.4429139 0.21803617 0.032913335
0.14548384 0.27515602 0.19352059 -0.06378676 0.03987392 0.25147286 -0.42081702 0.24416558
0.2523203 0.078381166 -0.40073436 0.042675517 0.3557457 0.11123822 0.06486596 -0.49895638

fc3.bias f4 [2]
00000000: 33c7 053d 2ed3 e83b
0.032660674 0.0071052527
