weights/tuning/20000steps_4agents_32batch_5000cap_0.0003lr_1decay/run_5.pth (torch, 72253 bytes, 6 tensors)

fc1.weight f4 [128, 4]
000000 cc 29 2f 3d a5 86 43 bd e8 07 c5 be 73 3b c5 be
       0.04276447 -0.04773583 -0.38482594 -0.3852192
000010 ac 74 33 be c2 09 99 be 19 d7 39 3f 5c 4b 89 3e
       -0.17524976 -0.29890257 0.7259384 0.26815307
000020 b2 9c 06 bf a5 74 c4 3e 75 1b 1c 3e a2 ee 99 3e
       -0.5258285 0.38370243 0.15244849 0.30064875
000030 60 a9 18 bf 91 de ce bd fa 21 25 3f 18 09 9a 3e
       -0.59633446 -0.10101045 0.6450497 0.30085063
000040 e7 84 2c be 7c 17 d0 be 44 72 a4 be 0a bb 8d be
       -0.16847573 -0.40642917 -0.32118428 -0.27681762
000050 a7 75 19 bf ae bf 11 be 83 c7 67 bf d8 15 be be
       -0.5994515 -0.14233276 -0.90538806 -0.3712604
000060 bd 63 da 3d 8f c7 e5 be f9 c7 14 3f 6e 03 02 be
       0.10663555 -0.44878814 0.58117634 -0.12696621
000070 a2 24 0a bf ba 5d b5 be 55 9b 27 3f 79 74 1c be
       -0.5396215 -0.3542307 0.6547139 -0.15278806
000080 d0 a3 9e 3c 64 82 95 be 61 13 3a bf d0 17 79 3c
       0.019365221 -0.29201043 -0.7268582 0.015203431
000090 06 f1 10 3e 5a 5f c3 39 f9 14 39 3f 30 6b f4 be
       0.14154443 0.0003726434 0.72297627 -0.47738028
0000a0 ad 00 4c 3f 05 db dd 3e 86 2a c5 be d4 42 29 3d
       0.7968853 0.4333116 -0.38509005 0.041323498
0000b0 e6 55 fd be 54 e5 19 3e 92 4c 9d 3f 53 dd 0a 3e
       -0.49479598 0.15028888 1.2288992 0.13560991
0000c0 c3 ea 23 3f bb 66 d9 be 2e 72 47 bf 6f b3 9e 3e
       0.6403009 -0.4246119 -0.779086 0.30996272
0000d0 77 a9 79 bd 55 78 a4 3c 70 0f 44 3f 3a 5d 06 3f
       -0.06095263 0.02007691 0.76586056 0.52486
0000e0 b3 50 5d 3e c2 4f 31 be 2c 28 a9 3f c8 af 00 3f
       0.21612816 -0.17315581 1.3215384 0.5026822
0000f0 25 c7 7d bd b8 f2 75 be 09 0e 43 bf 43 2c 13 bf
       -0.061957497 -0.24018371 -0.7619329 -0.57489413
000100 20 ac 9e 3e 54 e1 20 be d6 01 fe be 42 86 71 3e
       0.30990696 -0.15710956 -0.49610776 0.23586372
000110 e5 16 0d 3f 9d ff 5d be a4 03 cc 3e 72 4d af 3e
       0.5511306 -0.2167954 0.39846528 0.34238774
000120 75 f0 d4 be 69 b2 03 3f 83 e6 9b 3d e0 74 59 be
       -0.41589704 0.5144411 0.07612326 -0.2123599
000130 46 f2 f9 be 2a 13 de 3d cd 69 3c be 5f 64 01 3f
       -0.48817652 0.10843499 -0.18399735 0.5054378
000140 3d 50 d9 bc 49 1a ca be ff c8 67 bf 8f fd 44 3e
       -0.026527518 -0.3947318 -0.9054107 0.1923735
000150 5a df 23 be c5 5a ac 3e 5d 3f 9e 3e 46 52 33 be
       -0.1600317 0.33663002 0.30907717 -0.17511854
000160 60 b5 0f be 21 0e 82 be dd 03 38 3e 59 81 6d be
       -0.14034033 -0.25401405 0.17970224 -0.23193873
000170 5f c6 88 3d 0c f2 d3 3d ce a1 85 3f bc 78 28 3f
       0.06678461 0.10348901 1.0440004 0.65809226
000180 86 fd 04 3f c0 ee ac bc 75 c9 d2 bd b1 62 a4 3e
       0.51949346 -0.021109939 -0.10292331 0.32106546
000190 30 5b 34 3e 70 51 a4 be ac 4f bc bc 7f cf d6 be
       0.1761291 -0.32093382 -0.02298721 -0.41955182
0001a0 b5 65 83 be 3d 0f 3d bd 61 0f 9c bf d2 fa 0b bf
       -0.25663534 -0.04615711 -1.2192193 -0.54679596
0001b0 69 ab 33 3e 1b a0 19 be f6 79 17 bf 23 c5 96 3e
       0.17545857 -0.15002482 -0.5917047 0.29447278
0001c0 7e 63 fc be f2 ff 7d 3e 05 69 7a bf 89 75 de be
       -0.49294657 0.24804667 -0.978165 -0.43449047
0001d0 cf 9a 47 3d 6e de 93 3e 88 b6 3f 3e 1a 98 0e 3e
       0.04873162 0.28880638 0.18721974 0.1392521
0001e0 94 ec 13 bf 5f 4f e3 3e 37 7f 6c 3f 48 66 80 be
       -0.57782865 0.44396493 0.92381614 -0.25078034
0001f0 ee a9 ed be ac a1 58 3e 49 33 12 3f 43 19 af 3e
       -0.4641871 0.21155423 0.57109505 0.3419896
000200 10 bf 9a bd 74 bb bc be 3e 52 38 3f d6 f1 e0 3c
       -0.075559735 -0.36861765 0.7200049 0.027459066
000210 9e f4 3e be 12 56 c7 3e a1 a5 f5 3e 56 2e 37 3e
       -0.18648002 0.38932854 0.47977927 0.1788877
000220 d5 ef f9 be d8 09 38 be 6c 12 b0 3e 35 51 3b be
       -0.4881579 -0.17972505 0.34389055 -0.18292697
000230 ed c0 67 be 6c c6 75 be d6 bf bf 3e ff 7f f2 be
       -0.22632189 -0.24001473 0.37451047 -0.47363278
000240 6c 2d d0 bd 34 0d 6e be 1a f7 61 3f af 43 e5 3e
       -0.101649135 -0.23247224 0.8826767 0.447782
000250 c6 4a 0e be fd 66 1f 3f 8e 9a fc 3e 58 21 8a 3d
       -0.13895711 0.6226652 0.49336666 0.06744641
000260 a9 78 ef be 9c 88 7c 3d b0 4f 3e 3f 9e be d6 3e
       -0.46771744 0.06165372 0.74340343 0.41942304
000270 f9 e2 d0 3d a8 47 84 3e 75 e9 55 3e c9 91 85 bd
       0.101995416 0.2583592 0.20889838 -0.06521947
000280 9b 28 a7 bc 44 c9 8e 3d da 1e a7 3e 9e a8 87 be
       -0.020405104 0.06971982 0.32640725 -0.26495832
000290 6e d2 ef be 48 b1 7b 3e e6 96 3a 3e 25 6d 59 be
       -0.46840233 0.24579346 0.18221626 -0.21233042
0002a0 de 3e 96 be 87 8e 15 bd 45 f6 20 3f 84 4c 96 bd
       -0.2934484 -0.036512878 0.6287578 -0.07338813
0002b0 4b 78 e3 be 44 31 d8 3e df d8 2a 3f a1 f1 64 be
       -0.44427714 0.42225087 0.6673717 -0.22357799
0002c0 c5 e0 bd be 0c ba a6 be d1 4c 29 bf 86 66 be be
       -0.37085548 -0.32563818 -0.6613284 -0.37187594
0002d0 0f ca 9f be 30 c5 c2 3d d0 ac 97 3e a9 b4 6d be
       -0.31208846 0.09510267 0.29624033 -0.23213448
0002e0 ef 7d f6 be 87 34 5e 3e 74 e3 c7 3e 26 24 04 bc
       -0.48142955 0.21699725 0.3904072 -0.008065259
0002f0 b2 c0 89 be c8 f2 9c 3d a6 c7 3e 3f f1 97 ae be
       -0.26904827 0.07663494 0.7452339 -0.34100297
000300 4d d8 23 be 2e 5f 29 be 21 4e 84 bf 97 2e f6 be
       -0.16000481 -0.16540214 -1.0336343 -0.4808242
000310 99 1c 16 3e f6 38 3c 3e 3f f7 4c bf a1 ee 9f be
       0.14659347 0.18381104 -0.8006477 -0.31236747
000320 ce 97 cc 3d 86 f0 cf be 7b fe 37 3f c5 19 ff 3e
       0.09989892 -0.40613192 0.7187268 0.49824348
000330 7b 18 04 3f 1b 72 e7 bd 42 fd 8c bf 76 46 9b be
       0.51599854 -0.11301061 -1.1014788 -0.30327195
000340 32 86 12 3f 92 be 2a be 08 41 8e bf 99 01 df 3e
       0.57236016 -0.1667426 -1.1113596 0.43555906
000350 af a4 22 bd a1 82 c6 be 84 66 0e 3f 15 b8 ab 3e
       -0.039707836 -0.38771537 0.55625176 0.3353888
000360 0e aa b9 bd bf 0b ec bd 03 b7 0c 3e ec 9e 13 3e
       -0.090656385 -0.11525678 0.13741688 0.14416093
000370 c7 97 d3 3e 65 09 fb 3e f9 6f 21 be ca 64 79 3e
       0.41326734 0.49030605 -0.1576537 0.24354854
000380 0a e8 71 bd cc 41 6c 3e b6 a5 af 3f fd 52 f4 3e
       -0.05905918 0.23071975 1.3722446 0.47719565
000390 eb 85 b7 bb ed de d6 3d 8f b3 88 be ff d6 ff 3e
       -0.005600681 0.104917385 -0.26699492 0.49968717
0003a0 f3 8f d1 be ec 8b 0c be 58 92 08 3f e2 e8 87 be
       -0.40930137 -0.13725251 0.533483 -0.26544863
0003b0 ea 37 bb 3e 60 94 9d 3e 8f 20 0c 3e 08 51 3c 3e
       0.36566097 0.30777264 0.13684295 0.18390286
0003c0 c8 f3 50 3f f5 db 9f 3d 26 8a 21 bf 38 ae 48 bd
       0.8162198 0.07805625 -0.6310142 -0.048994273
0003d0 41 a1 85 bd 52 2e df 3b 80 44 7b bf 8d 4e a6 3d
       -0.06524897 0.0068109417 -0.981514 0.08120451
0003e0 28 57 0d bf 9d ce 81 3e 87 24 82 be 97 a8 c7 3d
       -0.55211115 0.25352946 -0.25418493 0.09748953
0003f0 26 f2 70 be 51 36 3f bd ce 87 22 3c bd ac c2 3e
       -0.23529872 -0.04668266 0.009920074 0.38022414

fc1.bias f4 [128]
000000 5f e4 ca 3e 3d 4e 0b bf 1f f1 9b 3e f9 0e e7 be
       0.39627358 -0.5441626 0.30457398 -0.4512861
000010 32 f7 26 3f ef 2c 1e 3e 3c 24 f4 be 30 ab aa be
       0.6522094 0.15446828 -0.47683895 -0.3333373
000020 2c 22 c3 3e fc 45 8d 3e c3 9e 86 be 8e ef 41 3c
       0.3811201 0.27592456 -0.26293 0.011836899
000030 d5 ac b5 bd fd 22 92 be e0 86 71 be f4 0f 58 be
       -0.08870856 -0.2854232 -0.23586607 -0.21099836
000040 8a 04 7d 3e 32 80 2b 3e 53 90 0a bf 43 e5 99 be
       0.24708763 0.16748121 -0.5412647 -0.30057725
000050 b0 35 02 3f 2e b7 45 be 54 73 c8 3e a9 d8 1d be
       0.5086317 -0.19308159 0.39150488 -0.1541468
000060 ed 06 74 3e 0c 02 05 3f b6 28 68 be 18 89 20 3e
       0.23830767 0.5195625 -0.2267178 0.15677297
000070 57 2d 86 be 82 11 16 3f eb c2 94 3e 7c e8 d5 3e
       -0.26206467 0.58620465 0.2905496 0.41778934
000080 be 21 16 bf f1 62 03 3f 8c 2e 0c 3f 5c 75 02 3e
       -0.58645236 0.5132285 0.54758525 0.12740082
000090 b7 9e c3 be b8 43 25 3e f0 3f c9 be 4b c8 0f 3f
       -0.38207027 0.16139114 -0.39306593 0.56165
0000a0 90 e6 03 be ba 6a 0a 3f 96 16 85 3e 68 7c 68 3e
       -0.12880921 0.540691 0.25993794 0.22703707
0000b0 28 1b 75 3d c5 81 0f 3f 5e d3 51 be 44 61 dd 3e
       0.05984035 0.5605739 -0.20490786 0.4323827
0000c0 5c 96 c1 bd e5 c8 da 3e fd ef c0 be a0 04 2d be
       -0.09452507 0.42731395 -0.37683097 -0.16896296
0000d0 f2 9e 7c 3d fd d4 1e bf 33 d1 e3 3e 31 2f c5 be
       0.06167502 -0.62043744 0.44495544 -0.38512567
0000e0 8e 30 3e be ac 9b 96 3e 43 e6 0a 3f 67 74 3a be
       -0.1857321 0.29415643 0.542576 -0.18208466
0000f0 c1 54 f2 bd 74 ee 7d 3e 65 72 bf 3e 9c 0e 19 3f
       -0.11832572 0.24797994 0.37391964 0.5978792
000100 e1 56 82 bd 45 1c b0 bd 9d 60 88 3e 4b de d9 3e
       -0.06364227 -0.08599142 0.2663621 0.4255241
000110 43 55 15 3f cb 6e 74 3e b2 42 ab 3e c4 58 1f 3f
       0.58333224 0.23870389 0.33449322 0.6224482
000120 6d d2 a9 3e 91 c9 1d be 0f 9e 38 bd 2f 04 90 3e
       0.33168355 -0.15408923 -0.04507261 0.28128192
000130 88 02 b6 3e ac 78 c3 3e 16 f5 f4 be ff 68 89 be
       0.35548806 0.38178003 -0.47843236 -0.26837918
000140 dd 8c 6f be c9 55 1b 3f 76 eb 73 be 03 b3 0e 3f
       -0.23393579 0.6067777 -0.2382029 0.557419
000150 fa 09 16 bf 4e 76 b5 3e 84 ab e3 be ee b0 37 3e
       -0.58608973 0.35441822 -0.44466794 0.17938587
000160 41 2e 8c be ce 01 af be 15 db 85 be ef 6f 82 be
       -0.2737904 -0.34181064 -0.2614371 -0.25476024
000170 95 82 ef 3e db 36 2a bd 9a 3f ce 3e 14 d7 29 3d
       0.46779314 -0.04155622 0.402829 0.04146488
000180 23 f4 f4 bd 52 c1 04 3f a5 70 a6 3e 37 cf 27 be
       -0.11960628 0.51857483 0.32507816 -0.1638764
000190 0e 46 3c be c5 9b d5 3d 3d 14 0e 3f fc 9e f0 3e
       -0.18386099 0.10430101 0.5549963 0.46996295
0001a0 b4 c0 c7 3d 31 78 ec be 8c 67 c9 3c 40 aa 8e 3e
       0.09753552 -0.4618545 0.024585508 0.27864265
0001b0 da e1 79 3e 87 fd 71 be 16 11 e5 3e 9b 6c b9 bd
       0.24402562 -0.2363187 0.44739598 -0.09053918
0001c0 fa b2 6d be b7 76 d6 be 04 53 14 3f 23 11 5b be
       -0.23212805 -0.41887447 0.5793917 -0.21393256
0001d0 cb f8 a3 3e b3 e2 81 be ee f2 08 be f8 48 d1 be
       0.3202575 -0.2536827 -0.1337392 -0.40875983
0001e0 40 19 5d be 79 ed a1 3e ae 40 2f 3e 6a 8d 04 3f
       -0.21591663 0.3162649 0.17114517 0.5177828
0001f0 bc 1b 82 be 6b 6f b1 3d 5b c2 00 3f d6 81 fd 3e
       -0.25411785 0.086638294 0.5029656 0.4951312

fc2.weight f4 [128, 128]
000000 85 1f b0 bc 53 19 8d 3d a1 f2 25 bc b7 91 80 3d
       -0.021499405 0.06889596 -0.010128648 0.06277793
000010 d9 d9 93 39 ca d3 2f 3d cd 48 43 3b 30 73 97 3d
       0.00028200334 0.042926587 0.0029798031 0.07395017
000020 73 1c 29 bd 5a 33 7d bc df 05 9b 3d 3b 1b 96 bc
       -0.041286897 -0.015454138 0.07569479 -0.018323531
000030 8b 0f 01 3d 89 e9 52 3d 44 32 3e bc 42 e0 1d bd
       0.031508964 0.051492248 -0.011608664 -0.038543947
000040 6b 46 c7 bd a7 0e 31 3d 3d 2c 5b bd 53 8d 06 bd
       -0.09730228 0.043226864 -0.053508986 -0.03284962
000050 81 e6 38 3d 83 4c cc 3c 3f 53 1a bd e8 69 14 bd
       0.0451417 0.024938827 -0.037677046 -0.036233813
000060 f1 df 8a 3d 09 e5 84 3c af 4f 8f bd 1b 8f 54 bd
       0.06780995 0.016222494 -0.0699762 -0.05189429
000070 c2 e8 a9 3d ee 99 1b 3b 3c 24 ac bd c1 28 82 bc
       0.08296348 0.0023742872 -0.08405349 -0.015888574
000080 d2 e2 27 3d c0 a1 50 3d 10 53 93 3c 78 a5 79 3d
       0.040987797 0.050935507 0.017983943 0.06094882
000090 02 58 fd bb eb c5 8b 3d 3f dd 20 bd ee ac 83 3d
       -0.0077314386 0.06824859 -0.039273497 0.06429468
0000a0 fd ad 6f 3b 11 8f 85 bd 47 21 8b bd 77 b0 d0 bc
       0.003657221 -0.065214284 -0.067934565 -0.02547477
0000b0 02 7b 45 3d a2 d6 a3 bd f9 03 a1 bd 35 13 84 3d
       0.048213013 -0.07999922 -0.07862086 0.06448976
0000c0 79 3e c9 bc 63 d2 4e 3d 9d 5e 32 bc 84 51 a0 3c
       -0.024565922 0.05049361 -0.010886815 0.01957012
0000d0 c6 97 63 bd 94 ed 85 bd 2f b2 a9 bb 31 d1 a0 3c
       -0.055564664 -0.06539455 -0.005178712 0.019631
0000e0 11 5c f2 bc ea df 85 3c 1d 31 0a bd e0 b5 a1 bc
       -0.029584916 0.016342122 -0.033738244 -0.019740045
0000f0 20 cc c4 bd 12 b2 a2 bd ce 41 c4 bd cc 12 f5 bc
       -0.09609246 -0.079441205 -0.09582864 -0.02991619
000100 2e 8e 93 3d 17 df 99 bd 5f d1 71 bd 40 85 3b bd
       0.07204853 -0.07513254 -0.059037562 -0.045781374
000110 f3 48 64 3c d3 5e a4 bc bd 5c 95 3d d2 dd 01 3d
       0.013933408 -0.020064747 0.07293079 0.031705685
000120 f2 f0 72 bd 3d 3c ae bd 81 83 b8 3c 66 05 4f bd
       -0.059311815 -0.08507583 0.022523643 -0.050542258
000130 c5 3e 05 3c 70 cf 01 3c 99 1e 23 3d e1 e7 97 3d
       0.008132641 0.007922992 0.039824102 0.07417274
000140 ce f1 53 3c 1a 28 24 3d fc 2c 32 bc 34 5d 9c 3d
       0.012936069 0.040077306 -0.010874983 0.076349646
000150 b4 c8 e0 bb 79 8c 84 bd 36 70 93 3d 84 58 3b 3d
       -0.006859863 -0.064721055 0.07199137 0.045738712
000160 9b e3 c9 3c fc 4f 9e 3d 51 98 4a bd cc ac 55 bd
       0.024644664 0.077300996 -0.049461666 -0.052166745
000170 3f 6c da 3c 8d 89 75 3c fc e6 85 bd 1e 53 9a bc
       0.026662944 0.014986408 -0.065381974 -0.018838461
000180 2c 1e 9d bd 95 a5 c3 bd 3a 14 b1 bd ed 00 7d bd
       -0.076717705 -0.09553067 -0.08646436 -0.06176846
000190 1c b6 66 3d 41 39 22 3d 49 29 99 bd 80 b4 f6 bc
       0.056326017 0.039605383 -0.07478578 -0.030115366
0001a0 51 79 b4 bd 19 ec 7a 3d 33 ae 97 bd ad 8c 21 3c
       -0.08812202 0.061260317 -0.07406273 0.0098602
0001b0 da 5e 53 3c 42 92 55 3d df 4d 95 3c bb 07 1a bd
       0.012901032 0.052141435 0.018225608 -0.03760503
0001c0 d7 ae 55 3b 8d 0e e5 bc 9d 91 07 3d 74 43 19 bd
       0.0032605433 -0.02796104 0.033097852 -0.037417844
0001d0 8e cc 74 bd cf cb d5 bc ae 7a 42 3c 52 42 66 3c
       -0.05976539 -0.02609816 0.011870069 0.014053898
0001e0 04 8e 3a bd 20 24 bf bc 81 17 a5 bb 29 be 9a bd
       -0.045545593 -0.023332655 -0.0050382023 -0.075558014
0001f0 28 14 58 bd dd bc 8f bd 1b 85 9d bd cb 9f 0c bd
       -0.052753597 -0.07018445 -0.076914035 -0.034332078
000200 f5 87 f9 3d 9b 80 f6 bd 67 41 91 3d 90 30 9b be
       0.12184135 -0.12036248 0.07092553 -0.30310488
000210 f7 b7 ae 3d ed bb f4 bd cf 8c a9 bd be 5c f4 bd
       0.08531182 -0.119499065 -0.0827881 -0.11931752
000220 24 22 ef 3d ea 5a 33 3e cd b1 47 be 40 47 78 be
       0.11676434 0.1751515 -0.1950142 -0.2424593
000230 98 ef 52 3e 22 fb d5 be 6f d3 10 bf 71 bc c1 be
       0.2059921 -0.41793162 -0.5657262 -0.37839082
000240 2c d8 d2 3d e6 48 d1 bd 0d 4b 18 be 49 01 ed 3c
       0.10295138 -0.102189824 -0.1487238 0.028931277
000250 b1 38 0d 3e 7a eb b2 3c 7c 9a 34 3e 92 15 f0 be
       0.13791157 0.0218408 0.17637056 -0.46891457
000260 74 b7 0e 3e 37 12 1d 3e c8 6d b1 be 3e 3f ee 3b
       0.1393717 0.1533898 -0.3465407 0.0072707226
000270 96 c1 11 be bd 21 e6 3d a7 b6 6e 3e 25 c0 17 3e
       -0.14234003 0.11236904 0.23311864 0.14819391
000280 9f bd a8 be ea 85 ea 3d de 2e 9d 3d 8b f1 c6 3d
       -0.3295717 0.11451323 0.07674955 0.097140394
000290 d7 47 cc 3c 6c 7b 10 3d 93 6b 7c be fb 44 1a 3e
       0.0249366 0.035273954 -0.24650411 0.15065376
0002a0 14 03 84 3d d7 93 0d 3d 1e d7 d5 3d c2 2b 50 3e
       0.064458996 0.03456482 0.10441421 0.20329192
0002b0 65 44 0e 3d 11 26 43 3e 92 a5 96 bc e8 c0 6b 3d
       0.034733195 0.1905749 -0.018389497 0.057557017
0002c0 9e f2 bd be 5d 05 e9 3d ef ea be bd 8b 13 b5 be
       -0.37099165 0.11377976 -0.09322154 -0.35366473
0002d0 e4 e2 81 3e 18 a5 e8 bd 78 d7 81 3d 3b ad 9c be
       0.25368416 -0.11359614 0.063399255 -0.30600914
0002e0 ec 2a 24 bf 0d da 41 3e ab da ab 3d c2 37 3b be
       -0.64127994 0.18930836 0.08391317 -0.18282989
0002f0 be 64 6c be 51 e5 25 3d 12 9e c3 3d df 2d bb 3d
       -0.23085305 0.040501896 0.09551634 0.091396086
000300 41 e8 aa be fb 74 f6 bd bf 26 73 3d 6b e2 09 3e
       -0.3338032 -0.12034031 0.059363123 0.13465278
000310 13 d6 58 3e 14 7e f6 3d c8 c8 07 3e 25 75 b2 3d
       0.21175413 0.12035766 0.13260186 0.0871375
000320 25 cc dd 3d 00 5c 6b be 18 a3 91 bb 1a 29 78 3e
       0.10829953 -0.22984314 -0.004444491 0.24234429
000330 2b b4 14 3e 32 32 b6 3c 46 ad 4f be f8 bd fe be
       0.14521854 0.022240732 -0.20280942 -0.4975431
000340 74 99 2e 3e 7d cd aa 3d af 2c 9d bd fb 8f 28 3d
       0.17050725 0.08339975 -0.07674538 0.041152935
000350 45 a9 8e be 66 1c 33 3e 69 0f a9 bd b1 55 86 3e
       -0.27863517 0.17491302 -0.082548924 0.26237252
000360 0c 7e cb bd b3 3d 0c be aa 4b 0e be 5d 54 57 be
       -0.09936151 -0.13695411 -0.13896051 -0.21028276
000370 03 fa 13 3e 9d 7f 6f be 56 72 b9 3d cb a7 b7 be
       0.1445084 -0.23388524 0.09055011 -0.35870203
000380 d2 33 8b bd ac 1f 2f 3e 10 59 be 3d 82 c2 b9 be
       -0.06796993 0.17101926 0.09294331 -0.3628121
000390 0f 28 db be d5 e5 7a 3e d9 95 24 3d 05 75 f3 3c
       -0.42804 0.24501736 0.04018197 0.029718885
0003a0 5f 0b 91 bd 07 80 04 be fc f8 f8 3d d3 e2 ec 3b
       -0.07082247 -0.12939464 0.12156865 0.007229188
0003b0 79 39 eb 3c cf 85 1f bd 52 13 1a 3e 5d b7 d3 be
       0.028713929 -0.03894597 0.15046433 -0.41350833
0003c0 03 e8 05 bf 32 85 4a 3e 3c 05 e4 3d 1b be c5 be
       -0.52307147 0.19777372 0.11133811 -0.386216
0003d0 19 f7 66 3e 09 eb 9f be 0e 3f 89 3e 74 cd d2 be
       0.22555198 -0.31234005 0.2680592 -0.41172373
0003e0 aa 95 5c be 2c cb ab 3d c6 eb bb 3d 53 36 6f 3d
       -0.21541467 0.08388361 0.091758296 0.058401417
0003f0 32 9b 64 be 2b 0b 69 3d 5d c1 17 3e 4a 23 2e 3e
       -0.22324827 0.056895416 0.14819856 0.17005649

fc2.bias f4 [128]
000000 22 2f 39 3c e6 87 12 3e 9a b2 65 3d ab 8c b6 3d
       0.011302741 0.14309654 0.05607853 0.08913549
000010 29 90 2b 3d 34 eb 5e bd fc 6c b3 bc c8 3c 01 3d
       0.04188553 -0.054423526 -0.021902554 0.031552106
000020 6f 83 33 3e 39 7e 33 3b 3e 88 64 bd 3b 09 2f 3d
       0.17530607 0.0027388467 -0.055793993 0.042733412
000030 90 86 15 bd 45 4d 00 3d d8 49 b6 3c e3 d7 bf 3d
       -0.036505282 0.03132369 0.022252008 0.09367349
000040 2f 80 17 3e f7 c1 fa 3c c2 a3 82 bd f3 00 9d bc
       0.14794992 0.030610068 -0.063788906 -0.019165492
000050 2f 6b 03 3e 04 7c 2b bc 8c 4c 65 3c 00 00 92 bc
       0.12833856 -0.010466579 0.013995301 -0.017822266
000060 00 a8 a9 3d 2e f6 83 bd c0 d5 c8 3c 70 6a de 3d
       0.082839966 -0.064434394 0.024515986 0.10860145
000070 1c 37 54 3c bd 7a 0d 3d f0 27 0b 3e 67 a4 b2 bd
       0.012952592 0.03454088 0.13589454 -0.087227635
000080 62 2f f0 3c 94 0d 1b bd da 3f 1f 3c 12 c5 0d bd
       0.029319469 -0.037854746 0.009719813 -0.03461177
000090 b9 91 9e bd 34 d8 68 3d 98 05 5f 3d b6 16 1a 3d
       -0.07742638 0.056846812 0.054448694 0.037619315
0000a0 7d 4c 10 3e 8c a8 a2 3c 6d ef dc 3d 97 6b 38 bb
       0.14091678 0.01985576 0.10787854 -0.00281403
0000b0 51 f3 4a 3c 31 53 b6 bd 17 00 96 bd 98 51 6c bd
       0.012387113 -0.08902586 -0.07324236 -0.057695
0000c0 ad b4 c8 3d 70 63 62 3d 52 9d f8 3d af ea 33 3e
       0.09800086 0.055270612 0.121393815 0.17569993
0000d0 5e ae ac 3d 79 86 cc 3d bf 4f 95 3d a0 0e cf 3c
       0.084316954 0.09986586 0.07290601 0.025275528
0000e0 da 63 10 3e 41 30 83 3c 7d 4c 46 3e d1 3d 43 bc
       0.1410059 0.01601422 0.19365115 -0.011916594
0000f0 40 f5 b4 bd 96 bd 92 bd 0b 15 5d 3e 35 cf 42 3d
       -0.0883584 -0.07165067 0.21590059 0.04756089
000100 33 08 91 bb 93 46 f2 bc e9 a2 05 3d c1 8c 2b 3e
       -0.0044260263 -0.029574668 0.032626066 0.16752912
000110 c7 85 df 3d c3 5e 6d 3d 9f be 8b bd 58 2b 48 3d
       0.10914188 0.0579517 -0.068234675 0.04886946
000120 18 9c 8a 3c bd 59 bf 3d fa d6 3d 3d ea 4e 8c 3d
       0.016920134 0.09343288 0.046347596 0.06850989
000130 74 18 e9 bc da 43 42 3d 83 99 f9 3d c4 bd 29 3e
       -0.028454043 0.04742799 0.12187483 0.16576296
000140 92 d2 38 bd 79 b1 3f 3e 91 bd 53 3c ad 27 18 3e
       -0.04512269 0.18720044 0.012923614 0.14858885
000150 09 ce dc bc 74 93 42 3d 7b b8 7d 3d 40 e7 6d bd
       -0.026953714 0.047503904 0.061943512 -0.058081865
000160 d1 b5 a5 3a e7 22 cd 3c 5d c3 18 3e 95 8e d9 3c
       0.0012642686 0.025041057 0.14918275 0.026557246
000170 fe 67 cb 3c 92 44 be 3d 58 eb f2 3c bd 18 3a 3e
       0.02482986 0.092904225 0.029653236 0.181735
000180 dd 0d 90 3d 0d 7d 47 3e 3e e1 c9 3d 66 e2 d8 bd
       0.07033894 0.19481297 0.09857415 -0.10590057
000190 b2 e5 a9 3d 56 ff 6b 3d 3a 61 97 bd 5f 38 a5 bd
       0.08295764 0.057616554 -0.07391591 -0.080673926
0001a0 ac a6 3e 3e 75 e6 23 3d b4 af 06 3e fe f7 8f 3c
       0.18618268 0.040014703 0.13152963 0.017574307
0001b0 18 af e0 bc c4 df 26 bc b9 81 8f bd fb 99 20 3e
       -0.027427241 -0.010185186 -0.070071645 0.15683739
0001c0 60 18 26 3e f6 cb ac 3c 6b 8c aa 3d ee 1c f1 3c
       0.16220236 0.02109335 0.08327564 0.02943274
0001d0 36 4a 32 3d d6 ef a0 bd b2 e4 3b 3e a6 14 6c bd
       0.043527804 -0.07858245 0.18348959 -0.05763688
0001e0 77 c7 fd 3c 4c 4f d6 3d e1 1f c0 3c 23 23 92 bd
       0.030978901 0.104643434 0.023452701 -0.07135608
0001f0 09 ac 2d 3e 24 ec 20 3e b7 63 4a 3e ae 92 85 bc
       0.16960157 0.1571508 0.197646 -0.016305294

fc3.weight f4 [2, 128]
000000 38 d9 45 3d f0 f3 ae 3e 04 3e 9e 3e f7 78 9a 3e
       0.04830286 0.34170485 0.3090669 0.30170414
000010 ee 59 40 3e 4b 6c 59 3d 01 af 51 bd 8c 4a 66 bd
       0.18784305 0.05308179 -0.051192287 -0.056223437
000020 5f b4 59 3e f9 1b 6f 3c 41 1c 8e bd 37 7d 4d bd
       0.21260212 0.014594072 -0.06938983 -0.050168242
000030 d7 82 40 3e 1a 9d 2e 3e 9b 37 1d 3e d8 5d 38 3e
       0.18799911 0.17052117 0.15353243 0.18004549
000040 39 bf cc 3e 5d 33 64 3c 11 ed db be cb 8e 96 bd
       0.3998964 0.013928262 -0.42954305 -0.07351454
000050 99 e3 a1 3e 25 eb 03 bd 66 e1 8e 3d 66 bc 6b bd
       0.31618956 -0.032206673 0.06976585 -0.057552718
000060 3d 0f ac 3e 7f b5 c7 be 65 75 16 bf 15 3d 74 3e
       0.33605376 -0.39005658 -0.5877288 0.23851426
000070 cf 03 49 bd 47 26 28 3e 90 0e 82 3e 20 f0 29 be
       -0.049075898 0.16420852 0.25401735 -0.16595507
000080 bd 58 97 bd 25 8f 24 bf e8 8b 21 be 20 a2 04 be
       -0.07389972 -0.6428092 -0.15776026 -0.12952471
000090 74 5a 69 3d 1b e4 84 be 64 31 31 bc af c1 be 3e
       0.05697103 -0.2595528 -0.010814998 0.37257144
0000a0 bf e4 b3 3e d1 b3 5b bd 26 b3 9f be a4 a6 e7 be
       0.35135457 -0.053638283 -0.31191367 -0.45244324
0000b0 f2 7b 43 be d7 0c 32 bf fa 53 5b be c2 d1 0a bf
       -0.1909025 -0.6955084 -0.21418753 -0.54226315
0000c0 fe 06 66 3e de d7 28 bd b5 b7 99 3e a3 55 a5 3e
       0.22463605 -0.041221492 0.3002297 0.32291898
0000d0 89 c8 a4 3e a2 c0 9a 3e f2 30 9d bd 45 98 1f 3c
       0.32184246 0.30225092 -0.07675351 0.009740894
0000e0 d9 ff d8 3d d7 36 1f be 19 1e ad 3e fc a2 5d bd
       0.10595674 -0.15548263 0.33812025 -0.054110512
0000f0 99 c7 85 bd e2 3e 67 3b 9f a4 4f 3e ff ee 9e 3e
       -0.06532211 0.0035285284 0.20277642 0.31041715
000100 56 fc 0f 3d 6d e4 15 be 79 03 55 3e 42 32 24 3e
       0.035152756 -0.14637919 0.20802106 0.16034797
000110 92 95 aa 3e e9 8a 99 3d b5 92 0c bf be 65 97 3d
       0.33317238 0.07497198 -0.5491136 0.07392453
000120 49 ea 44 be 21 7b b8 3e e1 3e c0 be c1 e5 ad 3e
       -0.19229998 0.3603144 -0.37547973 0.3396435
000130 e3 35 2c bd 18 dd 96 bd 10 4e 95 3e fd 66 0d 3e
       -0.042043578 -0.07366389 0.2916112 0.13808818
000140 5c 1b 8e bd 15 e0 86 3e a8 d0 c5 be 84 39 79 3e
       -0.06938812 0.26342836 -0.38635755 0.24338347
000150 aa e6 a8 be 1c a6 97 bc 93 ae 72 3e 91 b6 2c bd
       -0.32988483 -0.018511824 0.23699407 -0.042166296
000160 aa 5b 7d bb c5 db ad 3e ea a3 88 3e bd 5d be be
       -0.0038659372 0.33956733 0.26687557 -0.37180892
000170 20 c0 31 bc 00 34 9f 3e 35 8a 26 bc 9b eb ab 3e
       -0.010849029 0.3109436 -0.010164787 0.3357819
000180 ff 64 bd 3e 72 2e a7 3e 07 d3 9d 3e d8 d8 14 bf
       0.36991116 0.32652622 0.30825064 -0.5814338
000190 39 8e 96 3e 58 d7 c4 bc e2 e4 b9 bc 09 dc 0b bb
       0.29405382 -0.024028465 -0.022692148 -0.0021340868
0001a0 64 ce be 3e 25 bf c5 bc 8a c9 85 3e cd 24 3e 3d
       0.3726684 -0.024138996 0.26130325 0.046421815
0001b0 35 e5 6d 3c 8e 8b 5a 3d c1 33 bd 3c 5a c0 29 3e
       0.014519979 0.053355746 0.023095967 0.16577283
0001c0 e7 e8 a4 3e 1b fb 52 bd ed d4 81 3e 80 e9 03 bf
       0.3220894 -0.051509004 0.25357762 -0.5152817
0001d0 65 5c 79 3d 3c 5c 3d bb 93 b0 5e 3e b6 ea 18 bf
       0.06087913 -0.0028894087 0.21747045 -0.5973314
0001e0 69 14 8b 3e e2 7e 88 3e e1 95 b4 3d 1c 4c 55 3d
       0.2716401 0.26659304 0.0881765 0.052074537
0001f0 f0 0d c1 3e b9 f0 8e 3e fe 3f 74 3e ac 5d fa be
       0.37705946 0.27918032 0.23852536 -0.4889959
000200 ad 24 74 3d 8a eb 7c 3e b1 a6 6c 3e 1f 90 8a 3e
       0.05960529 0.24699226 0.23110463 0.2706308
000210 cc 11 bc 3e be bc 59 3c e3 f9 71 bd 2e d9 40 3d
       0.36732328 0.013289629 -0.0590762 0.04708212
000220 39 01 9e 3e d5 64 81 3d dc 04 cf 3c bf 55 2c bb
       0.30860308 0.0631806 0.025270872 -0.0026296226
000230 b3 07 5f be f9 f0 8e 3e ce 53 92 3e d0 a3 a8 3e
       -0.21780281 0.27918223 0.28579563 0.3293748
000240 fc c4 19 3e 82 14 30 bd 34 e2 72 be 0d 49 d9 bc
       0.1501655 -0.042988308 -0.23719102 -0.026524091
000250 51 ff b2 3e 20 6e b6 bc d8 19 1f be bc 61 d2 bd
       0.34960416 -0.022269309 -0.15537202 -0.102725476
000260 09 8b 2e 3e a2 0f 54 be 07 8f 8f be 8c b6 81 3e
       0.17045225 -0.20709088 -0.2803881 0.25334585
000270 8d fc c9 3c f0 7d bc 3e 4c ed aa 3e d6 f6 c2 be
       0.024656558 0.36814833 0.33384168 -0.38078946
000280 48 dd a0 bd 18 c2 ed be 10 c2 d3 be e9 1c 94 bb
       -0.07854706 -0.46437144 -0.41358995 -0.004520048
000290 e7 3d 74 bd 65 f9 01 be 18 bf 34 bd 05 fe 13 3e
       -0.059629347 -0.12692793 -0.044127554 0.1445237
0002a0 dd 2e 94 3e fb 5f bc bc 86 09 a7 bd 01 f0 5c be
       0.28942004 -0.022994986 -0.08156113 -0.21575929
0002b0 3d 84 b6 be 75 2c c4 be fe 43 de be 5f a4 d7 be
       -0.35647765 -0.38315168 -0.4341125 -0.42117593
0002c0 62 fb 6d 3e 67 c0 86 bd 8a 21 91 3e c7 3e 83 3e
       0.23240426 -0.065796666 0.283459 0.25633833
0002d0 a7 34 82 3e cb 6d 9a 3e 06 22 ac 3c a5 70 7d bd
       0.25430796 0.3016189 0.021012317 -0.061875004
0002e0 53 42 c5 3e 1c 0e 1d be 66 5d 84 3e 3e df ad bc
       0.38527164 -0.15337414 0.25852507 -0.021224614
0002f0 b2 f8 13 3d c4 a3 cc bc da d4 81 3e f4 7e 96 3e
       0.036125846 -0.024980433 0.25357705 0.29393733
000300 27 6c 9a 3e 25 fd b7 be 38 9f 0b bd 13 5c 97 3e
       0.3016064 -0.3593532 -0.03408739 0.29562435
000310 d8 02 96 3e 5e 34 64 bd d8 f6 07 bf 0d ea 03 bd
       0.29299045 -0.055714004 -0.5311103 -0.03220563
000320 8e 14 f2 be c8 87 85 3e d1 9a a5 be 7f a6 b5 3e
       -0.47281307 0.26080155 -0.32344678 0.3547859
000330 1b b2 8a bd 70 96 1c bd c8 f5 93 3e 83 ad 91 3e
       -0.06772252 -0.038229406 0.28898454 0.2845269
000340 88 71 dc be 36 4b ba 3e 5b 19 ef be 8e 78 9d 3e
       -0.43055367 0.36385506 -0.46699032 0.30756038
000350 01 e6 0c bf ea 1c 77 3a 7b d7 48 3e 60 8f 4d bd
       -0.5503846 0.0009426611 0.1961345 -0.05018556
000360 81 ed 23 3d f8 49 89 3d f3 09 de bd cf 6d 93 be
       0.040021423 0.067035615 -0.108417414 -0.28794715
000370 d2 19 68 bd 0c 22 a5 3e 0f 01 03 3c 7d a8 52 3e
       -0.05666525 0.32252538 0.007995858 0.20572086
000380 a6 29 94 3e cb 32 61 3e a4 0f 81 3e 3d 9a 07 bf
       0.28938025 0.21992032 0.25207245 -0.52969724
000390 21 70 8d 3e bd bd 76 bd b8 10 d2 bc 87 7d 9b bc
       0.2762461 -0.060239542 -0.025642738 -0.018980755
0003a0 60 8c b9 3e 8b c8 5d 3d 12 05 2a 3e 94 bf 84 bd
       0.3623991 0.05414633 0.16603497 -0.06481853
0003b0 e5 96 45 bd 26 bd a5 bd c0 b1 b7 be a6 5e 80 3e
       -0.048239607 -0.08092718 -0.358778 0.2507221
0003c0 88 28 68 3e 7b b9 e4 3b f0 9e 8c 3e 7d 2e 11 bf
       0.22671711 0.006980119 0.2746501 -0.5671156
0003d0 08 04 45 bd 83 93 a6 3c 86 a4 b4 3e f3 e7 9c be
       -0.048099548 0.020334011 0.3528177 -0.30645713
0003e0 6b 95 ac 3e 91 89 88 3e 08 f9 9f 3e f6 97 6e 3d
       0.33707747 0.26667455 0.31244683 0.05825039
0003f0 17 03 1a 3e b9 d0 70 3e 03 6e 82 3e b4 c4 95 3d
       0.15040241 0.23517121 0.25474557 0.07312909

fc3.bias f4 [2]
000000 ea 08 93 3d d7 08 8a 3d
       0.071794346 0.06739967
