weights/tuning2/20000steps_8agents_64batch_15000cap_0.0003lr/run_0.pth (torch, 72253 bytes, 6 tensors)

fc1.weight f4 [128, 4]
0.42175302 -0.2693018 0.86843145 0.35215393 -0.58271146 -0.30077958 -0.23054403 -0.306096
-0.41783598 0.26917967 0.27599883 0.26138404 0.102445275 -0.075162865 -1.3326545 0.106724896
0.21510209 0.40091914 -1.1357828 0.15632153 0.49084666 -0.20241264 0.30695024 -0.1374787
0.26125792 0.031242376 0.7937977 -0.45014557 -0.28686574 0.0777784 -0.22468065 -0.37199557
-0.23266284 0.26821178 -1.41084 -0.58331037 0.030137073 0.088472664 -0.44617823 -0.5850536
-0.23960441 -0.004857738 1.031783 -0.25530836 0.07297942 -0.14883873 -1.2066994 -0.6770268
0.5515973 -0.35476834 0.50635725 -0.1846151 -0.42320526 -0.38940704 0.14920412 -0.0622281
0.22967918 -0.35691962 0.6269562 0.5084192 0.17498393 -0.24438731 0.67676437 -0.029467624
-0.25093126 -0.4343427 -0.20867434 0.14719708 0.24400496 -0.3440091 -0.29761785 0.5372222
0.2380913 -0.028356954 1.2330493 0.1475576 -0.40651312 -0.36100104 0.4470152 -0.6124738
-0.008294061 -0.4282312 -0.15855771 -0.24083868 -0.34551677 -0.4138634 0.30323556 -0.59534943
0.50306976 -0.2535181 1.3687218 0.23041213 0.09867151 -0.48489523 0.459947 0.44902977
0.4483595 0.421297 0.48263216 -0.45571712 -0.02514557 0.0034526498 -1.4525691 -0.17296012
0.3628816 0.1811208 0.22162561 -0.07649356 -0.63623095 0.35368487 0.5283842 0.19870709
-0.42517677 0.21013261 0.8231029 -0.31831026 -0.35985336 0.09519933 0.7724716 -0.23200138
0.28234285 -0.38115808 -0.557599 -0.30447742 -0.04959857 -0.40391493 0.9782736 0.5058175
0.10411399 0.31680614 0.0941582 0.20690688 -0.06583627 -0.5314589 0.6223685 -0.17761521
-0.19831952 0.18495567 1.134246 -0.28711405 -0.36971128 0.28354222 1.2715199 0.11382416
0.26726493 0.41416842 0.017757602 -0.12235184 0.12530641 0.06780212 1.0730554 0.35028246
0.48842394 -0.44255707 -0.27375624 0.20720069 -0.4086195 0.3760797 0.4925208 0.40323454
0.3553794 0.33848393 0.19771844 0.17176217 0.2262655 -0.2007747 -0.94746023 0.22795007
-0.13426045 -0.16429536 -0.5170846 -0.06609011 -0.17211196 -0.2798987 -0.940569 0.12729205
-0.70074636 -0.14608282 0.25485444 0.086574994 -0.22884582 0.34571773 0.16253719 -0.08945234
0.41822526 -0.482992 -0.6509251 0.49334782 0.47333056 0.18824568 -0.94658166 -0.037457105
0.3937836 -0.009641203 -1.0256976 -0.2501817 -0.43575236 0.058141563 0.78698164 0.5625338
0.29647547 -0.124086335 -0.8209329 -0.29986548 -0.24483733 -0.22421984 0.15876512 0.21719071
-0.21168515 0.16923413 1.1224926 0.5352674 0.111460775 -0.41947213 -0.52653193 0.4292228
0.48481783 -0.12045099 -0.88848305 0.38626036 -0.06640734 0.10855012 1.3123157 0.6207732
0.42142543 0.29160553 0.095672384 -0.11963136 0.3639766 -0.17464383 -0.9258819 -0.6054671
-0.3866235 -0.03502779 0.2720655 -0.3432379 0.35716292 0.4914182 -0.50603694 0.04617061
0.29812396 0.0751007 -0.24874225 -0.068739 0.4032502 0.41488743 -1.2349626 -0.16750233
0.19414839 -0.23220457 -0.9687538 0.5094983 0.13263802 -0.079274386 1.0226603 -0.12461442
00000000: 03f0 d73e ede1 89be 8651 5e3f 854d b43e
00000010: 942c 15bf c8ff 99be bc13 6cbe 9db8 9cbe
00000020: 99ee d5be ebd1 893e b84f 8d3e 21d4 853e
00000030: d4ce d13d fdee 99bd 6c94 aabf 9592 da3d
00000040: b943 5c3e 4645 cd3e 5561 91bf c012 203e
00000050: 4150 fb3e 4245 4fbe 9528 9d3e 37c7 0cbe
00000060: 99c3 853e 03f0 ff3c 5336 4b3f 7b79 e6be
00000070: 11e0 92be 484a 9f3d af12 66be 3476 bebe
00000080: 2b3f 6ebe 0e53 893e 6896 b4bf d453 15bf
00000090: 06e2 f63c 2831 b53d 7971 e4be 13c6 15bf
000000a0: dc5a 75be a92d 9fbb 7711 843f c7b7 82be
000000b0: 3c76 953d 2e69 18be 2075 9abf a151 2dbf
000000c0: 7b35 0d3f 32a4 b5be a1a0 013f be0b 3dbe
000000d0: 5cae d8be 5c60 c7be f7c8 183e e4e2 7ebd
000000e0: 0531 6b3e 2bbe b6be 3480 203f c327 023f
000000f0: fd2e 333e ab40 7abe 6e40 2d3f 1666 f1bc
00000100: 107a 80be 2b62 debe baae 55be d5ba 163e
00000110: 70dc 793e f621 b0be 5e61 98be 6587 093f
00000120: 35ce 733e d84c e8bc 8fd4 9d3f 5719 173e
00000130: 7d22 d0be 21d5 b8be 2ddf e43e 15cb 1cbf
00000140: d0e3 07bc 1f41 dbbe f45c 22be 6a9e 76be
00000150: 93e7 b0be e7e5 d3be b141 9b3e d268 18bf
00000160: 2ec9 003f 20cd 81be 4732 af3f 28f1 6b3e
00000170: 4a14 ca3d 3044 f8be 2c7e eb3e 3be7 e53e
00000180: 608f e53e 3eb4 d73e 901b f73e c153 e9be
00000190: 15fe cdbc da45 623b c9ed b9bf 751c 31be
000001a0: 9ecb b93e bb77 393e d3f1 623e a8a8 9cbd
000001b0: 08e0 22bf 2f16 b53e 3044 073f df79 4b3e
000001c0: c5b0 d9be 012d 573e dfb6 523f 90f9 a2be
000001d0: b33e b8be def7 c23d b3c0 453f c591 6dbe
000001e0: 3e8f 903e 2727 c3be cfbe 0ebf 77e4 9bbe
000001f0: df27 4bbd f0cd cebe 2370 7a3f 417d 013f
00000200: b739 d53d 6a34 a23e 04d6 c03d 66df 533e
00000210: 2bd5 86bd b10d 08bf 8b53 1f3f c3e0 35be
00000220: 4614 4bbe 0565 3d3e f92e 913f 9d00 93be
00000230: cc4a bdbe 722c 913e 2ac1 a23f a41c e93d
00000240: f3d6 883e e20d d43e 6478 913c 9a93 fabd
00000250: 5350 003e d6db 8a3d e159 893f 3958 b33e
00000260: b412 fa3e d796 e2be c729 8cbe 6b2c 543e
00000270: 9336 d1be 858d c03e b02b fc3e c274 ce3e
00000280: 4af4 b53e c44d ad3e b476 4a3e 6ce2 2f3e
00000290: 25b2 673e e297 4dbe c18c 72bf be6b 693e
000002a0: 927b 09be 0b3d 28be a85f 04bf 405a 87bd
000002b0: 1e3e 30be e24e 8fbe 21c9 70bf d958 023e
000002c0: 1d64 33bf bc96 15be 487c 823e 3b4e b13d
000002d0: 8f56 6abe ea01 b13e 2670 263e ca32 b7bd
000002e0: 9f21 d63e ba4a f7be 07a3 26bf 1698 fc3e
000002f0: 6258 f23e 7ac3 403e 2d53 72bf 9f6c 19bd
00000300: 019e c93e 23f6 1dbc 0f4a 83bf d117 80be
00000310: ef1a dfbe d925 6e3d a177 493f 3702 103f
00000320: a2cb 973e fa20 febd a928 52bf f887 99be
00000330: a3b6 7abe e399 65be 5393 223e 3e67 5e3e
00000340: fec3 58be b64b 2d3e d6ad 8f3f 4907 093f
00000350: 8c45 e43d 0dc5 d6be ccca 06bf 17c3 db3e
00000360: 0b3a f83e 02af f6bd a073 63bf ebc3 c53e
00000370: 9200 88bd 864f de3d f6f9 a73f feea 1e3f
00000380: 13c5 d73e 524d 953e e2ef c33d 4901 f5bd
00000390: 245b ba3e d5d5 32be 9906 6dbf e4ff 1abf
000003a0: 84f3 c5be 4d79 0fbd 2b4c 8b3e e1bc afbe
000003b0: 0fde b63e 2b9b fb3e a38b 01bf 651d 3d3d
000003c0: b4a3 983e 65ce 993d 4ab6 7ebe 08c7 8cbd
000003d0: cf76 ce3e 206c d43e 4113 9ebf bb85 2bbe
000003e0: d6ce 463e 09c7 6dbe 4000 78bf 7b6e 023f
000003f0: 43d2 073e 9c5a a2bd 88e6 823f d835 ffbd

fc1.bias f4 [128]
-0.13122098 -0.09695932 0.22770563 0.27198905 -0.23614785 0.49064988 0.32064492 0.39131248
-0.3776332 -0.09022619 0.22524948 -0.29576987 0.53357303 -0.52038085 -0.6207759 -0.025728317
0.4085468 0.37992495 -0.18659075 0.14012401 -0.14423904 0.12301397 -0.3861622 -0.30348146
0.123492725 -0.1957983 0.587544 0.3253349 0.03008437 0.18451287 0.50347596 -0.05536414
0.16966519 -0.34920523 0.14802583 0.03370455 -0.24743639 -0.22850265 0.29980755 0.33195484
0.4896835 -0.17134099 0.46372354 0.5571024 -0.3363025 -0.5252643 0.23163085 -0.28896227
-0.26162216 -0.2824798 0.35537633 -0.4823933 -0.20691314 0.22182497 -0.20226876 -0.30162215
0.5268394 -0.20206088 0.46959054 -0.40273753 0.31462234 -0.45033816 0.111838154 0.25954002
-0.22675256 -0.20057197 0.33024153 -0.23739138 0.014187235 0.25926661 0.010957163 -0.54516655
0.3831271 0.54590946 -0.4348854 0.07933242 0.11251861 -0.48586318 0.6453581 0.40730685
-0.25859022 0.5136709 -0.4933846 0.4096852 -0.17775887 -0.43128073 0.35677776 0.45125192
0.21680665 -0.16442284 -0.18289019 -0.53975576 0.5100635 0.013176494 0.0704723 0.03059249
0.43580824 0.31235698 0.3271332 -0.41340587 2.3956673e-05 0.5036023 0.4906671 0.4291905
0.28221846 -0.47674072 0.3921373 0.23956025 -0.052687597 0.29139832 -0.19711746 -0.03128976
0.5086187 -0.3193419 -0.2787964 0.08985578 0.08058241 -0.4332566 0.3136316 0.4587775
-0.23049146 0.05365838 0.41109416 0.22052206 0.3766855 0.58864564 0.39625615 -0.432071
00000000: cb5e 06be 9c92 c6bd aa2b 693e 2642 8b3e
00000010: bed0 71be 7636 fb3e 922b a43e 1c5a c83e
00000020: 2459 c1be 82c8 b8bd cda7 663e 266f 97be
00000030: 3e98 083f ae37 05bf 2beb 1ebf 31c4 d2bc
00000040: 0c2d d13e 8685 c23e a511 3fbe ab7c 0f3e
00000050: 66b3 13be c0ee fb3d 0db7 c5be ec61 9bbe
00000060: c1e9 fc3d 597f 48be 4969 163f 4c92 a63e
00000070: 7f73 f63c f1f0 3c3e cde3 003f 82c5 62bd
00000080: b6bc 2d3e 07cb b2be 1594 173e c80d 0a3d
00000090: f75f 7dbe 99fc 69be 6080 993e fcf5 a93e
000000a0: ccb7 fa3e 0374 2fbe 2c6d ed3e 439e 0e3f
000000b0: d72f acbe b977 06bf a330 6d3e ddf2 93be
000000c0: 57f3 85be 31a1 90be e3f3 b53e 41fc f6be
000000d0: 0ae1 53be 1626 633e 8b1f 4fbe 386e 9abe
000000e0: f2de 063f 0ce9 4ebe 2c6e f03e 9d33 cebe
000000f0: 2e16 a13e b992 e6be 670b e53d 6ee2 843e
00000100: d331 68be bd62 4dbe 6b15 a93e ba16 73be
00000110: 9471 683c 98be 843e ac85 333c 0990 0bbf
00000120: 3c29 c43e b9c0 0b3f 4da9 debe 0979 a23d
00000130: 2870 e63d 0fc3 f8be 3036 253f 868a d03e
00000140: f065 84be f07f 033f e89c fcbe 42c2 d13e
00000150: 6c06 36be d4d0 dcbe 93ab b63e 7e0a e73e
00000160: 9002 5e3e 765e 28be 9147 3bbe 6f2d 0abf
00000170: 8693 023f 39e2 573c c853 903d 1a9d fa3c
00000180: 4222 df3e 41ed 9f3e 017e a73e efa9 d3be
00000190: 90f6 c837 15ec 003f b838 fb3e dbbe db3e
000001a0: f07e 903e 5c17 f4be 38c6 c83e 484f 753e
000001b0: f3ce 57bd 2932 953e 29d9 49be b129 00bd
000001c0: d634 023f c880 a3be 67be 8ebe 4f06 b83d
000001d0: 6408 a53d cfd3 ddbe 5294 a03e e2e4 ea3e
000001e0: f405 6cbe e4c8 5b3d ef7a d23e 89d0 613e
000001f0: ecdc c03e 7bb1 163f 16e2 ca3e 6938 ddbe

fc2.weight f4 [128, 128]
-0.14955157 -0.08692887 0.10223835 -0.0815977 -0.10421805 -0.029403042 0.13768895 0.047646582
0.046292797 -0.02857788 0.15332659 -0.39238307 0.032663286 -0.17441264 -0.08951277 -0.15873651
0.009833294 0.055017382 -0.2926354 0.2277406 -0.0006385982 0.16637859 -0.42044586 0.073608555
0.084884256 -0.70357007 0.008398596 0.012511007 0.29570955 0.009847234 0.01500089 0.007947133
0.045861524 -0.062264338 0.18973602 -0.26575342 0.15849581 -0.25624654 -0.0065736803 0.1749553
0.09616049 0.101975724 0.03226141 0.1143689 -0.08087651 0.096836194 0.14480792 -0.2078331
-0.32235357 0.05747104 0.05176595 -0.100879945 -0.15615141 0.07060976 0.20432173 -0.19292516
0.08441238 -0.29090223 0.00049011805 -0.06258826 0.14042202 0.01142456 0.19770028 0.12692873
-0.3379637 0.05189165 0.0195892 -0.2930581 0.23487635 -0.04532217 0.1800413 0.06378152
0.102615595 0.026382849 -0.17616133 0.032021575 0.05640274 -0.17038843 0.011789629 -0.029463788
-0.6161846 0.12483419 0.10005832 0.13008311 0.050187025 -0.30656713 0.026302513 0.117726475
0.039654534 -0.09135085 -0.9315318 -0.047638047 -0.010446825 0.06514506 0.18384539 -0.040937055
0.12819903 0.1725405 0.060382362 -0.005346838 0.09993135 -0.02412199 0.05839596 0.04769806
0.012487703 -0.16820185 0.043906134 0.1375356 -0.002413516 0.12775451 -0.57386506 -0.0225879
0.1037787 0.1742698 -0.5666628 0.17326887 0.13087386 -0.24853913 -0.032810763 0.14974207
-0.15174313 -0.11656235 0.034314875 -0.03264658 0.15113577 0.12128486 0.095188014 0.106842086
0.029066764 -0.03134457 -0.057292957 0.060833495 -0.09017046 0.025965828 -0.031513765 -0.06815378
0.014563165 -0.08915665 0.06434679 0.04386742 -0.026168955 0.08277635 0.03911713 0.008224177
0.013109492 0.06978571 0.07599894 0.058393635 -0.03427424 0.07789752 -0.036224753 0.0064964727
0.035094656 -0.03595998 -0.023595178 0.06941176 -0.018272363 -0.016569078 -0.04358527 -0.041420016
0.051099963 0.013418545 0.01112803 0.02074193 -0.010247452 -0.030166881 -0.020094458 0.03986733
-0.02422778 -0.061416723 -0.03051998 -0.079989396 -0.050059833 -0.07055795 -0.07897308 0.01471259
-0.05973132 0.039045513 0.0027822368 -0.038998857 -0.04239895 0.009974831 0.07889695 0.01687958
-0.055853795 -0.093432926 0.07218488 0.014124066 -0.06404785 0.009711682 -0.06381587 -0.019572755
-0.071075276 0.006108078 -0.04559772 -0.082765825 -0.061410528 -0.09740481 0.041208293 0.014109833
-0.09806305 0.020019848 -0.006064752 -0.08475983 0.024422308 -0.0072237803 -0.07175615 -0.102212764
-0.07397993 -0.036455743 0.0256515 -0.046045944 -0.035669677 -0.031610053 -0.04121896 -0.05390783
0.035585217 -0.06338624 -0.022224886 -0.022862853 -0.02357373 0.041448608 0.070208006 -0.047588147
-0.059339676 -0.050577827 0.0700954 0.043945454 0.037683476 -0.05113375 -0.01509882 0.02433322
-0.037436347 -0.04669585 -0.04410213 -0.034634784 -0.08812771 0.058544025 0.0700066 0.03051437
-0.049088605 -0.043544795 0.045378417 -0.051595163 -0.054878432 -0.087963894 0.040706173 0.02704732
-0.048229784 0.07500324 0.024328597 -0.014207513 0.062203605 0.071757406 0.02617836 -0.0120313885
00000000: 0c24 19be c307 b2bd 5762 d13d b21c a7bd
00000010: 4670 d5bd a6de f0bc 55fe 0c3e 1029 433d
00000020: 849d 3d3d 281c eabc a501 1d3e 6fe6 c8be
00000030: f0c9 053d 3a99 32be 7952 b7bd d38b 22be
00000040: d31b 213c e859 613d 4fd4 95be d534 693e
00000050: 9a67 27ba 265f 2a3e ae44 d7be 15c0 963d
00000060: ccd7 ad3d 2b1d 34bf 449a 093c f7fa 4c3c
00000070: 3e67 973e 4b56 213c 4bc6 753c b134 023c
00000080: 4bd9 3b3d e408 7fbd 294a 423e d510 88be
00000090: ba4c 223e bf32 83be 0768 d7bb 7b27 333e
000000a0: caef c43d a6d8 d03d 8a24 043d 3e3a ea3d
000000b0: 95a2 a5bd 0e52 c63d 8748 143e 33d2 54be
000000c0: 870b a5be c166 6b3d 8808 543d 259a cebd
000000d0: 28e6 1fbe da9b 903d b739 513e 2c8e 45be
000000e0: 66e0 ac3d 23f1 94be 447b 003a 462e 80bd
000000f0: caca 0f3e 142e 3b3c f171 4a3e 9bf9 013e
00000100: 9409 adbe 578c 543d 8879 a03c b60b 96be
00000110: 6d83 703e bda3 39bd bf5c 383e e39f 823d
00000120: 2028 d23d d820 d83c a363 34be 0e29 033d
00000130: 8f06 673d 4e7a 2ebe 4a29 413c 0b5e f1bc
00000140: 46be 1dbf 11a9 ff3d 60eb cc3d 8234 053e
00000150: e990 4d3d 5ef6 9cbe 5e78 d73c 941a f13d
00000160: cb6c 223d 2816 bbbd de78 6ebf 1d20 43bd
00000170: 2929 2bbc c66a 853d f741 3c3e 9dad 27bd
00000180: 9b46 033e 75ae 303e 7f53 773d 8734 afbb
00000190: cfa8 cc3d 7b9b c5bc 9a30 6f3d 0a5f 433d
000001a0: 3999 4c3c 1b3d 2cbe ebd6 333d 22d6 0c3e
000001b0: 142c 1ebb 14d2 023e d2e8 12bf 420a b9bc
000001c0: ed89 d43d c873 323e d010 11bf 656d 313e
000001d0: cc03 063e 0b81 7ebe 9464 06bd fc55 193e
000001e0: 8d62 1bbe 3eb8 eebd c18d 0c3d 6cb8 05bd
000001f0: 56c3 1a3e 3264 f83d eff1 c23d 06d0 da3d
00000200: 6c1d ee3c 2a63 00bd 05ac 6abd 8b2c 793d
00000210: 4aab b8bd 4ab6 d43c 9414 01bd 3694 8bbd
00000220: 579a 6e3c c397 b6bd 40c8 833d 53ae 333d
00000230: 4760 d6bc a686 a93d 4939 203d b3be 063c
00000240: 32c9 563c cfeb 8e3d 55a5 9b3d 2a2e 6f3d
00000250: 2563 0cbd bc88 9f3d 6860 14bd 5de0 d43b
00000260: 6abf 0f3d c64a 13bd ad4a c1bc c127 8e3d
00000270: ecaf 95bc e0bb 87bc 7886 32bd 09a8 29bd
00000280: 324e 513d 75d9 5b3c 5752 363c fbea a93c
00000290: eee4 27bc 8920 f7bc 229d a4bc ed4b 233d
000002a0: 5679 c6bc 1a90 7bbd 0905 fabc 7bd1 a3bd
000002b0: 8a0b 4dbd b080 90bd a3bc a1bd 130d 713c
000002c0: d4a8 74bd 30ee 1f3d 3056 363b 44bd 1fbd
000002d0: 85aa 2dbd 796d 233c b994 a13d 0c47 8a3c
000002e0: f3c6 64bd c359 bfbd abd5 933d a068 673c
000002f0: 852b 83bd bf1d 1f3c e5b1 82bd 0b57 a0bc
00000300: ea8f 91bd 4626 c83b adc4 3abd 2181 a9bd
00000310: 9b89 7bbd 2c7c c7bd 07ca 283d ee2c 673c
00000320: 48d5 c8bd aa00 a43c d4ba c6bb 9096 adbd
00000330: 4b11 c83c 76b5 ecbb e3f4 92bd ed54 d1bd
00000340: ca82 97bd 9e52 15bd 1823 d23c ac9a 3cbd
00000350: 5e1a 12bd 8b79 01bd 36d5 28bd 75ce 5cbd
00000360: cec1 113d a5d0 81bd f710 b6bc e14a bbbc
00000370: b21d c1bc 04c6 293d 37c9 8f3d caeb 42bd
00000380: 290e 73bd b22a 4fbd 2d8e 8f3d 2600 343d
00000390: fd59 1a3d 9f71 51bd 0b61 77bc 7656 c73c
000003a0: db56 19bd 2644 3fbd 6fa4 34bd 34dd 0dbd
000003b0: 4d7c b4bd dccb 6f3d 9f5f 8f3d 46f9 f93c
000003c0: 2211 49bd 075c 32bd b8de 393d 7355 53bd
000003d0: 35c8 60bd 6a26 b4bd 84bb 263d 5792 dd3c
000003e0: 988c 45bd 4c9b 993d c44c c73c a1c6 68bc
000003f0: 35c9 7e3d 8cf5 923d 0074 d63c 4d1f 45bc

fc2.bias f4 [128]
0.02768476 -0.093312405 0.13884792 0.08140749 -0.028817832 -0.0685492 0.080794156 0.12829888
0.17120427 0.09841115 -0.07983052 -0.13266571 0.18284656 0.009052553 0.1196188 0.029454978
-0.03478857 -0.06463316 0.007846541 -0.055854544 -0.07910109 0.10250338 0.008207214 0.022006987
0.11887402 -0.052263085 0.13410123 0.15594058 0.15043347 -0.09381965 0.13827555 -0.0052353363
-0.001982033 0.08042064 0.065557405 0.15717609 0.10593996 0.10223893 -0.07489332 -0.04357968
0.13493484 0.16107118 0.02502237 -0.012272725 -0.04906663 0.10061584 -0.033646945 0.014484596
0.08413155 0.14412011 -0.028111063 0.17372918 0.08515488 -0.017609732 -0.07242104 0.1436113
0.12774798 0.09860859 0.16545248 0.022646032 -0.04933435 0.077318564 0.08446399 0.019793062
0.042104714 0.00037103452 -0.014596665 -0.055173274 0.015509865 0.061438102 0.14738654 0.20794486
-0.023748582 0.08524295 -0.026053729 0.18444268 0.011993598 0.0055073444 0.08150274 0.16388324
-0.08276054 0.045010917 0.057558734 -0.09132469 0.09110826 0.022896156 -0.087130986 0.13061056
0.116295286 0.056756638 0.12626415 0.06215433 0.09642722 0.18862517 -0.04324783 -0.0016450336
0.071600385 -0.08296986 0.0138881095 0.046871856 0.12901121 0.12187283 0.037218962 0.16283643
0.102231815 0.10182537 -0.032521244 0.076722994 -0.00026140944 0.014371217 0.15072614 0.11160845
0.10003201 0.043551207 0.13910142 0.1488165 -0.04368007 0.1415897 0.039472535 -0.04166981
0.11336586 0.15806036 -0.0149816945 0.1229698 0.19532916 0.17238942 0.090312004 -0.052157648
00000000: 26cb e23c 931a bfbd 262e 0e3e f8b8 a63d
00000010: 6013 ecbc 8663 8cbd 6877 a53d c860 033e
00000020: 2c50 2f3e c98b c93d 2f7e a3bd 85d9 07be
00000030: 213c 3b3e 2951 143c b4fa f43d 914b f13c
00000040: 767e 0ebd 645e 84bd c78e 003c bcc7 64bd
00000050: c1ff a1bd 4bed d13d 8d77 063c ff47 b43c
00000060: 3974 f33d d111 56bd d551 093e e3ae 1f3e
00000070: 3b0b 1a3e 8424 c0bd 1b98 0d3e 2f8d abbb
00000080: ffe4 01bb 94b3 a43d f642 863d c5f2 203e
00000090: 0df7 d83d a562 d13d ab61 99bd 9b80 32bd
000000a0: 5c2c 0a3e d8ef 243e b7fb cc3c 8a13 49bc
000000b0: 17fa 48bd ad0f ce3d 61d1 09bd cd50 6d3c
000000c0: 294d ac3d 3994 133e 2c49 e6bc 10e6 313e
000000d0: af65 ae3d 4942 90bc 7b51 94bd d70e 133e
000000e0: 5ed0 023e 4df3 c93d 606c 293e 2c84 b93c
000000f0: d112 4abd 3259 9e3d 75fb ac3d 0f25 a23c
00000100: fe75 2c3d 6987 c239 da26 6fbc 5ffd 61bd
00000110: 171d 7e3c 85a6 7b3d 7fec 163e 7fef 543e
00000120: 638c c2bc db93 ae3d a16e d5bc 8bde 3c3e
00000130: cc80 443c f476 b43b e9ea a63d 02d1 273e
00000140: 5c7e a9bd 5e5d 383d b5c2 6b3d 7008 bbbd
00000150: f896 ba3d b890 bb3c bb71 b2bd c6be 053e
00000160: 392c ee3d a679 683d 644b 013e 8a95 7e3d
00000170: a27b c53d f526 413e a324 31bd 2b9e d7ba
00000180: 39a3 923d 1aec a9bd f48a 633c b4fc 3f3d
00000190: 841b 043e 7698 f93d e972 183d 98be 263e
000001a0: ea5e d13d d289 d03d ff34 05bd f220 9d3d
000001b0: c80d 89b9 4175 6b3c f457 1a3e f992 e43d
000001c0: 95dd cc3d c062 323d 9a70 0e3e 5a63 183e
000001d0: e0e9 32bd e4fc 103e f4ad 213d f6ad 2abd
000001e0: 5c2c e83d 93da 213e c875 75bc 97d7 fb3d
000001f0: 5e04 483e da86 303e 80f5 b83d 42a3 55bd

fc3.weight f4 [2, 128]
0.15602644 -0.064529434 0.14142948 0.21592061 -1.0739853 -0.027506515 0.30082345 0.4403907
0.54233485 0.41729277 -0.41595694 -0.28197736 0.33265644 0.02060564 0.32820985 -1.0571145
-0.31353652 -0.05653122 -0.045197118 -0.08195773 -0.42309716 0.22419634 -0.012211663 -0.93591255
-0.5244312 -0.0007732532 0.26019615 0.4793982 0.26842508 0.03559109 0.32436648 -0.031364452
-0.03166794 -0.3644103 0.15426755 0.503528 0.35910955 0.42440647 -0.06801726 0.053829413
0.5130117 0.23558651 0.3021207 -0.3825435 -0.12276526 0.3113744 0.0005162251 0.3290198
-0.07157947 0.39865142 -0.05300687 0.21382634 -0.91197073 0.050567083 0.00058894954 0.45443296
0.32898426 0.23639752 0.35024863 0.37359053 0.007255443 0.28145018 0.5507248 -0.55878234
0.13068786 0.028084328 0.07897938 0.31230634 0.32915518 -0.07206235 0.4567633 0.39379615
-0.0060632546 0.0922154 -0.009584183 0.5294913 0.24526812 0.20883316 0.29050487 0.39938775
-0.044830337 -0.016114712 0.27488518 0.005911636 0.37589243 0.028667385 0.06683392 0.21582015
0.3783106 0.20682399 0.30358547 0.42419687 0.21229783 0.47174922 -0.021697562 -0.6781807
-0.04082997 -0.03431123 0.19749378 -0.03461626 0.1531234 0.20572783 0.24157888 -0.21691394
0.19983788 0.4220494 0.024410637 0.32024157 -0.82093865 -0.66472113 0.28565934 -0.51842034
0.19643587 -0.59911895 0.10691102 0.4612647 0.1208446 0.27588645 -0.045678325 -0.94421303
-0.44761157 0.6354574 -0.03286451 0.3181166 0.37825072 0.26103908 0.32496697 -0.08025684
0.30828395 -0.0150588015 0.28343737 0.36397034 -0.25924098 -0.04538576 0.38538095 0.103225194
0.26442477 0.5524607 -0.6402661 0.58952546 0.27242485 0.0065412424 0.3070828 -0.3669155
-0.8912734 -0.03738061 0.03822568 -0.03302798 -0.7268124 0.5139227 -0.047633357 -0.30171853
-0.6441832 -0.0697037 0.37822536 0.34498677 0.39075965 -0.058465376 0.5072689 0.0032608905
0.008318811 -0.1049978 0.3200281 0.032721404 0.21534492 0.3879313 0.004226589 -0.05810798
0.43482032 0.13111953 0.2772445 -0.64628285 -0.8975392 0.42439473 -0.009514957 0.40495226
-0.6953729 0.32925278 -0.030813128 0.55956537 -0.5643469 -0.007503835 0.07883984 0.29411379
0.6669818 0.2263276 0.2874116 -0.14057241 0.08792117 0.15080248 0.44271195 -0.5836455
0.50378937 -0.05450039 0.076676294 0.42862934 0.19395505 -0.027388908 0.22867297 0.11872317
-0.0025226118 0.6507959 -0.03290712 0.29833403 0.31006873 0.3992564 0.21155232 0.28217736
-0.0107044615 -0.029118182 0.27641633 -0.010550326 -0.6582106 0.041119486 0.0711376 0.25199717
0.58241326 0.1872898 0.3234418 0.51769304 0.41613522 0.029485313 -0.04636426 0.02286031
-0.044631116 -0.031416994 0.36582294 -0.021339452 0.2879803 0.3301155 0.4861402 0.5201732
0.35733777 0.3930379 -0.0604693 0.3714211 -0.36800668 -0.5688461 0.26741144 -0.13269798
0.34649256 -0.54986227 0.4644538 0.47083816 -0.35501066 0.10689085 -0.021725686 -0.39383966
0.24902688 0.15347043 0.017700212 0.47223538 0.22506967 0.0045548077 0.3231142 0.01522221
00000000: 65c5 1f3e 0228 84bd e4d2 103e 4b1a 5d3e
00000010: 5a78 89bf 5855 e1bc 8805 9a3e e47a e13e
00000020: 75d6 0a3f 66a7 d53e 4ff8 d4be 565f 90be
00000030: f251 aa3e 29cd a83c 1f0b a83e 874f 87bf
00000040: dc87 a0be 488d 67bd 9d20 39bd 74d9 a7bd
00000050: 31a0 d8be ba93 653e 6d13 48bc f797 6fbf
00000060: 2041 06bf 25b4 4aba 6e38 853e ae73 f53e
00000070: 036f 893e f6c7 113d 5d13 a63e 0378 00bd
00000080: 3eb6 01bd fd93 babe 50f8 1d3e 36e7 003f
00000090: 35dd b73e ce4b d93e a24c 8bbd 3b7c 5c3d
000000a0: bc54 033f 973d 713e 90af 9a3e bedc c3be
000000b0: 5a6c fbbd 776c 9f3e 4853 073a 4975 a83e
000000c0: 4298 92bd 0a1c cc3e bb1d 59bd 4bf5 5a3e
000000d0: ea76 69bf 6e1f 4f3d bc63 1a3a 70ab e83e
000000e0: a070 a83e 3112 723e ca53 b33e 4247 bf3e
000000f0: 11bf ed3b 3d1a 903e 4dfc 0c3f 5c0c 0fbf
00000100: 0ad3 053e 1b11 e63c f1bf a13d 9ee6 9f3e
00000110: 0787 a83e 6d95 93bd e1dc e93e a69f c93e
00000120: 44ae c6bb 6ddb bc3d fa06 1dbc be8c 073f
00000130: 9127 7b3e 5cd8 553e 0ebd 943e 8d7c cc3e
00000140: 04a0 37bd 0003 84bc c0bd 8c3e 66b6 c13b
00000150: f974 c03e ddd7 ea3c 39e0 883d f5ff 5c3e
00000160: edb1 c13e abc9 533e 8e6f 9b3e 5530 d93e
00000170: 9a64 593e 1d89 f13e 16bf b1bc 409d 2dbf
00000180: 543d 27bd ef89 0cbd cf3b 4a3e c8c9 0dbd
00000190: 61cc 1c3e 51aa 523e 7460 773e b01e 5ebe
000001a0: 4da2 4c3e dc16 d83e d1f8 c73c b4f6 a33e
000001b0: 0929 52bf 2a2b 2abf f141 923e 32b7 04bf
000001c0: 7c26 493e dc5f 19bf 2af4 da3d e32a ec3e
000001d0: 607d f73d fd40 8d3e 3219 3bbd f2b7 71bf
000001e0: 582d e5be 56ad 223f f09c 06bd 2ee0 a23e
000001f0: 14aa c13e eaa6 853e 1262 a63e b35d a4bd
00000200: 65d7 9d3e 31b9 76bc b41e 913e 525a ba3e
00000210: 3cbb 84be 6be6 39bd a750 c53e bb67 d33d
00000220: af62 873e 106e 0d3f 7be8 23bf 24eb 163f
00000230: 457b 8b3e eb57 d63b f539 9d3e 59dc bbbe
00000240: 7e2a 64bf 691c 19bd 8892 1c3d 5948 07bd
00000250: 6110 3abf 7090 033f 321b 43bd da7a 9abe
00000260: 31e9 24bf d0c0 8ebd c1a6 c13e 1ba2 b03e
00000270: a611 c83e 6479 6fbd 60dc 013f aab4 553b
00000280: 9f4b 083c 1609 d7bd b9da a33e e106 063d
00000290: 6183 5c3e ee9e c63e 337f 8a3b a202 6ebd
000002a0: c5a0 de3e 3344 063e fef2 8d3e cb72 25bf
000002b0: 21c5 65bf 444a d93e 9fe4 1bbc e755 cf3e
000002c0: f503 32bf d293 a83e d06b fcbc ad3f 0f3f
000002d0: 0a79 10bf bbe2 f5bb c876 a13d 1596 963e
000002e0: 52bf 2a3f 6cc2 673e 9d27 933e 37f2 0fbe
000002f0: 0410 b43d f76b 1a3e 24ab e23e cb69 15bf
00000300: 57f8 003f cd3b 5fbd 7608 9d3d 4e75 db3e
00000310: 279c 463e b45e e0bc 3f29 6a3e 2225 f33d
00000320: 6752 25bb 8f9a 263f 9ec9 06bd 3dbf 983e
00000330: 54c1 9e3e 566b cc3e 2ca1 583e 8d79 903e
00000340: c461 2fbc 4189 eebc 7186 8d3e 46db 2cbc
00000350: 7d80 28bf e86c 283d 97b0 913d c605 813e
00000360: 0919 153f e6c8 3f3e 2a9a a53e 8887 043f
00000370: ad0f d53e 2f8b f13c 73e8 3dbd 8b45 bb3c
00000380: 1ecf 36bd 1baf 00bd 254d bb3e 13d0 aebc
00000390: 2772 933e e604 a93e 5ee7 f83e 122a 053f
000003a0: faf4 b63e 433c c93e a8ae 77bd e82a be3e
000003b0: 5f6b bcbe e69f 11bf 27ea 883e fbe1 07be
000003c0: 7967 b13e c6c3 0cbf e3cc ed3e b311 f13e
000003d0: f5c3 b5be 97e9 da3d 11fa b1bc 5aa5 c9be
000003e0: e700 7f3e 5a27 1d3e 0900 913c d6c8 f13e
000003f0: aa78 663e 7f40 953b 396f a53e 9466 793c

fc3.bias f4 [2]
0.08752354 0.112099744
00000000: 8b3f b33d 8d94 e53d
