weights/tuning2/40000steps_4agents_32batch_10000cap_0.0001lr/run_6.pth (torch, 72253 bytes, 6 tensors)

fc1.weight f4 [128, 4]
0	0x3f248085	0.64258605
1	0x3ea9928b	0.33119616
2	0x3eecce69	0.46251228
3	0x3e5569fb	0.2084121
4	0x3eca4167	0.39503023
5	0xbe89cf6a	-0.26916057
6	0xbd0fb7e5	-0.035087485
7	0x3ee2f0db	0.44324383
8	0xbe22e724	-0.15908486
9	0x3e8cc9cd	0.27497712
10	0x3cc0e978	0.023548827
11	0xbe50f1db	-0.2040476
12	0x3f1cc619	0.61239773
13	0x3d7fe9ab	0.062478703
14	0xbc3e1f9f	-0.011604219
15	0x3cf76a6b	0.030202111
16	0x3e58b493	0.21162634
17	0x3e823f0b	0.25438723
18	0xbe901b99	-0.28146055
19	0x3cedba28	0.02901943
20	0x3e69ecec	0.22844285
21	0xbee66dfd	-0.4500579
22	0xbf489dec	-0.7836597
23	0x3eab8384	0.33498776
24	0xbf0ff320	-0.56230354
25	0x3efb2b76	0.49056596
26	0x3dcf560a	0.101238325
27	0xbe77f075	-0.24212821
28	0xbc0ca821	-0.008585007
29	0xbdc84658	-0.09779042
30	0xbf8bfaac	-1.0935874
31	0xbf1ccbb8	-0.6124835
32	0x3eaea824	0.34112656
33	0x3e69074e	0.22756693
34	0xbdf2c083	-0.11853125
35	0x3e0b4b73	0.13603
36	0xbf2bb96b	-0.670798
37	0x3ef9e628	0.48808408
38	0x3f50893c	0.81459403
39	0xbe8254f2	-0.25455433
40	0xbe755025	-0.23956354
41	0x3dc6dd14	0.09710136
42	0xbf8e3ed6	-1.1112926
43	0xbea9c780	-0.3316002
44	0xbd05c0df	-0.03265464
45	0xbde5e3a3	-0.11225059
46	0xbee59f77	-0.44848225
47	0xbecb38c4	-0.39691746
48	0xbe67a666	-0.2262207
49	0xbeed32df	-0.46327874
50	0xbf12f72a	-0.5740839
51	0x3e7c11af	0.24616121
52	0xbe28c6d9	-0.16482104
53	0x3e924b2b	0.28572974
54	0xbeb37771	-0.35052064
55	0xbf0d1292	-0.5510646
56	0x3ede0913	0.43366298
57	0xbebed915	-0.37274995
58	0x3f46f83b	0.7772252
59	0x3d12589d	0.03572904
60	0x3ebdfbdd	0.3710622
61	0xbee198e2	-0.44061953
62	0xbedc5a58	-0.43037677
63	0xbf297ee3	-0.6620924
64	0x3ed7e951	0.42170194
65	0xbe70a037	-0.23498617
66	0xbf292f52	-0.6608783
67	0x3e6bcfe0	0.23028517
68	0x3eddc038	0.43310714
69	0xbe7e9129	-0.24860062
70	0x3f80d41e	1.0064733
71	0x3e19926e	0.14997265
72	0x3c3f5cfc	0.011679884
73	0xbdcd1daf	-0.10015427
74	0xbedf9a00	-0.4367218
75	0xbe6acf96	-0.2293075
76	0x3eb992fa	0.36244947
77	0x3e036e52	0.12835053
78	0xbdede953	-0.11616769
79	0xbbdd0968	-0.006745506
80	0x3e99fd70	0.3007617
81	0x3e62d705	0.22152336
82	0xbf5e4833	-0.8682892
83	0xbe83246f	-0.25613734
84	0xbe82f686	-0.25578707
85	0x3e93eabf	0.28890035
86	0x3edc42cc	0.43019712
87	0x3f2749fa	0.65347254
88	0x3f0dedee	0.55441177
89	0x3d5bb414	0.053638533
90	0xbf3a8291	-0.7285548
91	0xbe0f5658	-0.13997781
92	0xbf101e2a	-0.56296027
93	0xbe7e65a0	-0.24843454
94	0x3dfd0488	0.1235438
95	0x3e41dd40	0.18932056
96	0x3e2bf3dd	0.16792245
97	0xbe723607	-0.23653422
98	0xbe140564	-0.14455181
99	0x3ea2396c	0.31684434
100	0xbc0b0724	-0.008485589
101	0x3efdb4ed	0.49552098
102	0xbe3ad6ef	-0.18246053
103	0x3e28337a	0.16425887
104	0x3ee10e67	0.439563
105	0xbf007183	-0.50173205
106	0x3ddcbc38	0.107780874
107	0x3e9fd0bb	0.31213936
108	0x3ed908b2	0.42389446
109	0x3ef1b2d9	0.47206762
110	0xbf2577af	-0.6463575
111	0xbe8d67e7	-0.27618334
112	0x3e64bc46	0.22337446
113	0xbc7feacd	-0.015619946
114	0x3ee3cb71	0.4449115
115	0x3e887ac3	0.2665616
116	0xbe991db9	-0.2990549
117	0xbe766df4	-0.24065381
118	0x3ea31246	0.3184988
119	0xbdfba12f	-0.12286603
120	0x3e812eb8	0.25230956
121	0x3e1aa33b	0.1510133
122	0xbe4561c6	-0.19275579
123	0x3ebd83e6	0.37014693
124	0xbf311a31	-0.6918059
125	0x3ec2916f	0.38001582
126	0x3ede969d	0.43474284
127	0xbde87f90	-0.113524556
128	0xbd64889d	-0.055794347
129	0x3ed383b8	0.4131143
130	0xbf71a9e4	-0.9439986
131	0xbc6e9700	-0.014562368
132	0x3ea52ce3	0.32260808
133	0x3ed84694	0.42241347
134	0x3ea80b0c	0.32820928
135	0x3ebb3e43	0.3657094
136	0x3eca59f5	0.39521757
137	0x3ec8a452	0.39187866
138	0xbed8728f	-0.422749
139	0xbd0b5052	-0.034012146
140	0x3eed543a	0.46353322
141	0x3dcfe1e9	0.10150511
142	0xbe110a47	-0.14164077
143	0x3c700829	0.014650383
144	0xbefd070a	-0.49419433
145	0x3edef309	0.43544796
146	0x3ee6908a	0.4503215
147	0xbe343dd0	-0.17601705
148	0xbd9b8c7a	-0.07595153
149	0x3ec3c2ef	0.3823466
150	0x3d13b34e	0.03605967
151	0xbedab640	-0.4271717
152	0x3cfe5af9	0.031049239
153	0x3e13f2c4	0.14448076
154	0x3f585445	0.84503585
155	0x3ee795c8	0.45231462
156	0xbeaf0c70	-0.34189177
157	0x3e2ccb8b	0.1687452
158	0x3eca69c5	0.3953382
159	0xbdba0ad2	-0.09084095
160	0xbedffd27	-0.43747827
161	0x3e24b679	0.16085233
162	0x3f725864	0.94666123
163	0x3f03651b	0.5132615
164	0xbe852209	-0.2600253
165	0x3eb02521	0.34403327
166	0xbdfc7592	-0.12327112
167	0x3db76e4e	0.08956586
168	0x3eae4bf0	0.3404231
169	0x3e686805	0.2269593
170	0xbf0606d2	-0.52354157
171	0x3ec3179f	0.3810396
172	0xbdb2661d	-0.08710883
173	0xbe67ade4	-0.22624928
174	0xbe89f19e	-0.26942152
175	0xbd421e48	-0.04739216
176	0x3e97addb	0.2962483
177	0xbdbad758	-0.09123105
178	0x3edf8350	0.4365487
179	0xbd912dba	-0.070888
180	0x3dc8befa	0.09802051
181	0xbe2c72dd	-0.16840692
182	0xbeb81b11	-0.3595815
183	0xbcf77d1a	-0.03021102
184	0x3ed1f769	0.4100907
185	0xbeb5455d	-0.35404482
186	0x3e00138c	0.12507457
187	0x3e35dff9	0.1776122
188	0xbe23dcaf	-0.16002153
189	0xbe617923	-0.22018866
190	0x3f871503	1.0553287
191	0x3ef11293	0.47084484
192	0x3ea5da33	0.32393035
193	0xbed00264	-0.40626824
194	0xbf4b397f	-0.7938461
195	0xbf2eb07d	-0.6823805
196	0x3eb95657	0.36198685
197	0xbea3fcb5	-0.32028738
198	0xbe5d46ae	-0.21608993
199	0x3ea19893	0.31561717
200	0x3ec2cb78	0.3804586
201	0xbe105630	-0.14095378
202	0xbf0e54da	-0.55598223
203	0xbeb5a52b	-0.35477576
204	0xbeaeb811	-0.34124807
205	0xbe9a2c13	-0.3011175
206	0xbdb9dad7	-0.090749435
207	0x3d123d15	0.035702784
208	0x3ed2e7db	0.41192517
209	0x3e1ffe54	0.15624362
210	0x3d445d57	0.04794058
211	0x3ed7b945	0.42133537
212	0xbeba3155	-0.36365762
213	0x3d65180f	0.055931147
214	0x3e707b72	0.2348459
215	0x3d8ed045	0.06973318
216	0x3f1e23d6	0.6177343
217	0x3e3910ce	0.18072817
218	0xbf035f90	-0.5131769
219	0x3de9d166	0.11416893
220	0xbe52d0f3	-0.2058752
221	0xbdb9b3da	-0.09067507
222	0xbe169d2a	-0.14708391
223	0x3e903d56	0.28171796
224	0x3f0e43ca	0.5557219
225	0x3ee50244	0.4472829
226	0x3e39fc36	0.18162617
227	0x3deacfb0	0.114653945
228	0x3d08871f	0.033331987
229	0x3e8c4b17	0.2740104
230	0x3fa07827	1.2536668
231	0x3f2b94cb	0.67023915
232	0xbe076951	-0.13223769
233	0x3ea2618d	0.3171505
234	0x3ed0257d	0.406536
235	0xbe88bb16	-0.26705235
236	0x3ec82d72	0.39097172
237	0xbe8fbea0	-0.28075123
238	0xbdd96aa9	-0.10616047
239	0xbeac2a5e	-0.33626074
240	0xbddf6990	-0.10908806
241	0x3e0f056d	0.13966914
242	0x3ed415aa	0.41422778
243	0xbda0605f	-0.07830881
244	0xbe7a6a24	-0.24454552
245	0x3de90909	0.113786764
246	0xbf6a7230	-0.91580486
247	0xbea65b25	-0.32491413
248	0xbe3abf13	-0.18236952
249	0xbd4680eb	-0.04846279
250	0xbe4b380e	-0.19845602
251	0x3c82bdae	0.015959587
252	0x3f0d8027	0.5527367
253	0x3eb21d12	0.34787804
254	0xbf223268	-0.63358164
255	0x3d837d75	0.064204134

fc1.bias f4 [128]
0	0xbe94b4b4	-0.29044116
1	0x3f1875c5	0.595547
2	0x3ee1eae7	0.4412453
3	0xbde98b69	-0.114035435
4	0xbed033fb	-0.40664658
5	0x3ec581df	0.38575646
6	0x3f03a465	0.5142272
7	0xbe9147bb	-0.28375039
8	0x3f08396c	0.5321262
9	0x3eeae8c3	0.45880708
10	0xbe46a487	-0.193987
11	0xbe3a86dc	-0.18215507
12	0x3f0cefd4	0.5505345
13	0xbe8fa1ed	-0.28053227
14	0xbe8d981d	-0.27655116
15	0xbe25dc45	-0.16197307
16	0xbdc6ba27	-0.097034745
17	0xbe2c0e1d	-0.16802259
18	0x3ea5824e	0.32325977
19	0x3ee15fdd	0.4401845
20	0x3d79dffb	0.06100462
21	0xbe65e789	-0.22451605
22	0xbe6279db	-0.22116797
23	0xbedc84a1	-0.43069938
24	0x3eec90fc	0.46204364
25	0xbee9c5b0	-0.45658636
26	0x3e724707	0.23659907
27	0xbea5a951	-0.3235574
28	0x3f1d511c	0.6145189
29	0xbebd1f50	-0.36937952
30	0x3f22aa78	0.63541365
31	0x3ee387d9	0.4443958
32	0xbea6b66a	-0.32561046
33	0xbe1a96f3	-0.15096645
34	0xbea2d5a5	-0.31803623
35	0x3eea9c93	0.45822582
36	0x3bf1b9ee	0.007376901
37	0x3e5a5f22	0.21325353
38	0x3ac941b2	0.0015354662
39	0xbea65b01	-0.32491305
40	0xbea54246	-0.32277125
41	0xbee012ab	-0.43764243
42	0x3f0be28a	0.54642546
43	0xbeddb75e	-0.4330396
44	0x3e9cafe9	0.3060296
45	0xbed1f8b8	-0.4101007
46	0xbec1d911	-0.3786092
47	0xbd8307e8	-0.06397992
48	0xbe5ef1b8	-0.21771896
49	0x3f02b5ad	0.51058465
50	0x3f2114a4	0.6292212
51	0xbe9fc2b2	-0.31203228
52	0x3ec81a48	0.3908255
53	0x3ebbae25	0.366563
54	0xbe094972	-0.13406923
55	0xbf0477ff	-0.517456
56	0xbe85ac6c	-0.2610811
57	0xbe517efe	-0.204586
58	0x3ef476f7	0.47747013
59	0x3f03aab4	0.5143235
60	0x3e440377	0.19141947
61	0x3cea59a6	0.0286072
62	0x3eb68212	0.3564611
63	0xbe8fa24e	-0.28053516
64	0x3f19d700	0.6009369
65	0xbe1a910a	-0.1509439
66	0x3ed43258	0.4144466
67	0xbebe0db5	-0.37119833
68	0x3e2f594d	0.1712391
69	0xbe57c9ce	-0.21073076
70	0xbdddfbfa	-0.10839076
71	0x3f1d08c5	0.61341506
72	0x3f0043ce	0.5010346
73	0xbea816c5	-0.32829872
74	0x3ed5f987	0.41791937
75	0x3ef66830	0.48126364
76	0x3de26cf4	0.110559374
77	0xbed8097e	-0.42194742
78	0x3f0e4fae	0.5559033
79	0x3f05ca43	0.5226175
80	0x3ba4d10e	0.005029804
81	0xbe98b2e1	-0.29823974
82	0x3f176772	0.5914222
83	0x3f18acd3	0.5963871
84	0x3f1fd056	0.6242727
85	0xbdcf9428	-0.101356804
86	0xbec76b57	-0.3894908
87	0x3f0eb746	0.55748403
88	0x3e813432	0.25235134
89	0xbe0edd74	-0.13951665
90	0xbed7665e	-0.42070287
91	0xbea2b7be	-0.3178081
92	0xbf0a8e50	-0.541234
93	0xbeec9b91	-0.46212438
94	0x3df1aafd	0.118001916
95	0xbed3e52d	-0.41385785
96	0xbeb716b3	-0.35759506
97	0x3f201647	0.6253399
98	0x3e1b60d9	0.15173663
99	0x3f04c99b	0.51870126
100	0x3f0e8a7f	0.5568008
101	0xbe15b0a5	-0.14618166
102	0x3ec92eba	0.39293462
103	0x3ed6f97e	0.41987222
104	0xbe84a501	-0.25907138
105	0xbe5703ff	-0.20997618
106	0x3d0c1327	0.034197953
107	0x3e24f654	0.16109592
108	0x3edaaab8	0.42708373
109	0x3d6c147e	0.05763673
110	0x3ec2b270	0.38026762
111	0x3eba595a	0.36396295
112	0xbf094a55	-0.53629047
113	0xbe9011f3	-0.28138694
114	0x3ef39af1	0.47579148
115	0xbe94ae5c	-0.29039276
116	0xbf032895	-0.512338
117	0xbe99c73b	-0.30034813
118	0x3f0bf4c4	0.5467036
119	0xbeb65bcc	-0.3561691
120	0x3e9235b6	0.28556603
121	0x3ece92b0	0.4034629
122	0xbda033b4	-0.078223616
123	0x3de83c27	0.11339598
124	0x3ed437b6	0.41448754
125	0xbeb910c9	-0.3614562
126	0x3f38c211	0.7217112
127	0x3e96d627	0.2946026

fc2.weight f4 [128, 128]
0	0xbde4c987	-0.11171251
1	0x3d4cfee0	0.050047755
2	0x3de4d099	0.11172599
3	0xbde40757	-0.111342125
4	0xbdac207f	-0.08404636
5	0x3e245a34	0.16050035
6	0x3dcd7a7c	0.10033128
7	0xbea693bb	-0.32534584
8	0x3dfcb7e0	0.12339759
9	0x3dc206a0	0.0947392
10	0xbe60a267	-0.21936952
11	0xbe7be7c7	-0.24600135
12	0x3dd84e5e	0.10561822
13	0x3d066dbf	0.032819506
14	0xbe3b09dd	-0.18265481
15	0xbe7359c2	-0.23764709
16	0x3e39a807	0.18130504
17	0xbe72cf85	-0.23711975
18	0x3e3ceae9	0.18448986
19	0x3b79a359	0.0038091748
20	0xbc187c99	-0.00930705
21	0xbe7a7aaf	-0.24460863
22	0xbe48ebf3	-0.19621257
23	0xbe82c02a	-0.25537235
24	0x3e57f1af	0.21088289
25	0xbe626a82	-0.22110942
26	0x3e02e4cd	0.12782593
27	0xbd6f48c3	-0.058419
28	0x3e1b1b82	0.15147212
29	0xbd8414a9	-0.06449253
30	0x3dc4ad89	0.09603412
31	0x3e184365	0.14869459
32	0xbe5cf69a	-0.21578446
33	0xbe2714b7	-0.16316496
34	0xbe16e737	-0.14736639
35	0x3d4dfcd5	0.050289948
36	0x3da3ebe0	0.08003974
37	0x3d6f7544	0.058461443
38	0xbe7821c9	-0.24231638
39	0xbe529f0b	-0.20568483
40	0xbe3bdfbd	-0.18347068
41	0x3bbf8fd3	0.0058460026
42	0x3d9fdb63	0.078055166
43	0xbdc1d96a	-0.094652966
44	0x3d60ba8c	0.054865405
45	0x3d0cdc71	0.034389917
46	0xbe3b2a1b	-0.1827778
47	0x3d56bee7	0.052428152
48	0xbec6f25d	-0.38856784
49	0x3ddc08b1	0.10743845
50	0x3dfb16b7	0.12260192
51	0xbdd5163a	-0.1040463
52	0x3d7df4c1	0.062000994
53	0x3da70640	0.08155489
54	0xbe700120	-0.23437929
55	0x3df05cdf	0.11736464
56	0xbd8bad19	-0.06820125
57	0xbec69e50	-0.38792658
58	0x3e210410	0.15724206
59	0x3e4f8ba4	0.20268112
60	0x3e16ad4e	0.14714548
61	0xbdaf1d4a	-0.08550508
62	0x3e04fa22	0.12986043
63	0xbe312c97	-0.17302166
64	0x3e62fb45	0.22166164
65	0xbe67689a	-0.22598496
66	0x3e23ecab	0.1600825
67	0xbeb8ab01	-0.36067966
68	0x3d4997f4	0.04921718
69	0xbebae1f9	-0.36500528
70	0xbeb5cc59	-0.35507467
71	0x3e367c32	0.17820814
72	0x3dd3d71c	0.10343763
73	0xbd96cd51	-0.0736338
74	0x3dcc0109	0.09961135
75	0x3a8d3778	0.0010773977
76	0x3e770063	0.24121241
77	0xbd1c4e23	-0.038160454
78	0xbcc65ab4	-0.024213172
79	0x3e3d7047	0.18499862
80	0x3d0721fd	0.032991398
81	0xbe1131a5	-0.14179094
82	0x3deb1779	0.114790864
83	0x3e7150ff	0.23566054
84	0x3d4e4bbc	0.050365195
85	0xbe635606	-0.22200784
86	0xbe3027c1	-0.17202665
87	0x3e3b9149	0.1831714
88	0x3df200c6	0.11816554
89	0xbe240b35	-0.160199
90	0xbd63748f	-0.05553108
91	0xbdfcf295	-0.12350956
92	0xbb9e0140	-0.0048219264
93	0x3d5ac641	0.053411726
94	0x3ccec55d	0.025240595
95	0xbeb8b0c4	-0.3607236
96	0xbd480958	-0.048837036
97	0x3dc4dc16	0.096122906
98	0xbd6807ea	-0.056648172
99	0x3e380e04	0.17974097
100	0x3d69c4f2	0.057072587
101	0xbf0f0f9a	-0.5588318
102	0x3e4afe6e	0.1982362
103	0x3d7b02a5	0.06128182
104	0xbe72e24e	-0.23719141
105	0xbeef619a	-0.46754152
106	0x3e7b660c	0.24550647
107	0x3d254998	0.040353388
108	0x3df8469f	0.12122845
109	0xbce740d0	-0.028229147
110	0x3e690e76	0.22759423
111	0x3e3e611b	0.1859173
112	0xbd8ddb51	-0.06926597
113	0xbe304310	-0.17213082
114	0x3e58f4c6	0.21187124
115	0xbdc73d68	-0.09728509
116	0x3bf2bc8c	0.0074077304
117	0xbe78042d	-0.24220343
118	0x3e5b53b8	0.21418655
119	0xbe200874	-0.15628225
120	0x3dbbcad8	0.09169549
121	0x3e60a59f	0.2193818
122	0xbe1eb940	-0.15500355
123	0x3e3e4f3c	0.18584913
124	0x3e55f970	0.20895934
125	0xbe1a67d1	-0.15078665
126	0x3e2dc7ec	0.16970795
127	0x3d473b7f	0.048640724
128	0xbdfe3ba7	-0.124137215
129	0x3d226af0	0.039652765
130	0x3e2d58cf	0.16928409
131	0x3c94bff3	0.018157935
132	0xbe51af51	-0.20477034
133	0xbcd86ea1	-0.02641994
134	0x3e298d93	0.16557913
135	0xbe13afd1	-0.14422537
136	0x3e3068f9	0.17227544
137	0x3ccbf341	0.024896266
138	0xbe37428f	-0.17896484
139	0xbe4c7d30	-0.1996963
140	0x3bec2aab	0.007207235
141	0xbc6de9fa	-0.014521116
142	0xbded5ade	-0.11589597
143	0xbdc27908	-0.09495741
144	0x3e30c4d2	0.17262581
145	0xbc60e74d	-0.013727021
146	0x3e0e5f69	0.13903584
147	0x3e0cfd3b	0.13768475
148	0x3e13c092	0.14428928
149	0xbeb786c6	-0.3584501
150	0xbe0c24cf	-0.13685916
151	0xbd824c57	-0.06362217
152	0xbc06e731	-0.008233831
153	0xbe8f1306	-0.279442
154	0x3da2ddbe	0.0795245
155	0x3cab5971	0.020916672
156	0x3e096c35	0.13420184
157	0xbe2bb0cd	-0.16766663
158	0x3e3315f5	0.17488845
159	0x3dacce80	0.08437824
160	0xbe7727a9	-0.24136223
161	0xbe225f41	-0.15856649
162	0xbd80678c	-0.0626975
163	0x3e57b9a4	0.2106691
164	0x3dcacf32	0.099028006
165	0x3e2718c3	0.1631804
166	0xbe83f083	-0.25769433
167	0xbdae1e85	-0.08501915
168	0xbe8e2883	-0.27765283
169	0xbce74ea8	-0.028235748
170	0x3d519b4b	0.05117349
171	0xbe100f9b	-0.14068453
172	0x3d2f27f9	0.04276273
173	0x3d705418	0.058673948
174	0xbcdf4187	-0.027252926
175	0xbe1dbc67	-0.15403901
176	0xbe37a8ed	-0.17935534
177	0x3d5d7e33	0.05407543
178	0x3e7e3f12	0.24828747
179	0xbe187704	-0.14889151
180	0xbcd867a1	-0.026416602
181	0x3d91786c	0.07103047
182	0xbd90e991	-0.07075799
183	0x3ca3f493	0.020014083
184	0xbb737092	-0.0037145955
185	0xbee622ce	-0.4494843
186	0x3e3b5cfa	0.18297186
187	0x3e9af08a	0.30261642
188	0x3db8bf58	0.09020871
189	0x3d8f4ba5	0.0699685
190	0x3d515921	0.05111039
191	0xbdcc9823	-0.09989955
192	0x3e50bd2a	0.2038466
193	0xbe684c11	-0.22685267
194	0x3d553bbe	0.052058928
195	0xbe10046a	-0.14064184
196	0x3de8af7c	0.11361596
197	0xbee1ec92	-0.441258
198	0xbe1390e5	-0.14410742
199	0x3d241bfb	0.040065747
200	0x3da26823	0.07930019
201	0xbe10507f	-0.14093207
202	0x3e52b5c7	0.20577155
203	0x3d4df0df	0.05027854
204	0x3e4e8632	0.20168379
205	0xbe4ae629	-0.19814362
206	0x3da988e7	0.08278065
207	0x3d476ca6	0.0486876
208	0xbc2280ab	-0.009918372
209	0xbd5ff380	-0.05467558
210	0x3e46d639	0.19417657
211	0x3e1835b2	0.14864233
212	0x3e417298	0.1889137
213	0xbdac57d2	-0.08415188
214	0xbe685098	-0.22686994
215	0x3d95b6cc	0.07310256
216	0x3de56b5c	0.11202118
217	0xbdebd547	-0.11515289
218	0xbddc5cac	-0.10759863
219	0x3c2b306a	0.0104485545
220	0xbda5253b	-0.08063742
221	0x3e87d341	0.2652836
222	0xbafff840	-0.001952894
223	0xbe896698	-0.26836085
224	0x3e0b8010	0.1362307
225	0x3e64324e	0.22284815
226	0xbe7afbde	-0.24510142
227	0x3e1acd09	0.15117277
228	0x3e71312b	0.23553912
229	0xbe88a6e7	-0.26689836
230	0x3d86a160	0.065737486
231	0x3e6c2e1a	0.23064461
232	0xbdae6ed2	-0.08517231
233	0xbe2fa765	-0.171537
234	0x3dc2438b	0.09485539
235	0x3be3f37a	0.006956515
236	0x3dc14855	0.09437624
237	0x3e07c7e8	0.13259852
238	0x3ddd68ab	0.108109795
239	0x3da29033	0.0793766
240	0xbd26e2a1	-0.040743474
241	0xbe1eebbc	-0.15519613
242	0x3e60ad00	0.21940994
243	0xbe81869d	-0.25298014
244	0x3ac5545e	0.0015055051
245	0xbdcfb884	-0.101426154
246	0x3d46d424	0.048542157
247	0xbe6cc6c2	-0.23122695
248	0x3e29b18e	0.16571638
249	0x3dee4c4a	0.11635645
250	0xbd8879ec	-0.0666388
251	0x3c670f42	0.014102759
252	0x3e1650fc	0.1467933
253	0xbe6282a4	-0.22120148
254	0x3b3e3684	0.0029024193
255	0x3ea1d994	0.3161131

fc2.bias f4 [128]
0	0x3e2c3305	0.16816337
1	0x3dc8c97e	0.098040566
2	0x3e6c28f8	0.23062503
3	0x3ca994b5	0.020700792
4	0x3dd14882	0.10218908
5	0x3e4c7547	0.19966613
6	0x3d3a24de	0.045445316
7	0x3c6c43f0	0.014420494
8	0xbd00c622	-0.031438954
9	0xbca8aa95	-0.020589152
10	0xbd28e9ec	-0.04123871
11	0x3d817700	0.063215256
12	0x3d8823a8	0.06647426
13	0x3e18e976	0.14932808
14	0x3e271d16	0.16319689
15	0x3e3edaa5	0.18638094
16	0x3e6a91c6	0.2290717
17	0xbd63201a	-0.055450536
18	0x3e175a87	0.14780627
19	0x3d211b62	0.039332755
20	0x3d030639	0.031988356
21	0x3e3539bb	0.17697804
22	0x3ddaa0ff	0.10675239
23	0x3e641d46	0.22276792
24	0x3df95e25	0.1217616
25	0xbd5d293e	-0.05399441
26	0xbbc291a9	-0.005937774
27	0xbc9c24f1	-0.019060584
28	0xbd326007	-0.04354861
29	0x3d6e150d	0.058125544
30	0xbce3f0c3	-0.027824765
31	0x3e788097	0.24267803
32	0xbb247231	-0.0025092477
33	0x3e0caeec	0.13738602
34	0x3e205386	0.15656862
35	0xbe0dd97c	-0.13852495
36	0x3da0226e	0.07819067
37	0x3e109300	0.14118576
38	0x3e6578b7	0.2240933
39	0x3e373979	0.17893018
40	0x3e6491d7	0.22321258
41	0x3cf2a80f	0.029621152
42	0xbc8d6e31	-0.017264457
43	0xbd883951	-0.06651557
44	0x3dab6f93	0.083708905
45	0xbdb4a80c	-0.08821115
46	0x3e1c012b	0.1523482
47	0xbca6580a	-0.020305652
48	0x3df34b19	0.11879558
49	0x3d8bd669	0.06828005
50	0x3dbf06e1	0.09327484
51	0x3d97e961	0.0741756
52	0x3e446f07	0.19182979
53	0x3da2edd4	0.07955518
54	0x3db409a3	0.087909006
55	0x3e24b7e4	0.16085774
56	0x3e280064	0.16406399
57	0x3e3c50a2	0.18390134
58	0xbd9f7776	-0.07786457
59	0x3e4d9bd1	0.2007897
60	0x3cfb9a03	0.030713087
61	0x3e11cbe5	0.14237936
62	0x3cae1a70	0.02125284
63	0xba3de3a9	-0.0007243702
64	0x3d044c34	0.032299235
65	0xbd547bee	-0.051876
66	0x3e50cc38	0.20390403
67	0x3dd55007	0.10415655
68	0x3dda8e5d	0.10671685
69	0xbcfba308	-0.030717388
70	0x3da7eba8	0.08199245
71	0x3e3dd0b6	0.18536648
72	0x3e5bd1fd	0.21466823
73	0x3e538b0b	0.2065851
74	0x3de32298	0.110905826
75	0x3bdf36ba	0.006811944
76	0x3c7f27e9	0.01557348
77	0x3dd0a1cf	0.101871125
78	0x3e57ac08	0.21061718
79	0x3e067dae	0.1313388
80	0x3d585c59	0.052822445
81	0x3e7114a7	0.23543034
82	0x3e23d7d5	0.16000302
83	0xbda316bd	-0.07963321
84	0xbdac741e	-0.08420585
85	0x3e19d473	0.15022449
86	0x3e029e7b	0.12755768
87	0x3e07b57b	0.13252823
88	0xbc9b5186	-0.018959772
89	0x3ddcd72c	0.10783228
90	0x3dc2f73b	0.09519812
91	0x3e04bdbe	0.12963006
92	0x3e046308	0.12928402
93	0x3da865db	0.082225524
94	0xbd4613d5	-0.048358757
95	0x3e675a94	0.22593147
96	0x3d96beab	0.07360586
97	0x3e18a0c1	0.14905073
98	0x3e43aa10	0.19107842
99	0xbd56ab3c	-0.052409396
100	0x3e3bcf35	0.18340762
101	0x3e00068a	0.12502494
102	0x3dfb80b5	0.12280408
103	0xbd98b46e	-0.07456289
104	0x3e5a7cb9	0.2133664
105	0x3e3e7df3	0.18602733
106	0x3e2b69d8	0.16739595
107	0x3e5a7ccc	0.21336669
108	0x3e01774b	0.12643163
109	0xbc428cfa	-0.011874432
110	0x3e10bc1b	0.14134257
111	0x3e113d3d	0.14183517
112	0x3e3375f7	0.17525469
113	0x3e048f64	0.12945324
114	0x3ddef71e	0.108869776
115	0xbaa45ed2	-0.0012540466
116	0x3de771f1	0.113010295
117	0x3ddf6688	0.10908228
118	0xbbb7bf10	-0.005607493
119	0x3dd54045	0.10412649
120	0xbc6505c5	-0.013978426
121	0x3dd3fc6a	0.103508785
122	0xbd86cb90	-0.06581795
123	0xbc614e51	-0.013751582
124	0x3da51c8e	0.08062087
125	0x3e42aece	0.19011995
126	0x3d995667	0.07487183
127	0x3e75c4fe	0.24000928

fc3.weight f4 [2, 128]
0	0x3e7aa731	0.24477841
1	0x3eb6d860	0.35711956
2	0x3ea203a7	0.31643412
3	0x3e3b9c44	0.1832133
4	0x3dc1e4c4	0.09467462
5	0x3e0e721e	0.1391072
6	0xbf0052cc	-0.5012634
7	0x3df9b1d9	0.12192125
8	0xbeaf7d2d	-0.3427519
9	0x3d50ead4	0.0510052
10	0xbee05e2a	-0.4382184
11	0xbe936008	-0.28784204
12	0xbea96b30	-0.3308959
13	0x3e337ed5	0.17528851
14	0x3ea2bcbd	0.3178462
15	0x3eb89e9e	0.36058515
16	0x3ec81d2e	0.39084762
17	0xbe69cd77	-0.22832285
18	0x3e6c7907	0.23093043
19	0xbe1e1e60	-0.15441275
20	0xbcabcacd	-0.020970726
21	0x3e8b9795	0.27264085
22	0x3eaddbfd	0.339569
23	0x3e8a8c19	0.2706001
24	0x3e872a79	0.26399592
25	0xbee1f77e	-0.44134134
26	0xbd962286	-0.073308036
27	0xbd239b6f	-0.039943155
28	0xbd9db7ba	-0.07701059
29	0xbc002f4a	-0.007823775
30	0x3d13fab1	0.03612775
31	0x3e82de88	0.25560403
32	0xbd30338d	-0.043017913
33	0x3e775f0d	0.24157353
34	0x3eb61c11	0.35568288
35	0x3df93481	0.121682175
36	0x3eba9093	0.36438426
37	0x3eaa9aba	0.33321172
38	0x3eb8676b	0.36016402
39	0x3e20f315	0.15717728
40	0x3e498686	0.19680223
41	0xbdaceb9a	-0.08443375
42	0xbeb68a51	-0.35652402
43	0xbd9bb05b	-0.076019965
44	0xbeb776f3	-0.3583294
45	0xbe95d507	-0.2926409
46	0x3ea77746	0.32708186
47	0x3d6c74bb	0.05772851
48	0x3e89cc52	0.26913697
49	0x3ec5bd52	0.38621002
50	0x3edb878a	0.42876846
51	0xbed326c7	-0.41240522
52	0x3e8713c8	0.2638228
53	0x3eda466d	0.42631856
54	0xbeb9747c	-0.36221683
55	0x3eae97ad	0.34100094
56	0x3e73f8be	0.23825356
57	0x3ebc0fb6	0.36730736
58	0xbed43f34	-0.4145447
59	0x3eaa5c49	0.33273533
60	0xbeb5acd2	-0.35483414
61	0x3e6f3e11	0.2336352
62	0xbea32889	-0.31866863
63	0x3e03fbd3	0.12889032
64	0xbd8c9bc7	-0.0686565
65	0xbeaf82cc	-0.34279478
66	0x3e844a4c	0.25837934
67	0x3eb3e6b3	0.35136947
68	0x3e8e9a31	0.27852014
69	0xbf00ba5a	-0.5028435
70	0x3e73e4c6	0.23817739
71	0x3e85c777	0.26128742
72	0x3e55ef45	0.20892055
73	0x3e9617ee	0.29315132
74	0x3ec96cad	0.39340726
75	0xbe5bd8cb	-0.21469419
76	0x3e336822	0.17520192
77	0x3e8848df	0.26618096
78	0x3e97dce8	0.29660726
79	0x3eb4e658	0.35331988
80	0x3e99f7c0	0.3007183
81	0x3e9cc108	0.3061602
82	0x3eaf6b10	0.3426137
83	0xbda304f8	-0.07959932
84	0x3e47fb0c	0.1952936
85	0x3e3fc917	0.18729053
86	0x3ea0cc63	0.31405935
87	0x3eacf4bb	0.33780465
88	0x3c6dfe8e	0.014526023
89	0x3e9f4995	0.31110826
90	0x3e2afbf6	0.16697678
91	0x3eac8af8	0.33699775
92	0x3ebfb5f6	0.37443513
93	0xbee1ab2c	-0.44075906
94	0xbca52c1e	-0.020162638
95	0x3e8b2bda	0.27181894
96	0xbed011a8	-0.4063847
97	0x3e661551	0.22469069
98	0x3e3c828a	0.18409172
99	0xbddb7f54	-0.10717645
100	0x3eae51da	0.34046823
101	0x3e9297c3	0.2863141
102	0x3ea93ab0	0.33052588
103	0xbe88c3d6	-0.2671191
104	0x3eb666ba	0.3562525
105	0x3ed4741e	0.4149484
106	0x3e8c1592	0.27360207
107	0x3e91c9a7	0.2847416
108	0x3e2ba7e0	0.16763258
109	0x3d5a7056	0.05332979
110	0x3ea6d1a7	0.32581827
111	0x3e53fd70	0.20702147
112	0x3eb03ce9	0.3442147
113	0x3ecb3357	0.39687607
114	0xbecc2a27	-0.3987591
115	0x3e15e492	0.14637974
116	0x3d3fa6bf	0.04678988
117	0x3e4c6be1	0.19963028
118	0xbd4c1b6b	-0.049830835
119	0x3b7e10db	0.003876737
120	0xbe8e2548	-0.27762818
121	0x3ec23bb7	0.37936184
122	0xbe5cec83	-0.21574597
123	0xbde4ea2b	-0.111774765
124	0xbd222a62	-0.0395912
125	0x3ea8099a	0.32819825
126	0x3e29f110	0.16595864
127	0x3eb3265c	0.34990203
128	0x3e8e6a58	0.2781551
129	0x3da7cb81	0.08193112
130	0x3e95f0a3	0.29285154
131	0x3e8e2d07	0.27768728
132	0x3eb0152e	0.3439116
133	0x3e998d26	0.299905
134	0xbe73b524	-0.23799568
135	0x3e87256d	0.2639574
136	0xbd9dd89a	-0.07707329
137	0xbe0daaa2	-0.13834623
138	0xbec59fbb	-0.38598427
139	0x3e2211ce	0.15827104
140	0xbed62c39	-0.41830614
141	0x3e9ed70a	0.31023437
142	0x3e6ad1b0	0.22931552
143	0x3e9d4762	0.30718523
144	0x3e208b2b	0.15678088
145	0x3e36fb65	0.17869337
146	0x3ee0db9b	0.43917546
147	0xbecfa26a	-0.405536
148	0xbd90a025	-0.07061795
149	0x3ec4d55f	0.3844404
150	0x3eb449e8	0.35212636
151	0x3e9cd469	0.30630806
152	0x3e83c9b2	0.2573982
153	0xbe818fc8	-0.2530501
154	0xbd9b6da4	-0.07589272
155	0x3e8262ee	0.25466102
156	0x3daaa6b2	0.08332576
157	0x3cd7726b	0.026299676
158	0xbbf4fec8	-0.0074766614
159	0x3e7bc83c	0.24588102
160	0x3d540e04	0.05177118
161	0x3eb0ed83	0.34556207
162	0x3e867f3d	0.2626895
163	0xbe672769	-0.22573628
164	0x3e82bae3	0.25533208
165	0x3e2c9633	0.16854171
166	0x3e9516c2	0.29118925
167	0x3e9f086e	0.3106112
168	0x3e83b48c	0.25723684
169	0xbed6e1e1	-0.41969207
170	0xbedbfe95	-0.42967668
171	0xbd908394	-0.070563465
172	0xbe7668cf	-0.24063419
173	0x3da906f0	0.08253276
174	0x3e8057b5	0.25066915
175	0xbe79e105	-0.24402244
176	0x3e83d12d	0.25745526
177	0x3ea92a17	0.33039925
178	0x3e6b5c5e	0.22984454
179	0xbe2d866a	-0.16945806
180	0x3ebef278	0.37294364
181	0x3ea51536	0.32242745
182	0x3e4403c8	0.19142067
183	0x3e8ee8bb	0.27911934
184	0xbd673d16	-0.05645474
185	0x3e2e915e	0.1704764
186	0xbecd0bff	-0.40048215
187	0x3ec7978d	0.38982812
188	0xbe5b6557	-0.21425377
189	0x3ecab15b	0.39588436
190	0xbeea5d84	-0.45774472
191	0x3ea5f902	0.3241654
192	0xbd68d572	-0.056844182
193	0xbed548b7	-0.4165704
194	0x3e81b9a7	0.25336954
195	0x3eaae195	0.3337523
196	0x3ec74af8	0.38924384
197	0xbe9610e7	-0.2930977
198	0x3ea77aa3	0.32710752
199	0x3ea7a119	0.32740095
200	0x3edeaef5	0.43492857
201	0x3e853a30	0.26020956
202	0x3e400979	0.18753614
203	0xbec1abcb	-0.3782638
204	0x3e786a11	0.24259211
205	0x3eb06096	0.3444869
206	0x3ec241ba	0.3794077
207	0x3ec86c73	0.3914524
208	0x3e3d5fb2	0.18493536
209	0x3e219e7b	0.15783112
210	0x3e321b50	0.17393231
211	0xbd32c5d2	-0.043645687
212	0xbe19c4b1	-0.15016438
213	0x3e83bcf4	0.25730097
214	0x3e987219	0.2977455
215	0x3ea57cf3	0.3232189
216	0xbd266fb0	-0.040633857
217	0x3daa47b1	0.08314455
218	0x3e9c4b04	0.30525982
219	0x3e851957	0.25995895
220	0x3e8599f6	0.26094025
221	0xbe3c045f	-0.18361042
222	0xbd0b86e7	-0.0340642
223	0x3e859ddc	0.26097
224	0xbd9200cd	-0.07129059
225	0x3e95c2f5	0.29250303
226	0x3e99d57b	0.30045685
227	0xbed67f9b	-0.4189423
228	0x3e85288e	0.26007503
229	0x3e07b9d1	0.13254477
230	0x3eb639a1	0.35590842
231	0xbeb90d18	-0.36142802
232	0x3e500eef	0.20318197
233	0x3eb148d0	0.34625864
234	0x3ec16bad	0.37777463
235	0x3e619071	0.22027756
236	0x3e3ff004	0.18743902
237	0x3d5c73f3	0.053821515
238	0x3ed5f974	0.4179188
239	0x3e87c471	0.2651706
240	0x3eadf6fd	0.339775
241	0x3e8abf19	0.2709892
242	0xbceca6bb	-0.028888097
243	0xbe35f362	-0.17768624
244	0x3e9b2b35	0.30306402
245	0xbe2cd3bb	-0.16877644
246	0xbc81529d	-0.015786463
247	0xbea8de5f	-0.32982156
248	0xbed0600b	-0.40698275
249	0x3e55a98f	0.20865463
250	0xbec94687	-0.3931162
251	0x3e81d132	0.25354916
252	0x3d9cf21f	0.076633684
253	0x3e2f3abf	0.17112254
254	0x3ea223a8	0.3166783
255	0x3e60d2e0	0.21955442

fc3.bias f4 [2]
0	0x3e3a5103	0.18194966
1	0x3c65abfa	0.014018053
