weights/tuning/20000steps_4agents_32batch_10000cap_0.001lr_1decay/run_8.pth (torch, 72253 bytes, 6 tensors)

fc1.weight f4 [128, 4]
0	0x3e93c679	0.2886236
1	0x3c905a07	0.017621053
2	0xbf1dd260	-0.6164913
3	0xbdecef63	-0.11569097
4	0x3e838fe3	0.25695714
5	0xbe918409	-0.28421047
6	0xbf633306	-0.8874973
7	0xbe4978d4	-0.19674999
8	0xbeb32f7a	-0.3499716
9	0xbd8062a9	-0.06268818
10	0x3dceae5b	0.100918494
11	0x3f277426	0.65411603
12	0x3d852743	0.06501629
13	0xbe81e0f8	-0.2536695
14	0xbf1d203e	-0.6137732
15	0x3ec392fb	0.38198075
16	0xbefd08ae	-0.49420685
17	0x3e36886a	0.17825475
18	0xbfab19c8	-1.3367243
19	0xbe26e212	-0.16297176
20	0xbe60d35f	-0.21955632
21	0x3e900d40	0.2813511
22	0x3e828216	0.25489873
23	0x3dd9e54c	0.10639438
24	0x3f1d99c2	0.6156274
25	0x3f066f75	0.5251382
26	0x3d9ff2e6	0.07810001
27	0x3f0bab7c	0.5455854
28	0x3ea4c2f7	0.32179996
29	0xbe3a4034	-0.18188554
30	0x3be836b2	0.0070865983
31	0xbe5aa5ba	-0.21352282
32	0x3d4bf947	0.049798276
33	0x3ea01bcf	0.31271216
34	0xbc31be82	-0.010848643
35	0xbef84696	-0.48491353
36	0x3e43e745	0.19131191
37	0xbe8d6925	-0.2761928
38	0x3d8f36c0	0.069928646
39	0x3df1028f	0.11768066
40	0xbe91bac7	-0.28462812
41	0x3e811d65	0.2521774
42	0xbf010cbd	-0.5041006
43	0xbe286d4b	-0.16447942
44	0xbec85b0d	-0.39131966
45	0x3d4d9ab9	0.050196383
46	0x3f9dfe2c	1.2343192
47	0x3eb50453	0.35354862
48	0x3d8b3e6d	0.06799016
49	0x3e482370	0.19544768
50	0xbf95c3a3	-1.1700329
51	0xbe7bec1a	-0.24601784
52	0xbed09f7e	-0.40746683
53	0x3e228133	0.15869598
54	0xbeac1e1e	-0.33616728
55	0x3ee63bc4	0.44967473
56	0x3dd04de6	0.10171108
57	0xbec150a4	-0.37756836
58	0xbeccded3	-0.4001375
59	0xbde40538	-0.11133808
60	0x3d2e14e4	0.04250039
61	0xbe1a4ec5	-0.1506911
62	0xbf813e07	-1.0097054
63	0x3eb64f27	0.35607263
64	0xbe9cb666	-0.3060791
65	0x3e1e83dc	0.15479988
66	0xbc8840a5	-0.016632387
67	0x3e100e17	0.14067875
68	0x3d459576	0.04823824
69	0xbe4c0791	-0.19924761
70	0x3ec38d91	0.38193944
71	0xbece5010	-0.40295458
72	0xbe0f6e82	-0.14006999
73	0x3e62450d	0.22096653
74	0x3eea47d4	0.45757926
75	0x3def5094	0.11685291
76	0xbe009e52	-0.12560394
77	0x3dd6b062	0.10482861
78	0x3dfc3847	0.123154216
79	0xbbb16f45	-0.0054148757
80	0xbe55f3f5	-0.20893843
81	0xbe7fcd5d	-0.24980684
82	0xbf591219	-0.8479324
83	0xbed2e6c9	-0.411917
84	0xbf174044	-0.59082437
85	0xbedb21f0	-0.4279933
86	0x3e2fc6d8	0.17165697
87	0xbe9a0504	-0.30081952
88	0xbf028f1a	-0.50999606
89	0x3e80d18e	0.25159878
90	0xbfe14117	-1.7597989
91	0xbed4a79f	-0.41534135
92	0xbf0fc6c6	-0.5616268
93	0x3e5590b0	0.20855975
94	0xbd687f3f	-0.056761976
95	0x3d5fee83	0.054670822
96	0x3f1387ee	0.5762929
97	0x3e3c7c1d	0.1840672
98	0x3ea683a4	0.3252231
99	0x3e4c0683	0.19924359
100	0xbe3eeb71	-0.18644501
101	0x3d0652ea	0.032793917
102	0xbfcdfcf7	-1.6092824
103	0xbcab61ab	-0.020920595
104	0x3ed8c6b1	0.4233909
105	0x3dbb1a8f	0.09135925
106	0xbe9852b2	-0.29750592
107	0x3f10af4e	0.56517494
108	0xbde85d76	-0.11345951
109	0xbe8f0da3	-0.27940091
110	0xbf60be37	-0.87790245
111	0x3e2e6342	0.17030051
112	0xbe8f83a0	-0.2803011
113	0x3d15b774	0.036551908
114	0x3fb8dc8b	1.4442304
115	0x3da6aac7	0.08138042
116	0xbeff3741	-0.49846843
117	0xbdcb41e1	-0.09924675
118	0x3eaab6c0	0.33342552
119	0x3e480995	0.19534905
120	0x3eaa5f04	0.33275616
121	0xbddd3562	-0.108011976
122	0xbe9366f6	-0.2878949
123	0x3e26e1ed	0.16297121
124	0x3f2f682b	0.6851832
125	0xbefd9c2c	-0.49533212
126	0x3fbd8b00	1.4808044
127	0xbcfc6f3a	-0.030814756
128	0xbec635ec	-0.38713014
129	0x3e12bbe7	0.14329492
130	0x3f1c9408	0.6116338
131	0xbe75bd5c	-0.23998016
132	0xbf0fbbe9	-0.56146103
133	0x3edd3cc4	0.43210423
134	0x3f3a8bc9	0.72869545
135	0x3e2c7835	0.1684273
136	0xbd704986	-0.058663867
137	0x3ce1befb	0.027556887
138	0x3fce0d2e	1.6097772
139	0x3e8bf595	0.27335802
140	0x3eb8fdf4	0.3613125
141	0x3e47264b	0.19448201
142	0xbea46b96	-0.32113332
143	0x3eb6d0b7	0.35706112
144	0x3c269e43	0.0101695685
145	0x3e28445e	0.1643233
146	0x3fdccc60	1.724987
147	0x3ece5709	0.40300778
148	0xbe339c80	-0.17540169
149	0xbd961af9	-0.073293634
150	0x3e871ad8	0.26387668
151	0xbba1721d	-0.0049269334
152	0xbe5f4a7e	-0.2180576
153	0x3f040b3d	0.5157965
154	0x3f3d5351	0.73955256
155	0x3e47ab6a	0.19498983
156	0xbec530b3	-0.38513717
157	0x3e22f9bb	0.15915577
158	0x3e8a184d	0.26971665
159	0x3e2f506a	0.1712052
160	0x3dc0970f	0.09403812
161	0xbe8152c5	-0.2525846
162	0xbe346252	-0.17615631
163	0x3f076fe1	0.5290509
164	0x3f10c9a8	0.56557703
165	0x3ca75efb	0.020431032
166	0x3f252382	0.64507306
167	0xbd61802e	-0.055053882
168	0xbdf491fa	-0.11941905
169	0x3d0945ee	0.033513956
170	0x3d923db5	0.07140676
171	0xbc5ebc7e	-0.013594745
172	0xbf08ff70	-0.53514767
173	0xbe8ae72f	-0.27129504
174	0x3f547cf8	0.8300319
175	0xbef9b531	-0.4877105
176	0x3ee79030	0.45227194
177	0xbe49c196	-0.19702753
178	0x3c145453	0.009053308
179	0x3deaa864	0.11457899
180	0xbeba0f32	-0.36339718
181	0xbc13bb64	-0.009016845
182	0xbee96214	-0.4558264
183	0x3e83553a	0.2565096
184	0xbea58de6	-0.32334822
185	0xbe763835	-0.24044879
186	0x3f8c7fba	1.0976479
187	0x3e2ce0ce	0.16882631
188	0xbe5e11aa	-0.21686426
189	0x3d9fb80e	0.077987775
190	0x3fe78b57	1.8089398
191	0x3ef12eeb	0.47106108
192	0xbf29da5e	-0.66348827
193	0xbd4bf8f5	-0.04979797
194	0xbefe7985	-0.49702087
195	0x3e4ceb9c	0.20011753
196	0x3e67ed6f	0.22649167
197	0x3e9e8a96	0.30965108
198	0xbe29456b	-0.16530387
199	0x3ee1f7cf	0.44134375
200	0x3e106ca6	0.14103946
201	0xbd434fc2	-0.047683485
202	0xbfc129eb	-1.5090917
203	0xbe8a27e8	-0.2698357
204	0x3ef08e11	0.46983388
205	0xbe79635a	-0.24354306
206	0xbf590bf6	-0.84783876
207	0x3ee424ce	0.4455933
208	0x3df3ce9e	0.119046435
209	0xbba6b80c	-0.005087858
210	0x3e432296	0.19056162
211	0xbef67968	-0.481395
212	0x3ee92044	0.4553243
213	0xbe96ea23	-0.29475507
214	0xbf242144	-0.6411326
215	0xbe242fc6	-0.16033849
216	0xbe85c9b6	-0.26130456
217	0x3db37ee5	0.087644376
218	0x3d5cc87d	0.053902138
219	0x3c571931	0.013128565
220	0x3e8c063f	0.27348515
221	0x3e90e1f3	0.28297386
222	0x3e3b4bd7	0.1829065
223	0x3eb1916a	0.34681255
224	0xbdb0c711	-0.08631719
225	0x3d08a568	0.03336087
226	0x3f52e18f	0.82375425
227	0xbe91a449	-0.28445652
228	0xbcac03cb	-0.020997902
229	0x3e9ba05d	0.30395785
230	0xbe29b6b0	-0.16573596
231	0x3f34e9db	0.70669335
232	0x3e152011	0.14563014
233	0xbe89402e	-0.26806778
234	0xbe24c328	-0.16090071
235	0xbee33e01	-0.44383243
236	0xbed8c087	-0.42334387
237	0x3ef329de	0.4749288
238	0x3f16a73e	0.5884894
239	0x3e77451b	0.24147455
240	0x3dcec43e	0.10096024
241	0xbd6d0ce3	-0.057873618
242	0x3fb88b25	1.4417464
243	0x3c46fd4a	0.01214535
244	0x3ef895a2	0.4855166
245	0x3d162577	0.036656823
246	0x3f979a67	1.1843995
247	0x3f02980b	0.5101325
248	0x3d5c697d	0.05381154
249	0xbd0661e6	-0.032808207
250	0xbfd42d2f	-1.6576289
251	0xbe365822	-0.17807057
252	0xbe8d0b3e	-0.2754764
253	0xbd1755cc	-0.036947057
254	0xbf07d4c2	-0.5305902
255	0x3e1ac292	0.15113285

fc1.bias f4 [128]
0	0x3ea19098	0.3155563
1	0xbe65b944	-0.22433954
2	0xbf0b1afa	-0.5433804
3	0x3efbc6e3	0.49175176
4	0xbea91b41	-0.33028606
5	0xbedc9be6	-0.4308769
6	0xbe4f080e	-0.20217916
7	0x3eec8e9b	0.4620255
8	0xbf0b69bf	-0.5445823
9	0x3f166fd7	0.58764404
10	0xbf0e76a8	-0.55649805
11	0xbc5d470d	-0.013505709
12	0xbf1aae62	-0.6042234
13	0xbe969021	-0.29406837
14	0x3e6761ad	0.22595854
15	0xbe9b3742	-0.30315596
16	0x3ebc0cb2	0.36728436
17	0xbf137792	-0.57604325
18	0x3ec88af9	0.39168528
19	0x3f020fd7	0.5080542
20	0xbeef5f6b	-0.46752486
21	0x3d01d8f1	0.031701032
22	0xbde24678	-0.11048597
23	0x3f16977f	0.58824915
24	0xbd0cdcce	-0.034390263
25	0xbe5c9bdf	-0.21543835
26	0x3eb26c29	0.34848145
27	0xbeca7b46	-0.39547175
28	0xbeab9760	-0.33513927
29	0xbf19f8a1	-0.60145
30	0x3e88246d	0.2659029
31	0xbed317c1	-0.4122906
32	0xbe08f66e	-0.13375255
33	0xbeb298d4	-0.34882224
34	0xbea20e75	-0.31651655
35	0x3f114d97	0.5675902
36	0xbecc9e32	-0.39964443
37	0x3e18d156	0.14923605
38	0x3dc8b786	0.09800629
39	0x3e491d39	0.19640054
40	0xbf0aeb5e	-0.5426539
41	0xbd8ec169	-0.06970484
42	0x3e99da2e	0.3004927
43	0x3e88b789	0.26702526
44	0x3eca6223	0.39527997
45	0x3e0b7102	0.13617328
46	0xbef93083	-0.48669824
47	0xbe883b4d	-0.26607743
48	0xbeb8fb1f	-0.3612909
49	0x3edede26	0.4352886
50	0xbe687b54	-0.22703296
51	0x3e78df75	0.24303992
52	0xbe8dd815	-0.2770392
53	0x3eac29f8	0.3362577
54	0x3e9d02bf	0.30666158
55	0x3c80b033	0.015709018
56	0x3e53d2ac	0.20685834
57	0x3d800ad0	0.06252062
58	0xbe46e6f5	-0.1942404
59	0xbeae47e2	-0.34039217
60	0xbe32d6ec	-0.17464799
61	0xbeb3da1f	-0.3512735
62	0xbe83d5bb	-0.25749
63	0x3d10223e	0.035188906
64	0xbef82475	-0.48465315
65	0xbd5c2b1a	-0.053752042
66	0xbf13e997	-0.57778305
67	0x3e47fccf	0.19530033
68	0xbe9a4e21	-0.30137733
69	0x3e6a7764	0.22897106
70	0xbea7a22a	-0.3274091
71	0xbd48743c	-0.048938975
72	0x3ee967b3	0.4558693
73	0xbed1e5af	-0.40995547
74	0xbf25f562	-0.6482755
75	0xbe9b98b9	-0.30389956
76	0xbed3dddf	-0.41380212
77	0x3e8641ae	0.26221985
78	0xbeedcb80	-0.4644432
79	0xbf18c2c3	-0.5967218
80	0xbe98bf3a	-0.29833394
81	0xbe0c7d5f	-0.137197
82	0x3f0603b1	0.5234938
83	0x3e9ea6a8	0.30986524
84	0xbf2d8015	-0.6777356
85	0xbece52cb	-0.4029754
86	0x3e504917	0.20340382
87	0xbf13d224	-0.57742524
88	0xbe3c6eb1	-0.184016
89	0xbf04b5f4	-0.5184014
90	0x3d8d61fa	0.06903453
91	0x3e31d729	0.17367233
92	0xbec850ce	-0.3912415
93	0xbef5b947	-0.47992918
94	0x3eb540b5	0.3540093
95	0xbec50d49	-0.38486698
96	0x3eb2e882	0.34943014
97	0x3ebe2870	0.37140226
98	0x3f05571a	0.5208603
99	0xbea78ef9	-0.32726267
100	0xbee1fb90	-0.4413724
101	0xbc35a536	-0.011086753
102	0x3f0794e2	0.5296155
103	0x3e34dfaa	0.17663446
104	0xbeeed4ae	-0.46646637
105	0xbefe1508	-0.4962542
106	0xbec36328	-0.38161588
107	0x3d85b8ad	0.06529365
108	0xbe2dab5c	-0.169599
109	0x3e35e785	0.17764099
110	0x3ed525ce	0.41630405
111	0x3db1e36d	0.08685956
112	0xbeca68a2	-0.39532954
113	0x3e45bacf	0.19309543
114	0xbeee4061	-0.46533492
115	0xbe0c12e2	-0.13679078
116	0xbea60dbf	-0.32432362
117	0xbd9a696a	-0.075396374
118	0x3e4ff163	0.20306925
119	0xbdf27681	-0.11839009
120	0xbec6b578	-0.38810325
121	0x3d19884f	0.03748351
122	0x3eaad601	0.33366397
123	0xbeb1209d	-0.34595194
124	0xbeaf671e	-0.3425836
125	0xbeae6a6d	-0.3406557
126	0x3f14e9c0	0.58169174
127	0xbe41f63d	-0.18941589

fc2.weight f4 [128, 128]
0	0x3e0b7788	0.13619816
1	0xbdcdbfa5	-0.10046319
2	0xbf419fcf	-0.75634474
3	0x3de4b7b1	0.11167849
4	0xbf20a388	-0.6274953
5	0xbe7e4664	-0.2483154
6	0x3e8a2983	0.26984796
7	0x3e41ff0f	0.18944953
8	0xbf13d1ae	-0.5774182
9	0x3ea92b94	0.3304106
10	0x3c90b3be	0.017663833
11	0xbdf08df5	-0.11745826
12	0xbf16f345	-0.5896495
13	0x3e247e77	0.16063868
14	0x3dacdcab	0.084405266
15	0xbeeb2b94	-0.45931685
16	0x3e2e9852	0.17050293
17	0xbca9ce9d	-0.020728404
18	0x3e149a04	0.14511877
19	0x3dfc9a79	0.12334151
20	0xbe01601c	-0.12634319
21	0x3ec6e7ca	0.38848716
22	0xbf00e4df	-0.5034923
23	0x3e3b7323	0.1830564
24	0x3e812f0a	0.252312
25	0xbf2249fd	-0.6339415
26	0x3e968c32	0.29403836
27	0x3ac5f4a9	0.0015102822
28	0xbf93b931	-1.1540891
29	0xbe9369a9	-0.2879155
30	0x3e56b1fe	0.20966336
31	0xbf250206	-0.6445621
32	0x3e84c3bb	0.2593058
33	0x3c84acc6	0.016195666
34	0xbfa649b9	-1.2991248
35	0x3dea609a	0.114442065
36	0xbe6c01a1	-0.23047496
37	0x3de7fe4e	0.11327802
38	0x3df0ee75	0.11764232
39	0x3ca698be	0.020336505
40	0xbef1d179	-0.47230127
41	0x3e894f39	0.26818255
42	0x3e043cd4	0.12913829
43	0x3e498b09	0.19681944
44	0x3e273de1	0.16332199
45	0xbdb34e44	-0.08755162
46	0xbf690208	-0.91018724
47	0x3d9a8605	0.075450934
48	0xbe6b4bd4	-0.22978145
49	0x3da0e315	0.078558125
50	0xbf9d7ba4	-1.2303357
51	0x3eb4fd22	0.35349375
52	0xbe0c97aa	-0.1372973
53	0x3de3435c	0.11096832
54	0xbcb0a730	-0.021564096
55	0x3efe24de	0.49637502
56	0x3d76a936	0.060219966
57	0x3e0c2b50	0.13688397
58	0xbcc6c731	-0.024264904
59	0xbdf5e9df	-0.12007498
60	0xbf1f8f00	-0.62327576
61	0x3d9e9059	0.07742376
62	0xbf8bf4c0	-1.0934067
63	0x3d8a7b1d	0.06761763
64	0xbf812b5a	-1.0091355
65	0x3e2b9fa9	0.16760124
66	0xbeb15d67	-0.34641573
67	0x3de0c2d8	0.109746635
68	0xbf8368f0	-1.0266399
69	0x3e1eb11e	0.15497252
70	0x3d6a11e9	0.057145987
71	0x3f358620	0.70907784
72	0x3e88025a	0.26564294
73	0xbf02e4bd	-0.51130277
74	0xbf5d5533	-0.8645813
75	0xbfbef8bf	-1.4919661
76	0xbe7cb246	-0.24677381
77	0x3e22f943	0.15915398
78	0xbfa42041	-1.2822343
79	0xbf83d97b	-1.0300745
80	0x3e1c3b3c	0.15256971
81	0xbe54885f	-0.20755146
82	0x3e63b1ef	0.22235845
83	0x3e1d0671	0.15334488
84	0xbf34fe1e	-0.7070025
85	0xbf92cc13	-1.1468529
86	0x3d89129b	0.06693002
87	0xbfbbb153	-1.466349
88	0x3ed21c10	0.41037035
89	0xbe9c635f	-0.30544564
90	0x3d4321b9	0.047639582
91	0x3d33f3a3	0.043933522
92	0xbf53dd54	-0.82759595
93	0x3e4afe9d	0.1982369
94	0x3e12893e	0.14310166
95	0xbeb20c67	-0.34775087
96	0x3deb48d6	0.11488502
97	0x3e711e7e	0.23546788
98	0x3df4e6d9	0.11958093
99	0xbf8bec8d	-1.0931565
100	0x3bdfb83f	0.006827384
101	0x3d3047d8	0.043037266
102	0x3d5c9df8	0.05386159
103	0x3e30b518	0.17256582
104	0x3d8519e9	0.064990826
105	0xbe6dae1e	-0.23210952
106	0xbf0e297b	-0.55532044
107	0xbdb5bb3d	-0.088736035
108	0xbdaa11f4	-0.083042055
109	0x3d8aa954	0.06770578
110	0x3e0c087e	0.13675115
111	0xbd1c68a8	-0.038185745
112	0x3d485663	0.04891051
113	0x3e0807d4	0.13284236
114	0xbf9132aa	-1.1343586
115	0xbd80ddb7	-0.06292289
116	0xbf55147d	-0.8323439
117	0xbdf5133a	-0.11966558
118	0x3e11c326	0.142346
119	0x3ddc7972	0.10765351
120	0x3d7cc9ce	0.061715893
121	0x3d765342	0.060137995
122	0x3e0b1103	0.13580708
123	0xbf7435df	-0.953947
124	0x3e61e895	0.22061379
125	0xbf9e9839	-1.2390205
126	0x3e2f0568	0.17091906
127	0xbf1b3fe1	-0.60644346
128	0x3d8bcb9a	0.06825943
129	0x3d197a1a	0.03746996
130	0xbd2c4d63	-0.04206599
131	0xba8048cb	-0.0009787319
132	0x3d88cec3	0.06680062
133	0xbd73e2db	-0.059542518
134	0xbd9b5c3a	-0.0758595
135	0x3cde61e1	0.027146282
136	0xbcb52aa6	-0.022115063
137	0xbdc9eac8	-0.09859234
138	0xbd370a8d	-0.044687796
139	0x3d0678c5	0.03283002
140	0x3d05f4bf	0.03270411
141	0xbd83f20b	-0.064426504
142	0xbd4e426d	-0.050356317
143	0x3d84165b	0.064495765
144	0xbce51399	-0.027963446
145	0x3d440f9f	0.04786646
146	0x3d1ed638	0.038778514
147	0x3d77af47	0.060469892
148	0x3d0bb07d	0.03410386
149	0x3b3df520	0.0028985217
150	0x3d89c869	0.06727678
151	0x3d7b4be8	0.061351687
152	0x3d95b611	0.07310117
153	0xbdb50bb7	-0.08840125
154	0xbd40d895	-0.04708155
155	0xbd97ba66	-0.074085996
156	0x3d1b67a4	0.037940636
157	0x3daabf15	0.08337227
158	0xbda88e50	-0.08230269
159	0xbca75b45	-0.020429263
160	0x3cfeec6d	0.031118596
161	0xbd8c3e1a	-0.068477824
162	0x3d4bfe1a	0.049802877
163	0xbdb4a1f4	-0.088199526
164	0xbaa6088b	-0.0012667341
165	0x3d852fcb	0.065032564
166	0xbd8868e2	-0.0666063
167	0x3d6ea8d5	0.05826648
168	0xbd872678	-0.06599134
169	0xbdc10174	-0.09424105
170	0xbdba6081	-0.09100438
171	0xbda1fe06	-0.07909779
172	0xbccf6fa0	-0.025321782
173	0x3d93f0ec	0.072236866
174	0x3cc4e977	0.024037106
175	0xbd796a95	-0.06089266
176	0xbcc9d37f	-0.024636982
177	0x3d38ad71	0.04508728
178	0x3cc9495e	0.024571117
179	0x3d0811d6	0.033220135
180	0xbcb955e0	-0.022623956
181	0x3b3e9e59	0.0029086082
182	0xbd8bbb62	-0.0682285
183	0xbda88bdd	-0.08229802
184	0xbd9bcb7a	-0.076071694
185	0xbdc2f435	-0.09519235
186	0x3d367842	0.04454828
187	0x3cf1b010	0.029502898
188	0xbd9b6432	-0.0758747
189	0xbd983a9b	-0.07433053
190	0x3d13a2c5	0.0360439
191	0xbc34479f	-0.011003404
192	0x3d1b3fb3	0.037902545
193	0xbd87655c	-0.0661113
194	0xbdad640b	-0.08466347
195	0x3d3c2a97	0.045939054
196	0xbd81cdd0	-0.06338084
197	0x3c0ecae5	0.008715366
198	0x3ca818b5	0.020519594
199	0xbc02cf9b	-0.007984067
200	0xbc172834	-0.009225894
201	0x3c3295f2	0.010900008
202	0xbda47544	-0.08030179
203	0x3d6cc5de	0.05780589
204	0x3d642688	0.05570081
205	0xbd9ac6c6	-0.07557444
206	0xbd90764d	-0.07053814
207	0xbd0b3807	-0.03398898
208	0xbd81ab29	-0.06331474
209	0xbd04232e	-0.032260112
210	0x3ca03759	0.019557642
211	0xbdb381aa	-0.08764966
212	0x3d86fca6	0.065911576
213	0x3cecf1df	0.028923927
214	0x3c614da2	0.013751419
215	0x3d5ea874	0.05435987
216	0x3d168678	0.036749333
217	0x3c68279e	0.014169602
218	0x3d942716	0.072340176
219	0xbc8c6451	-0.017137678
220	0x3c9e1457	0.019296808
221	0xbda18dcf	-0.07888376
222	0xbda0ca24	-0.07851055
223	0x3d82f9b2	0.06395282
224	0xbc4faf8e	-0.012676133
225	0xbc41aeba	-0.011821443
226	0xbd381425	-0.044941086
227	0x3ad318fd	0.001610547
228	0xbc15642e	-0.009118123
229	0x3dab4e18	0.083645046
230	0x3d89bdc5	0.06725649
231	0xbd3515c4	-0.04421021
232	0xbceb7233	-0.028740978
233	0xbcf1ee61	-0.029532613
234	0x3d60c7f3	0.054878186
235	0xbdaa7ec5	-0.083249606
236	0xbd5e702b	-0.05430619
237	0xbd6ff47f	-0.05858278
238	0xbd99a21e	-0.075016245
239	0x3d6eb92e	0.05828207
240	0xbdad08a2	-0.08448912
241	0xbd0929ee	-0.033487253
242	0x3c0d1a6b	0.008612256
243	0x3d323657	0.043508854
244	0xbce85cc3	-0.028364545
245	0xbd727ced	-0.05920117
246	0x3a9ce530	0.0011970159
247	0x3db4c2ee	0.088262424
248	0xbd836538	-0.0641579
249	0xbd851d10	-0.06499684
250	0x3d9c924d	0.07645092
251	0xbcab5b9f	-0.020917712
252	0xbcf7e582	-0.030260805
253	0xbd8a9cbe	-0.067681774
254	0xbd2a4fc7	-0.041579988
255	0x3d9eeb25	0.07759694

fc2.bias f4 [128]
0	0x3e984e54	0.2974726
1	0x3d1395bc	0.03603147
2	0xbd8b5668	-0.0680359
3	0x3c33f0b6	0.010982683
4	0xbd847417	-0.06467455
5	0x3d1d4f44	0.03840567
6	0x3cf5bf5f	0.02999848
7	0x3e3d6ce0	0.18498564
8	0xbd732d14	-0.05936916
9	0x3e217f5d	0.15771241
10	0x3e615fac	0.22009152
11	0x3e636fd3	0.22210626
12	0xbc866f24	-0.016410418
13	0x3e792442	0.24330238
14	0x3e2ee408	0.17079175
15	0x3e10c0d3	0.14136057
16	0x3d3208a7	0.043465283
17	0xbd406005	-0.04696657
18	0x3d0a9137	0.033829894
19	0x3e8d51c5	0.27601448
20	0x3e307efe	0.17235944
21	0xbcf8682b	-0.030323109
22	0xbd77da75	-0.06051107
23	0xbd9fa27b	-0.077946626
24	0x3cd22b71	0.02565548
25	0xbd6a512b	-0.057206314
26	0x3d45ede7	0.048322584
27	0x3e4ffe0d	0.20311756
28	0x3b3fa7ed	0.0029244379
29	0xbdda65c5	-0.10663942
30	0x3e254d36	0.16142735
31	0xbd13b1c9	-0.03605822
32	0x3c852a41	0.0162555
33	0x3e81049f	0.25198838
34	0xbb438f9b	-0.0029840234
35	0x3c9f4f8e	0.019447114
36	0x3d59fdbe	0.053220503
37	0xbd08fee2	-0.0334462
38	0x3cb3df28	0.021956995
39	0x3e7baf97	0.24578701
40	0x3e401d79	0.18761243
41	0x3ce01bca	0.027357
42	0x3e33e71e	0.17568633
43	0x3cb00f19	0.021491574
44	0x3d5f41cc	0.05450611
45	0x3c90a405	0.017656336
46	0x3e7e6fa0	0.24847269
47	0xbdcedd90	-0.101008534
48	0x3e03378c	0.12814158
49	0x3dadf896	0.0849468
50	0xbb3a3fce	-0.0028419378
51	0xbd4753fe	-0.048664086
52	0xbd926173	-0.07147493
53	0x3e4b256b	0.19838493
54	0x3e1eb5e0	0.15499067
55	0xbdd43fa9	-0.10363705
56	0x3ddf95a9	0.10917217
57	0xbdbd91d1	-0.09256328
58	0xbb79d1be	-0.00381194
59	0xbd30a7eb	-0.04312889
60	0x3cd8122d	0.026375854
61	0xbd8c0474	-0.06836787
62	0x3e8a4ccc	0.27011716
63	0xbdb19018	-0.08670062
64	0x3c3eb0cd	0.011638832
65	0x3e2d3976	0.16916451
66	0x3c9acef7	0.018897517
67	0xbd50f916	-0.051018797
68	0xbc8253d1	-0.015909107
69	0x3e81c3e0	0.25344753
70	0xbe13ed68	-0.14446032
71	0x3b119b0a	0.0022217655
72	0x3cc3db35	0.023908237
73	0xbdaf485b	-0.085587226
74	0xbdd3109a	-0.10305901
75	0x3e7f7559	0.24947108
76	0xbda68eb2	-0.08132686
77	0xbd88abcc	-0.06673393
78	0x3a08527b	0.0005200279
79	0xbd762594	-0.06009443
80	0xbd6eb052	-0.05827362
81	0xbd8bfbea	-0.06835158
82	0x3cbb254b	0.022844931
83	0xbd8733aa	-0.06601651
84	0x3e780f93	0.24224691
85	0x3e27751d	0.16353269
86	0xbd6783ff	-0.056522366
87	0x3e48202e	0.19543526
88	0x3de306d5	0.110852875
89	0xbda2189c	-0.0791485
90	0x3d2c4025	0.04205336
91	0xbdda967b	-0.10673233
92	0x3e941af2	0.28926808
93	0x3d1f63e3	0.03891362
94	0x3e272d6d	0.16325922
95	0x3d046da7	0.032331135
96	0x3e5f6ceb	0.21818893
97	0xbd3e1464	-0.046406165
98	0x3e6f40f7	0.23364626
99	0xbc959b93	-0.01826266
100	0x3e87ce02	0.2652436
101	0xbe29b9b9	-0.16574754
102	0xbd06a8c2	-0.032875784
103	0x3e797e0f	0.24364494
104	0x3e4d710f	0.2006266
105	0xbb589fee	-0.003305431
106	0xbd21a381	-0.03946257
107	0x3e503313	0.20331983
108	0x3d1a0dd9	0.037610862
109	0xbdc8d789	-0.09806735
110	0xbda08d27	-0.07839423
111	0xbd9d1a6e	-0.07671057
112	0xbd8a1133	-0.06741562
113	0x3ca2cc4b	0.019872805
114	0x3e3fa6d2	0.1871598
115	0x3e69d78b	0.2283613
116	0x3dd99d6d	0.1062573
117	0xbcac350a	-0.021021385
118	0x3dd0aab3	0.10188808
119	0xbd7cafa0	-0.061690927
120	0x3aaaa311	0.0013018568
121	0x3c8fa506	0.017534744
122	0xbcb68516	-0.022280257
123	0x3e1f4af6	0.15555939
124	0x3e5e4218	0.217049
125	0x3e86716f	0.26258418
126	0x3e00d8a8	0.12582648
127	0xbd403e7b	-0.046934586

fc3.weight f4 [2, 128]
0	0xbd6384f1	-0.055546705
1	0x3d157744	0.036490694
2	0xbfb7f042	-1.4370196
3	0xbbdf76f3	-0.0068196
4	0x3d94d347	0.072668605
5	0xbbcb8a45	-0.0062115514
6	0x3c09d18a	0.008411774
7	0x3e5220d0	0.2052033
8	0x3ca5dcd0	0.020246893
9	0x3f1c4733	0.6104614
10	0x3f005b73	0.5013954
11	0x3e628d9c	0.22124332
12	0xbea9325c	-0.33046234
13	0x3e959e08	0.2922213
14	0x3ef01ad8	0.4689548
15	0x3f0cbf21	0.5497914
16	0x3be520e6	0.006992447
17	0xbca02c9c	-0.019552521
18	0xbc89f4a8	-0.016840294
19	0x3e480e7a	0.19536772
20	0x3f2cf79b	0.67565316
21	0x3ca417c7	0.02003087
22	0x3c98554b	0.018595358
23	0xbd01fbf8	-0.031734437
24	0xbd143320	-0.03618157
25	0xbd95789a	-0.072983935
26	0x3c55ecef	0.013056978
27	0x3e912a1b	0.28352436
28	0xbcba27e0	-0.022724092
29	0x3cd4e9d0	0.025990397
30	0x3f2f3b09	0.68449455
31	0xbd0e0712	-0.03467471
32	0x3b025c36	0.0019891388
33	0x3e9ee4df	0.3103399
34	0xbd413bb9	-0.047176097
35	0x3ab6fb18	0.001396033
36	0xbd50bf3b	-0.05096362
37	0x3cfeda83	0.031110054
38	0xbc1b9e9c	-0.009498265
39	0x3e1041dd	0.14087625
40	0x3ee0a0f7	0.43872806
41	0x3b42512e	0.0029650438
42	0x3f28a093	0.65870017
43	0xbd4fcfff	-0.05073547
44	0xbc4eaab8	-0.012613945
45	0x3b97c057	0.004631083
46	0x3ef63f9f	0.48095414
47	0x3e234786	0.15945253
48	0x3ec64ae6	0.38729018
49	0x3ec06a0c	0.37580907
50	0x3cf2df9e	0.029647645
51	0x3da4ceca	0.080472544
52	0x3d7e3f11	0.062071864
53	0x3ed2e5d1	0.4119096
54	0x3f1caaae	0.61197937
55	0xbc805947	-0.01566757
56	0x3f2bd32e	0.6711911
57	0xbd16cde1	-0.036817435
58	0xbd5bdb96	-0.05367621
59	0x3d130bdf	0.035899993
60	0xbd5fcc68	-0.054638296
61	0xbcc8e8e4	-0.024525113
62	0x3f13fc97	0.57807297
63	0x3c997f1a	0.018737365
64	0xbd576221	-0.052583817
65	0x3f1b25f3	0.6060478
66	0x3a620987	0.00086226355
67	0xbc0df78c	-0.008664977
68	0x3cae557c	0.021280997
69	0x3f049764	0.51793504
70	0xbd780ec2	-0.06056095
71	0x3d1dfff9	0.038574193
72	0xbd2e236d	-0.042514253
73	0xbbafa384	-0.0053600688
74	0xbd0a6767	-0.03379002
75	0x3e135f49	0.14391817
76	0xbd697a67	-0.057001498
77	0x3c913e7a	0.017729986
78	0x3cead542	0.028666142
79	0xbd84bc3e	-0.06481217
80	0xbc6cce37	-0.014453462
81	0xbebfad1e	-0.37436765
82	0xbccee192	-0.025254045
83	0xbcb928d4	-0.022602476
84	0x3f15c22e	0.5849942
85	0x3f186433	0.5952789
86	0xbf937aa3	-1.1521801
87	0x3f09fc71	0.5390082
88	0x3eed3adf	0.46333978
89	0xbd9f82a2	-0.07788588
90	0xbd79b6b2	-0.060965247
91	0xbcd3f95b	-0.025875738
92	0x3d58ae5d	0.05290066
93	0xbcef363a	-0.029200662
94	0x3ee477b2	0.4462257
95	0xbd211056	-0.03932222
96	0x3ec25cb7	0.3796136
97	0xbcc530b9	-0.024071084
98	0x3ea7fe72	0.32811314
99	0xbd583270	-0.052782476
100	0x3f264921	0.64955336
101	0xbeeee895	-0.4666182
102	0x3d64f4d6	0.055897556
103	0x3ea57f37	0.3232362
104	0x3f20e65d	0.62851506
105	0x3cbfc4c5	0.023409257
106	0xbc7eaa6d	-0.015543562
107	0x3f080bed	0.531432
108	0xba90b4f9	-0.0011040262
109	0xbbdb7ef2	-0.0066984827
110	0xbcce63a7	-0.025194002
111	0xbd94f828	-0.072738945
112	0x3d2aca15	0.041696627
113	0xbc9822fe	-0.018571373
114	0x3e87b63f	0.2650623
115	0x3f426a5d	0.7594355
116	0xbf92749f	-1.144184
117	0xbd2fe566	-0.04294338
118	0x3f50eca2	0.81611073
119	0xbbdbb0b7	-0.0067044157
120	0x3bc8540a	0.006113534
121	0xbc3f5ec3	-0.011680308
122	0xbfb14ae9	-1.3850986
123	0x3f176910	0.5914469
124	0x3f6069f4	0.8766167
125	0x3e804078	0.25049186
126	0x3f00e846	0.5035442
127	0xbd11fba5	-0.035640378
128	0x3f4fb273	0.81131667
129	0x3d1b0b35	0.037852485
130	0xbf65a04f	-0.89697737
131	0xbb2b476a	-0.0026135095
132	0xbb976310	-0.0046199635
133	0xbd03c54b	-0.032170575
134	0xb92df24b	-0.00016588827
135	0x3f0f9978	0.5609355
136	0xbc4abcef	-0.012374147
137	0x3f0109c6	0.5040554
138	0x3f0f6306	0.5601047
139	0x3f36c376	0.71392
140	0xbec46db3	-0.38364944
141	0x3f3dc4ba	0.74128306
142	0x3f2a3ae9	0.6649614
143	0x3eee476f	0.46538875
144	0x3c86b8c5	0.016445527
145	0x3c0bf42a	0.0085421
146	0xbaa80ed7	-0.0012821805
147	0x3f422eec	0.7585285
148	0x3e31504d	0.17315789
149	0x3a2f7426	0.00066930277
150	0x3cc0285b	0.023456743
151	0x3d854cb7	0.06508773
152	0xbd20e282	-0.039278515
153	0xbd029726	-0.031882428
154	0xbd0d89a2	-0.034555085
155	0x3f091c5a	0.53558886
156	0x3c7f2e2c	0.015574973
157	0x3d1be050	0.038055718
158	0x3ee23c35	0.4418656
159	0x3c016f7e	0.007900117
160	0x3cc9579f	0.024577914
161	0x3f3625fe	0.7115172
162	0xbd2ac67a	-0.04169319
163	0xbd856072	-0.06512536
164	0x3d6cae13	0.057783198
165	0xbce36404	-0.027757652
166	0x3d473060	0.04863012
167	0x3f1628e8	0.5865617
168	0x3f14a6b5	0.58066875
169	0x3d49aa41	0.049234632
170	0x3ea55604	0.32292187
171	0x3cbe1e6d	0.023207868
172	0xb9f5568f	-0.00046794533
173	0xbcc715a2	-0.024302308
174	0x3f1ef75f	0.6209621
175	0x3ce0cc6d	0.027441228
176	0x3ed01096	0.40637654
177	0x3e97c49b	0.29642186
178	0xbc1fa037	-0.009742788
179	0x3c83b7f9	0.016078936
180	0x3d7656fa	0.06014154
181	0x3eb130f3	0.34607658
182	0x3eef010a	0.4668048
183	0x3d5a8fd9	0.05335984
184	0xbe413ada	-0.18870106
185	0x3960fb45	0.0002145591
186	0xbc561752	-0.013067083
187	0xbd920c88	-0.071312964
188	0x3d7e7836	0.06212636
189	0x3d2b85f6	0.041875802
190	0x3f0ce09c	0.55030227
191	0x3d2c9442	0.042133577
192	0xbd1fe39d	-0.03903543
193	0xbf8ab090	-1.0835133
194	0xbca455d5	-0.02006046
195	0xbd14bb9a	-0.036311723
196	0xbcddbe83	-0.027068382
197	0x3efeaa71	0.4973941
198	0x3e19f6ab	0.15035503
199	0xbd433266	-0.047655486
200	0xbd334dbc	-0.043775305
201	0xbbe26a83	-0.00690967
202	0xbc915d5f	-0.017744718
203	0x3f5286d0	0.8223696
204	0x3c3b1e6b	0.011420826
205	0xbd93e7bd	-0.07221935
206	0xbd5fdd7e	-0.05465459
207	0x3ce66237	0.028123004
208	0xbd1eb4bc	-0.03874658
209	0xbe14ddd2	-0.14537743
210	0xbd840be0	-0.064475775
211	0x3d03735c	0.032092437
212	0x3f13b3b4	0.5769608
213	0x3f080a5e	0.5314082
214	0x3f2b0fe6	0.66821134
215	0x3f2a7d75	0.6659768
216	0x3eaa4dcd	0.33262482
217	0xba88e220	-0.0010443367
218	0xbccb57bc	-0.024822108
219	0xbd01b479	-0.031666253
220	0x3f43a542	0.7642404
221	0xbc5e75d3	-0.013577896
222	0x3ea8a4e0	0.3293829
223	0xbd81443a	-0.06311841
224	0x3ec4fd2c	0.38474405
225	0xbcf8a93f	-0.03035414
226	0x3ed86f25	0.42272297
227	0x3b1d189f	0.0023970974
228	0x3f01b22f	0.5066251
229	0xbfd02289	-1.6260539
230	0x3c8b725a	0.0170223
231	0x3ecf9cc6	0.40549296
232	0x3ef77cdf	0.48337457
233	0xbca623cf	-0.020280747
234	0xbcea647e	-0.028612372
235	0x3ef00bda	0.46884042
236	0xbd5ccf28	-0.053908497
237	0xbc640064	-0.013916109
238	0x3cb0b8a5	0.02157242
239	0x3c9b763e	0.01897728
240	0xbd7f3715	-0.06230839
241	0xbd421075	-0.047378976
242	0x3f04f664	0.5193846
243	0x3eb9fdfb	0.36326584
244	0xbfe3371c	-1.7751193
245	0x3d3a3376	0.045459233
246	0x3e2a1cc3	0.16612534
247	0x3cd09b03	0.02546454
248	0x3ce26d83	0.02764011
249	0xbceda091	-0.029007228
250	0xbf21a856	-0.63147485
251	0x3eda8895	0.4268233
252	0x3e4a1124	0.19733101
253	0x3ee0a550	0.43876123
254	0x3f077a0d	0.5292061
255	0x3bcce758	0.0062531643

fc3.bias f4 [2]
0	0x3d98fc1e	0.074699625
1	0x3e8bbd8a	0.27293044
