weights/tuning/20000steps_4agents_32batch_5000cap_0.0003lr_25decay/run_7.pth (torch, 72253 bytes, 6 tensors)

fc1.weight f4 [128, 4]
000000 b0 e4 cc 3d 4a 81 f3 bd 2c 44 47 bf ea 70 cb be
       0.10004556 -0.11889894 -0.778384 -0.39734584
000010 42 04 cf 3d e3 f9 e7 bd dd 2e 65 bf 71 02 b7 be
       0.10108234 -0.11326959 -0.8952463 -0.3574405
000020 7c cd b6 3d 0a 25 b8 3e 7c b4 09 bf 14 bc b4 3e
       0.08925912 0.3596576 -0.5379102 0.35299742
000030 0d 21 0d 3e 6e f7 9b bc ed 6f 51 3e a0 8c 4f 3e
       0.13782139 -0.019038882 0.20452853 0.20268488
000040 c8 3f d7 3e 59 43 d8 3d 6a bc 4d bf 2b 32 46 be
       0.4204085 0.105597205 -0.8036562 -0.19355075
000050 b2 b5 9f 3e ca 68 ae 3e 6b 21 1a bd e2 3c e4 3d
       0.3119331 0.34064323 -0.037629526 0.11144425
000060 00 df 85 bc 4c c2 b9 3d 5b 6e 05 3c 9b e1 ae 3d
       -0.016341686 0.09070262 0.008143987 0.085391246
000070 c6 9a 71 be 72 3a 18 3e 49 78 5c 3f 21 a8 33 3e
       -0.23594198 0.14866045 0.8612104 0.17544605
000080 bb ea 59 bd c8 f1 9f 3d 37 cf 85 3f 93 36 aa 3e
       -0.053202372 0.07809788 1.0453862 0.33244762
000090 74 65 a0 be b2 24 bd 3e 55 99 db be a2 e3 9c 3e
       -0.31327403 0.3694206 -0.4289042 0.3064242
0000a0 45 c2 d5 3e 45 b1 30 3d c5 74 cc 3a bf 0a 39 be
       0.41749778 0.043137807 0.0015598765 -0.18070506
0000b0 6d 14 a9 be b0 a5 b6 bd b4 aa de 3e 6a d7 1b be
       -0.33023396 -0.08918321 0.4348961 -0.15218893
0000c0 20 0c fc 3d 07 f4 f2 bd 7f 5d 08 bd a0 94 ba 3e
       0.12307 -0.11862951 -0.03329229 0.36441517
0000d0 6b ea 45 be dd 44 19 3e 76 23 00 3f c9 7b ce be
       -0.19327705 0.14967676 0.5005411 -0.40328816
0000e0 d1 10 ee 3d cf 57 f4 bd b1 2f c4 be ea 99 ad 3e
       0.11624301 -0.11930811 -0.38317636 0.3390649
0000f0 60 0e dd 3e b1 6c b6 be 20 92 7c 3f 7a 34 b9 3e
       0.4317503 -0.356298 0.9866047 0.3617285
000100 75 67 f0 bd 3b c4 a2 be 44 9e 28 bf cb 70 00 3f
       -0.11738483 -0.31790337 -0.65866494 0.5017211
000110 4e 77 af 3d 4d 36 a8 3e a7 1f 7f bf 40 83 dd be
       0.085676774 0.32853928 -0.9965767 -0.43264198
000120 48 37 88 3e 6a 3c 27 be bd ed 84 bf 6d 0f 28 bf
       0.26604676 -0.1633164 -1.0385052 -0.6564854
000130 3e bb f1 3e 61 c2 92 be b4 8a 77 3f 5b ff d5 3d
       0.47213167 -0.28663924 0.9669602 0.10449096
000140 3a 00 9c be 45 8d fa 3e db d3 6c bf ac 67 2c 3e
       -0.30468923 0.48935905 -0.92510766 0.16836423
000150 96 2f e8 bd 62 33 e7 be 54 3a 72 3f fc db 04 be
       -0.11337201 -0.4515639 0.9462025 -0.12974542
000160 b0 e7 e6 bd f4 d1 da 3e 0c 8a 35 3f bc a7 d0 bd
       -0.1127466 0.42738307 0.7091377 -0.10188243
000170 5f 23 e9 3d 8f 05 80 be ed 55 ff be ce 32 de be
       0.113836996 -0.2500424 -0.49870244 -0.43398136
000180 ce 61 9b bd 08 43 d4 3d d2 f9 a3 3f 59 0e de 3e
       -0.07587014 0.10364348 1.2810614 0.4337032
000190 69 50 27 3f 01 41 4f 3c 11 b3 03 bf 59 80 a8 3a
       0.6535707 0.0126497755 -0.5144511 0.0012855633
0001a0 81 49 01 bf ed 41 29 3e e8 6a 3f be 0b e8 1f 3f
       -0.50502783 0.16529055 -0.18693125 0.62463444
0001b0 b7 16 16 bf c5 8b 8d bc fc aa a0 3c 97 38 fd 3e
       -0.5862841 -0.017278561 0.019612782 0.49457237
0001c0 c9 1e 22 be 6b d6 cc be 48 64 d0 be d4 6f 35 bd
       -0.15832056 -0.40007338 -0.4070151 -0.0442961
0001d0 bd 99 95 3e 2f 63 75 be d5 6d 56 3f 50 c6 db 3e
       0.29218856 -0.23963617 0.8376134 0.42924738
0001e0 23 c5 d1 bd 09 f3 fa be 54 6d 4a bd 6f b4 4b be
       -0.10242679 -0.49013546 -0.04942067 -0.19893049
0001f0 8c 1f a6 3e 0b 60 ac be 38 4a 51 3e 45 bb 16 bf
       0.32445943 -0.33667025 0.20438468 -0.588795
000200 4a 4b ec be e0 b7 46 3c 95 93 36 3f fe 11 83 3e
       -0.4615119 0.0121288 0.7131894 0.25599664
000210 2d 4b c3 3e e4 12 c6 be 4b c5 51 bf e7 ff a2 be
       0.38143292 -0.38686287 -0.8194167 -0.31835863
000220 a2 12 a0 3e b6 d2 31 be a2 b1 1b bf d1 72 e9 be
       0.31264216 -0.17365536 -0.6081792 -0.4559541
000230 33 f7 dd 3e 30 11 4e 3d ed f8 e9 3e c6 6a a4 be
       0.4335266 0.05030936 0.45697728 -0.32112712
000240 d8 a5 9d be f7 f0 b8 3d 3d 93 8b bf 8e 8a 16 bf
       -0.3079059 0.090303354 -1.0904309 -0.5880517
000250 0f 3a 34 3e b6 c4 8d 3d 8d 89 2f 3f d6 8b ab bd
       0.17600273 0.06922285 0.6856926 -0.08376281
000260 53 85 85 3e 7f 72 57 be 72 39 0a 3f 1b 0c 87 bd
       0.2607828 -0.2103977 0.53993905 -0.06594106
000270 a7 01 09 bf e7 96 83 3d 9b 7b 61 3f a4 25 ac 3e
       -0.53518146 0.06425267 0.8807923 0.33622468
000280 88 de 3d 3e b1 9d 23 be 51 cb 52 bf bd 6c 15 bf
       0.1854192 -0.15978123 -0.82341486 -0.58369046
000290 25 b5 bf 3e 63 0d d5 be d6 7a 47 bf 07 95 ab 3d
       0.3744289 -0.41611776 -0.7792181 0.08378034
0002a0 71 43 0e be 86 75 30 3e 56 08 8a 3f 41 10 c9 bd
       -0.13892914 0.17232332 1.0783794 -0.09817553
0002b0 53 5f f4 be 92 93 3c bd a5 33 8b 3e 5a 31 1e bf
       -0.47728977 -0.04603917 0.2718784 -0.61794055
0002c0 4e 04 c3 3e 87 a9 98 be ac 0a ad 3f ae 36 f5 bd
       0.38089222 -0.2981684 1.3518882 -0.1197332
0002d0 2c 0f 52 3d cc 99 c5 be 1a ab ff be fd d8 e0 3e
       0.051284 -0.385939 -0.49935228 0.4391555
0002e0 43 12 bb 3e ab c2 c6 be fe 5c 81 bf ea e1 c9 3e
       0.3653737 -0.38820395 -1.0106504 0.3943017
0002f0 c5 13 c3 be 8a 3d 03 bf f9 ce ba 3e fc 43 89 bd
       -0.3810102 -0.51265776 0.36486033 -0.0670242
000300 ce fa aa 3e 26 27 7b be 87 56 16 3e bf 84 06 be
       0.33394474 -0.24526653 0.14681445 -0.13136576
000310 75 9f f1 3e 9a 61 bd bb 6f 22 5a bf 41 1f df 3e
       0.4719197 -0.0057794573 -0.8520879 0.43578532
000320 aa d6 3b 3e dd 26 df be 69 6e 08 bf 0f 6c d7 be
       0.18343607 -0.43584338 -0.5329347 -0.4207463
000330 d4 29 cf bd 6b 7d 1e bd 82 d9 a6 bf 16 62 f6 be
       -0.101154 -0.038693827 -1.3035128 -0.4812171
000340 d7 39 07 be a5 36 4c be 55 0f 6f 3f a8 09 16 3e
       -0.13205658 -0.1994272 0.9338277 0.14652121
000350 f3 87 4c bd 39 e1 16 3e 17 09 de be 7a ed af 3d
       -0.04993434 0.14734353 -0.4336631 0.08590217
000360 8c 78 0f 3f 65 28 fb 3c d2 5a 14 bf 1b 16 a3 be
       0.56043315 0.03065891 -0.5795108 -0.31852803
000370 3c a6 8f 3d bf 05 eb be 38 90 29 3f 99 8f 4a be
       0.070141286 -0.4590282 0.66235685 -0.1978134
000380 bc 91 8d 3e ec de 66 be 04 0e b1 3f 86 e9 7c 3e
       0.2765025 -0.22545975 1.3832402 0.24698457
000390 0a 47 8d 3e a3 48 99 3c 66 5c 48 3f 5b 66 b1 be
       0.2759326 0.018711394 0.7826599 -0.34648404
0003a0 41 9a b3 be c9 8b 9d be fd 97 11 bf 4b ee 67 3e
       -0.35078624 -0.3077071 -0.5687254 0.22649495
0003b0 29 9e a5 bd 23 9b 4d be 7b 57 23 bf 59 30 e5 be
       -0.08086807 -0.20078711 -0.6380536 -0.4476345
0003c0 5c c7 b1 3d 9a 98 7b be 3d 34 af bc 21 17 0b 3d
       0.08680603 -0.24569932 -0.021387214 0.033957604
0003d0 bd 01 ae 3d d6 fb a6 be 68 4c c3 be e9 ea b3 3e
       0.08496425 -0.3261401 -0.3814423 0.3514016
0003e0 2e c7 0b bf d8 b3 d3 be 8f 40 ac 3e fb 95 36 3e
       -0.546008 -0.41348147 0.33643004 0.1783065
0003f0 52 02 26 be 33 bc 79 be 23 50 03 3c 2a 05 fd bd
       -0.16211823 -0.24388199 0.008014712 -0.123545006

fc1.bias f4 [128]
000000 a9 29 51 be c5 4c 53 be 62 97 d7 be 2e a2 d0 3e
       -0.20426048 -0.20634754 -0.42107683 0.40748733
000010 26 ca b4 be 99 e2 f8 3e ea 30 9b 3e da 09 96 3e
       -0.35310477 0.4861038 0.30310756 0.2930439
000020 03 79 4c be 06 18 d4 3e 50 93 a7 3e b1 ad a0 3d
       -0.19968037 0.41424578 0.32729578 0.07845629
000030 ac 59 bd 3e d4 13 97 3e c2 6e ce 3e c9 e5 eb be
       0.36982477 0.29507315 0.40318877 -0.4607375
000040 a9 4a de 3e c4 ef cb bd 5d 9f 8a be 5c 84 31 3e
       0.43416336 -0.09957841 -0.2707471 0.17335647
000050 cd 91 19 be 08 6b bd be e1 17 12 3f cc 14 e0 3e
       -0.14997025 -0.3699572 0.57067686 0.43765867
000060 ff c0 87 be 80 e3 31 be 04 67 9d be d2 57 9c be
       -0.26514432 -0.1737194 -0.30742657 -0.30535752
000070 92 4c 63 3d 5f 9e ae bd 0e 47 e6 be 9d 1f de 3e
       0.055492945 -0.08526301 -0.44976085 0.43383494
000080 2c b6 f2 3e 5d 42 03 3d d1 57 f6 3e e7 55 b5 3c
       0.4740461 0.03204571 0.48113874 0.022135688
000090 0d 83 b4 be f4 e4 16 3f 47 8a e4 3e c7 fc 91 be
       -0.35256234 0.58943105 0.44636747 -0.28513166
0000a0 78 fe 79 be 72 fa 4b 3e ea 98 a0 3e f2 d8 91 3e
       -0.24413478 0.19919756 0.31366664 0.2848583
0000b0 c7 50 18 be e6 57 37 3e cc 73 90 be 5f ce 94 3e
       -0.14874564 0.17904624 -0.28213346 0.290637
0000c0 10 6f fd 3e 3d ce 09 3e 7b 37 14 3f 70 e4 c2 be
       0.49498796 0.1345758 0.57897156 -0.3806491
0000d0 52 97 cb be c1 e2 ff 3e 0c 5d b9 be 19 9e 5c be
       -0.39763886 0.49977687 -0.36203802 -0.21544684
0000e0 10 ec 9d be 06 a5 90 3d ae f5 4f 3e 9a 99 a0 be
       -0.30844164 0.07062726 0.20308563 -0.3136719
0000f0 78 b0 0a 3f e4 c2 ff 3e 7d 14 8d be 6c ab 87 be
       0.5417552 0.49953377 -0.27554694 -0.26497972
000100 fa c9 02 be 6b 06 eb 3e e5 f0 a3 be fb 46 51 3e
       -0.1277236 0.45903334 -0.32019725 0.20437233
000110 b6 ff 1b bf 97 43 ad 3e 7a d3 fb 3c 6e 3c f4 3e
       -0.6093706 0.3384063 0.030740488 0.47702354
000120 94 d0 39 3e b3 c8 c2 be 05 27 15 3e c5 d0 8b bb
       0.18145972 -0.38043746 0.14565666 -0.0042668306
000130 49 ec 06 bd 53 6f cd 3e c0 70 94 be 38 1a 37 3e
       -0.032940183 0.40123996 -0.2899227 0.17881095
000140 8c b5 35 bd 7e ff c1 3e c3 9a 4d be b2 a2 ba be
       -0.04436259 0.37890238 -0.20078568 -0.36452252
000150 d2 52 8f 3e b1 3d 8e 3d e6 df 07 3f 25 92 7b be
       0.27992874 0.069453605 0.53076017 -0.24567468
000160 aa db 54 be 82 e2 f7 be 57 8a 44 3e a1 23 c8 be
       -0.2078692 -0.48415 0.19193397 -0.39089683
000170 41 1a 5c be 5d 87 92 be 6b 06 4f 3e c2 74 c6 be
       -0.2149439 -0.286189 0.20217292 -0.38760954
000180 bd 96 0c 3f 70 60 a7 3e 35 80 84 be e2 ac 1b bc
       0.5491751 0.32690763 -0.25879064 -0.009501668
000190 22 33 cb be 83 6e f9 3e db 91 90 3e ae 75 5c 3e
       -0.3968745 0.48717126 0.2823628 0.21529266
0001a0 0e 64 0a bf de 7d 05 3d de a2 84 be 76 30 09 3e
       -0.5405892 0.03259074 -0.25905508 0.13397393
0001b0 d7 7b ce be e0 fe 7a be 6d 97 22 3f 09 a7 88 be
       -0.40328857 -0.2451129 0.6351231 -0.26689938
0001c0 db fe 8c be 27 3b 07 3f 22 e0 1c 3d 7b b1 ea 3d
       -0.2753819 0.52824634 0.038299687 0.11459633
0001d0 09 de 9f 3e 95 02 ee 3e 3d b9 e5 be 6c d4 29 bd
       0.31224087 0.46486345 -0.44867888 -0.041462347
0001e0 96 9a 04 bf fb 9d 09 3f c8 4c c8 3e bc 62 0c 3e
       -0.5179838 0.53756684 0.3912108 0.13709539
0001f0 25 0d a8 3e f1 f9 2e 3e 5e a7 80 be 36 30 58 3e
       0.32822528 0.17087533 -0.2512769 0.21112141

fc2.weight f4 [128, 128]
000000 ff 30 b1 3d 4d 9a 5e bc a2 7b 5e bd 77 2d 47 3d
       0.086519234 -0.013586593 -0.054317124 0.048627343
000010 8b 35 f7 3c 25 3d 5f 3d 22 5b 4a 3c cb 1b 8d 3e
       0.030176898 0.05450167 0.012350829 0.27560267
000020 f6 b6 02 3f 76 04 09 bd c1 b3 06 be d4 d5 c4 3b
       0.51060426 -0.03345152 -0.13154508 0.0060069356
000030 6c 2a 36 bd aa f7 dc 3c 42 98 09 be 9f 1a 86 3e
       -0.04447405 0.026973564 -0.13436988 0.26192185
000040 ae 1f 03 be 60 97 85 3d d1 d8 56 bd 47 d6 87 3e
       -0.12805054 0.06523013 -0.052452866 0.26530668
000050 fa 07 8b 3b 61 10 e0 3e 5c 0c 86 3e 6d ac 87 be
       0.0042428942 0.43762496 0.26181304 -0.26498738
000060 f7 b0 60 3f e1 ca f8 3d 60 54 2c bf b1 06 b2 3a
       0.87770027 0.12148071 -0.67316246 0.0013582316
000070 c2 02 79 bd a6 a6 ed 3d f8 5d a4 3e fe 1e cf 3d
       -0.060793646 0.11604051 0.32102942 0.10113333
000080 79 25 62 3d 83 5f 43 be 83 c2 bf be d6 3e 3d 3e
       0.055211518 -0.19079404 -0.37453088 0.18481001
000090 c8 ca 82 3c ab 15 f3 3d 35 a6 0a 3e fe 82 88 3e
       0.015965834 0.11869367 0.13539965 0.2666244
0000a0 d0 0b 80 3d c1 91 b1 be 2a 79 e1 3e 02 d9 11 be
       0.06252253 -0.34681514 0.44037753 -0.14242938
0000b0 76 b2 1b 3f 34 00 e6 bd 3d 97 62 be 65 7e e1 3c
       0.60819185 -0.112305075 -0.22128005 0.02752609
0000c0 dd 1a 99 bc 17 a2 fe be 1b e7 40 be c6 1b ae 3d
       -0.018689567 -0.4973304 -0.1883816 0.08501391
0000d0 07 ac 05 3f 50 ec 94 be 52 3c b2 3c 03 f6 ec 3e
       0.5221562 -0.29086542 0.021757279 0.46281442
0000e0 fe 36 2e 3f d6 e8 ef 3d 35 30 03 be 7b 2a 91 bd
       0.6805266 0.11714332 -0.12811358 -0.07088181
0000f0 c7 c7 c4 bd 3c 2f 19 bd ce 88 63 3d 21 6b 9d 3e
       -0.09608417 -0.03739856 0.05555039 0.30745795
000100 4d 8f 4d 3e 71 36 10 be 7b 9c ab 3e 95 fb cd 39
       0.20074196 -0.14083268 0.33517823 0.0003928809
000110 4c f0 21 3e 3b 1f f5 bd 80 9d 0f bd ca 18 3f be
       0.15814322 -0.11968847 -0.035062313 -0.186618
000120 f4 b2 20 3e aa f2 b3 3e a8 fb 1f be e0 21 12 3f
       0.15693265 0.35146075 -0.15623343 0.5708294
000130 23 b3 e4 be db 94 13 3e 38 5f 54 bd 26 fb a2 be
       -0.4466792 0.14412253 -0.05184862 -0.31832236
000140 66 67 03 bf 96 6b 97 3e c1 fe 11 3f ab 67 56 3e
       -0.5132965 0.2957427 0.5702935 0.20937984
000150 89 d8 64 bf 45 dc a9 3e e4 17 11 be 68 4f 38 bd
       -0.89392906 0.33175865 -0.1416927 -0.044997603
000160 4e 6c 44 be fb 1d 5f 3e 6b aa 93 3d 33 37 3a 3f
       -0.1918194 0.2178878 0.07210239 0.7274048
000170 00 af a2 3e 4c b2 56 3e 18 68 93 3e 55 d5 d0 3d
       0.3177414 0.20966452 0.28790355 0.1019694
000180 e8 cf 47 3d 52 05 69 3e f4 d6 bb 3e e0 d8 1e bc
       0.04878226 0.22755936 0.36687434 -0.009695262
000190 ba 27 e1 bc 5d f8 91 bd ba 6a 88 3e 52 85 84 bd
       -0.027484763 -0.0712745 0.26643926 -0.06470741
0001a0 bc b4 01 3d 78 a9 6f 3e 35 e4 a2 bc b6 50 32 3c
       0.031666502 0.23404491 -0.019884208 0.010883501
0001b0 af 14 c6 bb 6a f1 7f 3d 1e da 0e be 32 b8 df 3e
       -0.006044946 0.06248609 -0.13950393 0.43695217
0001c0 47 a9 07 3e 9f 7a a6 be 3c e5 09 be 29 d2 d7 bd
       0.13248168 -0.32515427 -0.13466352 -0.10538132
0001d0 f0 5c 0a 3d 08 af 7e bb 94 2d 03 3e f4 5d cb 3d
       0.03378004 -0.003886165 0.12810355 0.099300295
0001e0 fc 4c 82 3b 40 94 61 3e 37 98 2d be 14 57 37 3e
       0.0039764624 0.22029209 -0.16952597 0.17904311
0001f0 92 d0 90 3e a3 af 11 be 20 f9 05 be 30 8b 10 be
       0.28284127 -0.14227156 -0.13083315 -0.14115596
000200 80 8d d7 be 8c 98 ea be 55 2c 00 be d3 36 89 3d
       -0.42100143 -0.4581951 -0.12516911 0.0669991
000210 35 84 d6 be d0 20 eb 3d ed 54 34 3d 1f 23 25 3e
       -0.4189774 0.11480868 0.044026304 0.16126679
000220 2e 9d 69 be 24 b9 c3 3d 47 ad 38 3e b1 c7 4f 3e
       -0.22813866 0.09556797 0.1803485 0.2029102
000230 c2 40 f3 3d 42 4f bb bb 64 b0 80 3d 0a 87 59 be
       0.11877586 -0.0057162354 0.06283644 -0.2124292
000240 fe bc 37 3e d6 39 89 bd e5 0e a5 be 52 f5 ee bd
       0.17943189 -0.067004845 -0.32237926 -0.11667885
000250 3e 1d a8 bd 92 32 48 be 95 9c 0e 3e 11 ec 9d 39
       -0.082087025 -0.19550541 0.13926919 0.00030121257
000260 a6 17 32 bf 06 da 0d 3d 6f 38 a7 3e 8a 7f 66 3e
       -0.69567335 0.03463175 0.32660243 0.2250959
000270 c5 0c 41 bd 62 f6 1f be a0 0b ae bc 3e 77 ea 3d
       -0.04713132 -0.15621331 -0.021245778 0.11448525
000280 73 b0 08 3e 1c bc 59 be 50 f3 17 3e c7 b3 73 3e
       0.1334856 -0.21263164 0.1483891 0.23799048
000290 e9 c6 c0 be e5 2e df 3d e0 54 84 3d 53 db 50 be
       -0.37651756 0.10897616 0.06461501 -0.20396166
0002a0 79 d2 c5 be 30 be 3a 3e 52 6a 54 3e b6 d3 0e 3e
       -0.3863714 0.18236613 0.20743683 0.13947949
0002b0 7e 21 8a be bf fa 00 3e 88 13 8f 3d 34 3e 8a 3d
       -0.26978678 0.12595652 0.06986147 0.067501456
0002c0 a6 de ca 3d 7b 42 68 3e aa 8f ee 3d 66 40 17 bf
       0.09905748 0.2268161 0.116484955 -0.5908264
0002d0 16 37 ea be 90 38 07 3e af 60 5d be c3 f7 9b bd
       -0.45745152 0.1320517 -0.21618913 -0.07615616
0002e0 96 87 b8 be 0b 21 2b 3e c6 f4 35 3d ca 14 a3 be
       -0.36040944 0.16711824 0.044422887 -0.31851798
0002f0 52 22 f6 3d c5 0d e6 3d 60 57 e5 3d 62 22 0a bd
       0.12018265 0.11233095 0.11198306 -0.033724196
000300 e0 de 76 bd 3b 15 b7 3d 7d c5 c9 bd 8b ff 18 3d
       -0.060271144 0.08939596 -0.09852121 0.03735308
000310 2a 9f 19 be 8a aa ea 3d 47 af 2d bd 4e af 0a 3e
       -0.15002123 0.11458309 -0.042403486 0.13543436
000320 32 eb 2c bd 9c 96 c7 bc 21 d6 8b 3d e2 19 8e be
       -0.042216487 -0.024363808 0.06827951 -0.27754122
000330 cd 4c 30 3e 48 fe 9a 3d 37 2f 05 bf 4d f2 ee 3d
       0.17216797 0.075680315 -0.5202517 0.11667309
000340 fc ef fa 3d 09 f9 06 3e 3c 4c d6 be cd a7 5f be
       0.12252805 0.13180937 -0.41855037 -0.21841355
000350 5e d3 ac 3d 7c 38 45 3e 94 68 2a 3e 40 82 15 be
       0.084387526 0.19259828 0.16641456 -0.14600468
000360 45 f8 e9 bc 33 6a 39 be 8d 9d 6d 3d c0 e0 d1 be
       -0.028560767 -0.18106918 0.05801158 -0.40991783
000370 e5 92 8b be 3b 67 75 3c e2 19 a7 3d 66 28 d2 bd
       -0.2726051 0.014978225 0.08159234 -0.10261612
000380 60 ed e7 3c 37 c8 ee 3d 74 7b 46 be 27 f6 8c 3e
       0.028311431 0.11659282 -0.19383031 0.2753155
000390 9e 1a 4d be f4 d7 bc 3d b8 1e 20 3e 5d 87 3a 3c
       -0.20029685 0.09220877 0.15636718 0.011384812
0003a0 79 e1 8f 3d 1e 13 94 3d a4 c0 37 bd e2 b2 4d 3d
       0.07025427 0.07230209 -0.04486145 0.050219424
0003b0 9b 28 cf bd 05 14 51 bf c7 e8 e7 3d e0 33 63 be
       -0.10115167 -0.8167117 0.11323696 -0.22187757
0003c0 c8 14 dc bd b3 7e 4a 3d 81 51 91 3e 2c b0 ee 3d
       -0.10746151 0.049437236 0.28382495 0.11654696
0003d0 1e 3d ea 3d 6c 6e 1d 3e 33 05 64 be 80 f1 a2 bd
       0.114374384 0.15374154 -0.22267608 -0.07956219
0003e0 6d 73 dd be 04 55 4c 3d e4 cc 26 3e 86 19 c6 bc
       -0.43252125 0.049885765 0.16289097 -0.024182092
0003f0 95 df ab 3d 06 14 8c bc d3 5b 7c 3d 82 b3 ee 3c
       0.08392254 -0.017099392 0.061611008 0.02913833

fc2.bias f4 [128]
000000 de 6b 23 3d 81 c4 88 3d 63 68 e6 bc 45 1f a3 bd
       0.039897792 0.06678105 -0.028125947 -0.079649486
000010 a6 98 d2 ba f9 fc d1 3d 3e d8 27 3e b9 c8 da 3d
       -0.0016067221 0.10253329 0.16391084 0.10682816
000020 f2 5a 49 3e 09 04 bd 3d c4 2d eb bc 17 39 4f 3e
       0.19663599 0.09229285 -0.028708346 0.20236622
000030 cd 4e 54 3d ec f6 90 bd e1 45 19 3e 25 3b 94 bd
       0.051832963 -0.070783466 0.14968063 -0.072378434
000040 f4 80 ba bd 54 46 52 3e 06 18 0d bd 23 36 84 bd
       -0.09106627 0.2053464 -0.03444674 -0.06455638
000050 76 26 4e 3e 67 47 bd 3d 45 22 bc bd 2a 0e 59 3e
       0.20131859 0.092421345 -0.09186224 0.2119681
000060 94 45 70 bd d1 31 9d bd 59 51 e9 3b ef 18 44 bc
       -0.058660105 -0.07675517 0.007120293 -0.011968835
000070 f3 22 9b 3d 77 28 03 bd 4f 1e 2a bd 29 18 06 be
       0.075750254 -0.032021012 -0.04153281 -0.13095154
000080 b5 ea 5a 3e a1 ef 82 bd a7 c2 17 3d ba f6 00 bd
       0.21378596 -0.06393362 0.03705087 -0.031485297
000090 21 03 32 bc d2 d8 ff 3b 73 b9 2d 3e 5e 16 18 3d
       -0.010865004 0.0078078294 0.16965275 0.037130706
0000a0 40 de 1a 3e 45 22 4e bb 61 c6 38 bc 9c 99 90 3d
       0.15123844 -0.0031453532 -0.011277766 0.07060549
0000b0 3e a5 0b 3d 7b 79 86 bd 66 87 4a 3e f8 5d e7 bd
       0.034093134 -0.06566139 0.19778213 -0.1129722
0000c0 9b 37 af bc 94 30 50 bd c1 6b bb 3b 4d 0e 38 3e
       -0.02138882 -0.050827578 0.0057196324 0.17974205
0000d0 8a c0 00 3e f0 65 bb bd fe 03 4b 3e 61 0b c9 3d
       0.12573448 -0.091503024 0.19825742 0.098166235
0000e0 02 35 4d 3e 4a 96 dd 3d c0 1d 23 3e 8c d0 0f 3e
       0.20039752 0.10819681 0.15929317 0.14044398
0000f0 f5 fa 47 3e 58 37 3a 3e bc 86 c1 3d 2b 56 8c bd
       0.19529326 0.18185174 0.09449527 -0.06852373
000100 b4 9d d8 3d fb 91 47 bd ab 18 d4 3c 4b b7 be bd
       0.105769545 -0.048723202 0.025890669 -0.09312304
000110 e6 4b 51 bd 5f 64 50 bc a9 e3 00 bd d5 ca 06 3b
       -0.051097773 -0.012719243 -0.031467114 0.0020567675
000120 f8 db e3 3d a9 da 80 bd 0e 1a c7 bc 36 f4 d7 3d
       0.1112594 -0.06291706 -0.024304416 0.105446264
000130 91 cb 07 be 8a da 98 3d 47 c4 2f 3e 05 20 57 3d
       -0.13261248 0.07463558 0.17164718 0.05252077
000140 74 b2 3d 3e 55 45 b4 bd fc 56 74 bd 48 87 10 3e
       0.18525106 -0.088022865 -0.059653267 0.14114106
000150 16 ef a0 3d dc 5d d3 3b 26 93 03 3e d9 fa ea 3c
       0.07858102 0.006450398 0.12849101 0.028684067
000160 4b 46 04 bc 97 d5 3c bd c9 57 98 3d fa 29 44 3e
       -0.0080734 -0.046102133 0.07438619 0.19156638
000170 ca 36 b5 3b 04 cb b1 3c 37 d5 9f bd 1d 4f 40 3d
       0.005530213 0.02170325 -0.078043394 0.04695045
000180 b1 20 47 bd f7 6d ce 3d 15 d2 e5 3d e3 b1 41 bd
       -0.04861516 0.10079568 0.112217106 -0.047288787
000190 30 14 c6 3d 04 04 25 3e 2d f1 42 3e f2 47 b0 3d
       0.09671819 0.16114813 0.19037314 0.086074725
0001a0 51 38 83 bd 89 9e 9e 3c 2d 82 8f bd 82 f6 21 3e
       -0.06407226 0.019362705 -0.07007251 0.15816692
0001b0 e6 f9 01 3e bc ba 0e bd 51 7b 74 3d 02 f2 40 3e
       0.12692985 -0.034846053 0.059687916 0.18842319
0001c0 25 c7 3d 3e 70 2c 3c 3e 7e 7d 1c 3e fa ab 61 3d
       0.18532999 0.18376327 0.15282246 0.05509565
0001d0 0c c5 43 bd f7 46 16 bd 43 bf ad 3d aa 25 07 3e
       -0.04779534 -0.03668877 0.08483746 0.13197961
0001e0 28 7a 4f 3e ad 17 f1 3d ca 6a 7c bd 84 14 30 3e
       0.20261443 0.11772094 -0.06162528 0.17195326
0001f0 6b d1 9c 3c 62 03 1f 3e fb 65 0f 3e cd 03 48 bc
       0.019142827 0.15528634 0.14003746 -0.012207937

fc3.weight f4 [2, 128]
000000 fd 29 21 bf fc 30 96 3e b6 69 1d bf 61 1e 0e bf
       -0.62954694 0.29334247 -0.6148943 -0.55515105
000010 b4 d4 3a 3a 29 62 85 3e 1d 7b ae bd 6a 20 b9 3e
       0.0007127032 0.26051453 -0.08519576 0.36157542
000020 65 6e 79 3e 36 a8 89 3e 0c 1c 40 bf fa 03 97 3e
       0.24358518 0.26886147 -0.75042796 0.2949522
000030 ee ef 93 3e 72 40 3b bc 54 df 37 3e a2 a4 f1 3c
       0.2889399 -0.011428939 0.17956287 0.029497448
000040 f3 52 02 bf 29 5c e0 3e 78 38 a2 bd 79 72 82 3c
       -0.5090782 0.43820313 -0.07920927 0.015923725
000050 3b 8f 8a 3e a5 a5 a3 3e 28 0f f2 bb 1e c3 cc 3e
       0.270624 0.31962314 -0.0073870607 0.39992613
000060 88 2c 0d be cd de 18 bf 94 a5 35 bf 40 b0 fc be
       -0.13786519 -0.59714967 -0.7095578 -0.49353218
000070 c7 65 f1 3c 06 36 c9 bc 9e 62 26 3e b3 e8 f9 be
       0.029467477 -0.024561893 0.16248557 -0.48810348
000080 de 67 b5 3e 32 99 83 3d c3 3c 9d bd 6c 67 94 3d
       0.35430807 0.06425704 -0.07677605 0.07246289
000090 fc 26 2e be 46 8c ef 3a e6 09 8f 3e cf a9 a3 3e
       -0.17007059 0.0018276058 0.2793724 0.3196549
0000a0 33 49 94 3e d1 23 70 bb 7b 2c fe bc e4 70 c0 3e
       0.28962097 -0.0036642442 -0.03102707 0.3758613
0000b0 32 96 54 bd 9b 44 12 3c 1a 47 1e 3e 47 7a d6 be
       -0.05190105 0.00892749 0.1545681 -0.41890165
0000c0 dc 1a 4a bd 5b 34 c5 be 76 fd 3f bf 75 7f a3 3e
       -0.04934202 -0.38516507 -0.74996126 0.3193318
0000d0 ab 9a a9 3e 1b 43 9a 3c 00 a6 9b 3e f2 41 2e bf
       0.33125815 0.018830827 0.30400085 -0.68069375
0000e0 3f a4 9c 3e 69 70 a0 3e 10 23 9c 3e 42 2f f7 3e
       0.3059406 0.31335762 0.304955 0.48278242
0000f0 ee 91 8a 3e 9b 90 ba 3e 93 9b 8c 3e c5 aa 18 bf
       0.2706446 0.3643845 0.27462444 -0.59635574
000100 5b cc 75 3e 16 26 a4 be 80 bd 6e bd 2e 29 09 bd
       0.24003737 -0.32060307 -0.05828619 -0.033486538
000110 6a f7 1a bd fd b9 03 bf d1 9e 19 bc 86 83 1d ba
       -0.03783361 -0.5145567 -0.009376244 -0.0006008673
000120 18 5a a7 3e 1d a1 a6 bd 69 de 5f bd 77 b0 9d 3e
       0.32685924 -0.08136199 -0.054655466 0.30798694
000130 d2 e8 bf be da aa a3 3d d8 81 c2 3e e7 dc 3e 3e
       -0.37482315 0.07991572 0.37989688 0.18638955
000140 7f 49 af 3e a7 f9 f0 be 7a 63 ad bc 65 1c 12 3e
       0.3423576 -0.4706547 -0.021165598 0.14268644
000150 0f a5 b1 bd cb 12 22 bf e1 a4 0e 3d 71 eb 61 bd
       -0.086740606 -0.63309926 0.03482521 -0.055156175
000160 0b 3d 92 bd 89 d2 88 3b 93 6a 70 39 e8 c2 c8 3e
       -0.07140549 0.0041754884 0.00022927886 0.39211202
000170 71 0f 98 3c aa 17 25 bf d4 da 1a bd 82 8b 98 3e
       0.01856205 -0.64489233 -0.037806347 0.29793936
000180 21 45 9b 3c 22 d8 48 bf fc 9b a6 3e 3f 79 28 bf
       0.018953862 -0.7845479 0.32540882 -0.65810007
000190 80 8c bf 3e 05 04 a3 3e 57 90 8c 3e 4f 58 b6 3e
       0.3741188 0.31839004 0.27453873 0.3561425
0001a0 1b 1c 46 bd e3 15 30 bf 5b a7 36 bf 10 8f 99 3e
       -0.048366647 -0.68783396 -0.71349114 0.2999196
0001b0 27 3c 90 3e ea 37 f8 3b 7b 1d 63 3e 41 95 64 3e
       0.28170893 0.007575025 0.22179215 0.22322561
0001c0 50 48 ad 3e eb 65 8a 3e ab af 9b 3e 8c 48 b2 3b
       0.33844233 0.27030882 0.30407462 0.005440777
0001d0 54 31 37 bf 79 78 17 bd 6a a0 81 3e 47 fc 91 3e
       -0.71559644 -0.036980126 0.253177 0.28512785
0001e0 55 10 c2 3e 8d 60 9a 3e 26 54 99 3d dc 36 e5 3d
       0.37903085 0.30151787 0.07486753 0.11192104
0001f0 e9 90 4a 3e aa 04 99 3e 62 a4 55 3e 5f 5d bf bc
       0.19781841 0.2988637 0.20863488 -0.023359952
000200 e6 64 2b bf c6 d7 c7 3e cd 57 99 be 2b 5f 48 bf
       -0.66950834 0.3903181 -0.299498 -0.78270215
000210 02 19 b2 3b 66 24 df 3e 12 2d 2b 3f 5f 78 42 3e
       0.00543511 0.43582457 0.66865647 0.1899123
000220 24 8b cf 3e 71 e9 1d 3e 37 0f 25 bf a6 53 af bd
       0.40535843 0.15421082 -0.6447634 -0.085608765
000230 50 f7 e5 3d d0 69 57 bd bd 70 8d 3e a2 08 23 bb
       0.11228812 -0.052591145 0.27625075 -0.0024876972
000240 e7 63 0c bf 25 14 c0 3e 75 48 13 3c 34 24 8a bd
       -0.5483994 0.3751537 0.008989443 -0.067451864
000250 53 ee f6 3e 72 d7 98 3e 3f ca 43 bd 27 c9 9f bc
       0.48228702 0.29851872 -0.0478003 -0.019505097
000260 cd 14 8d 3e e3 26 2e bf 10 5f d7 be f8 33 08 bf
       0.27554932 -0.68028086 -0.42064714 -0.532043
000270 4a 0c 5c bd 1f d5 3c bd ce 85 99 3e 44 b9 fb be
       -0.053722657 -0.046101686 0.29984897 -0.49164784
000280 f3 44 a8 3e ec e1 0a bc 56 8d 1e bf de e8 b1 bd
       0.32865104 -0.008476716 -0.6193441 -0.08686994
000290 25 7c 98 3e f6 e0 9c bd b0 97 b5 3e 00 39 e8 3e
       0.29782215 -0.076600954 0.3546729 0.45355988
0002a0 1b 66 ef 3e 71 bd 43 bd 91 51 29 3d 57 d1 c7 3e
       0.46757588 -0.047788087 0.041337553 0.390269
0002b0 df ff 19 3c b7 dc ff bc fb 48 9c 3e ac 51 91 be
       0.009399383 -0.031233175 0.3052443 -0.28382623
0002c0 68 e0 46 3d 67 6a 19 bf 27 a6 10 bf 90 b5 1e 3e
       0.048553854 -0.5992798 -0.5650353 0.15498948
0002d0 a3 6d c8 3e 06 34 55 bc c8 f6 81 3e 92 b7 21 bf
       0.39146146 -0.013012892 0.25383592 -0.6317073
0002e0 93 98 9d 3e a1 e2 a3 3e c4 cb c9 3d 06 08 69 3e
       0.30780467 0.32008842 0.09853318 0.22756967
0002f0 b6 2d c9 3e 40 7d c3 3e 93 d8 c0 3e b6 93 bb be
       0.39292687 0.38181496 0.37665233 -0.36636132
000300 d9 b4 53 be f5 e7 5d 3e f9 1c 56 3d c1 89 a6 3d
       -0.20674457 0.21670516 0.052273724 0.08131743
000310 1f d5 d2 3b e8 f7 fb be cd fb 1c 3d 77 46 53 bb
       0.0064340974 -0.49212575 0.038326073 -0.0032238045
000320 65 79 55 3e 1a ed 3e 3d 8b 39 85 bd 4b a7 c8 3e
       0.2084709 0.046612836 -0.06505116 0.39190134
000330 78 79 18 bd 56 d9 eb 3e 7d d8 f1 3d fd 6c a7 3e
       -0.037225217 0.46064252 0.1180887 0.3270034
000340 8a 95 51 3e b1 85 1d bf 31 22 a2 bb f6 ac cf 3e
       0.20467201 -0.6153212 -0.0049479236 0.40561646
000350 a9 fe 11 bf 79 7d fc be 09 79 e3 3e 16 1f 52 bd
       -0.57029206 -0.49314478 0.4442828 -0.051299177
000360 6d ce 22 3d e8 fb 88 bd 0c d2 a0 3d 83 1c 89 3e
       0.039747644 -0.06688672 0.07852563 0.26779565
000370 28 ba 76 bc e9 58 47 bf f8 2f 85 3c 2f c9 87 3e
       -0.015059032 -0.7787004 0.016258225 0.26520678
000380 65 9e 5d bd 7f eb 02 bf 28 88 87 3e fb 16 0e bf
       -0.054106135 -0.5114059 0.26471066 -0.55503815
000390 2c 62 ce 3e 45 4d c4 3e e4 f5 a0 3e 0a 8f c3 3e
       0.40309274 0.38340202 0.314376 0.38195068
0003a0 11 57 9b 3b bc f1 11 bf 49 a3 48 be 0c c9 fb 3d
       0.0047406037 -0.5700948 -0.19593538 0.12294206
0003b0 6b 4c ab 3e 43 0c 97 bd 1d 74 e5 3e 33 b7 e2 3e
       0.3345674 -0.073753856 0.4481515 0.44280395
0003c0 3e 6c e5 bc ce 41 77 3d 0d ec ac 3e b2 18 48 ba
       -0.028005715 0.06036549 0.33773842 -0.00076330744
0003d0 63 7c c0 be b7 42 7e 3d b0 0a d2 3e 89 b0 54 3e
       -0.375949 0.062075343 0.4102378 0.20770468
0003e0 3a 44 af 3e 2f 26 04 3e 3e 5b 5f 3c f7 fa 03 3f
       0.3423174 0.12905191 0.013632594 0.51554817
0003f0 7a b6 82 3e e9 73 0c 3e 25 9a a9 3e 71 56 b5 bb
       0.25529844 0.13716091 0.33125415 -0.0055339863

fc3.bias f4 [2]
000000 1f 87 44 3d b8 62 f1 3d
       0.047980424 0.11786407
