weights/tuning2/40000steps_4agents_64batch_15000cap_0.0003lr/run_1.pth (torch, 72253 bytes, 6 tensors)

fc1.weight f4 [128, 4]
00000000: 0e94 073f 5793 213e 99a5 babf 545f 45bd
00000010: c06f 3ebd 7b39 03bd a665 2ebf efc3 e43e
00000020: 3f8d 123e c96a 953e 68f1 113e 2090 bd3e
00000030: e805 27bf d312 5bbe 1412 ac3e 1e06 193d
00000040: 568c ee3d 4631 8abd 53a9 b7bf 3389 90be
00000050: 70d1 6e3d a807 9e3d 5090 80bd 407a 25bd
00000060: aaa9 0d3e d82f eebd 6b0b b0bf 64a2 eabe
00000070: ad8b edbd 7c7d 413d f378 48bf 77d4 99be
00000080: e6ec c6be d95e d5be ff41 0d3e 06aa d83e
00000090: 15e3 2f3f d407 bf3e 0c48 423f 8ea7 b53e
000000a0: 5b03 97bd 251b 7e3e d4f6 50bf ae71 43bf
000000b0: 7105 0fbf 2f06 e63e aca1 58bf 24c0 e0be
000000c0: 8cd9 b9be 8126 eb3e a63e 6f3f 2062 45bd
000000d0: d0f7 063f 4b83 95be deb5 4fbf 31a6 003f
000000e0: 1b72 6aba 184d 823c 415b e1bf 95b1 65be
000000f0: 3155 273e 3c69 933c 0aa9 363f 4404 a13e
00000100: a91b bd3e a89e 66be 61b0 1b3e 9c7d 21bf
00000110: 773a 6bbe 1b5d 08bf f6b1 c33e 6c99 263e
00000120: 169c 09bf 871a d83d 5850 aebf 7ac5 013d
00000130: 75a3 193f b163 a2bd 6ce0 59bf a95b 9bbe
00000140: 2a3a 07bf 8850 163f 126c ea3e 3e99 a2be
00000150: 870a 303f aa84 2e3d e569 4fbf 85d7 6cbe
00000160: d4f8 d43e 5579 e7bd 4edb aebe 156c f33d
00000170: d968 f83d c228 c2bd 2c8f 65bf d713 1e3f
00000180: 18a1 25bd bc19 863e 4324 513f e6a3 503d
00000190: a802 0abe dd95 a63e 84bc 53bf 144f 7bbe
000001a0: b10b 6b3e 20c9 4fbd b445 783f 3612 a0be
000001b0: b6bf c03e bcd5 7abe 51af 893f 10be e63e
000001c0: 2d24 7e3e bc89 7abe 2a6f 193f c59e 2e3e
000001d0: acf7 8f3d 6c25 a5bd cd64 bf3f d7a1 6c3d
000001e0: 16b7 babd db28 1abe 465a 8f3e 3bb9 f23d
000001f0: 84fc 0cbf aefd 0abe 9a1f 03bb 60c2 86bd
00000200: c84e e7bd 96da b8bb 3ea2 0b3f f84b debe
00000210: e843 4dbd f919 35bd 709e 0b3f 386e a4be
00000220: c394 3abe 7b3a 42bd f106 d23e fff0 86be
00000230: 5bb6 223e 039f 863e 6bf9 463f b284 9abe
00000240: 5e86 163f d97a 56be 226d 0d3f 4d13 b13c
00000250: d109 dfbe 6c52 983e 82f2 b3bf 3a85 93be
00000260: 1a2d 373e 673e 66be 0cd3 68bf 12f7 213f
00000270: c131 093f b133 8a3e 7559 97bf dd9b fb3d
00000280: 333c c93e b9a7 7c3e 45b2 81bd c85d af3e
00000290: bbc7 0e3f f3f7 413e ea3b 76bf ce98 1bbc
000002a0: c26f 5f3e 4b2f ffbe 3ca7 9c3f 6030 f13e
000002b0: 488f dfbe 538c 76be 7c70 b63f 31ee 6b3e
000002c0: 3b3d 333e 1aef 27be 1640 afbf d87d 8bbe
000002d0: 93b9 45be c787 2b3e 1269 583f 1543 85be
000002e0: 4eea 90be 701a 16bf 23fe 2e3f dae2 96bd
000002f0: d4b3 b03e 8fc0 083f 1310 243f c517 f8bc
00000300: 6710 24be e1ae dc3e b1f6 613e b9d2 4abe
00000310: 89ee 07be 7d67 b63e 6bca aa3e 4e41 0bbf
00000320: 6b52 b6bd eb25 2eb9 49ae ff3e 3941 393f
00000330: 3acd a23e b879 a9be 38ac 2e3e 92cf c73d
00000340: 4ddb 8abd de65 e43d 6020 e13f 65f8 f53e
00000350: f52f 12bd e467 03be e39b 15bf 7169 1f3e
00000360: 5435 babe 4652 8f3e 98c5 87be be6d 893e
00000370: 9a55 a3be dc3b ef3e de7f 40bf 9ddb 1f3e
00000380: 4cc0 10be 29fe d43e 74b1 16be 0160 9ebd
00000390: 7f97 1a3f 5c7e f8be 7fdd 4ebd a139 76be
000003a0: affa 0d3f 7a33 323d 4baa 91bf d8c1 97be
000003b0: 16fa 143f d829 b1be d883 77bf 9bea 05bd
000003c0: 2c8e c93e 9a99 afbe 1054 88bf 0f14 2fbd
000003d0: d5a8 263c 5fcd 0b3b 424b a7bf 606f 15be
000003e0: 920f 29bf 882e ecbe 8efa 363e 3604 44be
000003f0: 8910 b2be ee36 03be 49da d4be 535f a83c
0.5296029 0.15778862 -1.4581786 -0.048186615 -0.04649329 -0.03203724 -0.68123853 0.44680735
0.14311694 0.29183033 0.14252245 0.3702402 -0.6524339 -0.213939 0.33607543 0.03735935
0.11647861 -0.067476794 -1.4348549 -0.28229675 0.058305204 0.07716304 -0.062775254 -0.04039979
0.13834253 -0.11630219 -1.3753484 -0.4582702 -0.11598907 0.04723881 -0.78309554 -0.3004491
-0.38852614 -0.41673926 0.13794707 0.42317218 0.68705875 0.3731066 0.75891185 0.35479397
-0.07373687 0.24815042 -0.8162663 -0.76345336 -0.5586768 0.44926593 -0.8462169 -0.43896592
-0.36298788 0.45927814 0.9345497 -0.048189282 0.5272188 -0.2920173 -0.8113688 0.5025359
-0.00089433946 0.015905902 -1.7605973 -0.22431023 0.16341092 0.017994516 0.71351683 0.31448567
0.36935166 -0.2252146 0.15204002 -0.6308229 -0.22971521 -0.5326707 0.3822171 0.16269463
-0.53753793 0.10551935 -1.3618269 0.03168247 0.6001504 -0.07929171 -0.85108066 -0.3034337
-0.52823126 0.5871663 0.45785576 -0.3175754 0.68766063 0.042606987 -0.8102096 -0.23129089
0.4159609 -0.11302439 -0.3415169 0.118858494 0.12129373 -0.0948043 -0.8967159 0.61749023
-0.040436834 0.2619151 0.81695956 0.050937556 -0.13477576 0.32536212 -0.82709527 -0.24541885
0.22953679 -0.050728917 0.9698136 -0.31263894 0.37646264 -0.24495596 1.0756627 0.4506688
0.24818487 -0.24466604 0.5993525 0.17052753 0.070296615 -0.08063778 1.4952637 0.05777153
-0.09116952 -0.15054648 0.2799856 0.11851736 -0.5507281 -0.13573334 -0.002000785 -0.06580043
-0.11294323 -0.005641292 0.54544437 -0.43417335 -0.05011359 -0.044214223 0.5453863 -0.3211534
-0.1822081 -0.047419053 0.4102092 -0.2635574 0.15889876 0.2629319 0.7772433 -0.30179363
0.5879878 -0.209453 0.5524465 0.021615649 -0.43562177 0.29750383 -1.4058383 -0.2881258
0.17888299 -0.22484742 -0.9094703 0.63267624 0.53591543 0.26992562 -1.1824175 0.12285588
0.3930374 0.24673356 -0.0633283 0.34251237 0.55773515 0.18942241 -0.9618517 -0.009496881
0.21819976 -0.4984077 1.2238536 0.4710722 -0.43664002 -0.24076967 1.4253078 0.23040082
0.17503826 -0.16399804 -1.3691432 -0.2724445 -0.19309072 0.16751014 0.84535325 -0.26027742
-0.2830376 -0.5863409 0.6835653 -0.07367487 0.34512198 0.5341882 0.6408703 -0.030284772
-0.16021882 0.43102172 0.22066762 -0.19806947 -0.13274588 0.3562583 0.33357558 -0.5439652
-0.08902439 -0.00016608059 0.49937657 0.72365147 0.317972 -0.33100677 0.17057884 0.09756388
-0.067801096 0.11152242 1.7588005 0.48041072 -0.035690267 -0.128326 -0.5844099 0.15567566
-0.3636881 0.27992457 -0.2651794 0.2684154 -0.31901246 0.46725357 -0.7519511 0.1561112
-0.14135855 0.4160016 -0.1471613 -0.07733155 0.60387415 -0.48533905 -0.050504204 -0.24045421
0.5546064 0.043506123 -1.1380094 -0.2964008 0.581941 -0.34602237 -0.9668555 -0.03269444
0.3936628 -0.34296876 -1.0650654 -0.04274374 0.010172089 0.0021332128 -1.3069842 -0.14593267
-0.66039383 -0.4612925 0.17869017 -0.19142231 -0.3477824 -0.12813923 -0.41572788 0.020553267

fc1.bias f4 [128]
00000000: 5331 e2be 852a b33e abf3 933d be4e a0be
00000010: 8edc 41be 92e6 b7be 293d 8abe 680e 213f
00000020: 6026 d93e 7f50 f1bd 9cd3 e9bc 2db5 bebe
00000030: 4fa3 043f e29a 193e e7ce 93be 1932 003f
00000040: d04b 48be 86d8 1bbf aa7e 56be dbc7 96be
00000050: cfc4 093f 3689 78be d01f fe3d a0d0 f43c
00000060: a7a5 1b3f 6d1e 0cbf 302d a23e a12c 53bd
00000070: 7c81 153f 5fd0 66be cad7 073f 86d8 60be
00000080: 94b9 cfbe 4269 683e 55f6 023e bf9a 053f
00000090: 5e81 a43e 93a5 4dbe 9bf2 27be 22ee 70be
000000a0: 5d66 cc3d cd30 88be 520c 82be 3793 54be
000000b0: 9ae0 f83e 03cf 693e ed15 01bf 70ab 383d
000000c0: a8d3 8d3d 194b d5bd b2a9 41be 10c1 ba3e
000000d0: 7e79 babe a497 143f bb55 823e c90a a6bc
000000e0: 185d 80be 9917 4b3e 24b0 c6be 7b02 b33e
000000f0: 5888 9e3e 664f 6abe f29e 6ebe 3fd3 4f3d
00000100: e432 c1be 49d6 03bf 3994 f3be 0b3f 95be
00000110: 91c5 40bd f021 a83e c3d5 abbe eb86 ed3e
00000120: 17ea 073f c9ce d33e e830 54bd 4822 0dbf
00000130: eb70 8abd cc8b 033f 8200 833e 664e 32bd
00000140: df6e fdbe d64d c33e b6c9 0e3f be92 803d
00000150: f0f2 2cbe 0743 9fbe 9a07 eb3e da50 533e
00000160: d871 0f3f cf5f 6cbe 582a 143f 24d8 f3be
00000170: a66d edbe a7e5 003e 71a6 063f 8521 fa3e
00000180: 1576 db3e 612c b0be a324 2e3e 048f 67be
00000190: f87e dfbe 8f39 253e 7f22 a7bd 8bf0 e23d
000001a0: 679d 50be 37ee 043f 41e5 273f 332d b03e
000001b0: 33cb 0c3f 97b5 0d3f 6dc9 a53d 717a 30be
000001c0: c736 1e3e 6096 34bf fa76 7d3e 8371 afbe
000001d0: 5ce6 9cbe 611f 213f 6b23 43bc f3b2 59be
000001e0: 3e1b 233e d749 be3e 2d77 e83e 9554 cc3e
000001f0: ef3d c53e bb23 15bf 2a91 a73e 9a89 e7be
-0.44178256 0.34993377 0.0722421 -0.31310076 -0.18931791 -0.359181 -0.26999786 0.6291261
0.4241209 -0.117829315 -0.028543286 -0.372476 0.5181169 0.1500049 -0.2886879 0.5007644
-0.1956017 -0.60877264 -0.20946756 -0.29449353 0.5381593 -0.24271092 0.124084115 0.029884636
0.6079964 -0.54733926 0.316751 -0.051556233 0.584007 -0.22540425 0.5306364 -0.21957597
-0.40571272 0.22696403 0.1278928 0.5218925 0.3212995 -0.20082693 -0.1640114 -0.2352834
0.09980462 -0.26599732 -0.25400025 -0.20759283 0.48608857 0.22832875 -0.5042408 0.04508537
0.06925136 -0.10414714 -0.1891239 0.3647542 -0.36420816 0.58043885 0.25456032 -0.020268815
-0.25071025 0.1983322 -0.3880626 0.3496283 0.30963397 -0.2288185 -0.2330282 0.05073857
-0.3773414 -0.5149885 -0.47574022 -0.2914966 -0.047063414 0.32838392 -0.33561525 0.46391997
0.5309157 0.41368702 -0.051804453 -0.55130434 -0.06759819 0.5138519 0.25586325 -0.043531798
-0.4949865 0.38145322 0.55776536 0.06277989 -0.16889548 -0.31105825 0.45904237 0.20636311
0.56033087 -0.23083423 0.5787711 -0.4762584 -0.46372718 0.12587605 0.5259772 0.48853698
0.42863527 -0.34408858 0.17006163 -0.2261315 -0.43651557 0.16135238 -0.081608765 0.11081036
-0.20372544 0.51925987 0.6558419 0.34409484 0.5499756 0.5535521 0.080950595 -0.17234208
0.15450583 -0.70541954 0.24752417 -0.3426629 -0.306445 0.62938505 -0.0119103 -0.2125967
0.15928361 0.3716571 0.45403424 0.3990828 0.38523814 -0.58257645 0.3272794 -0.4522217

fc2.weight f4 [128, 128]
00000000: e598 66bf 0de2 943e 5d83 82bd d32b 2b3e
00000010: d762 28bf fb0c 89bd 7cdb 03bf 4fa1 fa3d
00000020: d2dc 643e e329 97be a8fb e9bd 7081 ae3c
00000030: e4f1 a8bd 687f 223e dc98 d4be 0c6a 033e
00000040: 70c1 e63e 0865 143e 367f d5bd 3418 92be
00000050: 200c a5bc e41c 07be c02b d33d de29 f23d
00000060: 9f1f e73c b2da b63d 1524 73be 2f0c 02be
00000070: e534 153d 3115 24bf 259d 233e 8718 683e
00000080: 6654 edbb e2db d2bd d1f0 07bd 8c64 71be
00000090: c937 06bd e671 193e 410e 823e e1a6 3fbf
000000a0: 921c d6bc 7caa 4dbf 263a b03d 9984 433e
000000b0: c6c5 893d c1a9 b7bd cede b43d cfe3 41be
000000c0: 081c 8f3e 943c 7c3e 3c5c bb3e dd98 363d
000000d0: bf78 813d a04a 6e3e 0cee 833e 20bf 4f3f
000000e0: 7baf 493f d150 6d3a cd21 e6be b58b 323d
000000f0: 7ea5 1d3d aab0 cfbe 16f4 203e 78cc 293e
00000100: dc6d 4a3e 0832 9abe 25da 6e3d 9f02 91be
00000110: 3b20 48be 3d60 5b3e 62c4 b8bd b91c 293d
00000120: 79e1 0d3e d3e1 063e 4fa6 4b3e e268 ad3e
00000130: 3038 753d 3d95 b93d 7437 5d3d c930 5cbd
00000140: 7e57 57be f672 22be e5d8 893c fe03 3abd
00000150: 1cf4 dbbd df34 16be efe1 cb3c ecea d4bc
00000160: 86f1 0d3e 1598 f3ba 1de4 d13d 19ae 043e
00000170: 3873 2bbe 01fb 593e 2d3d 2b3e f079 033e
00000180: 0a54 c83d b63a 1fbf d3aa 5fbd 1048 3a3f
00000190: ab21 c7be b4b5 853e ced5 8f3e 31fa 403e
000001a0: ecb2 b6be 0b17 053e f0e4 a13d 80e1 e93d
000001b0: 1d07 f53d 47bb 103d 01ba 6c3c c00f c7be
000001c0: 54a3 003e d2f9 78be 2952 f4bd 5a90 283d
000001d0: 79d8 95bc 8082 0d3e c612 09be 848f 4dbf
000001e0: 0b86 debd ec44 f7bd d4ee 4d3e ca86 d0bd
000001f0: df8d 7a3e dd4d a73d 91c5 783d 2151 5c3e
00000200: a53c 8a3e 96c0 9d3d ae7f b43d 61ee d23c
00000210: 5e2c a6bc 47c2 873c e0c0 2a3d 6e24 e43c
00000220: 24d6 ac3d 56dd e23d 75d2 d53d 4e9a be3d
00000230: dc16 76bd ca52 f9bc 6311 e33e 44fc c7be
00000240: 080c 433c c119 a2bd b17e c43e 7f38 b6be
00000250: 740f 8abc eb60 2a3d d95d 473e 7188 cbbe
00000260: 44ff cdbd 277b 423e 44f9 0ebe c05a 873c
00000270: 777c 28bf 5ef7 3b3c cd7d 13be c248 943d
00000280: 3e91 053e 8fb3 05be 788f 763d 7e62 15be
00000290: fb69 f1be a719 873e c739 17bf 6d40 de3d
000002a0: 71d8 0f3e da8a 23bd 3ffa 95be c84e 8dbe
000002b0: f9e0 a63d 57aa d6bd 8e05 633c 12b0 97bd
000002c0: e415 773c ee6d c9bc c6ea 03bf e3a8 2b3e
000002d0: 7747 d0bd 8dd0 853e c0e4 893e 8445 96bc
000002e0: 1dbd 143e 1d48 ed3d 41dd ddbb 7fe3 853e
000002f0: b22f 143f 5868 163f 7dae 8c3e 4f7f 7cbd
00000300: 24ed 0d3e 181b 133d eed5 103e f73d 423e
00000310: 86a3 df3c cb42 bdbb 080c b0be 71e3 63be
00000320: b6dc 173e cd9c 883e 3f55 b13d e3c0 fd3d
00000330: 0b8b e93d d65b 133d 3672 5b3e fea0 28bc
00000340: baa8 85bd f543 c3bd 1583 023e 86c7 e6bd
00000350: 7b97 aa3d ed3d 17bf eee0 4c3c c553 d73c
00000360: 1865 813c 3612 cc3e 21b2 0fbf d975 f73d
00000370: 1f11 863d 0ea4 453d b27a b8be 8f2c 87bd
00000380: c65e 343e a972 0bbd 328d 1dbe 02ee 97bf
00000390: 713c 863e ce17 bf3d d00e d3bd eac7 a33d
000003a0: 35b5 0f3f a4af aabd 1917 32bd 10e9 ba3d
000003b0: 954a a0bc 99e2 e9bd f61a b2bd 6f30 8fbd
000003c0: 18cc 283e 15b1 d7bd 721e 193d 8dc5 b2be
000003d0: 3dc8 94be c3ed ff3c 1218 e33d 5f21 9c3e
000003e0: 6e95 5d3b 40b4 53be 6c37 76be 2387 443a
000003f0: 6d79 ddbe 6667 d5bd cd83 43bd dd51 9ebe
-0.9007705 0.29078713 -0.06372712 0.16715936 -0.6577582 -0.06691929 -0.5150678 0.122377984
0.22349861 -0.29524145 -0.11424953 0.021301955 -0.08249262 0.15868914 -0.41522872 0.12833422
0.45069456 0.14491665 -0.10424654 -0.2853409 -0.020147383 -0.13194615 0.10311079 0.11824392
0.02821332 0.089284316 -0.23744233 -0.1269996 0.036427397 -0.64094836 0.15977915 0.22665606
-0.007242727 -0.102958456 -0.033188645 -0.23573512 -0.032768045 0.14984855 0.254015 -0.7486401
-0.02613667 -0.80338264 0.08604841 0.1909355 0.067271754 -0.08967925 0.08831559 -0.18934558
0.27951074 0.24632484 0.36593807 0.044579376 0.063218586 0.23270655 0.25767553 0.8115101
0.78783387 0.0009052875 -0.44947663 0.043590266 0.038487904 -0.4056447 0.15718111 0.16581905
0.1976847 -0.30116296 0.058313508 -0.28322312 -0.19543545 0.2142343 -0.09021832 0.041287158
0.13855542 0.13172083 0.1988766 0.33869082 0.059868038 0.09061668 0.054007962 -0.053757463
-0.2102947 -0.15864167 0.016827056 -0.045413963 -0.107399195 -0.14668606 0.024888007 -0.025990926
0.13861665 -0.0018584753 0.10248587 0.12957038 -0.16743171 0.21287157 0.16722555 0.12839484
0.09781654 -0.6219896 -0.05460627 0.7276621 -0.38892874 0.2611519 0.28092808 0.1884544
-0.35683382 0.12997071 0.079049945 0.11419964 0.119642474 0.03533485 0.014448644 -0.38879204
0.12562305 -0.24314049 -0.11929733 0.04115329 -0.018291699 0.13819313 -0.13386068 -0.8029711
-0.108654104 -0.12073693 0.20110637 -0.10181959 0.24468182 0.08169148 0.06073529 0.21515323
0.26999393 0.077027485 0.088134155 0.025748434 -0.020284828 0.01657213 0.041687846 0.027849402
0.084392816 0.11077373 0.10440532 0.09306775 -0.060080394 -0.030434985 0.44349203 -0.3905965
0.011904724 -0.079150684 0.38377908 -0.35589978 -0.016853072 0.041596334 0.19469394 -0.39752534
-0.10058454 0.18992291 -0.13962275 0.016522765 -0.6581492 0.011472551 -0.14403458 0.0724044
0.13043687 -0.13056777 0.060195416 -0.14588353 -0.4715117 0.2638676 -0.59072536 0.10852132
0.1404741 -0.03992734 -0.29292485 -0.27599168 0.08148379 -0.104817085 0.013856305 -0.074066296
0.015080903 -0.024588551 -0.5153011 0.16763644 -0.10169881 0.26135674 0.26932335 -0.018343695
0.14525266 0.1158602 -0.0067707603 0.26150128 0.5788528 0.58752966 0.27476874 -0.06164485
0.13859993 0.03591451 0.14144108 0.1896895 0.027299654 -0.0057757846 -0.3438418 -0.22254731
0.14830288 0.2668213 0.086588375 0.12390306 0.114034735 0.035976253 0.21430287 -0.01029229
-0.06526323 -0.09534446 0.12745316 -0.11268525 0.08329674 -0.59078866 0.012504799 0.026285062
0.015795276 0.39857644 -0.5613118 0.120830245 0.06546234 0.048252158 -0.3603111 -0.06600296
0.17614278 -0.034044895 -0.15385893 -1.1869509 0.26217988 0.09330712 -0.1030556 0.07997115
0.56135875 -0.08334282 -0.04347906 0.091264844 -0.019566813 -0.11420173 -0.08696549 -0.0699166
0.16484106 -0.105318226 0.03738255 -0.34916344 -0.2905902 0.031241303 0.110885754 0.3049421
0.003381099 -0.20674229 -0.2404458 0.00074969436 -0.43256703 -0.10420112 -0.047733117 -0.30921832

fc2.bias f4 [128]
00000000: 7009 f33d 51a5 023e a442 c4bd 557a 233e
00000010: f204 78bd c475 a53b ff11 443d f5a3 883d
00000020: bd72 333e 242a c13d 172a 023e 8ee3 a13d
00000030: e10e 123e 2aa2 1a3e 0160 3a3d 4b79 ddbc
00000040: 0913 42bd d1dd 563e 30da 483e b925 01be
00000050: 1c52 243d ef4b 5b3e 3b55 763d 1443 e33d
00000060: 37be 7d3c 3e5f 8c3d 6216 4dbd 4d88 6fb8
00000070: d3a1 b4bd 941a fa3d 2cb6 a13d c704 73bd
00000080: 04e1 c33c 67eb 133c 72ee bebd 62e3 253e
00000090: 5edf bebd 8b40 8ebd c968 9fbd faeb 05bd
000000a0: 1885 f1bc 5a00 193e 34f8 f4bb 5216 a73d
000000b0: 5430 023d f85b cfbd 4ab7 8f3d 4949 613e
000000c0: 74d4 143e 661f a33d c57f 9cbc e5bd 6d3d
000000d0: 7b26 ac3d 9000 1ebe cb9c 793d 8b6a 0c3e
000000e0: c776 f83d 74f7 843d 9b5e 763c b76f 213e
000000f0: 723d 00bd 71a4 4fbc 12a5 113e 269b 113e
00000100: f7f5 813d 4750 ed3d 7d34 643c 432f e63c
00000110: 5360 743e 36fa 9a3d f81a 133e e6b9 b03d
00000120: 29ee 6b3e 2804 14be fae2 40bd 833b 643d
00000130: ddb6 eebc 586c 863d 6136 8c3d 5e5f ec3d
00000140: 65af 4f3d 4def 483d bbcd 743c acfa 18bd
00000150: ff66 663e dc1d b93a 4e78 073d ece1 2cbd
00000160: 2c7c b33d fe53 b73d f811 323e da82 5f3e
00000170: 717a 6a3e 63d2 0cbd beea 9a39 e0e1 c53d
00000180: 06be 4a3d 29c9 1a3e 0245 153e ea72 983d
00000190: 23b2 c3bd 2e97 da3d f01d 213e c4c3 633e
000001a0: 149a c03d f0ae 05bd 0c76 f43d e169 f83d
000001b0: dcab 653d 7b58 cd3d 774f 6fbd c920 23be
000001c0: 0c22 c43d 7a51 c63d c825 183e 6335 cebd
000001d0: 0cc7 9f3d 8ea0 073e 4bf5 c13d 324c 0d3c
000001e0: c298 3f3e 8d5a 0a3e 7e23 10bd 471b 12bb
000001f0: 0f6c 283d f750 4e3e 6cbc 433e 2c3e 093e
0.118670344 0.12758376 -0.09583023 0.15964635 -0.06055159 0.005049439 0.047868725 0.06671897
0.17524238 0.09431866 0.12711369 0.07904731 0.14263488 0.15100923 0.045501713 -0.027035376
-0.047381435 0.20983054 0.19614482 -0.12612046 0.040117368 0.21415685 0.060139876 0.110967785
0.015487245 0.068541035 -0.050070174 -5.710898e-05 -0.08819928 0.122121006 0.07896075 -0.059330728
0.023911007 0.009028292 -0.093228236 0.16200021 -0.09319948 -0.06945904 -0.07783658 -0.032695748
-0.02948241 0.1494154 -0.007475877 0.08158554 0.03178437 -0.101249635 0.070173815 0.22000612
0.1453417 0.07964973 -0.019103894 0.058042426 0.08405777 -0.15429902 0.060940545 0.13712518
0.1213203 0.064925104 0.015037204 0.15765272 -0.0313086 -0.012673483 0.14223126 0.1421934
0.06345742 0.11587577 0.01392853 0.028098708 0.2386487 0.07567255 0.14365757 0.08629207
0.2304007 -0.1445471 -0.04709146 0.055720817 -0.02913993 0.06563634 0.068463095 0.11541627
0.05070438 0.04905634 0.014941628 -0.037348434 0.22500227 0.0014123279 0.033073716 -0.042207643
0.08763918 0.08951567 0.17389667 0.2182726 0.2289827 -0.034380328 0.00029548066 0.09662223
0.049497627 0.15115799 0.14577106 0.07443793 -0.09555461 0.106733665 0.15734076 0.22242647
0.09404388 -0.032637537 0.11936578 0.1212957 0.0560721 0.10026642 -0.058425393 -0.15930475
0.095768064 0.09683509 0.14858162 -0.100687765 0.07801637 0.1324484 0.09470614 0.008624123
0.18710616 0.13511105 -0.035190098 -0.002229409 0.041118678 0.20148073 0.19114846 0.13402623

fc3.weight f4 [2, 128]
00000000: 468f 84be 7d8a f6be 00d2 9cbd 4047 133f
00000010: 0308 60bf 8d49 ae3e 4c9b 2abd 8c26 adbf
00000020: 0824 043f d22b f63e 3d0b 863c d73e be3e
00000030: 6cf0 a63e 50eb 8b3e 7b6b 113f 1362 a1bf
00000040: 7e99 bcbc df6e 283f 4667 f83e 0a24 6cbf
00000050: b799 4a3f b2e8 433f 7b22 293f a843 c03e
00000060: 8122 b33e e283 91bf f714 e63c 7651 503c
00000070: accc 92bf 8182 393f caff 003f ca61 98bd
00000080: dcfc 293c 3057 8cbd 2cda 9c3c 62a0 263f
00000090: 76df cebc 9973 e8bc 5899 683c f3be fa3c
000000a0: cf58 57bf 752f 053f 9d38 2dbf 4eef 193d
000000b0: b5ce 713e e5fb 25bf 3a19 bcbc 59e8 063f
000000c0: 66f2 093f 63dd 263f bcb2 a9bf 0e05 ad3e
000000d0: 40c5 97bd 6f10 4abf 71e1 4c3d 1b20 f73e
000000e0: ad36 da3e c54f 013f 885d 1cbb 91ff 313f
000000f0: 6686 fcbc 13ec dd3c 3cfc 113f 6cef bebe
00000100: 9ad6 b73e d03e e03d 7686 b2bc 6d40 0f3d
00000110: ed03 203f a83d 81bf 3610 a73e 59b1 643e
00000120: 7101 d3bc 342f 09bf 6ac4 a4bd 04c2 093f
00000130: dce9 a5bf e7ed b4bc 90e3 7c3e 919b a63e
00000140: 6d26 973e 0dcf 273f d50d 393d 93a6 ef3d
00000150: efc8 bd3e 084a 6fbd 218c 083f 0945 563d
00000160: 300d 9b3e 24e0 0b3f cd60 e53e 7c5f 283f
00000170: 5074 eb3e 55c2 a0bf 29a1 30be fcf1 6dbf
00000180: 5524 45bb 5d94 eb3e 74cd e23e 8d91 053f
00000190: 5b93 53bd 6a99 9dbf da22 1b3f 6376 033f
000001a0: 1519 823e b98b f3be 27e6 823d 78d0 f03e
000001b0: bb46 1c3f d135 f13e f9de 633d 1595 a7bf
000001c0: 2970 e23e 06f8 f53e cfe9 bd3e ee1c d5bf
000001d0: a05c 033f 4881 003f c078 a83e c565 b83e
000001e0: bc9c 063f 3f61 39bf 465d 94bf c122 c33e
000001f0: 78fe 2fbd 72f0 163f 9484 fd3e acdd d43e
00000200: 250c d33e 6337 913e 658e 8ebd 0135 923e
00000210: db47 92bf 16a1 843e 8ce2 063d d705 99be
00000220: 2e8e 2e3f 36d1 9c3e 0e87 1f3f 0e78 a53e
00000230: 5e42 a03e 8027 91bf 7f6a 823e d530 b5bd
00000240: 7841 a53c 480b 133f 1fbc e73e c104 8fbf
00000250: 3182 233e a11b e93e a772 ee3e 5087 1c3e
00000260: 876d 5e3e 43cd b4bd 6170 19bf d417 923c
00000270: 4600 9cbf 0f38 0c3f d705 a23e 2f41 98bc
00000280: 8fcf 22bd 966c d73c 4841 7abd 4298 233f
00000290: 321a 0bbd 76fa 74bd 12e0 86bd 77c0 f0bc
000002a0: 1891 b0bf f979 123f 433d 03bf 659a e33b
000002b0: fe4d d7be 5c31 70bf 9e94 343c 02d7 2b3f
000002c0: 7e5b 153f 64e7 203f 7f21 dfbf cd82 513e
000002d0: 8154 393f a87c 8abf c4f5 52be 29fd 5a3d
000002e0: eba4 0d3f 5c80 693e 061e 46bd 4188 123f
000002f0: 3e69 4abd e655 55bd d841 753e 4cf7 a93e
00000300: 5c46 2b3f e2ff 523f 34f6 913d 7b53 a1bd
00000310: 315e 0b3f 89dc b0bd da86 4d3e 1a3f 3d3f
00000320: bd88 6cbf 9a7c 5bbf 28a3 003d 36a7 de3e
00000330: 6769 283e 505a 8fbd 9ac8 c73e 5587 7f3e
00000340: 9e62 083f 1b6c cfbd 382c 923d a0cc dbbe
00000350: 44f6 3e3f 1c57 7b3d ce64 9a3e 04d1 f0bc
00000360: 86fd 263e 231e f43e a1f0 003f 9329 063f
00000370: c3ac 323f bfe9 74bf ef90 1fbf 9ba3 b1bf
00000380: 90ae a0bd 5bd1 ec3e c0f4 ef3e 96cf a33e
00000390: 6cab f8bc 1c15 25bf cf3d 113f c686 a13e
000003a0: 16be 393f 6272 c2bf 134f 563f 4688 d13e
000003b0: 9ea0 263f db05 c53e 9ac1 33be db47 93bf
000003c0: 881d ad3e 6689 b43e 6123 173f 9dd3 68bf
000003d0: 286b 323f 365d 2c3f 5b72 9c3e e81b cb3e
000003e0: ec54 ba3e 598e 873e 5988 9ebd f5b4 903e
000003f0: fe7a bcbc ed08 183f df61 9e3e 7d43 0d3f
-0.2589056 -0.48152533 -0.07657242 0.57530594 -0.87512225 0.3404049 -0.04165201 -1.3527389
0.5161748 0.48080307 0.01636278 0.37157318 0.32605302 0.27327967 0.5680463 -1.2608055
-0.02302241 0.65794176 0.4851629 -0.9224249 0.791408 0.7652694 0.6606824 0.37551618
0.34987262 -1.1368372 0.028086169 0.012714734 -1.1468711 0.7246476 0.50390303 -0.07440527
0.010375228 -0.06852567 0.019147001 0.65088475 -0.025253039 -0.028375434 0.014196716 0.03060863
-0.84119886 0.5202554 -0.6766451 0.037581734 0.23614009 -0.64837486 -0.022961248 0.52698284
0.53885496 0.6518156 -1.325767 0.3379292 -0.07410669 -0.78931326 0.050019685 0.48266682
0.4261984 0.50512344 -0.002385946 0.6953059 -0.030825805 0.027090108 0.57025504 -0.3729204
0.35905915 0.109494805 -0.021792632 0.03497355 0.6250599 -1.0096941 0.32629555 0.22333278
-0.025757523 -0.5358765 -0.080452755 0.5381167 -1.2961993 -0.022086097 0.24696183 0.32540563
0.29521504 0.6555031 0.045179207 0.117016934 0.37067363 -0.05842021 0.5333882 0.05231193
0.302835 0.54638886 0.44800416 0.657707 0.45987177 -1.2559305 -0.17248978 -0.92947364
-0.003008147 0.4601163 0.44297373 0.5217522 -0.0516542 -1.2312443 0.60600054 0.5135252
0.2540976 -0.47567537 0.06391554 0.4703405 0.61045426 0.4711137 0.055632565 -1.3092371
0.44226196 0.4804079 0.37092444 -1.6649454 0.5131321 0.5019727 0.32904625 0.36015144
0.5258291 -0.7241401 -1.1590965 0.38112453 -0.04296729 0.5896064 0.49515212 0.41575372
0.41220203 0.2836257 -0.06960753 0.28556064 -1.1428179 0.2590415 0.032930896 -0.29887268
0.681857 0.30628365 0.6231545 0.32318157 0.31300634 -1.134018 0.25471875 -0.088472046
0.02017282 0.5743909 0.45260713 -1.1173326 0.15967633 0.45528892 0.46571848 0.15285993
0.21721469 -0.08828213 -0.599371 0.017833628 -1.2187583 0.5477304 0.3164508 -0.01858577
-0.039748725 0.026296895 -0.061097413 0.639042 -0.03396053 -0.05980917 -0.06585707 -0.02938865
-1.3794279 0.57217366 -0.5126535 0.0069458955 -0.4205169 -0.93825316 0.011021761 0.6712495
0.5834273 0.62853074 -1.7432097 0.20460053 0.7239457 -1.0819292 -0.20601565 0.05346409
0.5532977 0.22802871 -0.048368476 0.57239157 -0.049416773 -0.052083872 0.23950899 0.33196485
0.66904235 0.82421696 0.07127038 -0.07877251 0.544406 -0.08635814 0.20070973 0.7392441
-0.92396146 -0.85737 0.031405598 0.43486947 0.16446458 -0.069996476 0.39020234 0.24953969
0.5327548 -0.10128041 0.0713734 -0.42929554 0.7459452 0.06136237 0.30155033 -0.029396541
0.16307649 0.47679242 0.5036717 0.5240719 0.69794863 -0.9566917 -0.62330526 -1.3878053
-0.07845795 0.46253476 0.46866417 0.31994313 -0.030355178 -0.64485335 0.5673494 0.31548136
0.72555673 -1.5191157 0.8371441 0.4092428 0.6508883 0.3848103 -0.17554322 -1.1506304
0.33811593 0.35261077 0.5903836 -0.90947896 0.6969476 0.6732973 0.30555996 0.39669728
0.36392915 0.2647579 -0.0774085 0.2826306 -0.023007866 0.5938862 0.30934045 0.55181104

fc3.bias f4 [2]
00000000: 0f81 bd3d cbdc d43d
0.092531316 0.103936754
