weights/tuning/20000steps_4agents_32batch_5000cap_0.001lr_1decay/run_6.pth (torch, 72253 bytes, 6 tensors)

fc1.weight f4 [128, 4]
00000000: fe0b d73e f73a a2be e8ab dc3d 13c2 77be
00000010: 6d18 11bf f1c6 923e 9966 3e3f 8719 b13b
00000020: fc80 9abe d590 c83e c2d1 263f f01e 02bf
00000030: 57bf 1d3f eb89 d53e e3a1 06bf 87ed a83e
00000040: bfbb 003f 9760 b5bc 9169 d2bc fee2 85bd
00000050: 61e8 c83e 45aa cdbe 7d43 9fbe e0ff 7b3e
00000060: 6dce 763e 6166 88be 600c 03bf d0a3 18be
00000070: eca0 b73e cf8c 9cbe caed 0fbf 00c2 bf3e
00000080: 055a 283c cbc8 2ebd 0a46 b9be f5ae aabe
00000090: e89a 573e e27d d1be fa1b a43d cacf 5bbe
000000a0: 9633 6b3c a444 31be 4777 ccbe cb64 253e
000000b0: 5ae6 073f 1466 9f3d 52c4 bbbf ed35 6fbe
000000c0: 0b35 943e 1eb1 4abe e5ff c63f 5244 623d
000000d0: 96a0 be3e 34ab 8bbe 90b6 663f d841 acbe
000000e0: c6a7 f0be f421 913e 0b96 e43e 636d 4abd
000000f0: bba0 363e d862 a7be d73f c83f 0cfd 953c
00000100: 1e6e a23d cbb1 9e3d 66a7 3c3f 7fe8 2ebf
00000110: 9bf7 b53d 3e76 74bd f942 09bf 5942 cebe
00000120: 3755 03bf a7ce 27be 6cdf a5bd 5092 6ebe
00000130: 1999 3d3e ca9d 0c3e bdf2 a03e 7b7d a03e
00000140: f9fc 3dbe 5310 6a3e f7c5 47bf 6cc9 283f
00000150: d4cc 583e ed05 fcbe 5613 ac3f cc3a df3c
00000160: 1514 9d3d 571d 17be 9485 8abf 54c9 6e3d
00000170: ace4 b4be 9d56 173d b86b 733f 5974 53be
00000180: 0f0b a73e dd0e 9a3c c48c b63e 26ea a4be
00000190: 13b2 173f 6305 2fbe 530b 573e 2588 c83e
000001a0: 3d6e babd f294 2c3e 26c9 853f fab5 89be
000001b0: 6982 fa3c 272c 28be 0297 f2be 6078 a83e
000001c0: dbb8 823e ee2b 32be cdf2 59bf 87d5 7e3e
000001d0: 4435 ddbe 62d1 ce3e 8209 4d3f 6dff e4be
000001e0: ab0c 49bd cdc2 3dbd 3a47 db3e d27c 133d
000001f0: 3ce5 f1be 187a 433e bcb4 4abd 38c5 8d3c
00000200: 1d81 f7be b371 75be 45a2 b13f 985d 393d
00000210: 4fad a0be 549d bebe 317c 223f 8879 913e
00000220: 3648 99bc 797d 923d d6fe 633f bfab ce3d
00000230: 6035 f13e 4d94 97bc 8443 09bf 26b1 06bf
00000240: 023f e53d 34fd 663e 169f b0be 5d89 053f
00000250: 56a9 fc3e dffb a0be 13f5 50be 6940 2ebf
00000260: 560a c13e a079 733e 40ed 57bd 021e 34be
00000270: 9303 a23e 829f a6be 1bca 06bc ff6c 9abe
00000280: 42e3 213e be82 6f3e 1ee2 7abf 13e1 f13c
00000290: 1a07 293f bbc5 84be 4b07 1a3e 45b1 1e3d
000002a0: 6bdf b0be a62c 003f 8d1d ce3e a86e e03e
000002b0: 9e24 b43e dea7 5b3e 7ca3 9f3f a59d 8e3d
000002c0: 40ba b8be a1c3 0b3f 0c35 9b3f f318 ed3d
000002d0: 5f30 cd3e 7f27 f4bb 5bb9 8dbf 9776 06bf
000002e0: b325 2dbe 793e f4bd 0458 62bf 6259 c73e
000002f0: 3b17 b73e dcc7 07bf 7659 a0bf a51a 33be
00000300: bbc9 1f3e b190 85be a20f 2dbf b046 84be
00000310: 2559 e5bd 5f41 8ebd 73ee 80be 04a1 863e
00000320: 97e3 06bd 443c 7b3e 5835 acbf e243 f83c
00000330: 8106 6b3e 7ba1 91be e048 f3bf e74d 03bf
00000340: c8cc 14bf b515 363e 110c 993f 6504 fdbe
00000350: eda4 303e 9a91 1a3e a9d5 183e d914 8f3d
00000360: 0ed5 80be 6911 8cbe 9b9e a43e addf ccbe
00000370: 5340 4fbe e2e9 cb3c a046 753f 65cf 393e
00000380: bb7b 8abe 12db 003d 11bf ca3f 1f34 b43e
00000390: 98e9 febe d226 f03e e437 4f3f 6fbb 723d
000003a0: 5193 543d 3855 1dbc 4460 1a3f 0b30 f2be
000003b0: 47ea 8d3e 9636 3dbf f806 5e3f f2ea a6be
000003c0: 5e7d ba3e dbb8 413d 9bf7 2dbf 8f91 0ebe
000003d0: 414a ce3d c02b c4be b3b6 043f 5ab3 07bf
000003e0: 188c 953e 0a30 153e de15 ad3f bba4 ad3d
000003f0: e126 b6be d788 90be 69fe 2ebf 7e0d c6be
0.42001337 -0.31685612 0.10774976 -0.24195127 -0.56677896 0.28667405 0.743753 0.0054046544
-0.30176532 0.39172998 0.65163815 -0.50828457 0.61620086 0.41706786 -0.5259077 0.3299372
0.5028648 -0.022140784 -0.025685104 -0.06537436 0.3923979 -0.40168968 -0.31106177 0.24609327
0.24102183 -0.2664061 -0.5119076 -0.1490624 0.3586496 -0.30576178 -0.5622221 0.37452698
0.010275369 -0.04267196 -0.36186248 -0.33336607 0.21055186 -0.40916353 0.080131486 -0.21465984
0.014355561 -0.1731134 -0.3993475 0.1615173 0.53085864 0.07783142 -1.4669287 -0.23360415
0.2894672 -0.19794127 1.5546843 0.055240937 0.37231892 -0.27279055 0.9012232 -0.33643985
-0.47003 0.28346217 0.44645724 -0.049420726 0.17834751 -0.326926 1.5644482 0.018309139
0.079311594 0.07748755 0.7369293 -0.6832351 0.088851176 -0.059683077 -0.5361782 -0.40284994
-0.513019 -0.16387425 -0.08099255 -0.23298001 0.18515433 0.13732067 0.31435195 0.31345734
-0.18553533 0.2285779 -0.78036445 0.65932345 0.21171886 -0.4922327 1.3443401 0.027249716
0.07669846 -0.14757286 -1.0822015 0.05829747 -0.35330713 0.036947835 0.9508624 -0.20649852
0.32625625 0.018805915 0.3565427 -0.3220989 0.59256095 -0.17091899 0.21000414 0.3916637
-0.091030575 0.16853693 1.0452011 -0.2689665 0.030579763 -0.16423093 -0.47380835 0.3290434
0.2553166 -0.1739957 -0.8513611 0.24886142 -0.432047 0.4039412 0.8009263 -0.44726124
-0.049084347 -0.046328355 0.4282778 0.03600771 -0.47245204 0.19089544 -0.049488768 0.017305955
-0.48340693 -0.23969154 1.3877646 0.045255274 -0.31382224 -0.37229407 0.6347075 0.28413033
-0.01871119 0.07152838 0.89060724 0.10091352 0.47111034 -0.018503333 -0.53618646 -0.5261406
0.111936584 0.22557527 -0.34496373 0.52162725 0.49347943 -0.31442162 -0.20405988 -0.6806703
0.37703198 0.23776865 -0.052716494 -0.17589572 0.31643352 -0.3254357 -0.008226897 -0.30161282
0.15809348 0.23389718 -0.9800128 0.029526269 0.6602646 -0.25932106 0.15041845 0.038743276
-0.34545454 0.5006813 0.4025692 0.43834424 0.35184187 0.21450755 1.2471766 0.06963662
-0.36079597 0.5459538 1.2125564 0.11577024 0.40075967 -0.0074509974 -1.1072191 -0.52524704
-0.16908912 -0.11925978 -0.8841555 0.3893538 0.3575991 -0.53039336 -1.2527301 -0.17490633
0.15604298 -0.26086953 -0.6760198 -0.2583518 -0.111986436 -0.06946062 -0.25181922 0.2629472
-0.03293189 0.24534708 -1.3453779 0.030305807 0.229517 -0.28443512 -1.9006615 -0.51290745
-0.5812497 0.17781718 1.1956807 -0.49417415 0.17250414 0.15094605 0.14925255 0.06986398
-0.25162548 -0.27357033 0.32152256 -0.400144 -0.20239381 0.024891797 0.9581089 0.18145521
-0.27047524 0.03145892 1.5839559 0.35196015 -0.49787593 0.46904618 0.8094466 0.05926078
0.051898304 -0.009602837 0.6030314 -0.4730228 0.27717802 -0.73911417 0.86729383 -0.32601124
0.36423773 0.047295433 -0.6795594 -0.13922714 0.100727566 -0.3831463 0.51841277 -0.53008044
0.29208446 0.14569107 1.3522298 0.084786855 -0.35576537 -0.282294 -0.6835695 -0.3868217

fc1.bias f4 [128]
00000000: acef 103f e111 dabe 810b 733e 1e3b 9c3d
00000010: d34b a73e a895 993e 6e94 d43e 24e7 a43e
00000020: d874 ae3e 943a b53d a407 f63e 0ee4 0bbf
00000030: 7930 c5be 67fb 3d3e 85bc f03e eeb5 4dbe
00000040: 035e cbbe 650f e13e 3142 0a3f 9e27 27bf
00000050: 5164 273e 22fe 60be ae3a 14bd 5e4c f0bd
00000060: 8f27 3fbe bcd6 df3e 0701 a8bd 87fa ab3e
00000070: 49f6 a83e 2bf0 c9be 2439 da3e f713 15bd
00000080: 29f3 78be 685e 1abf 48b8 003e affa a7be
00000090: f384 c4bd bd7d 4abe 9423 e1be 10d6 0dbf
000000a0: 2668 0ebf 25fa b5be 2b01 d83e 8aec 88be
000000b0: cb71 95bd 9003 0abf 1213 9b3d c40f bbbe
000000c0: 8808 163f c898 113f c191 98be 3de9 9abe
000000d0: 86f3 acbd ef9a a23e 3874 ae3e 03ed 8dbe
000000e0: a487 cfbe 62c3 0d3f 30b6 8cbe 2094 5cbe
000000f0: 5585 e83e 4bb9 ac3d 6f0f 40bd 525b c0be
00000100: 7d8c 8c3d c8af e1bd 8d44 b63e 1123 3ebd
00000110: 90c8 fc3e 6a1d 40bd 519a 713e 87d4 65bd
00000120: 895a 2cbf c841 e7be 8ebc b4be 5421 12be
00000130: 2728 843d 5524 9dbd accd a5be 6edd 053e
00000140: 5e1c 093f 7e49 f1be b174 e8be 1e4e ee3e
00000150: 2292 f4be 3106 d3be 07d6 fdbe f5da 25bf
00000160: 2230 a1be cb35 df3e 4004 ff3e 4ee1 ca3e
00000170: 2b06 c23d 7ce4 163f f5df f53e 301d 10bf
00000180: fb3d 89be d20b 35be 9590 003f 1b7a 72be
00000190: 70c3 223d 2a35 aebe 4159 c2be 53ed 453d
000001a0: 2083 013e bc62 f9bd 0053 17bf 9e71 cebe
000001b0: 45e0 a8be 74cc 66be 37d5 01bf c596 923e
000001c0: d347 09be a3be 02be 2cde dfbc f647 05bf
000001d0: 93bf 54be 8fd3 26bf 7a8d 903e 86de d53d
000001e0: 9d0f 4b3e 54d7 babe 4e98 893e 7887 bbbd
000001f0: f779 e7be e63a 0abf 430b ce3e fe69 d3bd
0.5661571 -0.42591766 0.23734857 0.07628463 0.32675037 0.2999699 0.41519493 0.32207596
0.3407352 0.088490635 0.48052704 -0.5464486 -0.38513544 0.18552934 0.4701883 -0.20088932
-0.39720163 0.43957058 0.5400725 -0.65294826 0.16346861 -0.21971944 -0.036188774 -0.11733316
-0.18667434 0.43718517 -0.08203321 0.33589575 0.330004 -0.39441046 0.4262172 -0.036395993
-0.24311508 -0.603003 0.12570298 -0.32808444 -0.095956706 -0.19774528 -0.43972456 -0.5540476
-0.5562767 -0.35542408 0.4218839 -0.26742965 -0.07297095 -0.53911686 0.07571997 -0.36535466
0.5860677 0.5687375 -0.297987 -0.30256072 -0.08444886 0.3175883 0.34073043 -0.27719888
-0.40533173 0.55376256 -0.27482748 -0.2154088 0.45414224 0.08433779 -0.04688972 -0.37569672
0.068627335 -0.11019856 0.35599175 -0.04642016 0.49371767 -0.04690305 0.23594023 -0.056110885
-0.67325646 -0.45167375 -0.35300106 -0.14270526 0.06452971 -0.076729454 -0.32383478 0.1307275
0.5355891 -0.47126383 -0.45401528 0.46543974 -0.4776774 -0.4121566 -0.49577352 -0.64787227
-0.31482035 0.43595728 0.4980793 0.3962502 0.09473833 0.5894239 0.48022428 -0.56294537
-0.268051 -0.1768029 0.50220615 -0.23679392 0.039737165 -0.34024936 -0.3795872 0.048322033
0.12647676 -0.12177035 -0.5911102 -0.40321058 -0.32983604 -0.2253893 -0.50715965 0.28630653
-0.13406305 -0.12768035 -0.02732762 -0.5206293 -0.20776205 -0.6516656 0.28232938 0.104428336
0.19830175 -0.36492407 0.26874012 -0.09156698 -0.4521024 -0.5399612 0.40242967 -0.10322951

fc2.weight f4 [128, 128]
00000000: c74a 493e f125 9e3c 5cce a33d 9400 693e
00000010: 4822 213e dc78 023e 4a26 523d c328 da3d
00000020: 1ec6 a23d 8844 f63d c5cd 523e 5a73 23bf
00000030: f3fb 49bf 6535 ec3d 37e3 4c3e b7cd 41bf
00000040: 8881 07bf b38f f03d 30b7 183e d8f9 0bbf
00000050: f27d 8e3e 4b1a 9a3c ec38 2ebe 1494 1b3e
00000060: fbb7 32be 4905 573e d17c 69bd d111 ec3c
00000070: d75c b93c e930 eebd d872 d13d cb24 133c
00000080: 1afd 45be af3c fcbc 3016 233d 8991 d7be
00000090: 07bc 153e 1867 4a3e 2163 b0bc 38f5 5f3d
000000a0: 0217 e2be fae4 15be ad20 2d3e 6227 e5bd
000000b0: 22e9 39be 2b33 13bf 0da0 41bd c90e 94be
000000c0: e087 343e 221a 6b3e a562 a5be c73d 90bf
000000d0: e3d0 823d 0d2a 2c3d ce90 bf3c f297 1ebf
000000e0: 69ca 86bf 2cab 3d3e 5886 10bf 2f5a 933e
000000f0: 30d3 d83d 036b 133e afc7 30bd ca46 8fbe
00000100: a9b6 dd3d 7f0e 89bd d61d 223e 06b2 493e
00000110: d60a 113e d67b 36be fa61 943d 6859 b3be
00000120: 5742 03be d9e1 9abd cbbc 8fbb db89 3dbe
00000130: be0f 103e 2af8 87be 4f54 25be b9a7 723e
00000140: b03e 2d3d 802b 293e d8b9 18bf ca15 3a3e
00000150: e61b e8bd d9b0 5ebf f558 34be e995 11be
00000160: 161a 32bf 0b1a 3f3e 3cc3 bb3d 1960 f23d
00000170: a8a3 5bbd 99fa 613e d98e fa3d f8c5 07bf
00000180: 2b45 ccbc 8c4c 33bf 94f1 503e b696 fdbd
00000190: bb44 823e 0627 76bd e0b3 2bbf 48e0 de3e
000001a0: 19fd 873d 8fd1 b03e 5774 21be 430d 03bf
000001b0: 186e 003f e6a4 993d 0cc7 ec3c 18bf 2f3e
000001c0: 3b5c 58bf e50f 25be 2d83 f83d 636d babc
000001d0: fadf 5b3e 2cf7 753b 5453 913d 14e0 c0be
000001e0: 93f8 e93d d854 9abe 1f40 8a3e a551 d1be
000001f0: bbdc fcbe 00e2 f7be 9c6c 113e 6554 893e
00000200: 7ed0 99bd 833c 42bd 5fe8 b1bd 0f22 abbd
00000210: 9ee0 c5bd 478b d5bd 51f5 b73c 7a6a a43b
00000220: 6748 963c 1da3 f5bd 3678 643d fafd 173d
00000230: 1ccd c63d 7f01 4a3d 05cd cfbd eaf2 dfbc
00000240: 6429 b23d 082b 13bc 74b3 c8bd 8d92 75bd
00000250: 05cc 303d a855 9c3d 9781 5fbd 8616 103c
00000260: 4b16 f23a 3727 73bd e7b9 523d bce1 a2bd
00000270: 325e 3dbd a431 c43c cb9e 97bd ec08 a0bc
00000280: f2b5 7cbe ab4a b13a bf7a acbc 471b c83c
00000290: 89c5 2e3c 2dce 723d 1f8b 83bd e2ac 1cbd
000002a0: 8724 b93c af63 ae3d ac83 7ebb e83d b73c
000002b0: a2d6 6f3d 2cb4 7ebd cbc4 ce3c 7ce1 093d
000002c0: 2151 39bb b121 863d 64ae 393d fe15 293d
000002d0: 4019 aebd eba2 0abb ce78 37bd d735 293a
000002e0: ef6d 023e 3482 6d3d 129d 36bd 2a4d ae3c
000002f0: bda5 79bd 8a38 0bbb 4790 4dbc ddcb ccbd
00000300: ea99 9ebd eda9 12bd 8219 f63c cd8f 95bd
00000310: 5733 b0bd e1d8 6dbd 9f36 d9bd deb3 013d
00000320: d80a b33d 584a ffbc 3b8c b1bd 5073 fd3c
00000330: 0896 9abd dbb7 653d 4d12 e0bc 9a86 f8bb
00000340: e2c4 5ebd 2286 0f3c bb2b 46bd 8de5 313c
00000350: a6f0 523d a33c c23d 66d3 42bd 674d a43d
00000360: a18e ca3c dd93 95bc 6e38 83bc ba69 1f3d
00000370: 8ac6 d0bd 03e2 00bd 1946 d2bc 9e70 7d3b
00000380: 47ac 1d3d a8dd 87bd 64bb 9fbd 5457 5b3d
00000390: 31d8 eabb a400 903d a3a7 963c 89d4 743d
000003a0: 31f4 573d 6df0 8f3c 4f10 533d 9f9c 873d
000003b0: 3c87 8d3d 70c5 633c cbcd 03bb 33e0 c3bd
000003c0: 4cfb 583d 5a70 25bd 0213 7c3b 98e7 23bd
000003d0: 5633 ae3c d384 99bd 021f 803c 19c2 963d
000003e0: 2085 bebd 1f7c 8ebc a2e7 1a3c 37b3 993d
000003f0: bc98 a0bc d971 15bd b668 743d d9aa c7bd
0.19657432 0.019305201 0.07998344 0.22754127 0.15735734 0.12741417 0.051306047 0.10652306
0.07947944 0.1202479 0.20586307 -0.6384789 -0.7890007 0.11533622 0.2000855 -0.7570452
-0.52932024 0.117461585 0.1491363 -0.54678106 0.27830464 0.018811366 -0.17013901 0.15193206
-0.17452995 0.2099811 -0.0570038 0.02881709 0.022627277 -0.116304226 0.10226983 0.00898094
-0.19334832 -0.030790655 0.03981608 -0.42103222 0.14622508 0.1976589 -0.021531643 0.05467722
-0.4415818 -0.14638129 0.16906996 -0.11189152 -0.1815534 -0.5749995 -0.047271777 -0.2891753
0.17629957 0.22959188 -0.32301822 -1.1268853 0.06387498 0.04203229 0.023384478 -0.619506
-1.0530521 0.18522328 -0.5645499 0.28779742 0.10587156 0.1439629 -0.043159183 -0.27983695
0.10825855 -0.06692218 0.15831694 0.19696817 0.1416429 -0.17820677 0.0724525 -0.3502915
-0.12818275 -0.07562608 -0.0043865195 -0.18509619 0.14068505 -0.26556522 -0.16145442 0.23696794
0.04229611 0.165205 -0.59658575 0.18172374 -0.11333446 -0.869886 -0.1761206 -0.14217342
-0.69571054 0.18662278 0.091680974 0.118347354 -0.05362287 0.22068252 0.12234277 -0.5303645
-0.024935326 -0.70038676 0.20404655 -0.123822615 0.25443062 -0.06009581 -0.6707134 0.43530488
0.066400714 0.3453488 -0.15767036 -0.5119211 0.5016799 0.07502155 0.028903507 0.1716274
-0.8451573 -0.16119345 0.12134395 -0.022757238 0.21472159 0.003753136 0.07095972 -0.37670958
0.11424365 -0.30142856 0.27002046 -0.40882602 -0.49387154 -0.48414612 0.14201587 0.268222
-0.0751047 -0.04742099 -0.086868994 -0.083561055 -0.09661983 -0.10426956 0.022455843 0.005017576
0.018345071 -0.11994002 0.055778705 0.037107445 0.0970709 0.049317833 -0.10146526 -0.02733751
0.08699301 -0.008982427 -0.09799853 -0.059954215 0.04316332 0.07633525 -0.054566946 0.0087944325
0.0018469779 -0.05936357 0.05144682 -0.07953212 -0.04623241 0.023949452 -0.07403334 -0.019535504
-0.24678782 0.0013526281 -0.021054624 0.02442707 0.010667213 0.059278656 -0.064230196 -0.03825081
0.022600425 0.08515107 -0.0038835807 0.022368386 0.0585543 -0.062183544 0.025240323 0.033662304
-0.0028277116 0.06549395 0.045332327 0.04128074 -0.0850091 -0.0021154236 -0.044792943 0.0006454861
0.12737249 0.0579855 -0.044583388 0.021277029 -0.060949076 -0.0021243417 -0.012546605 -0.09999821
-0.077442005 -0.035806585 0.03004146 -0.073028184 -0.08603542 -0.05806816 -0.10606121 0.031665675
0.08742303 -0.03116338 -0.08669325 0.030938774 -0.075481474 0.05608354 -0.027352476 -0.007584405
-0.05438698 0.008760007 -0.04838155 0.010857952 0.05149903 0.09484222 -0.047564887 0.08022576
0.024726214 -0.018258983 -0.016018119 0.038919188 -0.10194118 -0.03146554 -0.02566819 0.0038671861
0.038494375 -0.066340744 -0.07799414 0.05355008 -0.0071668853 0.07031372 0.018390482 0.059773
0.052723113 0.017570699 0.051529225 0.0662167 0.069105595 0.013902053 -0.0020111676 -0.09564247
0.05297403 -0.04039035 0.0038463478 -0.040015787 0.021264713 -0.07496037 0.015639786 0.0736124
-0.09302735 -0.01739317 0.00945464 0.07504886 -0.01960408 -0.036485527 0.059670173 -0.097493835

fc2.bias f4 [128]
00000000: dc12 823e aaa9 d3bd 79ef 813e 6940 8d3d
00000010: e70b 323e 70ca b0bd c356 803e 434b 95bd
00000020: 599b 62bd cbac 8fbd 6bdc 423e 1490 593e
00000030: 67f2 933e 208f 98bd 0f32 a1bc e5a3 86bd
00000040: 2285 8f3e ad07 bbbd e1f5 dfbd 9170 913e
00000050: 3e9b 5b3e aa1c 7dbe 4d1b d83b f3b6 463d
00000060: e8b2 81bc 28fc 9a3d 6357 b8bd 9033 923e
00000070: d140 a63a 80fb 5d3e df10 aebd 0565 553e
00000080: 704d bdbd e0d3 4b3e 12f7 563d ad55 4f3e
00000090: 4077 dbbd 8de1 833d cc0c 9d3d f044 74bd
000000a0: 3ec9 613e 67f4 a0bb 1477 bbbd 7331 bdbc
000000b0: 390b 5c3e 7c59 7b3d 6486 65bd 3bb2 8a3d
000000c0: 4c0c 3b3e b42a dbbd 78a1 dbbc e0ae 863d
000000d0: be49 583e fab0 c6bd 49c4 873c c481 01bd
000000e0: 3614 7d3e d104 963c 95d5 963e 3f68 1cbd
000000f0: f32f 9cbd 83bc 903e c024 433e e2ad 023d
00000100: 9959 353e b3b8 993e bc4d 843e 953a 3f3e
00000110: 2112 d13d dff5 8a3e 8b13 643e f31d 733d
00000120: 4383 b83c 6c23 94bc c7fe 233d ba47 56bd
00000130: ad12 9dbd c646 373e 2b87 90bd ee68 7c3d
00000140: 1d60 cebd 2cc9 0b3e 464d 603e e301 5dbd
00000150: 9d0d fabd 841b 67bd b687 243d a780 c4bd
00000160: a1a3 8dbd adb2 f3ba af03 793e 4913 8a3e
00000170: 8db8 403e 951c 26bd b9a6 113d c904 2d3d
00000180: a6cc 59bd 0994 603e c0c1 183e 36b3 703e
00000190: 1735 d03d 5373 613e 8070 33bd fefb 133d
000001a0: 0fd8 e5bd 97c7 27bd 1c53 4a3e d004 4e3d
000001b0: 265b 82bd daa3 f63b fd87 8a3e 0dd3 b1bc
000001c0: 7c08 b2bc 3afa 7dbd 0ecd 413e 03e5 773e
000001d0: c841 033b 2455 22be 8313 4f3d 45f7 a13e
000001e0: 407f 9dbc 08f7 773e 27b4 91bd 0346 fc3c
000001f0: f270 e2bc 3569 e2bb 3bfc 81bd e1c3 bdbd
0.25405014 -0.10335095 0.25378016 0.06897051 0.17387353 -0.08632362 0.25066194 -0.07289746
-0.055323932 -0.070153795 0.19029395 0.21246368 0.28895876 -0.07449174 -0.01967719 -0.06574229
0.2803126 -0.091323234 -0.109355696 0.28406194 0.21445939 -0.24717966 0.0065950514 0.048514318
-0.01583238 0.07567626 -0.09001043 0.28554964 0.0012684112 0.21677971 -0.08499312 0.20839317
-0.09243286 0.19905043 0.05248172 0.20247526 -0.107161045 0.06439505 0.076684564 -0.059636056
0.22049424 -0.0049119475 -0.09153572 -0.023094868 0.21488656 0.061364636 -0.056036368 0.06772276
0.1826641 -0.10701504 -0.026810393 0.065763235 0.2112188 -0.09701724 0.016573088 -0.031617895
0.24714741 0.018312844 0.29459825 -0.038185354 -0.07626333 0.28268823 0.19056988 0.03190411
0.1770996 0.30023727 0.25840557 0.18674691 0.10208536 0.2714071 0.2227308 0.059354734
0.022523528 -0.018083297 0.040037896 -0.052314498 -0.07669578 0.17898092 -0.07057031 0.061623506
-0.10076926 0.1365096 0.21904477 -0.053956877 -0.12209628 -0.056422725 0.040168487 -0.09594851
-0.06915975 -0.0018592678 0.24317811 0.26967838 0.188204 -0.0405546 0.03555939 0.04224089
-0.053173684 0.21931471 0.1491766 0.23505864 0.10166376 0.22016649 -0.04380846 0.03612899
-0.112228505 -0.040961828 0.19758266 0.05029756 -0.063650414 0.007526857 0.27056876 -0.021707082
-0.021732561 -0.062006213 0.18925878 0.24208455 0.0020028222 -0.15852791 0.050555717 0.31633964
-0.019225717 0.24215329 -0.071144395 0.030795103 -0.027641747 -0.0069095143 -0.06346937 -0.092658766

fc3.weight f4 [2, 128]
00000000: 6071 9a3e db1e 20bc e7b5 763e ee5e d3bb
00000010: 89b6 d53e 521f 7c3c b5e6 2b3f ed7f 65bd
00000020: 39bd 643d 73e1 76bf 4c58 853e 4d1f 8e3e
00000030: f067 8e3e a443 2abf f641 74bd ad79 8c3f
00000040: 89ca dc3e 7bd2 92bd 41a0 31bc dbd3 983e
00000050: f3ca ee3e 56f2 c2bd a93a efbc 1611 38bd
00000060: c90e 5fbd b02d 823d 84ca 6dbd b1d6 993e
00000070: 2a8f 5a3f f5d0 943e 307b 8fbd dd84 d73e
00000080: 8a59 5dbd ef82 8e3e a8b4 5dbd 4a5d 683e
00000090: 0aa2 98bd ecaf cbbc 7049 d93c 6a29 13bd
000000a0: 91d9 953e 0e36 213c 53f6 cdbc 0650 7d3d
000000b0: 391c 093f ff21 68bd 0fac a93d df7c 963c
000000c0: 5e2e f53d 072c 813d a4d9 b9bb f20c 8cbd
000000d0: ebd9 603e da70 87bc 92e7 233a 3b8d 03bd
000000e0: 6e0d 633e 2345 79bd 8ec5 093f f242 a9bd
000000f0: 3805 823a f371 ad3e 8e38 c93e 8782 31bd
00000100: 3b2d 973e 0e9b 0f3f 7d69 bc3c 776a b83e
00000110: 44b4 1a3f aaf9 8c3e 64cf a13e e90e 493d
00000120: 6ff6 5dbc d874 5ebf 96ad 8abd 9419 c9bc
00000130: ed86 f4bb 30d9 043f 015c 043d c7a5 c13c
00000140: 6f18 85bc d792 c33e 7af2 943e 1818 ea3c
00000150: cee5 f0be fe93 21bf dec6 2cbf fa61 46bf
00000160: 741c 5bbd 9c98 473c d95f 983e 5cf0 c43e
00000170: 0762 bb3e 7e9e 0d3d bc16 773c 8eec 32bc
00000180: 9f4a 743d a867 473e 9e4f da3e e882 053e
00000190: f7f0 9c3e f963 ea3e 0224 113c 79f0 333c
000001a0: d45e 7abd 1506 2fbd 1c7c b33e 872b e4bb
000001b0: 08ca 9dbd b63b 2fbd 6517 9e3e 0fc9 79bc
000001c0: cb4c adbc 052d 333c 5fac e33e 76b0 ab3e
000001d0: f066 dfbc b3c1 34bd 3643 1e3e 97ac e73e
000001e0: 8aac 0abd c6e2 ef3e b2f8 69bd 9473 3c3d
000001f0: ee74 debe 9dd6 d93c fb1b 02bd c19e 9bbc
00000200: 251d ed3e aad2 b4bd a52d f33e 6156 23bd
00000210: c994 ee3e fc99 45bd 899d 2b3e cd9b 77bd
00000220: 1103 08bd 57b4 77bf 1520 c13e 65ee 503e
00000230: 9358 f13e 9932 39bf a920 663d b7be 273f
00000240: fb14 be3e afb5 00b8 3757 ddbc a5fc d53e
00000250: 2e6b ac3d 92eb 3e3e faad 3ebd 90d6 f4bb
00000260: a85a f2bb 9f63 9cbd c4b4 19bd 891a f63e
00000270: 7d8a eaba 113e 8e3e 4dda fa3a 35c0 193e
00000280: 3c3f ffba 4e13 ab3e 73c1 c23b 296a d33e
00000290: 9858 e63b a59b 9fbc 7a40 85bd 3ea3 11bd
000002a0: 12a4 f93e 8ffe 9cbc 83f4 49bd b7f5 1d3d
000002b0: f6a1 973e 2637 ccbc d0a5 8dbd e6ae d6bc
000002c0: 8849 c63e b2eb cebc 26e4 73bd 5ba3 7ebd
000002d0: c6fe 9f3e 11e0 c6bc 0502 703d b6eb 8dbc
000002e0: b9ca 063f 7f3e 9fbd 7afe 663e 9ef9 ac3c
000002f0: ebd2 2abd df49 e13e 0854 853e 4269 c33d
00000300: ba0e fc3e e33a ac3e 4623 073f 050a d83e
00000310: a888 3dbf f2ed a53e 3afa c93e 4d8c 4f3c
00000320: be7a b0bc c677 b03d 3f22 c6b9 07d9 403e
00000330: dd6c 2e3c 628e 883e a87a f4bc 46e6 cebc
00000340: c399 363a e6a7 a13e f214 ad3e 161c a2bc
00000350: 7c97 9f3e 6919 2bbf 1e3d 80bf 44c1 18bf
00000360: d5c0 37bd ac6d 64bd 3a13 663e 140b 693e
00000370: 283f c93e df78 1fbd e08c 79bd 9a65 71bd
00000380: 0316 563d 806a d33e aa45 873e ce7a b13e
00000390: 1ba3 813e f23b a43d 46b0 f7bc 7424 79bd
000003a0: d9f3 93bd c6e5 943c 9567 f43e 8c47 5e3d
000003b0: 1708 243d 4cc4 473d a674 933e c56c 8abd
000003c0: 61d8 febc 6e2f 283d 07aa c83e 3b70 bc3e
000003d0: 68aa c63c 1df1 9cbd 6d63 ebbe 5684 c13e
000003e0: 54fe d4bc add7 863e 8682 5b3c 09bb cbbc
000003f0: 7e7e 62bf 0b19 7cbd 2bf3 1dbc 9298 633d
0.30164623 -0.0097729815 0.24092828 -0.0064505255 0.41740826 0.015388327 0.67148906 -0.056030203
0.05584452 -0.9643776 0.26043928 0.27758256 0.27813673 -0.6650946 -0.059633218 1.0974633
0.43123272 -0.07169052 -0.01084143 0.29849133 0.46639213 -0.09518878 -0.029202776 -0.04493817
-0.05445746 0.063563704 -0.058054462 0.3004661 0.853747 0.29065672 -0.07005918 0.42093554
-0.05404047 0.2783427 -0.054127365 0.22691837 -0.074527815 -0.02486416 0.026524276 -0.035928167
0.29267552 0.009839548 -0.02514187 0.061843894 0.5355869 -0.056673046 0.08284771 0.01837009
0.119717345 0.06307226 -0.0056716967 -0.068384066 0.21958129 -0.016533304 0.0006252463 -0.03211711
0.22173092 -0.06085695 0.5381707 -0.08264722 0.0009919768 0.33876 0.3930096 -0.04333737
0.29526696 0.5609597 0.02299952 0.36018726 0.60431314 0.2753423 0.3160354 0.049086485
-0.013547524 -0.8689704 -0.0677139 -0.02454833 -0.0074623735 0.518939 0.032314304 0.02363862
-0.016247002 0.38197967 0.29091245 0.028575942 -0.47050327 -0.63116443 -0.6749095 -0.7749325
-0.053493932 0.012182381 0.29760626 0.3846463 0.36598226 0.034574978 0.015081104 -0.010920657
0.059641477 0.19473135 0.42638868 0.13038218 0.30652592 0.45779398 0.008858683 0.010982626
-0.06112559 -0.04273041 0.35055625 -0.0069631967 -0.0770455 -0.042781554 0.30877224 -0.01524569
-0.021154782 0.010936026 0.44467446 0.33533067 -0.027270764 -0.04413004 0.15455326 0.45248863
-0.033855952 0.46852702 -0.05712194 0.04600866 -0.43448585 0.026591593 -0.031764966 -0.018996598
0.46311298 -0.088292435 0.47495762 -0.0398773 0.4659789 -0.048242554 0.16759314 -0.060451318
-0.03320605 -0.9675955 0.3771979 0.2040344 0.4713789 -0.7234283 0.05618349 0.6552538
0.37125382 -3.0686784e-05 -0.027019126 0.41794315 0.084188804 0.1864455 -0.046552636 -0.007471867
-0.007396061 -0.07636189 -0.037525907 0.4806712 -0.0017894056 0.27781728 0.0019138545 0.15014727
-0.0019473801 0.33413166 0.005943471 0.4129193 0.007029604 -0.019483397 -0.065064386 -0.03555607
0.48757988 -0.019164352 -0.04930545 0.03856441 0.29615754 -0.02492864 -0.06916392 -0.026206445
0.38727975 -0.025258873 -0.05954375 -0.062167507 0.31249064 -0.024276765 0.058595676 -0.01732431
0.5265308 -0.07775592 0.22558013 0.02111512 -0.041705053 0.44001672 0.26040673 0.09541561
0.49229985 0.33638677 0.527882 0.42195144 -0.74036646 0.324081 0.3944872 0.012667728
-0.021542903 0.08616595 -0.00037791018 0.1883279 0.010646072 0.2667113 -0.029843643 -0.025256287
0.00069656613 0.3157341 0.33805043 -0.019788783 0.3117026 -0.6683565 -1.0018651 -0.596699
-0.044861633 -0.055768654 0.22468272 0.22758132 0.39305997 -0.03893363 -0.060925364 -0.058934785
0.052267086 0.4129219 0.26420337 0.34664005 0.25319752 0.08019246 -0.03023542 -0.06082578
-0.072242446 0.01817597 0.47735277 0.05426745 0.040046778 0.048771188 0.28799933 -0.067590274
-0.031109037 0.041060857 0.3919222 0.36804375 0.024251178 -0.07663176 -0.45974293 0.37796277
-0.02600018 0.26336423 0.013397818 -0.024869459 -0.8847426 -0.06154732 -0.009640495 0.055565424

fc3.bias f4 [2]
00000000: 6516 483e 138d 823e
0.19539793 0.25498256
