weights/tuning/20000steps_4agents_64batch_5000cap_0.0003lr_50decay/run_1.pth (torch, 72253 bytes, 6 tensors)

fc1.weight f4 [128, 4]
000000 de e0 f9 3e bc b4 a5 bd 73 8b 8f bf 6e 69 1e be
       0.48804373 -0.08091113 -1.1214432 -0.15469906
000010 e2 5a 18 3b 81 7e 03 be 95 22 61 bf 7b 51 e2 be
       0.002324753 -0.12841226 -0.87943393 -0.4420279
000020 f6 25 1c 3f 6e 1a cb 3e aa 15 f8 3e f6 23 a8 3e
       0.60995424 0.39668602 0.48454028 0.32839936
000030 ee 4a 7a be 54 9b 1a bf a3 59 23 3d e7 47 c9 be
       -0.24442646 -0.6039326 0.039880406 -0.3931267
000040 cb 9c eb 3e 41 2e 2e bd 35 ac 38 bf 0d d7 ca be
       0.4601806 -0.04252458 -0.7213777 -0.39617196
000050 42 2b d1 be 02 84 c5 3e 54 4a 1a 3f fa 69 a2 be
       -0.40853316 0.38577276 0.60269666 -0.3172148
000060 25 79 03 3e be 77 83 3e 29 8a 1c 3f 6c f2 a8 be
       0.12839182 0.25677294 0.61148316 -0.32997453
000070 c2 b4 de 3e a3 5e 8a 3d 4e fb 06 bf f8 c3 08 bf
       0.43497282 0.06756332 -0.5272721 -0.53424025
000080 8e d1 9b 3e 67 7d 10 bf b5 3f 2c bf b6 4c da be
       0.30433315 -0.5644135 -0.6728471 -0.4263665
000090 ad 92 fe 3d 89 b7 13 be 5c 20 5f bf 15 08 d4 be
       0.1243032 -0.14425482 -0.8715875 -0.41412416
0000a0 7b 7b 26 be a3 db 52 3e 55 c8 f1 3e 48 b3 cb 3e
       -0.16258042 0.20591597 0.47223154 0.39785218
0000b0 c6 e8 cb be bf 7e 06 3f 69 20 ec bd 9d a3 85 3b
       -0.3982603 0.5253715 -0.11529619 0.004078342
0000c0 04 ab 01 3e a7 88 1f 3e e8 74 97 be 06 0b 06 3f
       0.12662894 0.15579472 -0.2958138 0.5236057
0000d0 a4 2c e8 be 61 7f 59 3e 7e 19 82 bf 15 d6 a6 be
       -0.45346558 0.21239997 -1.016403 -0.32585207
0000e0 e3 cf 34 be e4 d5 da 3d cc b4 cf 3e c8 0e a1 3e
       -0.17657427 0.10685328 0.40567625 0.3145659
0000f0 eb 71 cf 3e 16 37 68 3d 2e 50 99 be a6 29 dc 3e
       0.405166 0.05669316 -0.29943985 0.43000525
000100 37 fb 13 bf 10 be ba be 7a 8e 8d 3e 4c 69 8c 3e
       -0.578052 -0.3647313 0.27647763 0.27424085
000110 2b 13 9c 3e f6 6a 1a bf 46 50 76 3d 37 27 02 be
       0.30483374 -0.6031946 0.06013515 -0.12710272
000120 ff c7 bd 3d 5e 1d 04 bf 5f f6 45 3f 8a 27 24 be
       0.09266662 -0.5160731 0.7732906 -0.16030708
000130 f0 5e 7d bd 59 e1 ae 3e df 53 23 be 41 bd ac be
       -0.061858118 0.34156302 -0.15949963 -0.3373814
000140 bc 07 15 bf 94 9c 60 3a 6b 6d 06 bf 0f 55 6a bd
       -0.58214927 0.0008568254 -0.5251071 -0.057210024
000150 52 2d da 3d 20 7a a1 be 8e 03 71 bf d2 54 67 3e
       0.106531754 -0.31538486 -0.9414605 0.2259095
000160 28 f2 97 3e ab 6a de bd 47 ce 33 bf d3 33 6d bd
       0.29676938 -0.10860189 -0.7023663 -0.05791075
000170 1c 59 bf 3d 51 72 8d bd 02 4d 9b be ae 0f c7 be
       0.09343168 -0.0690657 -0.3033219 -0.3887915
000180 0a dc da bd 29 55 f9 be ee 6b 39 3f 08 65 93 3e
       -0.106865 -0.48697785 0.7243031 0.28788018
000190 d7 43 e9 bc 96 f6 6c be c9 c6 5d be 9d e7 6c bc
       -0.028474731 -0.2314094 -0.21657862 -0.014459518
0001a0 48 1d 7c 3e 25 ec 5f be 3e 68 23 bf 7b cf 7d be
       0.24620545 -0.21867426 -0.63830936 -0.24786179
0001b0 2f 79 c0 3e 50 11 74 be df e7 03 3e 53 d0 1e bf
       0.37592456 -0.23834729 0.1288142 -0.6203663
0001c0 b0 fb 08 3f ba 3e f5 be 6a 8c 5b bf e2 75 ea be
       0.53509045 -0.4789942 -0.8576113 -0.45793062
0001d0 ce a3 37 3d 0d e3 21 bd cb 83 90 bf 39 37 72 3d
       0.04483395 -0.039523173 -1.129022 0.059134696
0001e0 e5 58 97 bd 05 5a b1 be ee 38 5b 3f 98 5e f3 be
       -0.07390002 -0.34638992 0.8563374 -0.47533107
0001f0 9a 63 9d 3e c7 37 bb 3e dd ae 61 3f 84 73 0d 3f
       0.30740052 0.36565992 0.88157445 0.5525439
000200 17 01 c3 be f2 c2 8a 3e 58 e6 5a bf 20 73 6e 3d
       -0.3808677 0.27101856 -0.85507727 0.05821526
000210 6e 3c 02 3e 68 1b a8 bc 6d 0d 57 bf 43 16 1c 3f
       0.12718365 -0.02052088 -0.8400486 0.6097147
000220 0d 8e ec bd 9b 44 d3 bd a1 88 c8 be 38 7c 1e be
       -0.115505315 -0.1031582 -0.3916674 -0.15477073
000230 e2 d2 4a 3e 5e 87 08 bf 12 b7 2b 3e ea c8 2d 3e
       0.19807008 -0.53331554 0.16769055 0.16971174
000240 11 50 09 be 95 d5 82 bd 2e 51 0f be 96 d9 cc bd
       -0.13409449 -0.06388394 -0.13995811 -0.10002439
000250 05 7d ba be 77 a5 bd 3e 93 a6 b5 3e 09 13 60 be
       -0.36423507 0.37040302 0.3547865 -0.21882261
000260 ce 6c ad be 15 e9 d0 3e 0f c1 79 3e ce fa 82 3e
       -0.33872074 0.40802827 0.24390052 0.25581974
000270 ce bf 03 bf 93 ae ed 3d fd 6c 17 bf 09 d0 06 bf
       -0.51464546 0.11605563 -0.5915068 -0.52661186
000280 b2 98 3e be 99 ea 98 be 9a c0 f2 3d 9e 60 7b 3c
       -0.18612936 -0.29866484 0.11853142 0.01534286
000290 4b eb 9d be b6 78 b1 3e 47 20 47 3f ed 4d 01 bf
       -0.30843577 0.34662408 0.77783626 -0.5050953
0002a0 fc 5e 1a be c9 0e 64 3e 34 27 76 bf dd d7 ad 3e
       -0.15075296 0.22271265 -0.9615357 0.33953753
0002b0 9d 35 0e 3f c6 c1 9d bd bb 60 e1 3e 54 36 09 3f
       0.5555056 -0.07702975 0.44019112 0.53598523
0002c0 10 bd 5e be a8 28 41 3e 59 96 41 bf ca c1 e6 bd
       -0.21751809 0.18863165 -0.7562004 -0.11267431
0002d0 ee b4 51 3e 70 6a cb 3e ed 55 41 bf a1 cf 20 be
       0.20479175 0.39729643 -0.7552174 -0.15704204
0002e0 b5 9f e8 bd f2 9c af be 67 13 c7 bb 4e 80 24 3e
       -0.11358587 -0.34299427 -0.006075311 0.1606457
0002f0 ea c9 d2 3e f2 11 e6 3c 09 78 10 be 42 38 35 be
       0.41169673 0.028084729 -0.1410829 -0.17697242
000300 dd 3a 9b be 23 b9 7d 3e 1f cf 08 bf 00 61 fd 3c
       -0.30318347 0.24777655 -0.5344104 0.030930042
000310 0f a6 1e bc 50 45 bf 3c 80 03 a8 bf 1a 84 93 be
       -0.009683146 0.02334848 -1.3126068 -0.28811723
000320 e7 bf 36 be 6f 65 02 3e 05 1e 64 be 60 c3 83 bd
       -0.17846642 0.12734006 -0.22277077 -0.06433749
000330 a1 b2 92 3e de 28 26 be 47 66 a7 bc c2 00 33 bf
       0.28651908 -0.16226527 -0.020434512 -0.6992303
000340 bb 50 e7 3e cc 7c c6 be a8 23 8a bf 0d df 55 bd
       0.4517878 -0.38767087 -1.0792131 -0.05221467
000350 b5 c5 1f 3e 90 b4 3a bc 16 3e 47 bf 28 eb 64 3e
       0.15602763 -0.0113955885 -0.7782911 0.2235533
000360 24 4d 71 be 60 6b ba bc dc 24 5e bf 2d 80 cf be
       -0.23564583 -0.022756279 -0.8677499 -0.40527478
000370 04 0f c3 be c0 c5 a5 3d 15 bc 6d 3f 01 cb a3 be
       -0.38097394 0.080943584 0.92865115 -0.31990817
000380 92 1d 21 bf ee 83 42 3d df 56 62 3e e7 68 0e 3e
       -0.62935746 0.0474891 0.22103451 0.13907205
000390 bf 5f 13 be 1c c9 63 3e 1f 30 51 3f a4 52 1b 3f
       -0.14391993 0.22244686 0.8171405 0.60672975
0003a0 24 79 e7 bc 07 7f c0 3d b9 c8 ae 3f 17 f1 13 3f
       -0.028256007 0.093992285 1.3655006 0.5778975
0003b0 21 95 91 bd 92 30 bf 3e 80 34 51 3f 6d a1 bd be
       -0.07108522 0.37341744 0.81720734 -0.3703722
0003c0 a2 b4 8a 3e 45 a6 cf 3e 8b 52 e1 bb 0c d3 ed 3e
       0.27090937 0.4055654 -0.006876295 0.46450078
0003d0 51 d6 03 3e 6d 9b 7d 3e 68 36 57 bf 0a 91 73 3e
       0.12874724 0.24766321 -0.8406739 0.23785797
0003e0 dd f5 13 3e d3 63 2c be e8 53 88 bf 9f b3 a8 be
       0.14449258 -0.16834955 -1.0650606 -0.3294954
0003f0 07 54 8a be ce 79 54 3e cc 10 07 3f b4 47 6a bd
       -0.27017233 0.2074959 0.52760005 -0.057197288

fc1.bias f4 [128]
000000 5f 91 8d be 7b 74 2c be fb 43 43 bd 54 7b 3f be
       -0.27649972 -0.16841309 -0.047672253 -0.1869939
000010 b6 a8 13 3f 5e fc 92 be 2a 6e cb 3e ea 80 c5 be
       0.5767931 -0.28708166 0.39732486 -0.38574916
000020 5e b0 49 be 1d 00 55 be cf 89 9c 3e 53 f5 a2 3e
       -0.19696185 -0.20800824 0.3057389 0.31827793
000030 51 71 af 3e b3 0c 2f be f1 52 b5 3e 4b 85 82 3e
       0.3426614 -0.17094688 0.35414842 0.2549232
000040 66 10 b4 be c9 32 64 bc 2e cb a0 be 18 70 00 3f
       -0.3516876 -0.013928124 -0.31405014 0.5017104
000050 39 22 ca be ef a0 1c 3f d9 24 a6 3e d9 50 c9 3e
       -0.39479235 0.61183065 0.32449988 0.39319494
000060 bb 6a 13 bf 22 85 e1 3d ad f5 99 3e c7 5b 92 be
       -0.5758473 0.11011721 0.30070248 -0.28585646
000070 55 9a 00 3f 4c 71 82 3e 57 b7 f7 3d 72 0b 3a be
       0.5023549 0.25477064 0.12095516 -0.18168429
000080 47 75 ff be 6e dd c7 be ea 66 02 3f b8 83 b1 bd
       -0.49894163 -0.39036125 0.50938284 -0.086677015
000090 19 f1 e1 3e 36 ad ab 3e aa ad 9e 3e 4f 4b 86 3e
       0.44129255 0.33530587 0.3099187 0.2622933
0000a0 da 6f 97 be 95 96 01 be eb 1e 80 3e d5 e3 00 3e
       -0.29577523 -0.12655099 0.2502359 0.12586911
0000b0 7b 26 f6 be d4 98 06 3d 40 5c 07 3f a7 ee 6c 3e
       -0.48076233 0.032860592 0.5287514 0.23137914
0000c0 fa 23 08 3f 07 bf 6e be 3e 28 1a 3f 64 59 85 3e
       0.53179896 -0.23315059 0.60217655 0.26044762
0000d0 3f d2 a7 be b5 ba 66 3e 33 73 3a 3e 2a a7 ee 3d
       -0.32777593 0.2253216 0.18208008 0.11652978
0000e0 28 1f a3 be f5 93 58 be 32 ec b8 be e1 5b 04 3f
       -0.31859708 -0.21150191 -0.36117703 0.51702696
0000f0 c3 28 6a be 5c 6e 90 3e 24 3f 5c be 55 8c a1 3e
       -0.22867112 0.28209198 -0.21508461 0.31552377
000100 3f 92 b5 3e 4a c9 98 be 0c 01 e6 3e 61 9a 4e 3d
       0.3546314 -0.2984107 0.44922674 0.050440196
000110 bc bb 7a bd 8c c6 fd 3e 6e bc d8 3e a6 7a b4 3c
       -0.061214194 0.49565542 0.4233126 0.02203114
000120 68 18 a7 3e 0d 68 15 bf d8 06 a4 be 10 ca 1d 3e
       0.32635808 -0.58361894 -0.3203647 0.15409112
000130 8c 69 0d bf cd ce 2f be ea d9 0e 3e 04 ac 33 3f
       -0.55239177 -0.17168732 0.13950315 0.7018435
000140 56 a9 f0 3e fc 41 89 be 2f c7 75 be 73 b6 85 bc
       0.47004193 -0.26808155 -0.24001764 -0.01632235
000150 3a 1f 5e be 9d 96 92 3e ce 5e 34 3c c1 57 bf 3e
       -0.216916 0.28630534 0.011008931 0.37371638
000160 82 a3 43 3e c6 2b a6 be 14 58 c2 bc 38 57 07 3f
       0.19105342 -0.3245527 -0.02372364 0.5286746
000170 78 6e 25 3f 10 89 7f 3c 4b d7 08 bf 84 e6 00 3f
       0.64621687 0.015596643 -0.5345351 0.5035174
000180 2a e7 63 3e fd 63 2f 3e 22 eb d6 bc f7 2b ea 3e
       0.22256151 0.17127986 -0.026235167 0.45736668
000190 f2 46 48 3e 27 5e de 3d d9 8b fd 3b 85 73 1b 3f
       0.19558313 0.10857802 0.0077376184 0.60723144
0001a0 61 be 43 3c a2 7c 71 be d5 68 d9 3e df 1b c7 bc
       0.011947245 -0.235827 0.42462793 -0.024305282
0001b0 df 82 a3 3d 4c c2 24 be 3e 53 eb 3e 4c 9c e0 bc
       0.07983946 -0.16089743 0.45961946 -0.027418278
0001c0 4c 6b 0b 3f 2b 9c 3f be 31 13 b4 be 30 27 1a 3f
       0.544606 -0.18711917 -0.35170892 0.60216045
0001d0 69 c4 c9 be e1 13 52 be e8 ce bf be 14 3b 82 be
       -0.39407662 -0.20515396 -0.37462544 -0.25435698
0001e0 db 43 cf 3e 24 f9 c1 3e bf 79 d4 3e 3a 64 16 3f
       0.40481457 0.37885392 0.41499135 0.58746684
0001f0 87 4f c3 3e a8 4d 08 3f 3e 50 cd be 46 71 0c 3e
       0.38146612 0.53243494 -0.40100282 0.13715085

fc2.weight f4 [128, 128]
000000 a4 b5 b0 be ef 5c 70 be c7 c4 b6 bc a7 45 38 be
       -0.3451358 -0.23472951 -0.022310628 -0.1799532
000010 53 7a f5 3d b0 9f 1d 3e 53 d6 da bc cb f3 4c bd
       0.11986222 0.15392947 -0.026713526 -0.050037187
000020 89 f9 3f be a2 0b a1 be 90 ce fc 3d c9 12 f7 3d
       -0.18747534 -0.31454188 0.12344086 0.1206413
000030 26 4a 57 3d 9b f9 3b be 98 8a 1a 3e 5f 2e 2e 3d
       0.052560948 -0.18356936 0.15091932 0.04252469
000040 bb ba 85 be 91 50 0f 3e 1b 43 98 be 67 14 8c 3d
       -0.26119027 0.13995577 -0.29738697 0.06839829
000050 7e 85 81 be 36 62 62 3e 4d da 88 3d 07 6a 1e 3e
       -0.2529716 0.22107777 0.066822626 0.15470134
000060 d6 75 37 be c0 aa b0 3d ff 43 1c 3e b6 28 f8 3e
       -0.17916045 0.08626318 0.15260313 0.4846856
000070 5a 48 da 3d 59 1d 7a 3e 05 0c c9 3d e7 76 d8 bd
       0.10658331 0.24425258 0.09816746 -0.10569554
000080 b3 35 fb bd 7d 56 9c 3d b5 ca 7c 3e 47 a5 11 bd
       -0.12266102 0.07633684 0.24686702 -0.03555801
000090 fa da 27 3e e7 50 af 3c 4f ad 95 3d e2 b7 06 be
       0.16392127 0.021400882 0.073084466 -0.13156083
0000a0 37 98 0f be e3 da a1 3c 8c 36 d2 3d 73 ee ea bd
       -0.14022909 0.019757694 0.1026431 -0.11471262
0000b0 f6 4f bb bd 3f 86 22 bd 99 69 4f 3d 63 c6 44 bc
       -0.09146111 -0.03967881 0.050637815 -0.01201019
0000c0 a1 e4 51 3e 85 10 9b be 53 62 a9 3d 3d 11 4c 3e
       0.20497371 -0.3028604 0.08270707 0.19928451
0000d0 86 d8 86 3e cf 7d 18 3e d8 e8 5d be c5 fa 49 3e
       0.2633707 0.14891742 -0.21670854 0.19724567
0000e0 0e 6d 81 be 96 7f 8f be 75 d1 35 bf 9b f5 92 3d
       -0.25278515 -0.28027028 -0.7102273 0.07175752
0000f0 b4 41 36 be f2 cf 64 3d 65 a9 1b bf 84 38 1e 3d
       -0.17798501 0.055862375 -0.6080535 0.038628116
000100 e5 30 6d 3e fc 81 48 bc bb b7 1a 3e b0 16 aa bd
       0.23163183 -0.012238022 0.1510915 -0.083051085
000110 49 02 cd be 41 11 4f bc 61 7d 07 3d 32 73 ec bc
       -0.40040806 -0.012638391 0.033078555 -0.028863523
000120 41 57 6e 3e 8d 55 71 be 92 3c 4a 3e aa 9a 30 3e
       0.23275472 -0.23567791 0.19749668 0.172465
000130 43 ac 20 bc f3 04 cf 3e d5 61 ff 3b de 2d 36 3d
       -0.009806695 0.40433463 0.007793645 0.044477336
000140 ba ef ac 3d 5d a1 8e bc 48 83 3d be a0 52 1c 3e
       0.08444162 -0.017410928 -0.18507111 0.15265894
000150 7b bc 1f be 3e eb 5b 3e 38 39 ad 3d b0 f5 2a 3e
       -0.15599243 0.21476457 0.08458179 0.16695285
000160 52 cd 90 3d 05 42 ad be 2a f4 bc 3d 55 0a cc 3d
       0.07070412 -0.3383943 0.09226258 0.09962908
000170 64 da 14 3e d5 03 47 be 4a eb 0f be 70 01 cd 3c
       0.14536434 -0.19435056 -0.140546 0.0250251
000180 61 e5 72 3c cf d3 b4 bd d0 d6 bb bd 58 46 d4 3d
       0.014825196 -0.08829462 -0.091718316 0.103649795
000190 b3 5a 06 3e 88 31 88 bd f6 0d c8 bd c8 58 3d 3e
       0.13120537 -0.06650072 -0.09768288 0.18490899
0001a0 10 59 ac 3d f0 45 a7 be a8 34 98 3d 37 98 eb bd
       0.08415425 -0.32670546 0.074319184 -0.11503642
0001b0 87 63 9f bd e4 c8 38 bf ee 47 0b 3e 44 e9 46 be
       -0.07782655 -0.72181535 0.13601658 -0.19424921
0001c0 e2 ee 1d 3e bf bf 9d bd a7 97 12 bf 83 32 c3 3d
       0.15423158 -0.07702588 -0.57262653 0.09531119
0001d0 4c a7 20 bf 17 45 50 bf bd 0c d9 bd a9 81 89 be
       -0.62755275 -0.8135542 -0.10598133 -0.26856735
0001e0 7a 94 33 3e 5c 15 ee 3d c2 b1 ee 3d 80 a0 c1 3d
       0.17537108 0.11625168 0.11654998 0.09454441
0001f0 f9 b1 77 3b 05 75 d8 3d 66 28 49 be 38 8a 1c 3e
       0.003779529 0.10569195 -0.19644317 0.15287101
000200 dc d4 d3 3e f1 d2 94 3e f3 c5 4a be 3b 6d ab be
       0.41373336 0.29067186 -0.19802074 -0.33481774
000210 97 65 4f 3d 46 6f b6 3d ae f3 ef 3b 2a 3f 65 3d
       0.050633993 0.089079425 0.00732275 0.05596844
000220 df 20 e4 3d 32 71 a9 3e 22 25 89 be a7 66 43 3d
       0.11139082 0.33094174 -0.26786143 0.04770532
000230 c5 b0 00 be 13 9a 1d 3e 30 9a a4 be 40 9f 55 be
       -0.12567432 0.15390806 -0.32148886 -0.2086153
000240 72 bb 2d bd 64 ff 17 bd c4 66 8d bd a2 5d 91 3c
       -0.04241509 -0.037108794 -0.069043666 0.017744843
000250 04 8f 1c 3d fd fe ae bd 3b de 9c bd 37 89 28 3d
       0.038222328 -0.08544729 -0.076595746 0.041146483
000260 2e 3c 0b bd cf e3 24 3e 45 da 8b bc cc ba 7f 3c
       -0.03399294 0.16102527 -0.017071852 0.015608501
000270 76 69 94 3b b2 7a 83 3e 52 70 81 bd c4 9a 74 be
       0.0045291735 0.25679547 -0.063202515 -0.23887163
000280 db d9 ad 3e 05 66 62 3c 44 ab 17 bd d1 5e 87 bd
       0.33955273 0.013818269 -0.037028566 -0.06609882
000290 60 bb 8d bd c5 7c 8f 3c 2f 2c a3 bd 06 42 f3 3d
       -0.069205046 0.01751555 -0.07967412 0.11877827
0002a0 a1 29 5f bb 8b 05 b3 bd 59 06 c4 bb 72 cb 90 3c
       -0.0034051912 -0.087412916 -0.005982202 0.017675135
0002b0 52 67 03 3f 1e 7f ac 3d 35 40 0a 3e 72 b1 a2 bc
       0.5132953 0.08422683 0.13501056 -0.019860003
0002c0 ae 2d 82 3d 1d 2a 66 3e 5b 81 f9 bd 19 12 40 3c
       0.06356369 0.22477002 -0.12182876 0.011723065
0002d0 b1 28 89 bd 72 5c ba bd 0a 2a 52 3e a8 15 fc bd
       -0.066972144 -0.09099664 0.20523849 -0.12308818
0002e0 65 f8 8e bd 72 0a e1 bc 35 d4 e6 bb bd a0 67 bd
       -0.06980971 -0.027470801 -0.00704434 -0.056549776
0002f0 32 f9 40 bc fe 70 d7 bd ef d8 b4 3e d5 84 1e 3c
       -0.011778163 -0.105195984 0.35321757 0.009675224
000300 16 01 83 bc 3c 76 2b 3e 76 d4 c4 bd 4e 92 0e be
       -0.015991729 0.16744322 -0.09610836 -0.13922998
000310 4f eb 79 be 3e a3 46 bd 1c 4e 89 bd 86 cc 2e bd
       -0.2440617 -0.048495524 -0.06704351 -0.042675517
000320 86 58 67 3e ba fd 4a bc 2a a0 de 3c ef 7e 4a bd
       0.22592363 -0.012389595 0.027175982 -0.04943746
000330 d8 c8 c7 3d d3 05 3a be 6a 9e 3d bc 26 7d 1b bc
       0.09755105 -0.18166284 -0.011573413 -0.009490287
000340 a2 eb f7 bb 22 60 12 bd 37 d4 06 be e0 1c 4b be
       -0.0075659314 -0.03573621 -0.13166891 -0.19835234
000350 65 f1 01 3e 4b 4f 11 bc d1 fe 44 bd 2d be ed bd
       0.12689741 -0.008869003 -0.048094574 -0.11608539
000360 27 42 2c be 26 bf a6 bd 1b ae 60 3e 58 85 42 be
       -0.1682211 -0.081419274 0.21941416 -0.18996179
000370 e8 3c 64 be 79 31 16 be 59 c5 91 3b c3 21 85 be
       -0.22288859 -0.1466731 0.0044485745 -0.2600232
000380 42 1d 1a 3c 7f 7e cc bd 32 c9 45 bd eb fe 63 bd
       0.00940639 -0.09985065 -0.048287578 -0.05566303
000390 4d a7 ba bd 8b d0 9d 3d f1 0a e5 bd f8 c5 3d bd
       -0.09113941 0.07705792 -0.111837275 -0.046331376
0003a0 32 a5 16 be 45 1d e9 3b d0 17 86 be 4f 5d 86 3c
       -0.14711455 0.007114085 -0.26190042 0.016401915
0003b0 20 ef bf bd cb 49 03 3f 80 b9 81 3c e0 83 5e 3e
       -0.09371781 0.51284474 0.015835524 0.21729994
0003c0 54 52 fc 3c 1e 1b 20 3c e3 04 fc bc 5a 25 8f 3c
       0.030800976 0.00977209 -0.030764049 0.017473865
0003d0 19 63 0c 3d 2f b7 ed 3e 8d 53 d3 3d 01 fc 7f 3e
       0.034274194 0.4642882 0.103186704 0.24998476
0003e0 15 7d 6d 3d a9 cc 8b 3b 5c 8e ad be 34 b1 27 be
       0.057980616 0.0042663408 -0.33897674 -0.16376191
0003f0 be 71 40 3d d7 0e 8f be 6b be 66 bd 43 db a4 be
       0.046983473 -0.2794101 -0.05633394 -0.32198533

fc2.bias f4 [128]
000000 6f 48 a7 3d d0 b8 74 bc cc f9 d9 3d b9 ff 4f bd
       0.081681125 -0.014936641 0.10643348 -0.050780986
000010 2d 74 88 bd f1 d9 52 3d 73 44 da 3d cb 8a d3 3d
       -0.06662784 0.051477376 0.10657587 0.10329207
000020 b3 05 2f bc c6 4a 29 3e 1a 75 1e 3e 96 a5 c3 bd
       -0.010682511 0.1653243 0.15474358 -0.095530674
000030 15 43 1a 3e 38 81 fa 3d a6 9e ae 3d 33 ac 3a 3e
       0.15064652 0.12231678 0.085263535 0.18229751
000040 ae e7 ae bd f4 cf 1d 3d ab fa 35 3e 22 fb a1 3d
       -0.08540283 0.038528398 0.17771403 0.07909228
000050 d6 65 97 3d 7a 4d 3b 3e 49 1e b1 3d 5a 93 55 3d
       0.073924705 0.18291274 0.086483546 0.05214248
000060 60 04 ab 3d f9 6e 7c 3d 67 01 cd 3c 62 bc 80 bc
       0.08350444 0.06162927 0.025025083 -0.015714828
000070 80 57 9f bd db c2 58 3d 39 fd ea 3d e1 52 6c 3d
       -0.07780361 0.052920204 0.1147408 0.057696227
000080 be f3 dc 3d 02 ea a2 bd 68 9b f3 3d 46 5e e2 bd
       0.10788678 -0.0795479 0.11894876 -0.110531375
000090 8a 41 ee 3d da 47 12 3e 2f f7 82 3c 40 39 a7 3d
       0.11633594 0.14285222 0.015987007 0.081652164
0000a0 4a 10 44 3d 0f e0 87 bd 87 9a 15 3d 0f be 8e bd
       0.047867097 -0.06634533 0.036524322 -0.069698445
0000b0 24 a9 b3 bd f6 00 b3 3d b9 53 24 3e d8 66 1c 3d
       -0.087724954 0.08740418 0.16047563 0.038184017
0000c0 bf 42 26 3d a4 13 7a 3d ca c1 05 3e 2f 55 ff 3d
       0.040590998 0.061053887 0.13062206 0.12467419
0000d0 60 02 ca bb 51 f4 45 3e a1 0e 0a bd 21 d4 f7 3d
       -0.006164834 0.1933148 -0.033705357 0.12101007
0000e0 af 8d 59 3d b3 79 d5 bc 13 52 d0 bc e3 31 5d bd
       0.053113636 -0.026059007 -0.025429761 -0.054002654
0000f0 4e 47 53 3b 83 ee 6a 39 2f 1e 18 3e 07 6a c2 bd
       0.0032238546 0.00022404832 0.14855264 -0.09492879
000100 4b b6 2a 3c f8 cc 48 3a 95 37 57 3d 1d 25 b4 3c
       0.010419439 0.0007659937 0.05254324 0.021990353
000110 7f fa db 3c d7 d1 ad bc f4 ce 52 3e f9 56 81 3d
       0.026852844 -0.021218223 0.20586759 0.06315417
000120 93 73 16 3d 7b 0e 73 bc 6f da 58 3e d5 23 33 3e
       0.036731314 -0.014834995 0.21177076 0.17494138
000130 94 4d 41 bd c8 d8 44 3e 3f 61 0a 3e 4f 6d 68 3d
       -0.047193125 0.1922332 0.13513659 0.05674487
000140 2b 28 84 3c d1 13 a3 3d e1 7d d5 3d 82 37 6a 3d
       0.016132435 0.07962764 0.104244 0.057181843
000150 7b ae 28 3e 0f cf be 3c 6e 06 1e 3d 22 2e 1f bd
       0.16472809 0.023292093 0.03858035 -0.038862355
000160 8d fa 4e 3c 42 60 0e 3e d6 72 74 3d 49 c3 e2 3d
       0.012632978 0.13903907 0.05967983 0.11072404
000170 5e 11 12 bd 46 46 1e 3e 84 d4 31 bd ad c4 fe 3d
       -0.035661094 0.15456495 -0.04341556 0.12439857
000180 e4 9c ab 3d 43 dd 67 bc e4 93 38 3d f5 cc 41 bd
       0.08379534 -0.014151874 0.045062914 -0.047314603
000190 b7 61 11 bd e3 7d 64 3e ca 2a a6 3c c7 cc 46 3d
       -0.03549358 0.22313647 0.020284075 0.048535135
0001a0 34 66 3f 3d d4 45 58 3e 92 1a 89 bc 4e 85 c2 3d
       0.046728328 0.21120387 -0.016736303 0.09498082
0001b0 9a 93 f9 bc 0d e7 06 be c2 3f 26 3e e3 00 c4 3d
       -0.03046589 -0.13174076 0.16235259 0.09570482
0001c0 7e c1 08 3d 3b 8c 92 bd 68 65 d7 3c 4e e5 ef 3c
       0.033387654 -0.07155653 0.026293471 0.029284146
0001d0 84 f5 58 bd bb 24 71 bd 1a 45 dd 3d 33 b6 3a 3e
       -0.052968517 -0.05887292 0.10804196 0.18233566
0001e0 a1 52 92 3d 42 34 13 3e 1d a4 24 bd c4 dc 7b 3d
       0.071446665 0.14375404 -0.040195573 0.061489835
0001f0 c0 94 2a bd a4 ec ca 3d 87 b3 f7 3d 44 6a a2 3d
       -0.041645765 0.09908417 0.12094789 0.07930425

fc3.weight f4 [2, 128]
000000 fa dc a5 3e 3d 18 ca be 86 9e 31 bf be 3e 9d 3d
       0.32395154 -0.39471617 -0.6938251 0.07677983
000010 eb 17 8c 3d 77 c9 d0 3e 42 97 0c be 8d 2b 84 be
       0.068404995 0.40778705 -0.13729575 -0.25814477
000020 99 84 4e bd 54 61 d4 3e 3c 5e 16 bf 1e 99 87 3d
       -0.050419424 0.41480505 -0.5873754 0.06621002
000030 28 41 17 3e 97 bd a5 3e 6c 8b d9 3e ef 2d 5f 3e
       0.14770949 0.32371208 0.42489183 0.21794866
000040 c7 b4 04 3d 89 81 aa 3e 28 e8 d0 3e a1 e9 00 bf
       0.032398965 0.33301952 0.4080212 -0.5035649
000050 1e 98 de 3e 90 52 dc 3d e6 87 af 3e c3 70 b8 3e
       0.4347543 0.10757935 0.3428337 0.3602353
000060 a8 76 5c 3e 87 78 ad 3e fb 82 0a 3d 6d 95 ba bd
       0.21529639 0.33881018 0.03381632 -0.09110532
000070 ac 40 71 3d 41 e6 cd 3d d8 50 6c be 6b 9b 8e 3e
       0.058899567 0.10053683 -0.23077714 0.2785295
000080 00 da c6 3e 56 98 5f bc c6 00 28 bf c4 75 49 bf
       0.38838196 -0.01364716 -0.6562618 -0.7869532
000090 e5 7c af 3e 9d 35 ca 3e 39 d0 57 bd 3b f0 b4 be
       0.34274974 0.3949403 -0.05268881 -0.3533953
0000a0 bb d8 de 3e 6b 76 5b bf ce 8f 09 bc 46 fb e5 bc
       0.43524727 -0.85727566 -0.008396102 -0.028073918
0000b0 96 11 68 bd ae 72 83 3e e4 14 e6 3e a5 c0 b0 bc
       -0.056657396 0.2567343 0.44937813 -0.021576235
0000c0 8b 52 1b bf 3d 72 a5 3e 11 e7 92 3e 22 8a bb 3e
       -0.60672826 0.3231372 0.28691915 0.36628824
0000d0 27 6e 5f 3e 46 08 a9 3e d5 76 30 bd a2 cb d8 3e
       0.21819364 0.33014125 -0.043082077 0.4234286
0000e0 35 fe 96 3e e5 d0 08 be 18 51 0b bf 8d f8 44 bf
       0.2949082 -0.13360937 -0.54420614 -0.7694176
0000f0 08 f3 10 3d 38 b5 fb 3c 73 f3 81 3e 43 11 9d 3d
       0.035388023 0.03072606 0.2538105 0.07669308
000100 61 ae 8e 3d b5 69 0e bd f6 a5 33 bf 9e 26 58 bd
       0.06966854 -0.03476878 -0.7017511 -0.052771203
000110 e8 3c 10 3d 90 ff db 3b 6b 74 d2 3e c8 67 be 3e
       0.035214335 0.006713815 0.41104445 0.37188554
000120 83 30 d9 3a e8 0f 7f 3d 45 c8 56 3e 63 82 39 3e
       0.0016570244 0.06227103 0.20974834 0.18116145
000130 90 57 ac 3e e7 bb 4a 3e 9a 7f bc 3e f6 4f df 3e
       0.33660555 0.19798242 0.36816102 0.43615693
000140 49 3f c9 be e0 a7 34 bf 46 17 e4 3e f0 90 94 bd
       -0.39306095 -0.70568657 0.44549006 -0.07254207
000150 fd 21 ba 3e 0e 42 5e bc fd 92 48 be 66 22 5f bd
       0.36354056 -0.013565553 -0.19587322 -0.054476164
000160 c7 ef a8 be ed 91 e0 3e e5 9e 9f 3e c8 d6 35 3e
       -0.32995436 0.43861333 0.31175914 0.17757714
000170 55 c7 d0 3c 8a 1e 98 3e 60 f6 e2 3d 1b 4d af 3e
       0.025485674 0.297108 0.110821486 0.34238514
000180 82 a6 dd 3e d1 e2 1b 3d 55 9e c9 be 48 ac 97 3e
       0.43291098 0.038058106 -0.3937861 0.29623628
000190 be 75 92 be f6 2d 1e bf 6e b7 a4 3e ed b1 91 3e
       -0.28605455 -0.6178888 0.32171196 0.2845606
0001a0 be 97 00 3e f8 8c 0c 3e 19 e3 44 bf ca 4c 90 be
       0.12557885 0.1372565 -0.76909024 -0.28183585
0001b0 2e 88 e0 bc 81 01 b8 3e 93 ed 98 3d a5 1d bd 3e
       -0.027408686 0.35938647 0.07467189 0.3693668
0001c0 ab b5 da 3e 69 dc 9a bd c0 7e 6f bd 51 1c 72 3e
       0.42716727 -0.07561571 -0.058470488 0.23643614
0001d0 d7 bc 45 bd 90 bf d8 3e da 16 1c bf cf 78 c9 3e
       -0.048275795 0.4233365 -0.6097237 0.39349982
0001e0 62 a5 d2 3e 02 6c e7 3e cb 9b a7 bc 08 ce 4a 3e
       0.41141802 0.4519959 -0.02046003 0.19805157
0001f0 3a c5 0d 3d 72 74 a4 3e a9 f3 fa 3e 2a 58 ea bd
       0.034611918 0.3212009 0.49014023 -0.11442597
000200 7f b7 b6 3e a3 85 0f 3e 75 79 04 bf ce dc 31 3d
       0.3568687 0.14015822 -0.5174783 0.043423466
000210 65 52 2c bc 1f 36 c9 3e f4 2d 6d 3e c8 3b 36 bf
       -0.010517691 0.39299104 0.23162061 -0.7118497
000220 2d 2f 75 bd 5c 67 96 3e ca 92 12 bf 9d ae 96 3d
       -0.059859443 0.29375732 -0.5725523 0.073575236
000230 5c e3 a6 3e 05 1e a9 3e 87 83 72 3e 7d 10 d4 3e
       0.32595336 0.33030716 0.23682986 0.4141883
000240 10 10 63 3d f7 d9 2e 3e 24 b7 bd 3e 42 11 28 bf
       0.05543524 0.17075334 0.37053788 -0.65651333
000250 8f bd b3 3e a4 f7 b3 3e 50 a1 ab 3e 53 a7 ac 3d
       0.3510556 0.35149872 0.3352151 0.08430352
000260 2b 3f e9 3e 30 b2 c5 3e 9b 7e d4 bc b6 dd 7d bd
       0.45556006 0.3861251 -0.025939276 -0.06197902
000270 19 82 a5 3d f7 36 16 bf d9 11 3a bf 1c 13 2f 3e
       0.08081455 -0.5867762 -0.72683483 0.17097133
000280 28 fe f4 3e e8 39 a2 bd b6 17 2e bf 96 c6 f3 be
       0.47850156 -0.07921201 -0.6800493 -0.47612447
000290 d7 b0 8f 3e ec ca d8 3e ba 81 2b bc f7 4c 33 bf
       0.28064606 0.42342317 -0.010467941 -0.70039314
0002a0 1e 75 b2 3e 11 92 f0 be 9e 01 0d 3e 9a 65 1d bc
       0.34854978 -0.4698644 0.13770148 -0.009606743
0002b0 6b 0c 4c bd a7 51 ce 3e 4f ed f1 3e 78 f0 13 3c
       -0.04981653 0.4029667 0.47251365 0.0090295
0002c0 aa a1 f2 be 41 19 db 3e d7 8e c1 3e 1e f3 81 3e
       -0.47388965 0.42792705 0.3780429 0.25380796
0002d0 22 6f 89 be 33 f5 fc 3e a0 66 39 bd da cf 88 3e
       -0.268426 0.49405822 -0.045263886 0.26721078
0002e0 b5 6e b1 3e 58 47 07 bf ca 84 12 bf 18 68 e1 be
       0.34654775 -0.52843237 -0.5723387 -0.4402473
0002f0 6f 4d a0 bd f0 ff ae 3d 1c 2d e7 3e b1 6d 96 bd
       -0.07827269 0.0854491 0.45151603 -0.07345141
000300 7f e7 53 3d b6 70 d6 3d bb 3e 9a be 6e a4 fa bc
       0.051734444 0.10470717 -0.30125985 -0.030595984
000310 dd 4c 09 3e 93 61 2b bd 1f 93 cc 3e 1c 9d e3 3e
       0.13408227 -0.0418411 0.39955994 0.44455802
000320 fd 82 12 3d 44 81 34 bc 95 41 d0 3e ef 8a b6 3e
       0.03576945 -0.011017147 0.40675035 0.35652873
000330 73 17 ca bd be c8 cf 3e fa ef 72 3e a8 1a b0 3e
       -0.09867754 0.40582842 0.23724356 0.34395337
000340 13 17 c0 3e 73 32 9a 3b ef 01 75 3e 90 da 9a bd
       0.37517604 0.004705721 0.23926519 -0.07561219
000350 59 7d df 3e 1a 40 01 3d 83 74 24 bf c1 30 77 3c
       0.4365032 0.031555273 -0.6424028 0.015087307
000360 8f 6a 1b bf f4 eb c1 3e 0c 6e ae 3e 5b 95 e4 3e
       -0.6070947 0.3787533 0.34068334 0.446452
000370 bf da ac bd c3 c2 a8 3e e6 8f e2 be e1 80 82 3e
       -0.0844016 0.3296109 -0.4425041 0.25488952
000380 d5 6e b0 3e 82 fa 81 bc 00 ea 0d bf 22 2d 7f be
       0.34459558 -0.015866522 -0.5543518 -0.2491956
000390 69 91 15 bf 84 dc 1a bf 57 cf aa 3e 0b 3d 33 3e
       -0.58425003 -0.6049273 0.33361313 0.17503755
0003a0 89 b5 ad 3e 39 85 d5 3e 16 3d 7c be f4 00 3a bf
       0.33927563 0.41703203 -0.24632677 -0.72657704
0003b0 78 48 3f bd 83 f7 aa be 87 fe 99 3e 69 1a 40 3e
       -0.04669997 -0.3339196 0.30077 0.18760075
0003c0 5b 4b 7b 3e 09 f3 63 bd 15 f6 94 39 a6 34 ac 3e
       0.24540465 -0.0556517 0.00028412105 0.33633918
0003d0 45 5d 91 3d 4e c1 b6 be f2 9a 1f bf 12 64 5c 3e
       0.07097868 -0.35694355 -0.623458 0.21522549
0003e0 0b 1e a3 3e 8d fc 20 bf 35 bf 93 bd 52 ed bd 3e
       0.31858858 -0.6288536 -0.07214204 0.37095124
0003f0 5e ff 6a bd 6d 0a d9 3e 05 f9 a4 3e 56 9c da be
       -0.057372443 0.42390767 0.32221237 -0.426974

fc3.bias f4 [2]
000000 11 70 41 3d 4d 97 33 3e
       0.047226015 0.17538185
