weights/tuning2/20000steps_8agents_64batch_10000cap_0.0001lr/run_3.pth (torch, 72253 bytes, 6 tensors)

fc1.weight f4 [128, 4]
000000 50 90 2c 3e 16 9c 61 3d 65 1b 46 bf 58 8f a7 bd
       0.16851926 0.055080496 -0.7738555 -0.081816375
000010 fb 05 89 bb ea 11 c8 3e da 37 85 bf ad ec d5 bd
       -0.004181621 0.39076167 -1.040767 -0.10445533
000020 af 7b 3e 3e e1 68 5c 3d a1 f7 73 be f1 45 86 be
       0.18601869 0.053810958 -0.23824932 -0.26225236
000030 02 64 88 be f7 e7 24 3e eb 45 19 bf 30 d1 dd be
       -0.266388 0.16104113 -0.5987231 -0.4332366
000040 47 87 16 3f 0f 7b 05 3f fa ba 3f 3d a2 ab 0a 3e
       0.58800167 0.521409 0.046809174 0.13542035
000050 88 df f0 3e e0 59 c2 3c 33 51 82 bf d8 74 cf bd
       0.4704554 0.023724496 -1.018103 -0.10129708
000060 3e 2b eb 3d 12 98 f6 3d 72 bb 23 bf aa 9e 10 3d
       0.11482857 0.12040724 -0.63957894 0.035307564
000070 b2 cd 17 bf 4e 5d e8 3c a8 6f a9 be f7 b4 66 3e
       -0.5929824 0.028364804 -0.33093 0.2252997
000080 4d 48 8c 3e da 89 c0 be a5 64 80 3f 95 a4 22 3f
       0.2739891 -0.37605172 1.0030714 0.6353238
000090 a4 6d 86 bd d6 bb ad 3e 41 3c 7c be fd 63 0d bf
       -0.06563881 0.3393237 -0.2463236 -0.55230695
0000a0 da 1c 39 be ba 9a dd 3e 81 2e 48 3f 47 65 93 be
       -0.18077412 0.4328211 0.7819596 -0.28788206
0000b0 22 1d b6 3e 5a 19 a0 3d c5 6e f8 3e 5b 58 1e be
       0.35569102 0.078173354 0.4852201 -0.15463392
0000c0 d2 83 80 be 1b 8f ae bd e8 84 17 bf 43 06 62 3d
       -0.2510057 -0.08523389 -0.59187174 0.055181753
0000d0 e1 74 6b be 82 ca bc 3d b0 b3 70 3f b0 2b e4 3e
       -0.22993805 0.09218313 0.9402418 0.4456458
0000e0 d7 15 f4 be 3a 49 e3 3e 0b 1c 6f 3e 6c 4d ad 3e
       -0.47672912 0.44391805 0.23350541 0.3384813
0000f0 e0 fa cd be b6 4b ad 3d 68 8e 55 3d 66 7b a8 be
       -0.40230465 0.08461706 0.052137762 -0.32906646
000100 a8 29 c9 be 4f 8d 9e be 8e 77 0a bf 95 46 e2 3e
       -0.39289594 -0.30967185 -0.54088676 0.44194475
000110 a8 4c 1a bb 1b fc a4 be 1c 6e 48 3e 81 7d a5 3b
       -0.0023544226 -0.3222359 0.19573253 0.0050503616
000120 8b 88 10 3e de ed 9f 3d f0 d8 e8 3e 66 99 67 3d
       0.14114587 0.078090414 0.4547801 0.056542777
000130 31 a5 e7 3e c6 9e c0 3e be 17 fd be 27 95 99 be
       0.4524322 0.37621135 -0.49432176 -0.29996607
000140 c7 76 7a bc df bb d5 3e 01 86 f2 be 83 55 c3 be
       -0.015287108 0.41744897 -0.47367862 -0.38151178
000150 ee 7d 13 3e 31 a2 0a 3e 9f 02 8b be e3 4e b0 3b
       0.14403507 0.13538434 -0.27150437 0.005380498
000160 83 75 2d bf ec 4c ed 3e 25 23 72 be 57 89 c0 be
       -0.67757434 0.4634775 -0.23646219 -0.37604782
000170 67 27 84 3e e0 9e e2 3e ed e4 61 3f 1a d0 92 3e
       0.25811312 0.44261837 0.8823994 0.28674394
000180 0c 0e 57 3e a4 25 85 be a7 c7 06 3e 4f 5e 85 3e
       0.21001452 -0.2600528 0.13162099 0.26048514
000190 f0 4c bb be 60 2a 48 be d0 ff f3 3e 30 9c dd 3e
       -0.36582136 -0.19547415 0.47656107 0.43283224
0001a0 ee 02 12 3f af 03 de 3e cc 85 7c bf 39 07 51 bd
       0.5703572 0.43362185 -0.9864166 -0.05103228
0001b0 af cd 1d bf 59 32 cc be c1 25 69 3f f3 3e 8d 3d
       -0.61641973 -0.39882162 0.9107323 0.06896772
0001c0 45 5f d9 bc ea 3e 83 3e bd 40 15 be 66 0e 74 3e
       -0.026534686 0.25633937 -0.14575477 0.23833618
0001d0 02 9c 29 be dc 34 26 be 67 18 c4 be cc 94 d2 3e
       -0.16563419 -0.16231102 -0.38299868 0.41129148
0001e0 e1 f4 45 be 73 bd 64 be aa 84 c2 3e 61 1e 0e 3e
       -0.19331695 -0.22337894 0.3799184 0.13878776
0001f0 96 50 42 bd c0 fd 9e 3c fb cd 93 bf b9 50 0c bf
       -0.047440134 0.019408107 -1.1547235 -0.54810673
000200 d8 9f 15 bf 7d 6d 08 be 28 51 1c 3f cd a2 06 3f
       -0.5844703 -0.13323016 0.61061335 0.52592164
000210 20 f6 f4 3d 2b 5d 6b 3d 5b a5 8f 3e f2 ef 02 3f
       0.11961007 0.0574619 0.28055844 0.5114738
000220 79 62 4a 3c 62 22 d8 be bb 39 63 bf 8f 0d 06 be
       0.012352579 -0.42213732 -0.88759965 -0.1309111
000230 e8 81 39 bd 05 54 ac 3e 05 60 65 be 65 ab a6 3e
       -0.045289904 0.33657852 -0.2239991 0.3255264
000240 86 5a 03 3e 67 0b 2d 3e d6 26 db be 2a e8 dd be
       0.128275 0.16898881 -0.42803067 -0.4334119
000250 14 51 14 3f 17 16 be 3e 74 d3 53 bf ef f2 3d bd
       0.57936215 0.37126228 -0.82744527 -0.046374258
000260 59 07 ea 3d 8e 1a d2 3d 11 3b 0e 3f 75 49 7b 3e
       0.11427183 0.10258971 0.5555888 0.2453974
000270 8c 20 08 bf dd 79 58 3e 0e f1 0f 3f 62 cc e3 3e
       -0.5317466 0.21140237 0.56227195 0.4449187
000280 b1 a8 ec 3d 27 43 70 3e c6 14 1f be 4e c8 72 be
       0.11555613 0.23463117 -0.15535268 -0.23709223
000290 eb 9d d2 bd 02 be e2 3c 58 8f f6 3d 14 bc fe be
       -0.10284027 0.027678493 0.120390594 -0.49752867
0002a0 e2 0c b5 3e 9d 8a b5 3d 48 f4 00 3f e4 23 ac be
       0.3536139 0.08864329 0.50372744 -0.33621132
0002b0 6e a7 bf be 7f ba 42 3e db 64 6c be 1b 85 94 be
       -0.37432426 0.19016455 -0.23085348 -0.290078
0002c0 9c 06 b3 be c7 14 d0 be 6f a5 5c bf ad e3 dd 3e
       -0.3496598 -0.40640852 -0.8618993 0.43337765
0002d0 22 4b d0 bb a1 b6 40 be 57 dd 15 bd 3c 55 94 be
       -0.006356613 -0.18819667 -0.03658804 -0.2897128
0002e0 fb 53 d3 3e da 0d 21 3e 0c d2 02 bf f2 66 06 3e
       0.4127501 0.1572794 -0.51101756 0.13125208
0002f0 67 7a c3 be 29 bc e7 be 46 64 32 3f eb 34 36 bc
       -0.38179323 -0.45260742 0.69684255 -0.011121015
000300 17 1f 08 3f 5c 01 15 3f b9 e5 b0 3e b8 20 2f 3c
       0.5317244 0.582052 0.34550264 0.010688953
000310 3b 6b 8f 3e b1 f7 c6 bd f9 cf 94 3f 9d 32 79 3e
       0.28011498 -0.09715212 1.1625968 0.24335714
000320 76 9b f1 be c7 0f f6 bd d5 b2 7f be f3 17 c2 3e
       -0.4718892 -0.12014728 -0.24970563 0.37908897
000330 75 94 15 be 06 f0 f6 be 2a b6 d8 be 1c 16 60 3e
       -0.14607413 -0.48229998 -0.4232648 0.21883434
000340 bc 6f 2a 3f 12 2f dc be cd 49 47 bf dd 03 c3 3e
       0.66576743 -0.43004662 -0.77846986 0.38088885
000350 f7 84 3b 3f 24 f1 2a be 6f 58 3f bf 78 09 d8 3e
       0.73249763 -0.1669355 -0.74744314 0.42194724
000360 a3 b6 b4 bd a7 b9 15 be b0 c0 7d 3f 5c 90 9e 3e
       -0.08823898 -0.14621602 0.9912214 0.30969512
000370 bf 44 d3 3e 00 bf fb 3e 1a 92 dc 3e 6d 52 23 3e
       0.41263387 0.4916916 0.43080217 0.15949412
000380 d2 5a 80 be 98 52 bf be 2d 7d 33 be fb da 6c be
       -0.2506929 -0.37367702 -0.1752822 -0.2313041
000390 2e b8 61 be 24 81 12 3f 9a 97 c3 be 7a 83 85 be
       -0.22042915 0.572283 -0.382016 -0.2607687
0003a0 dc 1a b9 be dc 3c a1 3e fb 1e d6 3e fe c5 02 3f
       -0.36153305 0.31491745 0.4182051 0.5108336
0003b0 27 b1 29 3e 4b c0 dc be 7c 4c 4e 3e d1 03 ba 3e
       0.16571485 -0.43115458 0.20146364 0.36331037
0003c0 19 9b 82 be 9d 7b cb 3e 2b 93 01 be 21 cf 09 3f
       -0.25508955 0.39742747 -0.12653796 0.5383168
0003d0 9e 49 2a bf fb ac 61 3e 65 16 9d 3f d7 b5 1c 3f
       -0.6651858 0.22038643 1.2272459 0.61214966
0003e0 36 5b 87 bd b0 23 f3 be 5c 15 a2 3e f2 cb fe bb
       -0.06609194 -0.47488165 0.3165692 -0.007775777
0003f0 b6 58 e5 bd fe 80 22 be ed 2d 9e 3e 0f f2 9e 3e
       -0.11198561 -0.15869519 0.30894414 0.3104405

fc1.bias f4 [128]
000000 9c 68 0c 3f a5 58 cb be ad 2e 12 3f 29 40 7a be
       0.5484712 -0.39716068 0.5710247 -0.24438538
000010 c0 6b c0 be 2c f0 3c be 17 a1 14 3f 47 a6 69 be
       -0.37582207 -0.18450993 0.58058304 -0.22817336
000020 74 c0 8a bd a3 ee d3 be 14 ce e8 3e b4 b8 2d bc
       -0.06774989 -0.41393003 0.45469725 -0.010603119
000030 e7 24 b5 3e a8 bb 35 be bf 23 4b 3e 5f ab 9b 3e
       0.35379717 -0.17747366 0.19837855 0.30404183
000040 63 cd 6f 3e fc fe 9a be a5 77 94 be 66 c5 07 be
       0.23418193 -0.30272663 -0.28997532 -0.13258895
000050 cf 64 ee be a4 71 22 3f 62 96 e2 3e 27 90 55 3d
       -0.46561286 0.6345465 0.44255358 0.052139428
000060 e4 1a b6 be 0f 48 f4 bd a4 83 d7 be be 50 23 bd
       -0.3556739 -0.119278066 -0.4209262 -0.039871924
000070 60 6f 14 3f 4b 44 bf 3e a9 41 cb be 02 d5 ed bd
       0.57982445 0.3735679 -0.39698532 -0.11612894
000080 28 c0 de bd bc 88 b2 bd f7 b3 95 3e 91 f7 20 3f
       -0.10876495 -0.08717486 0.29238865 0.62877756
000090 b5 43 61 be b3 7f 39 be dc e9 1c 3f 72 4f ee 3e
       -0.21998484 -0.1811512 0.6129434 0.46544987
0000a0 60 73 a0 be d1 85 0a 3f d7 0b 87 3e 34 e3 bd 3e
       -0.31338024 0.5411044 0.2637622 0.37087405
0000b0 2f 45 db 3e fa fa 0c 3f ee ad af 3e cd 8c d0 be
       0.4282622 0.5507046 0.34312385 -0.40732422
0000c0 34 2b 24 3e d4 0b 6e bd 61 99 ad 3e 3d 94 d2 3c
       0.16032106 -0.05811675 0.3390608 0.025705451
0000d0 dc d8 21 3e dc b9 ac 3d c0 29 5a be 50 a5 d1 3d
       0.15805382 0.08433887 -0.21304989 0.10236609
0000e0 44 27 eb 3e 4e 63 fd bd 31 25 86 bd 7e c0 04 3f
       0.45928395 -0.123724565 -0.065500624 0.5185622
0000f0 7e e2 b8 3e 74 fb bb be dc c2 da be 11 b6 ca be
       0.361103 -0.3671528 -0.4272679 -0.3959203
000100 07 d2 ad 3e 3e f9 70 be 77 3b 92 be 44 7d 30 be
       0.339493 -0.23532578 -0.28560993 -0.17235285
000110 dc a6 04 3f 4b d6 7b 3e b4 5c 42 be 1b 75 10 3f
       0.5181711 0.24593465 -0.18980676 0.5642869
000120 89 00 cc 3e ef 82 a0 3e 08 28 57 3e 35 61 e8 be
       0.39844158 0.31349894 0.21011364 -0.45386663
000130 4c 97 26 be 73 8e df 3e e1 eb bb be bb ae a4 be
       -0.16268653 0.43663368 -0.367034 -0.3216456
000140 3d 79 21 be eb 14 06 3e 3f 4b a3 3e ef b3 0b 3f
       -0.15768905 0.13093917 0.31893346 0.5457143
000150 cd f4 01 3e fd 76 bd 3e c2 a9 17 3f 86 c8 27 be
       0.1269104 0.37004843 0.59243405 -0.16385087
000160 47 1d 1f be c7 e6 84 be 31 bb 0a bd cb 0e 14 3f
       -0.15538512 -0.2595732 -0.033869926 0.5783507
000170 dc e4 07 be 0c ba 04 bf f7 39 43 3e 65 1c 96 3e
       -0.13270897 -0.51846385 0.1906508 0.29318538
000180 b8 05 5e be 39 88 1a 3f ba 72 86 bb 81 26 a3 3e
       -0.21681869 0.6036411 -0.004103032 0.31865314
000190 d4 c4 9b 3e eb a9 9d 3e f5 ce 24 be 1f 08 89 be
       0.30423605 0.307937 -0.16094573 -0.26764008
0001a0 e2 ae d8 be 79 43 23 3f 01 80 e7 3e b6 5b b0 be
       -0.42320925 0.6377483 0.45214847 -0.3444497
0001b0 95 02 b8 be 7f 23 e1 3e 9f 6c 20 3f 46 44 14 3f
       -0.3593947 0.43972394 0.6266574 0.57916677
0001c0 d9 46 f9 3e 35 da 8b 3e 72 15 d0 3e 50 48 56 3e
       0.48686865 0.27314916 0.4064136 0.20926023
0001d0 ed 0d 6a 3e ad b0 88 be 01 31 cd be 93 76 6e be
       0.22856875 -0.26697293 -0.4007645 -0.2328742
0001e0 7b 33 a7 bd a9 bc 9d 3e 03 0e 95 3e 7d ed 68 3e
       -0.08164116 0.30808 0.29112253 0.22746845
0001f0 cc 47 08 bf fc f1 08 3f 7d 0b 0b bf 1c e6 0c 3f
       -0.53234553 0.5349424 -0.54314405 0.5503862

fc2.weight f4 [128, 128]
000000 6a 0d 5c 3d 82 96 4d be d4 4b 0e 3e 37 64 b6 bd
       0.05372373 -0.20076945 0.13896114 -0.08905833
000010 25 66 cb bc 7c 3d 97 be d0 90 46 3d 74 ca d2 3d
       -0.02482898 -0.29539096 0.048477948 0.10292521
000020 8e 76 af bd 44 59 b7 bd da ee de 3d 74 16 7b 3e
       -0.085675344 -0.08952573 0.10885401 0.24520284
000030 e2 2f d9 3d d9 f9 cf be ba c7 7a 3d f1 98 b7 3c
       0.10604836 -0.40620306 0.06122563 0.022411795
000040 6b 57 0f 3e 6f 98 14 bd a1 05 fb bc b1 5c 7d bd
       0.13998191 -0.036278185 -0.030642333 -0.061855976
000050 21 33 70 3c 4f 64 8a 3d 2c 08 e0 3c 05 89 38 bd
       0.014660628 0.067574136 0.027347647 -0.045052547
000060 ba ca 8a bd 39 7c a0 3d 3f 38 75 bd a8 11 ea 3c
       -0.06776948 0.078361936 -0.059868094 0.028572872
000070 d7 2c dd 3d fa df 4d 3d ca e0 40 be c1 5a 20 be
       0.10799568 0.05026243 -0.1883575 -0.1565962
000080 bd 00 3c bd f4 c3 6c be 80 07 06 3e ec 28 74 3d
       -0.04589914 -0.23121625 0.13088799 0.05960934
000090 96 67 ac bd 26 fd a4 bd bd 1e 53 3e 4c 9c 25 3e
       -0.08418195 -0.08056097 0.20617194 0.16172904
0000a0 81 e2 db bd b1 02 a4 3d f2 ec 1c 3e 40 c5 20 3e
       -0.107365616 0.08008326 0.15324762 0.15700245
0000b0 2b eb 47 3e 06 ac 3a 3e 37 65 34 3e b9 69 37 be
       0.19523303 0.18229684 0.17616735 -0.17911424
0000c0 c7 96 78 3d 19 13 57 be 35 ff 09 3e e5 a4 02 3e
       0.060690667 -0.21003379 0.1347626 0.12758215
0000d0 01 51 29 3e a9 05 9d 3d ab ab 62 be 2c 68 41 bd
       0.16534807 0.07667095 -0.22135799 -0.047218487
0000e0 ca b4 88 3d 58 35 23 bd 2e f8 0c be ea ff 0b 3e
       0.06675108 -0.039845794 -0.13766548 0.13671842
0000f0 d4 f5 cb 3d d4 ed b6 be 69 d0 16 be 53 c9 03 be
       0.09958997 -0.35728323 -0.1472794 -0.12869768
000100 02 5b 37 3e d1 da ad bc c4 5e 06 3e ce 14 5b be
       0.1790581 -0.021222504 0.13122088 -0.21394655
000110 cd b7 5b 3e ad dc b0 3d 81 50 be be ac f6 85 3d
       0.21456833 0.086358406 -0.37170795 0.065411896
000120 a3 36 bd 3d dd 17 0f 3e 54 a1 19 3e 72 77 67 bd
       0.09238937 0.13973947 0.15002948 -0.056510396
000130 55 c1 00 3e 15 56 06 3e 24 1b 44 bd f0 29 82 3e
       0.1257375 0.13118775 -0.047877446 0.2542262
000140 0e 2d ec bd 17 a6 0f 3d 5f 72 10 3e 3a f1 33 3e
       -0.11532031 0.035070505 0.14106129 0.1757249
000150 57 78 1b 3e fd 2f c9 3d b4 ff 4d 3e d4 af 91 be
       0.15182625 0.09823606 0.20117074 -0.2845446
000160 c5 b1 b9 be 12 40 ca be ff a4 32 3c 7e 6c 4f 3e
       -0.3626844 -0.39502007 0.010903596 0.2025623
000170 8a c6 6a be 25 02 83 3b d5 5c 6b bc 1d 1b 33 3e
       -0.22927299 0.0039980584 -0.014365395 0.17490812
000180 b8 7f bf 3e ff 0f 33 3d 99 31 6e 3e bb 24 34 3d
       0.3740213 0.043716427 0.23261108 0.04398034
000190 3a 9e 88 3d 43 6b f3 3c 99 e6 21 be 6b 21 69 be
       0.06670804 0.029714232 -0.15810622 -0.22766654
0001a0 d3 eb 41 3e b5 e4 02 3d d6 c6 eb 3d b3 87 4c bd
       0.18937616 0.031956393 0.11512534 -0.0499341
0001b0 15 94 96 bd 7f 72 1e 3e 57 1a 33 3e 01 07 2f 3e
       -0.07352463 0.15473364 0.17490517 0.17092516
0001c0 01 a1 e2 3d 5d c2 64 3d c6 88 9b 3d a0 81 72 bb
       0.11065865 0.05584942 0.07594447 -0.0037003532
0001d0 95 cd ce 3d 76 06 2c be a8 e2 99 3b 81 46 96 bd
       0.100978054 -0.1679934 0.004696209 -0.07337666
0001e0 a6 29 97 be 9f 70 ef 3d e8 60 19 3e f9 bd 09 bd
       -0.29523963 0.11691403 0.14978373 -0.033628438
0001f0 d7 fc 7d be 10 25 04 3e 44 56 20 be 26 88 24 3e
       -0.24803482 0.12904763 -0.15657908 0.16067562
000200 7d 99 9f 3d fd ba 4a be da 62 73 3d b1 ac 48 bd
       0.077929474 -0.19797893 0.059420444 -0.048992816
000210 1e a4 91 be 72 3c 63 bd 90 47 6a 3d 8f e9 05 be
       -0.28445524 -0.055477567 0.057197154 -0.13077377
000220 eb 4b 5c bd 00 da ba 3d ed 3d a3 3d dd cc cb 3c
       -0.05378334 0.091236115 0.07970796 0.02487796
000230 17 e2 eb bc 05 b9 4c be 53 ab 0a be 1b cd 7a 3c
       -0.028794331 -0.19992454 -0.13541918 0.01530769
000240 c8 41 40 3d 10 ed 57 bd d3 0f a8 3d d1 7e 9f 3c
       0.046937734 -0.052716315 0.08206143 0.01946965
000250 3c 5e f0 3c 3f 55 02 3d 24 0c 65 3d 70 fb 28 be
       0.02934181 0.03181958 0.05591978 -0.16502166
000260 b2 84 c0 bd 89 6b aa bd f2 94 31 be 60 92 21 be
       -0.094003096 -0.08321292 -0.17341974 -0.15778494
000270 1f 82 99 bc b0 9c c3 bd 67 19 85 3d 5f b5 80 3d
       -0.018738804 -0.0955137 0.06498986 0.06284594
000280 68 ef 8d bd 40 de 76 be d7 79 0d 3e 27 29 d3 3d
       -0.06930429 -0.24108219 0.1381601 0.103105836
000290 63 ab 1e 3d a3 7d 15 bd 0d 05 22 bd 80 47 a3 bd
       0.038737666 -0.03649677 -0.039555598 -0.07972622
0002a0 b7 a1 a0 3c 5c ae 87 3d 80 22 15 3e 07 10 f5 3c
       0.019608362 0.06625053 0.14563942 0.029914869
0002b0 68 eb c5 bb 23 95 e0 3d d8 fc d7 3d ea a0 2e 3d
       -0.0060400255 0.109659456 0.10546273 0.04263393
0002c0 a3 d9 b7 bc fe ff 09 be fd 9d 8f bd 7f 9a 9e 3d
       -0.022442644 -0.1347656 -0.07012556 0.077443115
0002d0 d9 74 22 3e 3e c7 40 3e 86 0e a1 be 86 6b 91 3d
       0.15864886 0.18826005 -0.31456393 0.071005866
0002e0 f6 3d ac bc f0 53 bb bc df 78 7f be d7 b5 91 bd
       -0.021025639 -0.022867173 -0.24948452 -0.07114761
0002f0 38 3e 30 be 07 30 1b be 90 df a8 3d e0 13 84 bd
       -0.17211235 -0.1515504 0.08245766 -0.06449103
000300 92 c8 02 3c 95 95 8a be c2 ca 0a bd 8f e1 60 be
       0.00798239 -0.27067247 -0.03388477 -0.21961044
000310 91 fc e9 3c b6 f2 b1 bd 5b 3d 12 3d 71 53 be 3d
       0.028562816 -0.086888716 0.035703044 0.09293259
000320 18 b0 2b 3d b1 7d 80 3c 6d 5a 1e be 4c c3 50 bd
       0.041915983 0.015684934 -0.15464182 -0.0509675
000330 66 8f f0 3d 15 2e 20 3e 09 f0 33 3d 56 31 af 3c
       0.11746101 0.15642579 0.043930087 0.02138583
000340 0b ee 15 3e fb 6a d8 3d 50 89 c5 3d 55 95 1e 3e
       0.14641587 0.1056728 0.09645331 0.15486653
000350 2b a1 14 3d ad 0b e3 3d 58 49 05 3e 07 ce 78 be
       0.036286514 0.11086211 0.1301626 -0.24297343
000360 5b 35 a2 be b8 68 86 3d d7 a2 af bd 5f de 2e 3e
       -0.31681332 0.06562942 -0.08575981 0.17077015
000370 7b 0c 3c be 18 aa be 3b ca 06 63 bd 1e e7 ed 3c
       -0.18364136 0.0058186166 -0.055426396 0.02904087
000380 5a 1e 02 3e d9 c0 23 3d 68 ac a4 3e 30 17 07 be
       0.1270689 0.039978836 0.32162786 -0.13192439
000390 9c e8 91 bd f9 49 44 bc 9a 76 bc bd 43 23 1e be
       -0.07124445 -0.011980527 -0.09202309 -0.15443139
0003a0 f6 56 1e 3c 64 9a 12 3e fc 57 8f 3d 57 24 9b bc
       0.009664288 0.14316708 0.069992036 -0.018938227
0003b0 6c 5f 59 bd 68 c2 44 3e a4 18 cd 3d 62 8e 3e 3d
       -0.053069517 0.19214785 0.100144655 0.046522506
0003c0 eb 7a b2 bc 07 0f c1 3d b9 c3 8b 3d fe 7b cd bd
       -0.021787127 0.09426694 0.068244405 -0.10033415
0003d0 95 38 8e 3d 9c 6a d4 3c 4b bb 5d bd b6 46 ba bd
       0.06944386 0.025929742 -0.054133695 -0.09095518
0003e0 f1 a6 21 be 58 4e 1c 3d 44 ab 15 3b 39 0d 8d bd
       -0.1578634 0.038160652 0.0022837678 -0.06887288
0003f0 f1 5a 35 bd ff 02 8c 3d 8d 5f 88 be a6 1f 97 3c
       -0.04427618 0.06836509 -0.266354 0.018447708

fc2.bias f4 [128]
000000 de 4c a3 3d 6e be 01 3e 84 e2 9d 3d 55 ca 0b 3d
       0.07973646 0.126703 0.0770922 0.034128506
000010 ce 79 73 ba c4 70 09 3e 48 41 f2 bd 60 ef 41 3e
       -0.00092878647 0.13421923 -0.11828858 0.1893897
000020 73 c1 9e 3c 1c e7 12 3e 77 5b 08 3e 39 e3 1b 3d
       0.019379353 0.14345974 0.13316141 0.038058493
000030 f9 a4 cf 3c ce 96 b3 3d c1 0b a5 3d ac ac a7 3d
       0.02534722 0.08768998 0.080588825 0.081872314
000040 8c 91 7b 3a 07 46 06 3e c7 78 74 bb 3d 7e 43 3e
       0.00095965783 0.13112651 -0.0037303434 0.19091125
000050 86 45 b4 3d 29 b8 e1 3d 1e c9 21 3d b8 ff ea 3c
       0.08802323 0.11021454 0.03949844 0.02868639
000060 2d 1a a6 b9 29 1d 40 3e 6c c8 82 3d 2d 36 df 3c
       -0.0003168149 0.18761124 0.06385884 0.027247513
000070 20 d2 d7 3d 2c ac c6 bb 54 d0 2c 3e c1 8f b1 bd
       0.10538125 -0.006063005 0.16876346 -0.08669997
000080 b9 b9 8a bd 86 3f 27 3e b2 af 40 3e 4a 97 34 3e
       -0.06773705 0.16332826 0.18817022 0.17635837
000090 86 9c c2 3c 53 20 b4 3d fa 73 be 3d dd 1e a9 bd
       0.023756277 0.08795228 0.092994645 -0.0825784
0000a0 67 89 97 3c 77 a3 21 3e 6f 65 72 bd 0d c9 c4 3c
       0.018498136 0.15785013 -0.059178766 0.02402165
0000b0 97 1b 59 3d f8 b8 84 bd af 0b 0c be 24 2c 1d 3a
       0.053004827 -0.064805925 -0.13676332 0.0005995652
0000c0 e8 a0 25 3e 2c d4 4b bd c5 5d 59 3d 41 e0 60 3d
       0.16174662 -0.04976289 0.05306794 0.054901365
0000d0 4d 2a ea bb 06 44 15 bd de 77 bf bd 2e ee b9 bc
       -0.007146156 -0.036441825 -0.09349035 -0.02269658
0000e0 5d 10 18 3e 80 37 62 3c 00 69 3a bd 39 e2 10 3d
       0.14849992 0.013807178 -0.045510292 0.035371993
0000f0 a9 19 b9 3d 6c 0e 19 3d 06 33 ac 3d 95 2d 38 3d
       0.090380974 0.03736727 0.084081694 0.044965345
000100 74 a8 11 bd 6d 6f 1f 3e af d1 5d 3b e6 3c 9d 3d
       -0.03556104 0.1556985 0.0033846905 0.07677631
000110 31 83 16 3d d8 8a 23 3e 72 38 da 3d 71 41 95 3c
       0.036746208 0.15970933 0.10655297 0.018219681
000120 86 dd 17 bd 67 8b 06 3e 85 c5 fe 3d 4e 3d 1b bd
       -0.037076496 0.13139115 0.124400176 -0.03790026
000130 70 91 c8 3d 66 32 ca bd 13 ac b9 bd 1a 06 7a bd
       0.09793365 -0.09872894 -0.09066024 -0.061040975
000140 2c 32 20 3e cb 78 4c 3e fb 4e 21 3e f2 57 a8 3d
       0.15644139 0.19967954 0.15752785 0.08219899
000150 8e 12 0c 3d 20 7a a2 bd ec 2a df 3c 75 2b 92 3d
       0.034197383 -0.0793345 0.027242146 0.07137195
000160 c7 6d 87 3b c8 02 4a 3e c3 43 e8 3d e5 8a 8e 3d
       0.0041329595 0.19727623 0.113410495 0.06960086
000170 b1 7c 4a 3e 18 da 46 3d 66 fa 47 3c 8b 79 a5 3d
       0.19774128 0.048547834 0.012205696 0.08079823
000180 a8 e9 17 3e 5f 87 ce 3d 54 a9 58 3e 65 81 c3 3c
       0.14835227 0.10084414 0.21158344 0.023865411
000190 0e 7d 38 3e 06 5d 80 3d bb 00 8d 3b 59 9e 51 3d
       0.18016455 0.06267743 0.0043030656 0.051176403
0001a0 96 46 d7 3a 60 c9 50 3d 2a 9a c2 bd bc 77 d8 3d
       0.0016424234 0.050973296 -0.09502061 0.105697125
0001b0 5b be d2 3d 4b 57 2d 3e 3e dc b4 bd 00 f2 e0 3d
       0.10290214 0.16927831 -0.0883107 0.10983658
0001c0 0a 51 b9 3c 2d 3c 01 bc 3f 0f 52 3d 88 4a 05 bd
       0.02262165 -0.007887882 0.05128407 -0.03254178
0001d0 30 c9 3a 3e 4f 51 b8 3d cb 02 4d 3c bc 73 a6 3c
       0.1824081 0.089998834 0.012512873 0.020318858
0001e0 f6 8d a8 bc a4 c1 3f 3e ea 6d 47 bd 23 f4 a0 3d
       -0.020575505 0.18726212 -0.048688807 0.078590654
0001f0 41 71 a2 3d 19 f5 4a 3e cc f5 ae bd 3f b6 30 bd
       0.07931758 0.1982006 -0.08542976 -0.043142553

fc3.weight f4 [2, 128]
000000 9d 22 84 3e c9 8a 7c 3e 6a 94 6c 3e 80 e3 a9 3e
       0.25807658 0.24662317 0.2310349 0.3318138
000010 f8 74 24 be 2a 21 8a 3e dd d2 9a be 4d 44 91 3e
       -0.16060245 0.26978427 -0.30239 0.28372422
000020 dd 1f a4 be c7 f0 61 3e 32 f9 63 3e b8 35 a0 bd
       -0.3205556 0.22064506 0.22263029 -0.07822746
000030 fd 5e 8e 3d 20 6b 70 3e 2b c1 f3 be e1 cf ef bc
       0.06951711 0.23478365 -0.47608313 -0.02927393
000040 aa b9 10 be 11 81 24 3e 22 98 a3 b9 7f 18 58 3e
       -0.14133325 0.1606486 -0.0003120313 0.21103095
000050 b0 70 63 3e ae 83 f4 3d fa 2c 07 3e 9a d9 8f 3e
       0.22210956 0.119391784 0.13200751 0.28095704
000060 5c 5d 40 3c 61 ba f0 3d 5c 1e 98 3c 1d 04 88 bd
       0.011741009 0.11754299 0.018569164 -0.066414095
000070 ae a3 98 3e ef 66 2f be 12 78 62 3e e2 93 1a 3d
       0.29812378 -0.1712911 0.22116116 0.03773869
000080 2e 4a ce be 53 b7 9c 3e 0e a6 53 3e b2 49 7e 3e
       -0.4029097 0.30608615 0.20668814 0.248328
000090 34 44 d1 be a4 ef 1c 3e b7 34 5c be 60 00 54 bd
       -0.40872347 0.1532579 -0.21504484 -0.05175817
0000a0 ef bf 0b bd 74 45 88 3e 78 cc 34 be b3 3f 02 3e
       -0.03411859 0.2661549 -0.17656124 0.12719612
0000b0 b8 a3 09 3f 08 b6 9e be 6c fd 4f 3e 53 66 f0 3b
       0.5376544 -0.30998254 0.20311517 0.0073364167
0000c0 cd 43 93 3e fe ae 49 3b 33 9d e6 3a 2b 04 a7 3e
       0.28762665 0.003077447 0.0017594456 0.32620367
0000d0 dc 07 41 3d d1 c2 ce be d7 57 bf be 87 d9 49 bd
       0.047126636 -0.40383008 -0.37371704 -0.049279716
0000e0 bc fc a9 3e 14 63 c1 be 52 77 d5 be 07 7f 8a 3d
       0.33200634 -0.37770903 -0.41692597 0.0676251
0000f0 22 cc a8 3e 10 c1 be be 0c 61 49 3d a8 85 ca 3d
       0.3296824 -0.3725667 0.049164817 0.09888774
000100 c4 d7 6c 3d 12 25 91 3e 4a e6 f7 be 60 37 a9 bd
       0.057822958 0.28348595 -0.48417884 -0.08262515
000110 82 7c a8 3e 43 1f 83 3e 28 13 8a 3e ca 96 98 3b
       0.32907492 0.25609788 0.2696774 0.0046566473
000120 5b 1d b1 be 99 ab 82 3e 65 b4 e3 3e 2a 1d b2 be
       -0.3459271 0.25521544 0.44473568 -0.34787875
000130 d7 e1 72 3e 6e 93 a1 be 50 22 a6 be 7a 55 9e 3d
       0.23718964 -0.31557792 -0.32448053 0.07731147
000140 2b e5 30 be cc 00 ad 3e 1b 1e 39 3e ac fc 91 3e
       -0.1727492 0.3378967 0.1807789 0.28513086
000150 7d e1 05 3e bb 42 b2 be 6a 55 a4 be dc e6 51 3e
       0.13074298 -0.34816536 -0.32096416 0.20498222
000160 c5 e6 e5 be 1f 05 9f 3e 94 8b 82 3d 46 9b 94 3e
       -0.44902626 0.31058595 0.06374279 0.29024714
000170 99 1a 39 3e af 31 32 be 94 32 29 3d 46 72 87 3e
       0.18076552 -0.17401765 0.041308 0.2645437
000180 ca 61 74 3e fe 60 22 be f6 c8 37 3e 6f 22 a1 bd
       0.23865429 -0.15857312 0.17947754 -0.07867896
000190 c7 77 92 3e 27 4f 8a 3e 1f 74 b3 be 82 85 34 be
       0.28607008 0.27013513 -0.3504953 -0.17629054
0001a0 ae dc 83 bc 2c a3 c5 be a7 7b cd be 8f 8e 82 3e
       -0.01609644 -0.38601053 -0.40133402 0.2549939
0001b0 ff 91 92 3e c4 b8 8e 3e f0 ac b1 be 61 24 94 3e
       0.2862701 0.2787534 -0.34702253 0.28934005
0001c0 8e a5 92 be f0 33 a1 bd d1 15 2f 3e 12 e6 b0 be
       -0.28641933 -0.078712344 0.17098166 -0.3455053
0001d0 59 0a 73 3e d5 86 43 3e 17 cc 29 be 6b 26 ab bd
       0.23734416 0.19094403 -0.1658176 -0.08356937
0001e0 71 bb 9a be 7b 23 82 3e 3d 2d c8 be 1c a8 91 3e
       -0.3022113 0.25417694 -0.39097014 0.2844857
0001f0 e6 ac 90 3e 44 c0 44 3e f7 0a 82 3d 66 69 99 be
       0.2825691 0.19213969 0.06349748 -0.29963225
000200 59 72 87 3e 81 17 84 be 7d 17 56 3e 06 b1 98 3e
       0.26454428 -0.25799182 0.20907398 0.29822558
000210 d4 74 bd be 52 a5 83 3e e8 8f d7 be fc 4a 42 3e
       -0.37003195 0.25712067 -0.4210198 0.18973917
000220 30 56 26 bd 87 1a 85 3e f4 98 42 3e a2 c8 72 3c
       -0.04060954 0.259968 0.1900366 0.014818342
000230 69 a1 54 3d 6f 9e 87 3e 62 d5 8d be 70 8b 62 3e
       0.051911745 0.26488063 -0.2770186 0.22123504
000240 58 50 ad be e0 66 93 3e ee 96 4f 3d 02 04 9f 3e
       -0.3385036 0.28789425 0.050681047 0.31057745
000250 0c f1 b6 3d a5 95 7f 3e 29 5b 70 3e c7 d3 df 3d
       0.08932695 0.24959429 0.23472275 0.10929065
000260 19 28 ca 3c e4 ca 98 3e 71 a2 10 bd d9 79 aa be
       0.024677323 0.29842293 -0.035311166 -0.33296087
000270 f5 59 4a 3e 86 a3 dd be c5 d9 92 3e 23 e5 7a bc
       0.19760878 -0.4328882 0.2868177 -0.0153134195
000280 95 e0 be be 1e f1 9d 3e ba 05 b7 3e 77 c8 8d 3e
       -0.37280717 0.3084802 0.35746557 0.27692005
000290 3e 7e 22 be 0b cb 52 3e 44 de d2 be 63 6e e2 3c
       -0.1586847 0.20585267 -0.411852 0.027640527
0002a0 6d 7e 83 3d 2b 8f 90 3e c6 35 b3 be 23 cc 8c 3e
       0.06420598 0.28234228 -0.35001963 0.27499494
0002b0 69 05 cd be 18 fb c4 be fe dd 88 be 3a f2 80 bd
       -0.4004319 -0.3847282 -0.26731867 -0.06296201
0002c0 d5 1e c6 3d 69 02 9b bd ba 7c 87 bd 51 8f b5 3d
       0.096738495 -0.07568819 -0.066155866 0.08865226
0002d0 c1 8e e2 3c e4 0e 7a be 9d 9b c3 be ef 08 a4 bd
       0.027655961 -0.24419743 -0.3820466 -0.080095164
0002e0 90 15 ba 3e e9 12 8a be 6f 53 ac be a9 97 79 3e
       0.36344576 -0.26967552 -0.33657405 0.2437426
0002f0 94 98 55 3e 8e a5 d1 be ad 3d 63 3e 58 22 a3 3e
       0.20858985 -0.4094662 0.22191496 0.3186214
000300 59 d1 7e bd e3 46 a8 3e a5 ba 81 be b9 0f ea bc
       -0.06221137 0.32866582 -0.2533771 -0.02857195
000310 92 ff 8c 3d 50 57 56 3e ec 33 02 3e d4 e5 53 3c
       0.06884684 0.20931745 0.12715119 0.012933213
000320 5f c7 8e bd af 3a 94 3e bd 44 fc 3e d1 95 bf be
       -0.06971621 0.28951022 0.49271193 -0.37418988
000330 5a 28 75 3e 80 85 a3 be c1 63 d3 be 06 ce 73 bb
       0.23941174 -0.3193779 -0.41287044 -0.0037201657
000340 bf a8 40 3e 9b db 63 3e 99 04 97 3e c1 3a 50 3e
       0.18814372 0.22251742 0.29495695 0.20334913
000350 84 e2 93 3e 82 ec 8d be f9 99 a4 be 4f 35 78 3e
       0.28883755 -0.27719504 -0.32148722 0.24239086
000360 fc 61 a1 be b2 01 93 3e 0b 25 a3 be e2 e2 54 3e
       -0.3152007 0.2871223 -0.318642 0.20789674
000370 55 92 a8 3e 16 2d b4 be 6d 6b 95 3d f6 8d 27 3e
       0.32924142 -0.35190648 0.072958805 0.16362748
000380 ae 06 8b 3e ba 7a 1b 3e fd bd 81 3e 3b 2b 9e bb
       0.27153534 0.15183535 0.25340262 -0.004826931
000390 0e a7 8d 3e 58 4d 91 3e 57 f1 58 be ec 0c b8 be
       0.27666515 0.2837932 -0.21185814 -0.3594736
0003a0 f7 36 81 bc 0d 42 a2 be c6 ed 7b be 8c c9 ca 3d
       -0.01577328 -0.31691018 -0.24602422 0.09901723
0003b0 0e ee 02 3e 13 7c fc 3d 07 6c f1 be 35 be 7d 3e
       0.12786123 0.12328353 -0.4715273 0.2477959
0003c0 fb 9a c2 be 92 f6 24 3e 33 7d 92 3e e1 3f cc be
       -0.38008866 0.16109684 0.28611144 -0.39892486
0003d0 50 2e a3 3e 7b 6c 44 3e db c3 0c be a3 8f f3 3c
       0.3187127 0.19182007 -0.13746588 0.029731577
0003e0 7a 9e 75 3d e6 39 e6 3d d3 b5 a0 be 9d 45 49 3e
       0.05996559 0.11241512 -0.3138872 0.19655462
0003f0 89 73 01 3e 61 ca 7b 3e 52 f9 3e bd 41 66 ab be
       0.1264173 0.2458892 -0.04662449 -0.3347645

fc3.bias f4 [2]
000000 ac d5 04 3e f0 fe 19 3e
       0.12972134 0.15038657
