weights/tuning/20000steps_4agents_32batch_10000cap_0.0003lr_50decay/run_4.pth (torch, 72253 bytes, 6 tensors)

fc1.weight f4 [128, 4]
000000 08 6a 2b 3e 18 04 d3 bd e0 73 96 3c 40 1c 1a be
       0.16739666 -0.10303515 0.0183658 -0.15049839
000010 40 63 b4 be 4e 2c ce be 0a b0 63 bf e5 e2 5c 3e
       -0.35231972 -0.40268177 -0.8894049 0.21570928
000020 72 02 9f be 8f 8f 94 bd 6b da 48 3f 19 e8 8d bd
       -0.31056553 -0.07253944 0.7845828 -0.06929035
000030 ea 62 83 3e 6f 90 73 bd 69 5e 27 be 55 eb 8f 3e
       0.25661403 -0.059463914 -0.16344608 0.28109232
000040 21 ec 23 be 61 47 d6 3e f0 49 80 bf 48 ed 4a be
       -0.16008045 0.41851333 -1.0022564 -0.19817078
000050 e5 47 68 3e 4b 23 ce be c4 d4 8f bf 20 88 8e 3e
       0.22683676 -0.402613 -1.1236806 0.2783823
000060 6c 14 35 3e b9 0f 85 be d9 a8 d8 3e 29 eb 53 be
       0.17683572 -0.25988558 0.4231632 -0.20695175
000070 b3 55 3b 3e 4c 92 92 be 03 e7 44 3e 05 90 e6 bd
       0.1829441 -0.2862724 0.19228749 -0.11257938
000080 d1 69 0a 3f d4 05 ce bc 03 3d c0 be fa aa e3 bd
       0.54067713 -0.025149263 -0.37546548 -0.111165956
000090 c3 ba 05 bf 85 b2 72 be d0 03 4f 3d 3c ec f8 be
       -0.522381 -0.23700912 0.050540745 -0.48617733
0000a0 09 ab cb bd d7 1e 6c 3e f2 6d b1 be 3d d0 88 3e
       -0.09944732 0.2305864 -0.34654194 0.26721373
0000b0 a5 ab b3 3e c7 30 13 bd 79 22 9c be 77 b5 42 3d
       0.35091892 -0.03593519 -0.3049505 0.04753634
0000c0 26 e0 9e be 23 88 e0 3e c8 af c2 3e 4e 6c a5 be
       -0.31030387 0.43853864 0.38024735 -0.32309192
0000d0 3a 90 3a 3f 9f fb 31 3e b9 b0 a9 3e 24 24 34 bd
       0.7287632 0.17381142 0.3314264 -0.04397978
0000e0 fd 32 98 3e d3 27 94 3e 28 f8 d0 be e7 e4 08 3f
       0.297264 0.28936633 -0.40814328 0.5347428
0000f0 3f f0 3a 3d 89 49 85 be b6 09 55 3f ae 55 9a 3e
       0.045639273 -0.26032665 0.8321794 0.30143493
000100 3d dc cc be c3 99 f9 3d 1e b7 36 3f 77 3e b6 be
       -0.40011778 0.12187531 0.71373165 -0.35594532
000110 9d 60 76 be e1 56 9c 3e 65 9b 19 bd 49 22 81 be
       -0.24060293 0.30535033 -0.03750171 -0.2522147
000120 f8 4e fd 3e d9 5c ca be 0e ec e9 be b4 64 ea 3e
       0.4947431 -0.39523962 -0.45687908 0.45779955
000130 6d 60 df be 19 43 9c 3e d3 5f 0b be c1 16 24 3f
       -0.43628255 0.3051994 -0.13610773 0.6409722
000140 5e ea 05 3e dd a6 be 3d 84 e7 83 3e 9f 5b 69 bd
       0.13077685 0.093091704 0.2576257 -0.056972142
000150 8a 44 20 be bd 73 02 3c 4d aa ac bf 82 73 30 be
       -0.15651146 0.0079621645 -1.3489472 -0.17231563
000160 d1 57 3b bd db af bf be dc 85 d7 bd f1 dc 73 be
       -0.045738045 -0.37438855 -0.105235785 -0.23814751
000170 f8 56 f8 be 37 4c db bd 18 0f a7 3f 88 4c d6 3d
       -0.48503852 -0.10707896 1.3051481 0.10463816
000180 e1 6c e6 3e d5 2c 4e be a0 b8 4e bf ff 1a 72 3e
       0.45004943 -0.2013429 -0.80750465 0.2364311
000190 79 c8 dd be 24 cc 29 be 7c b2 98 3f 37 f1 06 3e
       -0.4331701 -0.1658178 1.1929469 0.13177954
0001a0 cf 78 56 be 2b d3 a2 3d 63 fa 5e bf 8f 09 84 be
       -0.20944522 0.07950433 -0.8710081 -0.25788543
0001b0 b3 6f 10 3c 33 06 cb bd 3a 13 53 3f 67 1c aa 3e
       0.008815694 -0.09913292 0.8245121 0.33224794
0001c0 a8 b3 bc 3d fe fb 35 3d 38 91 7e bf c3 dd 9e be
       0.09213954 0.04442977 -0.99440336 -0.31028566
0001d0 5a bd 34 be da c4 a0 be 4b 25 19 bf a3 24 88 3e
       -0.17650357 -0.31400186 -0.5982253 0.26590452
0001e0 16 48 02 bf ff ff 6f be 09 29 88 3f 96 e7 70 3e
       -0.50891244 -0.23437499 1.0637523 0.23525843
0001f0 fa 72 d2 be 45 0d e2 3e 73 05 a5 bd f3 ef c4 3e
       -0.41103345 0.4415075 -0.0805768 0.38464317
000200 75 98 7a 3d 97 45 f1 be cf 88 2d bf 4a 02 86 3e
       0.06118055 -0.47123405 -0.6778688 0.2617362
000210 29 15 d9 3d b0 e3 3c 3c 09 85 5a 3f bc 28 8c 3e
       0.10599739 0.011528894 0.85359246 0.27374828
000220 60 63 e2 3e dd 10 05 bf 9b f1 d6 3e 55 14 43 be
       0.44216442 -0.51978856 0.41981205 -0.19050725
000230 6d 54 0e be d0 c8 c9 3e ee bb 33 3f 40 0f ff 3d
       -0.13899393 0.3941102 0.7020863 0.124540806
000240 4f 6b 6e 3d af c8 87 be 13 79 1a 3f f8 2e 8b 3e
       0.058207806 -0.26520297 0.60340995 0.27184272
000250 de 5d b4 3e 23 ea 0c be 29 09 b0 be 0f 85 c4 3e
       0.35227865 -0.13761191 -0.3438199 0.38382766
000260 9f 8c 01 bf 03 75 b3 3e 77 47 9c bf 67 bb 41 be
       -0.50605196 0.3505021 -1.2209309 -0.18919145
000270 7a 6e 12 bf 15 04 f6 3c 1a 9a 2e 3f fc 36 7b 3e
       -0.57199824 0.030031243 0.6820389 0.24532694
000280 aa 76 af bd 59 72 9e 3e cd 92 2b bf f6 19 f5 be
       -0.08567555 0.30946615 -0.67020875 -0.4787137
000290 e9 39 8c be fa 59 83 be 96 40 35 3e f6 d3 c2 bd
       -0.27387932 -0.25654584 0.17700419 -0.095130846
0002a0 b3 99 04 3d f1 1f ae bd 3a ac 9a bf b2 62 9c be
       0.03237314 -0.08502186 -1.2083809 -0.3054405
0002b0 bc c2 b6 bc a6 7c 84 be c4 5c 8d 3f f0 81 a0 3e
       -0.022309653 -0.2587635 1.1043935 0.31349134
0002c0 db ce 42 3c 2a f1 93 3e aa 7f 17 3f 24 72 98 3e
       0.0118901385 0.2889493 0.59179175 0.29774582
0002d0 48 fa b2 3d be 62 d8 3e 4f 1d 2a 3f 7d 4c 39 be
       0.087391436 0.42262834 0.6645097 -0.18095584
0002e0 5c 8c 3d 3d 6b 8d 41 3d 5e a4 11 3f 21 37 a5 3e
       0.046276435 0.047254007 0.5689143 0.32268623
0002f0 b4 57 2a bf ec 06 ee 3d 6e 60 f4 3c 39 94 1b 3e
       -0.66540074 0.11622414 0.029831138 0.15193261
000300 35 a6 83 3e 10 f3 ce be ed 7b 2f 3f 02 a3 99 bc
       0.25712743 -0.40419817 0.6854847 -0.018754486
000310 63 a0 b2 bd 2a 73 b2 3d 7f 11 78 3f e5 ac c7 3e
       -0.087219976 0.08713372 0.96901697 0.38999096
000320 64 36 a2 3e 22 19 89 3d 8a 82 de 3d f8 6f e0 3d
       0.31682122 0.06694247 0.10864742 0.10958856
000330 75 d7 fa 3e c8 76 15 3d 36 71 72 3e e3 93 cd bd
       0.48992506 0.03649023 0.23675999 -0.10037973
000340 df b1 9c bd ea 44 d3 be 7b f1 59 bf fc ba a7 3c
       -0.07651114 -0.41263515 -0.85134095 0.020474903
000350 8e 3c c0 be 03 09 88 be 4f e9 a7 bd b5 59 bf be
       -0.375462 -0.26569375 -0.08198797 -0.3737313
000360 2b 89 1e 3f a7 c7 a6 3e 29 43 97 be e2 a8 15 bf
       0.6192805 0.32574198 -0.29543427 -0.5846082
000370 3f ef 9e be 09 8a 60 3e 20 71 d2 be 73 de 08 bd
       -0.31041905 0.21927656 -0.41101933 -0.03341527
000380 7e 3a 9d 3e ab e5 97 bd a4 14 94 bf ab 72 c8 be
       0.30708688 -0.074168526 -1.1568799 -0.39149985
000390 60 97 42 be 1a 8e 97 3d 41 bb 41 bf 90 07 e9 3e
       -0.19003057 0.074001506 -0.7567635 0.45513582
0003a0 17 91 d3 be 61 6e 1a 3e fa f3 84 3d be 41 b4 3d
       -0.41321632 0.15081169 0.06491847 0.08801602
0003b0 81 ec 18 3e c2 b7 84 be 9a 82 8c bf 23 86 8e 3e
       0.14933969 -0.25921446 -1.0977356 0.27836713
0003c0 51 a1 02 3f 3b fb 20 be 62 0a b5 3e 62 e3 fa be
       0.510274 -0.15720837 0.35359484 -0.49001604
0003d0 8f 28 ff be 38 a9 87 3e 20 20 54 3f 2b d4 c2 be
       -0.4983563 0.2649629 0.8286152 -0.38052496
0003e0 d3 2e 61 3d 80 b7 15 be 5d a8 fe be 49 e4 56 3e
       0.054976296 -0.14620781 -0.49737826 0.20985521
0003f0 ff e2 88 3d 06 8f 33 be 71 59 71 bf c7 59 f1 3e
       0.06683921 -0.17535028 -0.942771 0.47138807

fc1.bias f4 [128]
000000 ec df fe be ac b2 9b 3d f0 58 9e 3e 48 af 71 3e
       -0.49780214 0.07602438 0.3092723 0.2360202
000010 c6 62 87 bd f9 52 ce 3d 35 6a 01 3f bf 0f 0b 3f
       -0.066106364 0.100744195 0.50552684 0.543209
000020 d5 fa be be 32 81 d1 3d 01 21 b9 3e 88 f2 cb 3e
       -0.37300745 0.1022972 0.36157992 0.39833474
000030 ac 54 f5 3e 19 23 55 be f9 98 1a bc 16 60 58 bd
       0.47916162 -0.2081417 -0.009435886 -0.05282601
000040 d5 ad 02 3b cc 7d f7 3e b4 c0 bc be 88 e4 76 3e
       0.0019940038 0.48338163 -0.3686577 0.24110615
000050 f2 1e a9 be e8 ff 4c be b9 87 17 3e 40 60 84 be
       -0.33031422 -0.20019495 0.14797868 -0.25854683
000060 e7 20 4b bc 5e 58 8b be 4e 4f ce 3e b8 ac 18 be
       -0.012397981 -0.27215856 0.4029488 -0.14909637
000070 8c 81 96 be 3c 21 8d 3e a5 8d ac be 67 df 4a be
       -0.2939571 0.27564418 -0.33701816 -0.19811784
000080 63 be 01 be 2e e4 c9 3e 57 f7 34 be 44 a8 5f 3e
       -0.12670283 0.394319 -0.17672478 0.21841532
000090 ec d3 ea be e5 c3 1e 3f 0c 53 7d be 86 e0 89 be
       -0.4586481 0.6201766 -0.24738711 -0.2692911
0000a0 b8 48 75 3d 02 6e a4 be 30 d5 6f be 83 14 2d bd
       0.059883803 -0.3211518 -0.23421168 -0.04225589
0000b0 29 57 07 3f af aa 59 be 46 2e b4 3e 7d c0 07 3e
       0.5286737 -0.21256517 0.35191554 0.13257022
0000c0 7a 0d b3 be ff 79 28 be d4 65 19 3f 05 e9 b6 3c
       -0.3497122 -0.16452788 0.59921 0.02232791
0000d0 5c 7c 2f 3e d7 68 07 3f 11 08 9a be ad 8f 1d 3f
       0.17137283 0.5289435 -0.3008428 0.61547357
0000e0 b3 37 88 be d0 ae 15 3c 56 88 dd 3e b4 8a 74 bc
       -0.26604995 0.009135917 0.4326808 -0.0149256475
0000f0 d9 ae f3 3e 33 08 0c be ca c5 85 3e e1 84 3d be
       0.47594336 -0.13675003 0.26127464 -0.1850772
000100 7f a7 d0 3e 4b b9 b1 be c0 29 21 3f a8 c4 5d be
       0.4075279 -0.3471168 0.6295433 -0.2165705
000110 63 17 09 bf 20 f5 1e be 8d ff 19 bf d5 d3 f3 3d
       -0.5355131 -0.15523195 -0.60155565 0.11905638
000120 90 12 4b 3e b3 55 d6 bd 47 3d a7 be b2 f1 75 3e
       0.198313 -0.104655646 -0.32663938 0.2401798
000130 e4 32 fb 3e 73 0b 02 3e 34 56 24 3e ef 74 9b be
       0.49062264 0.1269968 0.16048509 -0.3036265
000140 46 3a 42 be 64 1f 98 be 0e c3 5f bd b7 83 90 3e
       -0.18967542 -0.2971145 -0.054629378 0.2822549
000150 8b d1 c2 bd c9 be cf be f3 60 f4 3d 55 8f 4b 3e
       -0.095126234 -0.40575245 0.11932554 0.19878896
000160 37 ee e5 3e c6 86 eb be 32 a4 ef be df ce a1 3e
       0.44908306 -0.4600126 -0.4680496 0.31603143
000170 4c b3 9e bd c3 4f 14 3e 6e db 90 be e2 c9 90 be
       -0.07749042 0.14483552 -0.28292412 -0.28279024
000180 96 43 7d be dc 01 9a 3e f5 3e 95 be 07 0e 7e 3e
       -0.24732813 0.30079544 -0.29149595 0.24810039
000190 1a c0 00 3f 3e 05 c8 3e 31 35 27 3e ad 5b b9 be
       0.50293124 0.390665 0.16328885 -0.36202756
0001a0 4c 21 9f be 44 22 58 be a2 76 0c 3f 03 eb 7d be
       -0.3108009 -0.21106821 0.5486852 -0.24796681
0001b0 90 af f8 be ef 68 19 3f 8d ca 61 3b 9c 4f 2d bd
       -0.48571444 0.5992574 0.0034453005 -0.04231225
0001c0 ec 88 df 3c bd ff 01 3f b2 6c bb 3e 56 63 0e bf
       0.02728697 0.5078085 0.36606365 -0.55620325
0001d0 ec 6b a7 3e 8d fc 83 be df 24 d2 bd b4 87 6e be
       0.32699525 -0.25778618 -0.10260939 -0.23293954
0001e0 97 9e 16 3f 7a 60 08 3f eb 18 03 3f da 0d 2e be
       0.5883574 0.5327221 0.51209897 -0.16997471
0001f0 64 a5 4d 3e e8 19 8e 3e 78 52 49 be 71 51 e7 be
       0.20082623 0.2775414 -0.19660366 -0.45179322

fc2.weight f4 [128, 128]
000000 bf a0 50 3c 8a e7 80 3d 4c 42 f1 3c 10 13 ed 3d
       0.012733637 0.062941626 0.029450558 0.115759015
000010 57 41 36 be 81 f8 2d bc 68 e2 20 3e 98 3a 2d 3e
       -0.17798363 -0.01061833 0.15711367 0.16916883
000020 a2 ee 12 3e 68 eb 38 3e ec 5c 16 3c 64 c0 1a 3e
       0.14348844 0.1805855 0.009177428 0.15112454
000030 24 d8 0d 3d 6c 87 bf 3d c7 40 95 3d b6 4e 01 be
       0.034629956 0.093520015 0.07287746 -0.12627682
000040 06 3e 40 3e d6 73 f4 3d 40 0f 12 be 0b 91 9c 3d
       0.1877366 0.119361565 -0.1426363 0.07644852
000050 10 96 1c 3e 80 4c 34 bf d0 fe 9b 3d 50 c0 e0 be
       0.1529162 -0.7042923 0.07616961 -0.43896723
000060 28 c8 69 3d 16 7a a1 be 0d 4f 17 3d c8 8b 40 be
       0.05707565 -0.31538457 0.036940623 -0.18803322
000070 4b 42 f0 be c8 35 09 3d 77 9f 4b be d8 4b 88 3d
       -0.46925578 0.033498555 -0.1988505 0.06655091
000080 0f 44 d0 3d 02 0d 34 3d 6b bc 79 be 9b e6 26 3d
       0.10169231 0.043957718 -0.24388282 0.040747266
000090 23 7f e3 bd da cf f8 3d 44 5c 27 be c4 ef a0 be
       -0.11108234 0.121490195 -0.1634379 -0.31432927
0000a0 04 ba 89 bc b9 86 c6 bd 24 66 33 bf 28 48 45 bc
       -0.016812332 -0.09693665 -0.7007773 -0.012041129
0000b0 c3 c9 5b 3c cd 95 3a 3d 7f c2 f6 3d d2 d0 22 3e
       0.013414803 0.045553017 0.12048816 0.15899971
0000c0 c7 4b 8b be 35 61 c7 be 50 1a ff 3d 48 2a 02 3e
       -0.2720625 -0.3894135 0.124561906 0.12711442
0000d0 b3 7f eb 3d 46 59 1e 3e 04 8c 06 3e e2 4f e5 3d
       0.11498966 0.15463743 0.13139349 0.11196877
0000e0 1f cd e9 be 1d 87 c6 3e 21 65 07 3d 50 31 be 3c
       -0.45664307 0.38774958 0.03305543 0.023216873
0000f0 73 86 ff 3d 53 3e 11 3e e5 7f b9 3d 05 77 a9 3d
       0.12476816 0.14183931 0.09057597 0.08274654
000100 db 38 28 3a ce be 96 bc ca ec 02 3e 96 22 37 be
       0.00064171635 -0.01840153 0.1278564 -0.17884287
000110 cb f8 a6 3d 2e 8e 08 be 99 f3 a6 bc 9c 87 55 3e
       0.08152922 -0.13335487 -0.020379828 0.20852512
000120 83 52 14 3e ba 2a 44 be f0 0f e2 be 8d 53 a5 3c
       0.144846 -0.19156924 -0.44152784 0.020181442
000130 2e 2f 4a 3e c7 d8 57 3d 6a da 45 3d 1e 2f ca be
       0.1974456 0.05269697 0.048304 -0.39489073
000140 3b 95 0c bf 54 86 f6 b7 78 4c ad bd 8e 38 f2 bc
       -0.5491521 -2.9388037e-05 -0.08461851 -0.029567983
000150 7c 83 f6 bd 32 20 da bd 7a bb f8 3c fb 18 9e 3d
       -0.120367974 -0.10650672 0.030362833 0.077196084
000160 1a b0 b2 3d 97 df 32 be fe 53 8f be 71 2e 32 3e
       0.08724995 -0.17468105 -0.27993768 0.17400528
000170 96 d5 6e be 08 88 84 be be 77 da be 04 bb 87 3d
       -0.23323664 -0.25885034 -0.4266948 0.06627467
000180 a2 21 95 be 89 a6 17 3e e6 4f de be 84 f9 ee 3d
       -0.29127222 0.14809622 -0.43420333 0.11668685
000190 da f0 8a 3d 3b 0f 39 3d 35 d0 34 3e 98 be 20 3d
       0.0678422 0.04518054 0.1765755 0.039244264
0001a0 de 72 d3 bd a1 a6 18 be d5 40 4f 38 f8 77 44 be
       -0.103246436 -0.14907314 4.9413025e-05 -0.1918639
0001b0 46 ad ee be 7f 42 bc 3c 7a 3c 2f 3d b7 51 35 be
       -0.46616572 0.022980927 0.042782284 -0.17706953
0001c0 44 07 31 3c f4 9c 0b 3e 50 5e 0a 3e e7 74 17 3d
       0.010804955 0.13634092 0.1351254 0.03697672
0001d0 a0 f8 e2 3d d6 24 8f be b5 53 6d be eb 9b 3f bf
       0.11082578 -0.2795779 -0.23176463 -0.74847287
0001e0 28 03 f3 3d 05 58 2e 3e 85 66 3a 3d ff a7 04 bf
       0.118658364 0.17025764 0.045507926 -0.5181884
0001f0 59 da 05 3e 1f b0 3a 3d 3f f3 00 3f cb 45 34 be
       0.13071574 0.04557812 0.50371164 -0.17604749
000200 46 71 81 bd 90 61 22 3e 8a b5 77 3c 50 b1 0c 3e
       -0.06320433 0.1585753 0.015118966 0.13739514
000210 e4 94 36 be 0a 6b f0 3b da f3 db 3d c7 ed 22 3e
       -0.17830235 0.007336979 0.1073987 0.15911017
000220 d9 38 06 3e 80 f6 f1 3d 39 00 0d 3d 8d 6d 14 3e
       0.13107623 0.11814594 0.03442404 0.14494915
000230 74 34 08 3d 7d 5d ac 3d e4 69 64 3e be c9 0a 3c
       0.03325315 0.08416269 0.22306019 0.008470951
000240 fc 1f 8e 3e da df ca 3d 18 6e 5c bd 86 15 0c 3e
       0.27758777 0.099059775 -0.05381593 0.13680086
000250 fb 55 ea 3d b4 d5 2d bf fb 31 95 3d c8 d0 f5 be
       0.11442181 -0.6790421 0.07284924 -0.4801085
000260 1f 1a a7 3d 9b 2a 73 be 70 0b d4 bd c3 b5 83 bd
       0.08159279 -0.23746721 -0.10353744 -0.06431153
000270 d3 1d ef be ef 03 00 3e 81 0f fd bd 60 65 8a 3d
       -0.46702442 0.125015 -0.12356473 0.06757617
000280 77 fc d2 3d 0a 88 89 3c 16 63 30 be fa ee 91 bc
       0.1030206 0.016788501 -0.17225298 -0.017814148
000290 9c 4d 0b be d7 d1 82 3d dc 65 28 be af 3b 84 be
       -0.13603824 0.0638768 -0.16445106 -0.25826785
0002a0 dd 0e e7 bc 29 76 71 3a 76 b2 5d bf 31 60 80 bd
       -0.02820533 0.00092110276 -0.86600435 -0.06268347
0002b0 b5 14 ec 3d b1 2a 93 3d 2b 00 2d 3e 8e 22 69 3e
       0.11527387 0.07185877 0.16894595 0.22767088
0002c0 b4 99 b1 be ec 18 a5 be aa 7c 0d 3e 18 57 95 3d
       -0.3468758 -0.32245576 0.13817087 0.072920024
0002d0 75 da 6c 3e f9 e0 fc 3d b0 59 a7 3c 8f 06 a2 3d
       0.2313021 0.12347598 0.020428509 0.07911407
0002e0 ba 12 12 bf f2 d5 06 3f d5 6b 40 3e 72 52 7a bd
       -0.57059824 0.52670205 0.18791135 -0.061113782
0002f0 40 a7 20 3d a5 f9 99 3d 04 49 ba 3d 16 97 c2 3d
       0.039222002 0.07518319 0.09095958 0.095014736
000300 45 cf 60 3d 75 24 10 be 85 76 9e 3c c5 4b 87 be
       0.054885168 -0.14076407 0.019343624 -0.26424995
000310 0b 7b ac 3d ef cf 07 be b4 51 ef 3c 3d 85 93 3d
       0.08421906 -0.13262914 0.029213764 0.072031476
000320 48 bc 0b 3e 38 54 7f bd 2e a3 b7 be 56 fd f7 3d
       0.13646042 -0.062336177 -0.35866684 0.12108867
000330 a3 1d 27 3e 1c 8b da 3d cb e3 d8 3c 86 e1 43 be
       0.163199 0.10671064 0.026475808 -0.19128999
000340 69 14 dc be 8f 20 24 3c a8 24 6c 3d 72 aa e2 3d
       -0.42984322 0.010017528 0.057652146 0.11067666
000350 8e 77 89 bd 76 1d 31 3d 81 03 ee 3d e4 e6 1e 3e
       -0.06712256 0.043240987 0.11621762 0.15517765
000360 56 ba 0a 3e 82 1b 47 be a3 54 9e bc b9 b0 ec 3d
       0.13547644 -0.19444087 -0.019327467 0.11557145
000370 87 83 19 be e4 86 4c be 95 99 0a bf 28 03 84 3d
       -0.1499158 -0.19973332 -0.541406 0.064459145
000380 23 e1 df be 79 61 26 3e 23 7d 30 bf 42 36 93 3d
       -0.43726453 0.1624812 -0.68940943 0.07188083
000390 c1 f5 32 3e d5 0d 3e 3e db 05 0a 3e aa cf 32 3d
       0.1747656 0.18559964 0.13478796 0.043655075
0003a0 04 83 6c be 7b d3 f5 bd 13 f9 c1 3d 29 37 36 be
       -0.23096853 -0.12003227 0.09471335 -0.1779448
0003b0 21 c7 a9 be 04 3f d8 3d 46 26 e9 3d 48 8d 56 be
       -0.33159736 0.10558894 0.11384253 -0.20952332
0003c0 e5 d6 9d 3d 48 b7 df 3d 12 3a 1e 3e a2 52 09 bd
       0.077070035 0.1092363 0.1545184 -0.03352607
0003d0 cb 19 9b 3d ee bd 37 be bf cc e7 bd b5 aa 31 bf
       0.07573279 -0.17943546 -0.11318349 -0.69401103
0003e0 bc 6b db 3d f2 31 52 3e b7 7b 50 3e 1a 8c 27 bf
       0.10713908 0.20526865 0.20359693 -0.65448153
0003f0 46 1b 0c 3d 3e 33 3b 3e 5b 82 9a 3e fb ab 36 be
       0.034205697 0.18281266 0.30177578 -0.17839043

fc2.bias f4 [128]
000000 c1 6c c7 3d ca bd 8a 3d 3f 3b 06 3e 2a 1e ab 3d
       0.0973754 0.06774481 0.13108538 0.08355363
000010 9a d8 d6 bc d0 90 17 3d 90 b2 39 3e 85 47 c5 3d
       -0.02622633 0.03700334 0.18134522 0.09632782
000020 b9 33 8a 3d b6 6b 42 3e df d3 51 bc ce 5d 96 3d
       0.067481466 0.18986401 -0.012806862 0.073421106
000030 6b 9f 19 3e df c9 c9 3d 95 c4 88 3d 04 6f 91 3c
       0.1500222 0.09852957 0.0667812 0.017753132
000040 e1 36 bd 3d 9d 55 bd 3d 59 f2 84 3c 81 00 44 3c
       0.09238983 0.09244845 0.016228842 0.011963011
000050 09 79 e3 3d e2 e6 e1 3c 98 4b 9c bd 2f 16 c5 bd
       0.1110707 0.027575914 -0.07631606 -0.09623372
000060 34 29 21 3e 2f 25 99 3d c7 dc 01 3e 6a 82 0a 3b
       0.15738374 0.07477795 0.12681876 0.0021134862
000070 4c c3 21 3e 95 c0 35 3e cf c8 68 3e 47 3c 0a 3e
       0.15797156 0.17749245 0.22732852 0.13499556
000080 99 db a1 3b bc 6f 02 3e 19 90 80 3d 55 ac 1c 3e
       0.004939508 0.12737936 0.062774844 0.15300114
000090 be 93 11 3e 69 df 54 3d 99 d3 a9 3c 6e f3 4d 3d
       0.14216515 0.051970873 0.02073078 0.05028098
0000a0 88 3e 32 3e 03 f3 3a 3d a9 87 f5 3d 2a e4 2a bd
       0.17406666 0.04564191 0.11988766 -0.0417215
0000b0 4d cb 09 3d 29 2b 7f 3d 54 a5 3b 3e cf 8c 56 bd
       0.03364115 0.06229702 0.18324786 -0.05238038
0000c0 4e 28 ca 3d 26 4e 9b 3b b6 91 f2 3d f8 c5 1f 3d
       0.09870969 0.0047395406 0.118441984 0.039007157
0000d0 16 a6 8c 3d b6 f9 0e 3d ff 50 bb 3c 8c d3 33 3e
       0.06867616 0.03490611 0.02286577 0.17561167
0000e0 77 e9 57 3d 69 26 12 3e 30 c0 fa 3d 83 83 bc 3d
       0.052712884 0.14272465 0.12243688 0.09204771
0000f0 e6 a2 ca bd 36 f2 07 bd b8 bd 85 bd 05 e6 7c bc
       -0.09894352 -0.033189975 -0.065303266 -0.0154357
000100 a4 42 2c 3e b9 a5 71 3d 78 be 92 3c 9e 7e 2b 3d
       0.16822296 0.058995936 0.017913088 0.0418688
000110 e1 25 3c 3e fb 36 d2 3d 44 6e ac bc 81 4a 5a 3d
       0.18373825 0.10264393 -0.021048672 0.05329371
000120 af 4b 61 3d a3 90 95 bd 3c b4 8c 3d 99 1f e3 3c
       0.055003818 -0.07302978 0.068703145 0.027725028
000130 83 48 41 3e b4 82 32 3e 7b 84 60 3c 61 f6 38 bc
       0.18875317 0.17432672 0.013703461 -0.01128921
000140 3b ab 2c 3e ec e5 5c bd d0 75 00 3c 53 4b 4e 3e
       0.16862194 -0.053930208 0.007840589 0.20145921
000150 2a cb 83 3b cc 8f bd bc 64 b6 57 bd f5 88 3b 3e
       0.004022022 -0.023139857 -0.052664176 0.18313964
000160 f5 ab 47 3e 3a 17 36 3e fa 69 16 3e bf 52 9d bd
       0.1949919 0.17782298 0.14688864 -0.07681798
000170 24 a0 38 3d 9d 5a b3 bc 89 38 31 3c 28 ee b7 3c
       0.045074597 -0.021893794 0.010816702 0.022452429
000180 91 10 aa 3d 7e 2d 83 3d 80 bc 84 bd 55 1a df 3d
       0.08303941 0.06405161 -0.06481266 0.10893694
000190 34 4f bf 3d 72 22 46 3d ed f8 26 3e 31 fe 02 3e
       0.09341279 0.048372693 0.16305895 0.12792279
0001a0 db fc 3f 3e 2d 00 56 3d a6 0b 2c 3e d5 1b 4c 3c
       0.187488 0.05224626 0.16801319 0.012457808
0001b0 95 35 12 3e a4 87 07 3d af 38 1b 3e 43 de ff bb
       0.14278252 0.03308834 0.15158342 -0.007808478
0001c0 e6 41 22 3e 58 f8 1f 3d 98 cf 29 3e 26 b7 d2 b8
       0.15845451 0.0390552 0.16583097 -0.000100476944
0001d0 22 cc 00 3e 9f 88 94 bc ec 16 f4 3d 88 2c bc bb
       0.1257787 -0.018131552 0.119184345 -0.005742613
0001e0 5e 63 e3 bc cb c2 ef 3d dc 8b 9e bd 0f 46 51 3d
       -0.027757343 0.11707076 -0.0774152 0.051092204
0001f0 51 1c 66 bd 42 25 47 3d ad ab 56 3d ed fa f6 3d
       -0.05617935 0.048619516 0.052409817 0.12059579

fc3.weight f4 [2, 128]
000000 45 4d bd 3e 2d 99 8f 3e 7f 9b 67 3e a0 0a bc 3e
       0.36973014 0.2804655 0.22617911 0.36726856
000010 4c 6f 96 bd c9 e7 83 bd 2b 2e a4 3e c3 85 c6 3e
       -0.07345447 -0.06440694 0.32066473 0.38773927
000020 15 60 52 3e 52 7c a3 3e 3a 5c 17 be e0 0c 77 bf
       0.20544465 0.31930786 -0.14781275 -0.9650402
000030 25 6a d1 3e 12 fe e1 3e a9 a4 7e 3e a9 c5 e6 3e
       0.40901294 0.44139153 0.248675 0.45072678
000040 e5 c3 44 bf 79 69 b8 3e 38 7d b7 3e 42 50 a7 3e
       -0.7686141 0.3601797 0.35837722 0.3267842
000050 c9 04 de 3e 9f fd a2 3e 67 6d 0d bd 0b 80 86 3d
       0.43363026 0.31834123 -0.034528162 0.06567391
000060 48 1b 9d 3e d5 1a da 3e c6 32 94 3e b9 cf 9d bd
       0.30684876 0.42598596 0.28944987 -0.077056356
000070 a8 98 20 3d 20 6b 8c 3e 81 f1 38 3d e8 3a d7 3e
       0.039208084 0.2742548 0.04515219 0.4203713
000080 97 c0 65 bf 71 db b1 3e 8c 52 6f bd d9 05 a4 3e
       -0.89746994 0.34737733 -0.058428332 0.3203571
000090 c9 53 89 3e 42 24 34 3d b6 70 04 bd ba 9e a3 3e
       0.26821736 0.04397989 -0.032334052 0.31957036
0000a0 5c 0b 03 3e c3 38 fd 39 dd 71 83 be d9 b4 49 bf
       0.12797302 0.0004829821 -0.25672808 -0.78791577
0000b0 5c ea 79 3e 4e cd 54 bd bc a1 82 3e 71 19 33 3d
       0.24405807 -0.051953606 0.2551402 0.043725435
0000c0 48 f5 bc 3e 1c 97 26 bf dd 8e d0 3e 14 bc 5b be
       0.36905885 -0.65074325 0.40733996 -0.21458465
0000d0 ab 52 47 bd bc 8b d8 3e f7 48 84 bd dc 40 b6 3e
       -0.048662823 0.4229411 -0.064592294 0.3559636
0000e0 80 a1 3e bf a6 e0 d4 3e 2e 98 97 3e 7b f9 ee 3e
       -0.7446518 0.41577643 0.2960829 0.46674713
0000f0 94 9b 4a bf fd 8d 71 bc 69 a1 7e 3d af a4 34 bf
       -0.79143643 -0.014743325 0.06216565 -0.7056379
000100 29 b0 c0 3e 83 2b 2c bc ef e1 cc 3e 38 5c 8d bd
       0.376344 -0.010508421 0.40016124 -0.06902355
000110 1b 4f b4 3e d6 08 2b 3d 3c e2 6f 3d e9 84 8a 3e
       0.35216603 0.041756473 0.058565363 0.27054527
000120 11 25 dc 3e 77 f1 5d bd 96 5d e6 3e d1 2a 56 bf
       0.4299703 -0.054185357 0.44993275 -0.8365908
000130 d8 40 2e 3e f7 17 62 3d a6 61 16 bc f4 60 05 bd
       0.17016923 0.055198636 -0.009178555 -0.032563165
000140 64 81 dc 3e 53 7e 8e bd b2 7f a5 3d 41 f5 ef 3e
       0.43067467 -0.06957688 0.080809966 0.468668
000150 e5 8f 55 bd 51 49 8e bd 53 e1 83 be 96 19 78 3e
       -0.05213918 -0.06947578 -0.25757846 0.2422851
000160 a2 ee 0f 3e bb ca f5 3e 21 73 9b 3e 59 f4 2f 3d
       0.14055875 0.48006234 0.30361274 0.042957637
000170 eb ec 81 3e 77 72 85 bb 7b 19 99 3d 90 f9 71 bf
       0.25376067 -0.004072483 0.07475563 -0.9452143
000180 2b ef 0b be d8 9f 0f be 83 33 24 bf 03 32 9d 3e
       -0.13665454 -0.1402582 -0.641411 0.30702218
000190 00 7c d2 3e 45 8d 28 bf 73 6e f0 3e 50 5b ba 3e
       0.4111023 -0.6584056 0.46959266 0.3639779
0001a0 e5 d4 a1 3e 00 65 12 bd 00 5d 02 3f 78 32 1e 3d
       0.31607738 -0.035740852 0.50923157 0.03862235
0001b0 d1 ae 95 3e 72 10 03 3a 33 b2 92 3e 1b e6 55 be
       0.29234937 0.0004999704 0.2865158 -0.2088856
0001c0 74 e0 37 3e 92 7f 9e be 49 b9 b4 3e be 8a 8c 3c
       0.17956716 -0.30956703 0.3529761 0.017156001
0001d0 bb 6d bf 3e 13 3d 1e bd 03 6e 56 3e 20 0f 0b 3d
       0.37388405 -0.038632464 0.20940404 0.03394997
0001e0 ab d1 a5 3d 46 d5 f3 bd e0 f5 89 bd 33 03 58 bf
       0.080966316 -0.11905913 -0.0673635 -0.8437988
0001f0 c5 a6 5c 3e 33 87 d0 3e 70 03 e2 3e c6 f5 d3 3e
       0.21547993 0.4072815 0.44143248 0.41398448
000200 c4 43 ab 3e 5a 5e d1 3e c8 53 ad 3e 8e 15 bf 3e
       0.3345014 0.40892297 0.33852983 0.37321132
000210 e6 e8 be bc a5 8b 4a bd 9b ca 8e 3e eb 0b 4e 3e
       -0.023304414 -0.04944958 0.2788895 0.20121734
000220 7b df a2 3e 10 9b df 3e 16 31 a3 3e c8 6c e5 3e
       0.31811127 0.4367299 0.31873387 0.44809556
000230 ca 2a f1 3c d0 fd bc 3e 19 f2 22 be 9f df b2 3d
       0.029439349 0.36912394 -0.15912665 0.087340586
000240 e0 40 4b bf be 13 b6 3e 4b 46 90 3e 23 4b 6c 3e
       -0.79395866 0.35561937 0.2817863 0.23075537
000250 4c 4c 9d 3e a8 46 d0 bb 22 03 40 3d 47 b2 8c 3c
       0.30722272 -0.006356079 0.046877988 0.017174853
000260 51 7f 93 3e 55 06 a6 3e 88 92 c9 3e 0d b7 95 bd
       0.28808072 0.32426706 0.39369607 -0.07310305
000270 d0 f3 d9 3e 7e 1e a5 3e 60 4a c6 3e c7 75 78 3e
       0.42568827 0.32249826 0.3872862 0.24263678
000280 0a e0 10 bf bb d9 b2 3e b5 6e 8a bd 42 18 e2 3e
       -0.56591856 0.3493174 -0.06759397 0.44159132
000290 63 67 b4 3e 92 24 85 bd c3 4d b1 bd 8a 4d be 3e
       0.35235128 -0.06501116 -0.0865741 0.37168533
0002a0 e6 84 9d 3e 94 e8 9d bc fc 98 7f 3e 56 44 e6 be
       0.30765456 -0.019275941 0.24960703 -0.4497401
0002b0 76 ed b5 3e 36 9a 29 3d da 4b cc 3e dd 41 6b bd
       0.3553273 0.041406833 0.3990162 -0.05743586
0002c0 1d f2 c4 3e cb d3 4a bf ea cb c3 3e 8c 4a 39 be
       0.38465968 -0.7922942 0.38241512 -0.18094844
0002d0 eb 79 96 3b 60 8e 83 3e f4 55 2e bd 93 6e 9a 3e
       0.0045921705 0.2569456 -0.04256244 0.30162486
0002e0 93 42 09 3f a5 d1 01 3e c9 f3 fc 3d 96 40 9b 3e
       0.5361721 0.1267763 0.12351186 0.30322713
0002f0 4f f1 81 bc d4 51 09 bd eb 0f 89 3c f6 b9 70 bf
       -0.015862135 -0.033525303 0.016731223 -0.94033754
000300 cf 9b a4 3e 96 83 f9 3c 74 fb 69 3e 09 e7 38 ba
       0.32150123 0.030458253 0.22849828 -0.000705347
000310 0c 5e bf 3e ff 72 e3 3e 2b 87 a3 3d 55 87 7d 3e
       0.3737644 0.44423673 0.079847656 0.24758656
000320 68 3e 8a 3e 3d 28 93 bd e7 bd 6d 3e 04 ec 1f be
       0.27000737 -0.07185409 0.23216973 -0.15617377
000330 d3 f9 f8 3e 0b cd d5 be ce 1e 2a bd 04 c8 4e 3c
       0.486281 -0.41757998 -0.041533284 0.01262093
000340 de 50 7d 3d d3 a5 f9 bc 4f 96 99 bd 61 cd aa 3e
       0.0618447 -0.030474579 -0.07499372 0.33359817
000350 6e ab 68 3d df 84 a0 3d e5 7f 00 bf d1 36 eb 3e
       0.056804113 0.07837843 -0.5019515 0.4594026
000360 45 c3 8c 3e fa dd 9a 3e 2d 89 b2 3e 93 91 20 bd
       0.2749273 0.3024748 0.34870282 -0.03920133
000370 f1 83 d8 3e 2c c7 3f bc 98 85 91 3d 35 63 38 bf
       0.42288163 -0.011705201 0.07105559 -0.7202638
000380 63 ee 40 bf 63 84 40 bf e1 26 47 bf 4f 5a 8c 3e
       -0.7536375 -0.75202006 -0.777937 0.2741265
000390 29 c6 b0 bd 75 d0 2b bf a7 57 bf 3e 27 40 a6 3e
       -0.08631546 -0.67114955 0.3737156 0.3247082
0003a0 63 3e e5 3e 53 fc 83 bd 7a d2 15 3e 5f eb 8c 3c
       0.4477416 -0.064446114 0.14631072 0.017202077
0003b0 72 4c ae 3e e8 90 14 bd 80 4a d0 3e b3 60 b0 3e
       0.34042698 -0.036271006 0.4068184 0.34448776
0003c0 88 fe fe 3e e0 fc 27 3e a0 61 74 3e aa f9 a0 bd
       0.49803567 0.16405058 0.23865366 -0.0786012
0003d0 6b 6d ef 3d da 25 3d bd 07 d7 d9 3e 05 59 65 bd
       0.11690792 -0.046178676 0.42546865 -0.0559931
0003e0 a9 57 f0 3b 32 72 e0 3e b4 9d 94 3d 00 bd 8d be
       0.0073346687 0.43837124 0.07256642 -0.27683258
0003f0 8e 75 b7 be b3 a8 a0 3e 68 0c 9c 3e 66 fc b0 3e
       -0.35831875 0.31378707 0.30478215 0.34567565

fc3.bias f4 [2]
000000 71 e0 6d 3d de b8 fa 3d
       0.058075372 0.12242292
