weights/tuning/20000steps_4agents_32batch_5000cap_0.0003lr_50decay/run_9.pth (torch, 72253 bytes, 6 tensors)

fc1.weight f4 [128, 4]
000000 bd 01 93 3c 18 05 26 bd 87 99 62 3f 22 11 0d 3f
       0.017945165 -0.0405322 0.88515514 0.5510427
000010 7b 59 c4 3e f4 19 d6 bd 67 71 9c 3f 3d 67 09 3f
       0.38349518 -0.10454169 1.2222108 0.53673154
000020 e2 e9 28 bd 5c 74 89 bd 20 8b b6 bf 14 70 ea be
       -0.041238673 -0.06711647 -1.4261208 -0.45788634
000030 39 b3 b5 3e 32 cd c3 be d7 08 3d bf 45 60 b1 be
       0.354883 -0.3824249 -0.73841614 -0.3464376
000040 cb 37 0e bf e5 99 e8 3e 3b 98 ab be d1 5a e5 be
       -0.55553883 0.45429912 -0.3351458 -0.4479585
000050 58 f8 76 bc 64 dd 0f 3d 78 61 cf be 51 08 0e 3f
       -0.015073858 0.035123244 -0.4050405 0.5548144
000060 8c 75 1e bf d0 e2 31 be 60 ab 80 3e 02 03 59 be
       -0.6189811 -0.17371678 0.2513075 -0.21192554
000070 a9 16 af 3e 19 81 9f 3e fd 31 cd be 7c 17 08 3d
       0.34196976 0.3115318 -0.400772 0.03322552
000080 a4 4a 02 3f e0 0d b7 bd 29 b0 cc be a4 29 60 3e
       0.5089514 -0.08938193 -0.3997815 0.21890885
000090 bd 4b 0a 3f 40 e7 ef be 35 a7 a0 be c0 12 ac be
       0.5402182 -0.46856117 -0.3137757 -0.33608055
0000a0 a7 e8 20 3f 04 26 74 3e fa b6 50 be be 42 94 3e
       0.62855 0.23842627 -0.203823 0.2895717
0000b0 ad e2 a6 be ed 59 34 3e 7b 89 e4 3e 84 9c 4e be
       -0.32594815 0.17612429 0.4463614 -0.20176893
0000c0 5c 00 b5 be b0 b8 30 3e 12 f2 e5 be 83 8d 01 be
       -0.35351837 0.17257953 -0.44911247 -0.12651639
0000d0 28 ab e4 3d 7f 8f 66 3e 80 ef b8 be d4 cd bc 3d
       0.11165458 0.22515677 -0.36120224 0.09218946
0000e0 e2 89 cf 3e 63 5a 74 be 96 1b 79 3f 43 51 0d 3f
       0.40534884 -0.23862605 0.9730772 0.5520212
0000f0 60 06 d2 3e 92 30 2f 3e 60 d6 89 bc 35 b4 9c 3e
       0.4102049 0.17108372 -0.016825855 0.30606237
000100 cb 16 4e 3e 51 c0 90 bd 64 de bc 3f 28 1e f5 3d
       0.20125882 -0.070679314 1.4755368 0.119686425
000110 20 e9 04 3f 57 5c 8f 3e ec 1b 94 3e 3d 48 92 3e
       0.5191822 0.28000137 0.28927553 0.28570738
000120 26 c2 1b be 55 b2 95 be 6c 08 0a 3f d9 14 c7 be
       -0.1521078 -0.2923762 0.539191 -0.38883093
000130 50 3e 9c 3d 6e da 38 3d bf e2 07 be e2 fa 87 3e
       0.07629073 0.045130186 -0.1327009 0.26558596
000140 50 7a 83 bd 2a 33 aa be ef 39 e3 be 88 7f 04 3e
       -0.06419814 -0.3324216 -0.44380137 0.12939274
000150 4b 8c a2 be 1e 56 db be d5 0b ee be ef 47 60 3e
       -0.3174766 -0.4283914 -0.46493402 0.2190244
000160 8a c0 a9 be 0a c2 af bc 1e 9a 46 3f 92 d2 a6 3d
       -0.33154708 -0.02145483 0.77578914 0.08145632
000170 1d 08 ae be 0d 3f 9a 3e fc 10 8e bf 1c 7b bf be
       -0.33990565 0.3012623 -1.1098933 -0.37398612
000180 b3 b6 94 bc 73 99 1e be 4c 62 50 bf a7 86 62 3e
       -0.018153524 -0.15488224 -0.8139999 0.22121678
000190 1e c0 11 be 09 5e 9c be d9 05 16 3f bb 6b bd be
       -0.14233443 -0.30540493 0.5860267 -0.36996254
0001a0 35 5d 81 be 69 63 b4 3e 51 66 cc 3d c0 9b 68 be
       -0.25266424 0.35232094 0.09980453 -0.22715664
0001b0 75 e2 0a bf 46 34 81 be f1 8e 4e 3f 20 51 da be
       -0.54251796 -0.25235194 0.8068686 -0.42640018
0001c0 d5 28 11 3f fa 65 6e be 2b 57 f3 3e dd cd 1d bf
       0.5670293 -0.23281088 0.4752744 -0.6164225
0001d0 f4 9e d3 bc c2 35 04 3d 0e 11 b2 3e 9d 57 f8 be
       -0.02583263 0.03227783 0.34778637 -0.48504344
0001e0 9a 47 cb be 79 de 4b 3e e1 38 4a 3f 09 50 da 3d
       -0.39703065 0.19909085 0.7899304 0.10659797
0001f0 35 8b d0 bd 0a 23 6f ba 00 e8 ae bf 9e c4 0a bf
       -0.10182802 -0.00091223477 -1.3664551 -0.54206264
000200 63 6b 7f 3e d4 88 36 be b1 58 b6 be 7c 8d 19 3e
       0.24943309 -0.17825633 -0.3561454 0.14995378
000210 b8 55 5c be 73 2f d4 3e 03 02 40 bd 14 49 33 be
       -0.21517074 0.4144245 -0.04687692 -0.17508346
000220 50 3a 2e bf fd 7a 8e bd 14 0c f8 3e e2 a9 4e be
       -0.6805773 -0.06957052 0.48446715 -0.20181993
000230 24 4b cb 3e 11 7e f2 be b7 dd 3f bf 21 b9 97 3e
       0.39705765 -0.47361806 -0.74947685 0.2963343
000240 7b bb 8e 3d d1 9c 41 3c 10 9d 57 be 20 08 da 3e
       0.06969353 0.011817173 -0.21056008 0.42584324
000250 d0 77 c6 3e c8 c2 7f be 38 08 cd 3e 01 64 91 3d
       0.38763285 -0.24976647 0.40045333 0.07099152
000260 23 b1 21 3e 96 d7 db bd e0 5a a9 bf b6 24 f7 be
       0.15790229 -0.10734479 -1.3230858 -0.48270196
000270 8f a2 de 3e 6b 4d 3a be 97 85 51 bf da ec 10 bf
       0.43483397 -0.18193595 -0.81844467 -0.56611407
000280 a2 14 59 bd 51 15 b9 3d 77 33 13 3f 3b 34 b8 be
       -0.052998193 0.09037269 0.57500404 -0.3597735
000290 7d 86 82 3e 89 49 b3 3e 64 3f 4f be 5f c4 1e 3f
       0.2549323 0.3501704 -0.20239025 0.6201839
0002a0 b6 5c de 3e 8b ae a6 3e 01 50 26 3e e8 31 aa 3e
       0.43430108 0.3255504 0.16241457 0.332412
0002b0 a1 b8 8e 3e e4 16 2b be e4 7e 00 bf 72 dc 14 be
       0.27875236 -0.16707951 -0.5019362 -0.14537218
0002c0 26 41 94 bd 1f 03 9b be e7 b7 34 be 6f c7 27 3d
       -0.072389886 -0.3027582 -0.17648278 0.04096168
0002d0 68 3d 8e 3d 03 58 9c 3c ac c2 13 be d4 3d b4 bd
       0.06945306 0.019084936 -0.1442973 -0.08800855
0002e0 b4 44 11 be 63 e5 69 be 22 f2 6b bf d0 30 40 3e
       -0.14186364 -0.2284141 -0.9216634 0.1876862
0002f0 2b 1b f4 3e c9 af b5 3e 2b 73 ac 3e 34 3d aa 3e
       0.47676978 0.35485676 0.33681616 0.3324982
000300 24 62 3c 3e c3 42 18 3e 7a c4 7e 3f 06 70 17 bf
       0.18396813 0.14869218 0.9951855 -0.5915531
000310 1d ce 9d 3e b5 d1 96 3e ee 53 3f 3f 79 4f 86 be
       0.30821314 0.2945687 0.7473744 -0.26232508
000320 2c c8 65 3e 4d 20 af 3d 56 7c 7f bf 4c a0 cb bd
       0.22439641 0.08551083 -0.99799097 -0.099426836
000330 8d 61 3d 3d d9 4c 8b bc 15 55 87 bf 5d fa 58 be
       0.04623561 -0.017004417 -1.057284 -0.21189256
000340 fc d8 b3 bd 0b f3 48 3d 71 25 56 bf c2 70 84 be
       -0.08781621 0.04905991 -0.8365088 -0.25867277
000350 ae 81 ff 3e 64 1e b8 3d 1f e6 fa be a1 2f 8a 3c
       0.49903625 0.089901716 -0.49003693 0.016868414
000360 ab f2 c3 be de 7c ea be 07 48 5e 3f 86 b5 d0 3e
       -0.38271078 -0.4579839 0.86828655 0.4076349
000370 1b fb 50 3e 17 9c 95 3e 04 38 ab 3e d3 83 af be
       0.20408289 0.2922065 0.33441174 -0.3428026
000380 b4 19 f7 be f8 5c 05 3e 0b 6f 63 bc 49 cb e0 bc
       -0.48261797 0.13023746 -0.013881455 -0.027440684
000390 50 af c3 3e 95 e0 5c be 89 54 91 3e 79 1f 21 3f
       0.3821969 -0.21570046 0.28384808 0.6293865
0003a0 bb cb 1a 3e b3 bc b4 3d ef 09 40 3f 6c 28 02 bf
       0.1511678 0.08825054 0.7501516 -0.5084293
0003b0 f2 7f d5 3e 34 d1 b0 be d6 65 05 3f 90 6c 18 3e
       0.41699177 -0.3453461 0.52108514 0.14885163
0003c0 d2 7a 16 3f dd 3f 13 bf 7f 2c 6a bf f7 73 a0 3e
       0.5878116 -0.5751932 -0.91474146 0.31338474
0003d0 12 cf 0b 3f 6e 81 37 be 32 f0 b2 3e 88 66 22 bf
       0.5461284 -0.17920467 0.3494888 -0.634377
0003e0 80 88 33 be 02 dd ed be 3e e1 16 bf 9a 43 b9 3c
       -0.1753254 -0.46457678 -0.5893744 0.022615243
0003f0 7d 76 83 3e a1 b5 18 3e 4b c8 b1 3f da 34 28 3f
       0.25676337 0.14913036 1.388925 0.65705645

fc1.bias f4 [128]
000000 65 79 8a 3d ab 6b 94 bd b1 9f 9a be eb b9 dc 3e
       0.067614354 -0.072470985 -0.3019996 0.43110594
000010 24 22 b9 3e c9 26 b4 3e 11 cf b3 3d 48 7a 0e bf
       0.3615886 0.3518584 0.08779729 -0.55655336
000020 98 08 ea 3b a2 60 8b 3e 79 c4 8d bd ce ed cf 3d
       0.0071421377 0.27222162 -0.0692224 0.101527795
000030 f6 58 a6 be c1 6e 1d 3f 7e 3e 24 be 48 d7 23 3f
       -0.32489747 0.6149712 -0.16039464 0.6400037
000040 6f 71 63 be eb 5c 8f 3e 2e 17 b4 3e b1 15 a8 3e
       -0.2221124 0.28000578 0.35173935 0.3282905
000050 37 42 05 3f b5 94 ba 3e 41 27 25 be da 55 12 be
       0.5205416 0.3644158 -0.16128255 -0.14290562
000060 ea 57 9b 3e 43 19 8c 3e ff 2a 06 bf bf 99 88 3e
       0.3034051 0.27363023 -0.52409357 0.266798
000070 2a 66 4b be 4d 65 f9 3e 5f 71 e5 3e 96 1f 9f be
       -0.19863191 0.487101 0.44813058 -0.31078786
000080 26 7b 23 3f 5c b0 ee 3e f8 b4 42 3e 51 0a 9c 3e
       0.63859785 0.46618927 0.19014347 0.3047662
000090 86 3e 88 3e ef e9 1e 3f 87 72 95 be 1a 95 48 be
       0.26610202 0.62075704 -0.2918894 -0.19588128
0000a0 2d 0b f4 3e 5b 82 4e bd fa 05 6a 3e 88 77 8c 3e
       0.47664776 -0.050417285 0.22853842 0.27434945
0000b0 99 24 28 3f 86 c5 13 3f 4f ab 0f 3f 92 71 75 3e
       0.65680844 0.5772327 0.5612077 0.23969105
0000c0 d5 e0 c4 3d 0e ed cb 3e ac 4e 79 be a3 fa 46 be
       0.09613196 0.39829296 -0.24346417 -0.19431548
0000d0 9b 2b 07 be fc d6 d2 3e 46 7e f3 be f5 e4 80 be
       -0.13200228 0.41179645 -0.47557276 -0.2517468
0000e0 d4 9b 8c be 0a 6c 24 be 4e f7 b1 3d 75 26 07 bf
       -0.27462637 -0.16056839 0.08689748 -0.52793056
0000f0 49 f7 15 3e 1b 62 66 3b 75 5b 6a be cf 0c b6 be
       0.14645113 0.003515369 -0.2288645 -0.35556647
000100 c1 42 7e be cc 37 93 be 7b 95 c4 3e 91 6b a7 be
       -0.24830152 -0.28753507 0.38395295 -0.32699254
000110 99 5a ba be 14 b4 35 be 81 78 dd be e6 57 1d 3f
       -0.36397246 -0.17744476 -0.43256 0.6146225
000120 19 f7 a7 be 6f f8 bc be c3 b4 3d be c1 97 a2 be
       -0.32805708 -0.3690829 -0.18525986 -0.31756404
000130 64 e4 be be 89 cf 72 3e a8 5b d6 3e 80 a4 5f 3e
       -0.37283623 0.23711981 0.41866803 0.21840096
000140 fe 1e 1d 3f 16 37 ec be 61 cc a4 be 84 31 02 be
       0.61375415 -0.46135777 -0.3218718 -0.12714201
000150 98 6b f4 be 2d 0e df 3d 29 86 3a bd 32 0c bc 3d
       -0.47738338 0.10891376 -0.0455381 0.091820136
000160 07 c6 a5 be 45 b1 72 3e 25 0e cb 3e b5 41 f6 be
       -0.32377645 0.23700435 0.3965923 -0.48097005
000170 4a e9 f8 be 46 f4 8a be fa 0c 0d be c6 26 50 3e
       -0.48615485 -0.2713949 -0.13774481 0.20327291
000180 93 23 a2 3e 7e 11 1d 3f 1f a9 0e 3f e6 30 af be
       0.31667766 0.61354816 0.5572681 -0.34216994
000190 8d 46 0e 3f 75 c9 81 be 58 4a 75 be aa c0 12 3e
       0.555764 -0.25349012 -0.23954141 0.14331308
0001a0 55 0f 44 be cb e0 88 be c9 53 3b bd a0 32 c7 be
       -0.19146474 -0.26734003 -0.0457342 -0.3890581
0001b0 14 6e 12 3f aa e8 0e 3f ff a0 c1 3e 14 f8 d9 be
       0.57199216 0.5582377 0.37818143 -0.4257208
0001c0 b1 6e b1 be 14 6b a4 3e 4e 7e f7 3d 3c ca b7 be
       -0.34654763 0.32112944 0.120846376 -0.3589648
0001d0 25 9e 21 be cc 56 92 3e f9 38 ab be 3d 27 1e 3f
       -0.15782984 0.28581846 -0.33441904 0.6177862
0001e0 89 be 10 3f 4b 7a ec be 8f 61 8e be 85 ed 09 3f
       0.56540734 -0.46187052 -0.27808806 0.5387805
0001f0 53 43 92 3e 60 c7 43 3e 34 9e 98 be 0a 2f da be
       0.2856699 0.19119024 -0.298082 -0.42614013

fc2.weight f4 [128, 128]
000000 b1 21 5f be 68 83 ae be 1b cd 02 bf e6 c9 65 3e
       -0.21790196 -0.3408463 -0.51094216 0.224403
000010 30 b8 b8 3c d6 5a 20 3e 7a a1 18 3e 67 93 0f be
       0.022548765 0.15659651 0.14905348 -0.14021073
000020 86 2b 98 3e bf 43 24 3e eb 33 14 bd 2e c3 87 3e
       0.29720706 0.16041468 -0.036182325 0.26516098
000030 77 94 64 be 31 73 18 3d eb d1 7b be d8 c4 ba 3d
       -0.2232226 0.03721923 -0.24591796 0.09119576
000040 08 7f 39 bf 0a 94 0c 3e fb d5 22 3e 1c 46 19 3d
       -0.7245946 0.13728347 0.1590194 0.037420377
000050 e8 4b 2b 3d c0 f2 fb 3c b1 9b 7c be 26 94 d6 bd
       0.041820437 0.0307554 -0.24668767 -0.10477476
000060 66 1a e7 3d 77 f4 d2 3d cc 41 f7 bc 6f 75 2b 3e
       0.11284332 0.10300534 -0.030182742 0.16744016
000070 61 a4 e2 3e f6 da 04 3e 30 f3 e7 3d 56 23 bd be
       0.44266036 0.12974152 0.11325681 -0.36941022
000080 e3 d1 0e 3e ae 80 1e 3e 27 22 32 3e 1b 72 57 3e
       0.13947253 0.15478775 0.1739584 0.21039622
000090 9b d9 8c 3d 3c 04 54 3d 96 d9 43 bf 41 fb 5c be
       0.068774424 0.05176185 -0.76503885 -0.21580221
0000a0 11 c3 fa 3d 3b 98 10 3d 58 f8 99 3d dc d5 1b 3e
       0.12244237 0.03530143 0.07518071 0.152183
0000b0 df 44 e0 3d ba 30 db 3d 8f 3b 2d 3e 14 b2 ae 3c
       0.10950636 0.10702653 0.16917251 0.021325149
0000c0 e5 a6 36 3e 56 13 8b 3d 75 66 be be 11 09 13 bf
       0.17837103 0.067907974 -0.37187544 -0.5743571
0000d0 56 05 0a be 15 e3 38 3e 2c 54 09 be 98 48 a4 3d
       -0.13478598 0.18055375 -0.13411015 0.08021659
0000e0 57 1e b0 3d c8 fd 80 be 09 c8 02 3e 55 2e 38 be
       0.08599537 -0.2519362 0.1277162 -0.17986424
0000f0 4e 67 c4 3d b9 24 21 3e fd 2a 3a 3d 15 85 13 bf
       0.09590016 0.15736665 0.045451153 -0.5762494
000100 25 1f b9 be 31 f6 02 bf 55 29 08 bc ee 2c e6 bc
       -0.36156574 -0.5115691 -0.008310636 -0.028097596
000110 bc 57 78 be 30 9d 52 be bb 64 ac 3d f3 d4 2d 3d
       -0.24252218 -0.20567775 0.0841765 0.042439412
000120 95 1a f4 bd 21 43 17 3d aa 91 ca be f8 55 0d be
       -0.119191326 0.036929253 -0.39564258 -0.13802326
000130 fb 4c cb 3e 50 b5 90 3d 0d c7 2d 3d 9b 1d 80 bc
       0.3970717 0.070658326 0.042426158 -0.015639117
000140 8b c6 26 3e 0b 2a 9d be dc 93 93 be 85 df be be
       0.16286676 -0.3069614 -0.28823745 -0.37279907
000150 1e 57 1e be b0 e1 c4 3c 4e 29 95 be a8 99 80 3e
       -0.1546292 0.024033397 -0.29133075 0.2511723
000160 f1 69 ea be a9 d5 c1 3b f2 fd bf 3d 9d 34 85 be
       -0.45783952 0.005915363 0.09374608 -0.26016703
000170 f5 5a 8b be 22 a2 b7 bd 6d 60 61 3e 46 2b a7 3d
       -0.27217832 -0.08966471 0.2200944 0.08162551
000180 cb 71 aa 3d e6 1c df 3d dd b5 35 3d 2a 18 6a bf
       0.083224855 0.10894184 0.04436289 -0.9144312
000190 ad 61 f4 3d b9 34 19 be 4e a6 9e bd 9b 79 1c bc
       0.11932693 -0.14961518 -0.07746564 -0.009550477
0001a0 b8 d1 1b bf c2 3c ed bd 9d 51 94 3d 89 18 d7 3d
       -0.6086688 -0.11583854 0.07242129 0.105027266
0001b0 16 33 c4 3d 30 9c 08 3e 95 9d 17 3e e0 70 c2 bd
       0.09580056 0.13340831 0.14806207 -0.094941854
0001c0 d6 40 d9 bd ba 43 ca 3d 73 51 e1 3d aa 93 a7 bd
       -0.106080696 0.09876199 0.11001863 -0.081824616
0001d0 44 03 5b be 75 c9 d6 3d aa 20 d5 be 88 62 1a 3e
       -0.21387964 0.10487644 -0.41626483 0.15076649
0001e0 99 e3 cb 3d ec 64 c7 bd ec 90 1f bf 3a 45 3f 3e
       0.0995552 -0.09736046 -0.6233051 0.18678752
0001f0 d8 30 ae 3d c7 af f8 3d 04 4d ff 3c f2 72 3c be
       0.0850541 0.12142902 0.031164654 -0.18403223
000200 6c 42 80 be c2 a2 46 bf dd 4b 42 3e b4 c1 d9 3d
       -0.25050676 -0.775921 0.18974252 0.10632649
000210 67 fe 78 3e 53 fd 5a be 8a 37 a0 bd 3f a7 37 bd
       0.24315797 -0.21385698 -0.07823093 -0.044837233
000220 ca 99 1f be b9 3e 5b 3e ae 44 76 be 97 7b 80 3d
       -0.1558601 0.21410646 -0.24049637 0.06273573
000230 19 c8 10 bf d6 6b 30 3e d9 de 52 bf 41 7d 21 3c
       -0.56555325 0.17228636 -0.8237129 0.009856523
000240 39 aa 17 bf c3 ef 0b bd 7d 77 b4 3d 80 17 dd 3c
       -0.59244114 -0.0341642 0.08811853 0.026988745
000250 ed e6 90 be 83 51 50 be 07 bc 0f bf fa d3 6e 3d
       -0.28301182 -0.20343594 -0.5614628 0.058307625
000260 f2 c9 64 bd 7d dd 2c 3c 01 78 ce be 86 1a d2 bc
       -0.055856653 0.010550854 -0.4032593 -0.025647413
000270 55 4d b5 3d c1 46 41 3e d0 f3 fe 3d 3c 75 63 bc
       0.088526405 0.18874647 0.12448847 -0.013882931
000280 31 e8 1f 3e 1b 55 7a 3e 39 5d 84 3c 10 d7 0c 3e
       0.15615918 0.24446528 0.016157733 0.13753915
000290 50 71 18 be 08 81 d1 3c d1 26 1c 3e 9a 11 f7 3e
       -0.14886975 0.025574222 0.15249182 0.48255616
0002a0 5f e7 d4 3d 74 63 5e be 13 0c 74 bd c6 9f 2e 3e
       0.10395693 -0.21717626 -0.059581827 0.17053136
0002b0 b6 54 87 bd a9 66 13 3e b2 05 21 bd 5a 94 86 bd
       -0.06607954 0.1439463 -0.039312072 -0.065712646
0002c0 d3 ba 1d bc 77 73 24 3d 21 da cb 3d 56 42 05 be
       -0.009627062 0.04014918 0.09953714 -0.13013586
0002d0 4e be c9 3c 7b 38 ce 3d 35 06 90 be 80 0b 27 3e
       0.024626877 0.100693665 -0.28129736 0.1631298
0002e0 f4 ea 11 bf 7e 56 ea be e6 db 8e 3d 94 c2 0e be
       -0.56999135 -0.45769113 0.06975536 -0.13941413
0002f0 51 e3 60 bd c6 19 2f 3d 59 fc de 3d c9 8b 16 bf
       -0.054904286 0.04274919 0.10887975 -0.58807045
000300 19 6d 12 bf b3 96 d6 be 61 ec b4 be 5b d8 9c bd
       -0.5719772 -0.4191185 -0.35336593 -0.07658454
000310 52 d5 04 be 5b 85 10 3e 11 4f 0b bf 56 0c ee 3d
       -0.12972 0.14113371 -0.5441752 0.11623447
000320 92 62 2a 3e 66 c0 19 3e b0 c4 0d bf 46 6f 12 3d
       0.16639164 0.150148 -0.55378246 0.03575065
000330 2c a5 85 be d3 c5 4a bd e0 d8 80 bd 02 ce 95 be
       -0.2610258 -0.049505066 -0.062913656 -0.29258734
000340 7e de 0f 3e e5 d5 de be 57 97 62 bd 7b 96 36 bf
       0.14049718 -0.43522564 -0.05532011 -0.71323365
000350 aa 6f 8a be 08 78 a8 3e 8b e5 13 bf 08 8b bd 3d
       -0.27038318 0.32904077 -0.5777213 0.09255034
000360 ce 7a 8f 3d f1 02 e0 be c9 53 4e 3e a4 39 38 be
       0.07005845 -0.43752244 0.20149149 -0.17990738
000370 c0 ae 16 bd a1 d4 fb bc 8b 2a 65 3d 35 de e5 be
       -0.03678775 -0.030741038 0.055948775 -0.44896093
000380 ba 68 44 3e f5 6f 85 3d d8 83 bb 3d 23 77 23 bf
       0.19180575 0.06515495 0.091560066 -0.63853663
000390 be da 15 3e 6b 8f e3 3c 63 63 50 3e 73 ff 78 be
       0.14634225 0.027778348 0.20350413 -0.24316196
0003a0 cc 02 e6 be 43 ab dd bd 2d 41 80 3e 37 3a 1a bc
       -0.4492401 -0.10823681 0.25049725 -0.009413294
0003b0 ce af c5 3d 00 d4 03 3e 84 a8 3e 3e ab 2f 40 bd
       0.09652673 0.1287384 0.18618971 -0.04692046
0003c0 c0 4d 16 bb 93 a8 3c bd 8c 71 c0 3d 4e b0 ae 3c
       -0.0022934526 -0.046059202 0.09396657 0.021324303
0003d0 38 39 3d 3d ea 5e 7f 3e 67 e6 97 be 2a 01 9a 3d
       0.046197146 0.2493855 -0.2966797 0.07519753
0003e0 8f e9 90 3d a6 6d c3 3d 57 d6 e2 3d de 51 10 3e
       0.07075798 0.09542398 0.11076038 0.1409373
0003f0 a1 d4 15 3e 64 62 58 3e 73 a9 4c be 2d a0 9c be
       0.14631893 0.21131283 -0.19986515 -0.30590954

fc2.bias f4 [128]
000000 ad 5e ac 3d c4 dd 31 3d 1c 53 04 3e e7 aa 17 3e
       0.084164955 0.043424383 0.12922329 0.14811288
000010 fa 69 18 3e db 8e 97 bd ce ad e9 3d ab cf 07 3e
       0.14884177 -0.074002944 0.11410104 0.13262813
000020 05 1c 46 bd bd aa 0c 3e 84 f5 99 3d 5c 43 80 3d
       -0.048366565 0.13737006 0.075175315 0.06262848
000030 05 45 99 bd 62 ab 48 3b 98 3d 94 bc e9 0c 05 be
       -0.074838676 0.003061973 -0.018095776 -0.12993206
000040 32 ce 9b ba 2e c5 3b 3d df 35 40 3c 56 8a 77 bd
       -0.0011887013 0.045842342 0.011731594 -0.06043466
000050 10 12 cb bd c6 4c 89 bd ec 00 c1 bd d0 8a 7e bd
       -0.099155545 -0.067040965 -0.09424004 -0.0621441
000060 fc 7f b2 3d b7 e1 3b 3e 5a 0f 5e bd 11 2c 4f 3e
       0.08715817 0.18347822 -0.05421386 0.20231654
000070 e1 cc da 3c 65 2a 2c 3d a9 22 55 3d ee 1d 2d 3d
       0.026709022 0.042032618 0.052035008 0.04226487
000080 a9 5d 0d 3e 0a b8 af bd d3 dd 1c 3e 55 cc 6e bc
       0.1380526 -0.085800245 0.15318994 -0.014575084
000090 21 fe 76 3e 9a 22 a0 bd 9d 3d 22 3e 65 4c 7a 3d
       0.2412038 -0.078191 0.15843816 0.06110801
0000a0 6e 81 30 3d ea 6b 10 3e d0 a8 18 3e 7a e7 fd bc
       0.043092184 0.14103666 0.14908147 -0.030994166
0000b0 0f af e4 3c 12 2c 9f bc 68 91 6c 3d db cc 23 3e
       0.027915506 -0.019430194 0.057755858 0.15996115
0000c0 b8 d3 d2 3d e0 3f a0 3c 56 da 75 bd 32 0c c1 bc
       0.102942884 0.019561708 -0.060022675 -0.023565385
0000d0 9e 75 32 bd cb 78 7a 3c 5f dd 80 bd dd 13 66 ba
       -0.0435692 0.015287588 -0.06292223 -0.00087767636
0000e0 94 9c 3d 3e 79 19 57 3e 99 9f 37 3e 72 d3 38 bd
       0.18516761 0.21005811 0.17931975 -0.045123525
0000f0 41 a0 a5 3d 76 3b 23 3e a2 26 18 bd c7 07 87 3d
       0.08087207 0.15940651 -0.037146218 0.0659328
000100 71 e4 6e bc 9d 03 85 3d 0f de 55 3e d8 29 3d 3e
       -0.014580832 0.0649483 0.2088549 0.18472993
000110 4c 62 8c bd 22 e8 b0 bc 24 98 34 3e 20 db 8e 3d
       -0.06854686 -0.021595065 0.17636162 0.069753885
000120 a9 6f e6 3d ec af db 3d cc 20 f2 3d ab f7 35 3d
       0.11251766 0.10726914 0.11822662 0.044425648
000130 5e 80 7a bd 47 b6 c3 bc 9b b4 de bd f8 a6 88 3d
       -0.061157577 -0.023890628 -0.108742915 0.06672472
000140 08 59 2c 3e 91 02 07 3e df 2b af bd bc ee f8 3a
       0.16830838 0.13184573 -0.085532896 0.0018992047
000150 00 32 19 3e 65 4f 79 bd 8d 10 85 bd a7 a2 6f 3d
       0.1496048 -0.060866732 -0.064972974 0.058504727
000160 66 74 89 3d f1 04 60 bd 3d 3f 55 bd 6e 5d 3f 3e
       0.06711654 -0.054692212 -0.05206226 0.18687984
000170 1b b3 5b 3e 84 06 a9 bd 86 0a 63 3d 85 c8 59 bd
       0.21455042 -0.08253196 0.055429958 -0.053169746
000180 f8 56 50 bd fb f5 af 3d 4e a9 26 3e 90 e3 80 3d
       -0.05086419 0.08591839 0.16275522 0.06293404
000190 44 df 31 3e a4 9c 4b 3e 87 09 32 3e 92 e9 e6 bc
       0.17370325 0.19883972 0.17386447 -0.028187547
0001a0 d2 13 c8 bd c6 4c b9 bd ea 9d c3 bd 13 5a 5f 3d
       -0.097694054 -0.090478465 -0.09551604 0.05452926
0001b0 8c 86 98 3c 58 b9 89 3d 33 98 ec 3d 48 60 c0 bd
       0.018618844 0.06724805 0.11552467 -0.09393364
0001c0 4f 7f e5 3d 0c fb 87 3d 75 59 98 3d 20 14 98 3d
       0.11205923 0.0663968 0.074389376 0.074257135
0001d0 a2 88 aa bc ac a8 fc bd c9 e8 03 bd 59 79 a7 3d
       -0.020817105 -0.12336859 -0.032204423 0.08177442
0001e0 5e 9f b1 3d 9e 14 66 bd 9a fe 5d 3d c4 67 c0 3d
       0.08672975 -0.056172006 0.054197885 0.09394792
0001f0 aa e6 e6 bd 4a 0d d2 bd 4c 90 21 3e c4 e3 64 3c
       -0.112744644 -0.10256441 0.15777701 0.013970319

fc3.weight f4 [2, 128]
000000 04 18 d5 3e 87 32 04 3e 5f 5a ad 3e a3 ad 4c 3e
       0.41619885 0.129099 0.3385801 0.19988112
000010 b6 7a 06 3f ff 7b 10 bf f8 b0 b5 3e df d2 79 3e
       0.5253099 -0.56439203 0.3548658 0.24396847
000020 ec 73 7c 3c c6 97 c3 3e 82 9d 5d 3e 2a 54 c6 3e
       0.015408497 0.3820173 0.21642116 0.38736087
000030 f5 7e 5a bf d4 71 e5 3c 71 13 27 bf c0 e0 4b be
       -0.8534997 0.028008379 -0.6526404 -0.19909954
000040 5f 0e 56 bf cf b2 cb be ff 17 6b bd 8f d6 25 bd
       -0.8361568 -0.39784858 -0.05739593 -0.040487822
000050 14 82 46 bd 46 17 5e 3d 3e e0 43 bd 50 26 4b 3d
       -0.048463896 0.054221414 -0.047821276 0.049597085
000060 d9 9b 9d bd d7 d3 8a 3e 22 42 bd 3d ab 67 d4 3e
       -0.07695741 0.27114746 0.092411295 0.41485342
000070 9d 92 31 bd ff 6f 84 3e 79 c3 30 bf f5 9c 49 bc
       -0.043352712 0.25866696 -0.6904827 -0.012305488
000080 4b 90 d7 3e 81 6d d4 bc 0e 62 81 3e 37 f7 01 bf
       0.42102274 -0.025931122 0.25270122 -0.50767845
000090 d8 bd bf 3e f2 ef a5 bd 64 ce 70 3e 35 2f 9f bd
       0.37449527 -0.081024066 0.23516232 -0.07772676
0000a0 15 7a 42 bb c8 b6 b1 bd 91 ca a6 3e 53 ed 06 be
       -0.0029674817 -0.08677441 0.3257642 -0.1317647
0000b0 6b c2 a3 bc 2b 39 43 3c b9 18 92 bd 63 e0 ad 3e
       -0.019990167 0.011915485 -0.07133622 0.33960256
0000c0 70 12 bd 3e c2 ec 37 3e ec 79 ea be e0 a3 34 3d
       0.3692813 0.1796141 -0.45796144 0.044101596
0000d0 a1 50 aa ba 4f 74 9f 3e 90 17 4a bc 3e d0 17 bd
       -0.0012994 0.31143424 -0.012334719 -0.03706383
0000e0 31 c6 c9 3e af b3 eb 3e da 11 95 3e 9f 96 6c bd
       0.3940902 0.46035525 0.29115182 -0.05776083
0000f0 d8 36 a3 3e 45 b4 6a 3e 50 81 93 bc 8e 38 dc bd
       0.3187778 0.2292033 -0.018005997 -0.107529745
000100 d3 af 64 bf 44 a2 93 3e b4 c5 b5 3e af b5 61 3e
       -0.89330786 0.28834736 0.35502398 0.22041963
000110 0d 5f 8c be 07 61 2c bd 80 b5 bf 3e 47 ee f7 3c
       -0.27416268 -0.04208472 0.3744316 0.030264987
000120 52 e3 a7 3e 9b e1 00 3f 61 d1 af 3e 3a 69 dd bc
       0.3279062 0.50344247 0.3433943 -0.027027715
000130 41 cf 17 bf eb 77 10 bf 7d 99 a1 3d a0 d6 89 bd
       -0.5930062 -0.5643298 0.07890604 -0.067303896
000140 04 b2 e4 3e 44 77 c4 3e 9d a7 6f bf 96 2f 31 3b
       0.44667065 0.38372242 -0.9361513 0.002703642
000150 a0 b2 bb 3e 39 22 5d bf 7d 86 2a 3d b5 f6 23 bd
       0.36659718 -0.86380345 0.041632164 -0.0400302
000160 4f 02 9c 3d ba a6 14 bf 14 a8 6a bc 2e 19 d1 3e
       0.07617628 -0.58066905 -0.0143222995 0.40839523
000170 2d 27 e5 3e 70 aa ce bc ee 2d 3e bc c1 8e 53 3d
       0.4475645 -0.025227755 -0.01160763 0.051649813
000180 11 c2 a1 3e 5e 72 e8 be f6 c1 cb 3e ba a6 54 bd
       0.31593373 -0.45399755 0.39796418 -0.051916815
000190 54 3b bb 3e fd 47 58 3e 4b be da 3c 6a de c5 3d
       0.365687 0.21121211 0.026702067 0.09661563
0001a0 cd e4 39 3d de 40 15 3d 9f ee c3 bc a1 10 05 be
       0.045384217 0.036438815 -0.023917494 -0.12994625
0001b0 cd 5f 86 bd 37 2d 8b be be bc b4 3e 07 6f 1a bf
       -0.06561241 -0.27182934 0.3530025 -0.60325664
0001c0 5d ef f9 3e 9e 52 a8 3e 5f 15 d9 3e bc 88 02 bf
       0.48815432 0.32875532 0.42399117 -0.5098989
0001d0 a5 31 93 3d 7d c5 54 3e 8f cc 03 3d ea cc a4 3e
       0.07187203 0.20778461 0.032177504 0.32187587
0001e0 48 a2 a0 be 1d 50 9c 3d 39 cd 92 bd c8 e1 c4 3e
       -0.3137381 0.07632468 -0.07168049 0.38453507
0001f0 4e 31 0a bc 9c 1e 41 bd 97 3e c7 3e 26 18 7c be
       -0.008434607 -0.047148332 0.3891494 -0.24618587
000200 f6 6d 95 3e 02 64 c2 be 0b 8d ad 3e 4e 8e 03 be
       0.29185456 -0.37966925 0.3389667 -0.12847254
000210 fe a3 3c 3e d0 b7 15 bf c6 fb 57 3e f8 c1 cf 3e
       0.18421933 -0.584836 0.21092138 0.40577674
000220 5f cf 3e bd 56 7b d9 3e 0f 48 b7 3e f8 e6 86 3d
       -0.046584483 0.4247691 0.35797164 0.065870225
000230 09 e2 08 bf 9a 74 46 bd e2 0e 3a bf 40 2c d2 3e
       -0.534699 -0.048451044 -0.7267896 0.41049385
000240 ac 8d 17 bf 62 0f 3a bf 9d 36 7a bd e4 0d 6b bd
       -0.5920055 -0.7267972 -0.06108724 -0.057386294
000250 f9 87 90 bd 76 98 e9 bc 72 84 38 bd bf 28 8b 3d
       -0.07057185 -0.028515082 -0.045048185 0.06794881
000260 a6 9e 08 3d 70 2d c6 3e 41 cb 3e bd 49 17 8e 3e
       0.033354424 0.3870654 -0.046580557 0.2775214
000270 9e 23 7b bd 81 06 46 be 50 a2 0e bd 68 bd d9 3c
       -0.061313264 -0.19338419 -0.034822762 0.026579574
000280 44 d9 b9 3e 26 0e 22 3d b3 a0 c7 3e 15 db 3e bf
       0.36298573 0.039564274 0.3898979 -0.7455304
000290 8c cf e5 3e 25 16 86 3b 23 8f c3 3e 2b 1a b4 3d
       0.44884908 0.0040919953 0.38195142 0.08794054
0002a0 76 8a f6 3e d7 e6 a8 3e ce d1 fd 3e 16 cd 3b bf
       0.48152512 0.32988617 0.4957413 -0.7335981
0002b0 f6 ef 45 3c 2c f9 cd bc 16 54 48 bc 60 74 89 3e
       0.012081137 -0.025143228 -0.012227079 0.268466
0002c0 8e 3d a9 3e b0 9c 96 be 72 0e 40 bf f5 41 96 3d
       0.33054775 -0.29416418 -0.7502204 0.07336799
0002d0 a9 9f 39 bd c1 b5 d4 3e ae d1 4a 3b 76 9a 3b 3c
       -0.04531828 0.41544917 0.0030947733 0.011450401
0002e0 3a 20 9b 3e 12 90 e3 3e 5e b0 85 3e 4d fe e2 bc
       0.30298024 0.44445854 0.2611112 -0.02770915
0002f0 1f 14 cd 3e 12 9f eb 3e 42 e0 6d 3d 31 69 d5 3c
       0.40054414 0.460198 0.058075197 0.026051136
000300 22 c5 1f bf 19 e6 bf 3e ce 53 d0 3e 81 83 a9 3e
       -0.62410176 0.37480238 0.40688938 0.33108142
000310 11 83 2b bf 43 b8 7f bd d6 94 31 3e 99 47 9c bd
       -0.66996866 -0.062431585 0.17341933 -0.07630844
000320 0a 80 b3 3e e5 dd a5 3e c8 95 9a 3e 8b 3d 66 bd
       0.35058624 0.32395855 0.301924 -0.056211036
000330 93 98 1e bf 44 d7 4f bf 1a da 22 bd 2e d3 06 3c
       -0.6195156 -0.81187844 -0.03975878 0.00822906
000340 d7 42 c9 3e 6b 2b b2 3e 1a 42 1b bf fc 34 11 bd
       0.39308807 0.3479875 -0.6064774 -0.03545092
000350 3a 4f 86 3e 2d bd 13 bf 10 50 3c bd 81 ef 7f bd
       0.2623232 -0.57710534 -0.04597479 -0.062484268
000360 e7 6e 84 bb 22 6c ae be 6e cc 24 bd 5e dd c0 3e
       -0.004041541 -0.34066874 -0.04023402 0.3766889
000370 8d 27 df 3e 6a 42 23 bd cd 6e b3 3d 9a f6 47 3c
       0.43584862 -0.03985826 0.08761368 0.0122047905
000380 89 88 b2 3e fc 84 78 38 4c 1c c5 3e 00 54 12 bc
       0.34869793 5.925166e-05 0.3849815 -0.00893116
000390 aa bf a4 3e 78 52 b2 3e fb cc e1 3e b7 5a 85 3e
       0.32177478 0.34828544 0.441017 0.26045772
0003a0 d1 ed a9 bd 92 49 79 bd 02 41 17 bd b0 79 3c bf
       -0.08297313 -0.060861178 -0.03692723 -0.7362318
0003b0 7f 6b 53 bd 16 3f 5b bf 57 c4 ac 3e b7 b1 37 bf
       -0.05161619 -0.85643137 0.33743545 -0.71755546
0003c0 02 9c ba 3e ca 6a 8e 3e af 4e c1 3e c6 6d 2a 3e
       0.3644715 0.2781585 0.37755343 0.16643438
0003d0 a8 91 9f bd 25 e0 1a bf b7 9b bc ba f3 43 a7 3e
       -0.077914536 -0.6049827 -0.0014389668 0.3266903
0003e0 57 41 54 bf e7 13 63 bd 5c 40 99 bc 5b f1 30 3e
       -0.829122 -0.055438902 -0.018707447 0.1727957
0003f0 dd 49 e5 bc ca d2 8d bc b1 b4 c5 3e aa ae 79 3e
       -0.027989322 -0.017312426 0.3861442 0.24383035

fc3.bias f4 [2]
000000 a0 f8 11 3e 51 60 b5 3d
       0.14254999 0.088562615
