weights/tuning/20000steps_4agents_64batch_5000cap_0.001lr_1decay/run_8.pth (torch, 72253 bytes, 6 tensors)

fc1.weight f4 [128, 4]
000000 83 c2 b9 be 91 a4 a9 3e d1 41 6d 3f 63 16 d3 3e
       -0.36281213 0.33133367 0.9267855 0.41228017
000010 74 0f a7 be 19 8f 05 3e 76 d5 04 3e 90 11 11 bf
       -0.32628977 0.13042869 0.12972054 -0.56667423
000020 af 56 4e 3e 63 30 ae 3e 69 bf c4 be 48 64 b7 3d
       0.20150255 0.3402129 -0.38427284 0.08954674
000030 93 e8 6c 3e 8a 72 07 3f b5 20 4b be cf 56 ac 3e
       0.23135595 0.5290915 -0.19836695 0.3365998
000040 d7 be 86 3a 1f 5e 56 be 8f 49 ad 3c ed 5e c8 be
       0.0010280263 -0.20934342 0.02115324 -0.39134923
000050 67 54 23 3d d4 0e ae 3e fc db 88 bf 63 87 40 be
       0.039875414 0.33995688 -1.0692134 -0.18801646
000060 92 5c 3d 3f 21 f2 52 bd d8 dc 3c bf 68 b6 19 bf
       0.73969376 -0.051500443 -0.7377448 -0.60043955
000070 ad 31 d2 3e 46 7a c6 be 38 d2 c4 bf 02 df 56 be
       0.41053525 -0.38765162 -1.5376654 -0.20983508
000080 42 dc b6 be 4d 29 a1 3e 2c 7b cf 3e 08 cd bb bd
       -0.35714918 0.31476822 0.4052366 -0.09169966
000090 ca ae 82 3e 42 43 ab be 6b 36 76 3f 00 cf 5d bd
       0.25523978 -0.3344975 0.96176785 -0.05415249
0000a0 4c 88 8b 3e 2d 5e be bd 3e 7d c3 3f 5d 6d 14 3f
       0.27252424 -0.09295306 1.5272596 0.57979375
0000b0 74 97 95 be 26 20 5b 3e 84 b9 05 bf bd 9c 70 3e
       -0.29217112 0.21398982 -0.522362 0.23497291
0000c0 04 cf a9 3e 29 1b a1 be 99 b6 7a 3d 97 23 d3 bd
       0.33165753 -0.31466034 0.061209295 -0.103095226
0000d0 18 43 6b 3d 90 91 10 3e 2f f6 72 bf dd 74 d8 bd
       0.057437032 0.14118028 -0.94906896 -0.10569165
0000e0 76 22 ff 3d ea 1a 9e be 0f 44 ab 3f c0 ed 17 3c
       0.12457745 -0.3087991 1.3380145 0.009272993
0000f0 75 c4 8a be 3f 02 08 3f 39 01 33 bf 67 af ca 3e
       -0.2710301 0.5312843 -0.6992374 0.39586946
000100 41 f1 25 3e 41 3f 88 be 1a 33 8a bf e1 dd f6 3e
       0.16205312 -0.2661076 -1.0796845 0.48216155
000110 c4 cf 89 be b3 c5 99 be c4 1d 21 3e 98 ca 9e be
       -0.26916325 -0.30033645 0.15734011 -0.31013942
000120 23 d0 dc 3d b8 04 e3 bc b6 15 bb be af 7e 14 bf
       0.107818864 -0.027712211 -0.36540002 -0.58005804
000130 91 8b e4 be 9d 31 13 be ad 33 c2 be 67 72 8a be
       -0.4463773 -0.14374395 -0.3793005 -0.27040407
000140 ae 2f 2d bd aa ad dd bb 46 e3 1f bf 87 54 cf 3e
       -0.0422818 -0.006765087 -0.62456167 0.40494177
000150 0f 17 40 be 67 3c 3b 3d dd da a9 3f c8 6e 93 3e
       -0.18758796 0.0457119 1.3269917 0.28795457
000160 2b a6 92 3e 6a ca b3 3e 36 ec ae 3d bf 4e 8e 3e
       0.286424 0.35115367 0.085411474 0.27794454
000170 23 28 a8 3e 4b 0d 43 3e 8b 0a c6 be ac 8a 0b 3e
       0.32843122 0.1904804 -0.3867992 0.13627118
000180 1e f5 67 3e 84 23 96 3e 6b e6 8a bf a3 2f 35 be
       0.22652099 0.2932397 -1.0851568 -0.17693953
000190 82 c3 4c 3e 3f 00 8e be 93 77 2e 3e 4f 37 a6 be
       0.19996455 -0.27734563 0.17037801 -0.32464072
0001a0 e3 fa f4 3d 49 59 2e bd 75 56 1a bf a3 33 bf 3d
       0.11961915 -0.042565618 -0.6028817 0.09336021
0001b0 18 03 da bc b1 e7 87 bd 30 3c 48 3e 78 b7 6a 3d
       -0.026612803 -0.066359885 0.1955421 0.057303876
0001c0 b7 30 81 3e 18 19 00 be fc 40 eb bd ac b0 00 3e
       0.2523248 -0.12509573 -0.11487004 0.12567395
0001d0 68 33 0f be 9e d3 cc bc d9 06 bc be 88 98 d3 bd
       -0.13984454 -0.02500325 -0.36723974 -0.103318274
0001e0 3a 37 4d 3e 6d c1 bd bd c6 52 92 bd 8b 0f a6 be
       0.20040599 -0.09265409 -0.07144694 -0.32433733
0001f0 c5 4d c2 3c 8d 43 d8 3d 18 2a 87 3e 2a 45 c3 be
       0.023718724 0.10559759 0.26399302 -0.38138705
000200 bb 0d 53 be 99 e6 a8 3d 00 13 d9 3e d0 ca 20 3e
       -0.20610707 0.08247108 0.42397308 0.15702367
000210 60 d0 d5 3e 8d 41 31 be 1b c6 c9 3f ca f6 8e 3e
       0.4176054 -0.17310162 1.5763582 0.2792266
000220 59 99 1e be 20 c0 c2 bd 4d c4 ce bf 6a a1 91 be
       -0.15488185 -0.09509301 -1.6153656 -0.28443462
000230 68 bf ab be fc 06 db be e3 9b 90 be 09 d3 63 be
       -0.3354447 -0.42778766 -0.28243932 -0.22248472
000240 b9 94 a9 be be a6 60 be 22 59 30 bf 60 da 1a bf
       -0.3312128 -0.21938607 -0.68886006 -0.60489464
000250 6a f7 ba 3e e7 19 95 3c 3c e0 29 bf a1 8c cf 3c
       0.36516887 0.018200828 -0.6635778 0.025335612
000260 b5 77 4e bd 8b 1e 2f 3e 31 70 3d 3f 17 5d 9c be
       -0.05040713 0.17101495 0.73999316 -0.30539772
000270 41 e4 ad be f4 08 2d bd 88 72 d1 3f 67 20 b7 3e
       -0.33963206 -0.042244866 1.6363077 0.3576691
000280 6c 49 cc be fe d4 c0 3e ef 70 4c 3f af 15 ea be
       -0.39899766 0.376625 0.79859823 -0.45719668
000290 74 d0 25 3e 65 b0 9f bd 61 5f a9 3f 1e e8 89 3d
       0.161928 -0.077973165 1.3232232 0.06733726
0002a0 2b 9e b6 3c 9f 0f 0e be 05 4a a6 3f 69 6f 1e 3e
       0.022292217 -0.13873146 1.2991339 0.15472187
0002b0 18 98 1c be 58 83 8e 3e c9 5b c9 be b8 4b 9d 3e
       -0.15292394 0.27834582 -0.3932784 0.3072183
0002c0 c3 b4 db be 16 6f 2b 3b d1 10 38 3f 41 32 ef be
       -0.42911348 0.0026158742 0.7190066 -0.46718028
0002d0 2e ee f0 3e 8a f9 33 3e e5 5d 97 be 19 06 92 bd
       0.47056717 0.1757566 -0.29563823 -0.07130069
0002e0 36 eb 0e 3e 7b 09 b9 be db cd cf bf 34 b2 16 bd
       0.13956913 -0.36140046 -1.6234697 -0.03679104
0002f0 84 23 19 3e 79 f5 b7 3e 8b 84 26 bf c4 72 60 3e
       0.14954954 0.35929468 -0.65045995 0.2191878
000300 5e 4a 51 3e 32 2f d3 3d d8 8a a6 be b2 6c 97 be
       0.20438525 0.10311736 -0.32527804 -0.29575115
000310 db 53 72 3e 2c 6c 0f 3f 23 1c a6 3e 5c d5 ba 3e
       0.23664801 0.5602443 0.32443342 0.36490905
000320 66 4f 59 3e ca 0c 3e 3e d5 fa a1 be d8 bf 1a 3e
       0.21221694 0.18559566 -0.31636682 0.15112245
000330 28 f0 9d bb 1a 58 6f 3e dd 98 44 3f 64 38 ca be
       -0.0048198886 0.23373452 0.7679575 -0.39496148
000340 cb de dd be d9 a0 95 3e 5f 63 34 bd 7e d2 78 3e
       -0.4333404 0.2922428 -0.04404008 0.24299046
000350 f1 46 c4 3e 6f 7d 9a be 1e 28 81 bc f2 a6 d8 be
       0.38335374 -0.30173823 -0.0157662 -0.4231487
000360 68 ef d2 3d 3b 2c 17 3e 06 8f d9 bf 8d f7 dc be
       0.10299569 0.14762966 -1.6996772 -0.43157616
000370 37 05 21 3f 8f 1a bf bd 48 50 c4 be dd 41 ee be
       0.6289858 -0.093312375 -0.383425 -0.46534625
000380 fb 6c 1a bf 38 6f f4 3e e7 e9 f5 3e c1 97 84 3c
       -0.6032254 0.47741103 0.48030016 0.016185643
000390 e1 d4 2e 3e d5 b0 e1 3d db 57 b8 bf cc 90 a9 be
       0.17073394 0.11020056 -1.4401811 -0.33118284
0003a0 a3 f2 e3 bd 70 d5 81 3d 5b 67 fb 3c ab 66 f7 bb
       -0.11130264 0.06339538 0.030688932 -0.007550081
0003b0 57 04 1a be d0 61 b7 3e b5 8f 6b be 2f 93 32 3e
       -0.15040718 0.35816813 -0.23004039 0.17438959
0003c0 63 10 a2 3e 4d 9c ac be fe df f7 be ce b8 82 3e
       0.31653127 -0.33712998 -0.4841308 0.2553162
0003d0 eb 77 a5 3e b6 4c 14 be 2a 03 60 bf 40 4f c8 be
       0.32318053 -0.14482388 -0.8750483 -0.39122963
0003e0 f7 a1 3e bd c9 bf 7d be ae 21 53 bf 0a 41 61 bd
       -0.04654118 -0.24780191 -0.82473266 -0.054993667
0003f0 45 3b 12 be c3 63 0e 3e ac ae 11 be ea cf 07 3f
       -0.14280422 0.13905244 -0.14226788 0.53051627

fc1.bias f4 [128]
000000 ea 35 ce bd d0 28 0f bf ed bb 24 bf 90 ab 88 bc
       -0.10068877 -0.5592165 -0.6434925 -0.01668337
000010 37 fe d5 3e d9 58 cf bd d1 05 00 be b1 56 1f be
       0.41795513 -0.10124368 -0.12502219 -0.15560414
000020 6a 00 fc 3d 64 0f 11 bf a3 94 52 be e2 d9 07 3f
       0.123047665 -0.5666411 -0.20564513 0.5306684
000030 b0 4e c5 3e ac 5f 9f bc df e5 14 bf 7d 7d 99 bd
       0.38536596 -0.0194548 -0.58163255 -0.07494638
000040 dd 4d 9b be 3f 52 0d bf f1 45 c1 be 79 59 05 bf
       -0.30332842 -0.5520362 -0.37748674 -0.5208965
000050 70 fb 8c 3d ac 63 bc be 26 c9 fd bc 5e 61 0c bf
       0.068838954 -0.36794794 -0.030979704 -0.5483607
000060 8f 9d 3e bf 84 df b6 3e 03 70 d6 3e f2 0c bf 3e
       -0.74459165 0.35717404 0.41882333 0.37314564
000070 6e 35 17 3f 37 b2 fc be 74 31 14 3f 9d 66 c7 3e
       0.590659 -0.49354717 0.5788796 0.38945475
000080 73 f1 ae be b0 76 07 bf 9c 02 8b be 35 30 10 3f
       -0.34168586 -0.5291548 -0.27150428 0.5632356
000090 6e ca 3a bf 6f 21 93 3e 01 ab aa be 68 e9 0f bf
       -0.72965133 0.28736445 -0.3333359 -0.56215525
0000a0 0c 80 d9 3d 40 3e ab be 35 57 e3 be 7f ee 9b bc
       0.10620126 -0.3344593 -0.4440247 -0.019034622
0000b0 1f 22 8a 3e 66 30 3a bf 39 94 e2 be d2 28 b9 be
       0.26979157 -0.727301 -0.4425371 -0.36163956
0000c0 7b 5d 15 be 82 c6 9c 3e ed 4b 06 bf da 44 3b bf
       -0.14586441 0.306202 -0.52459604 -0.73151934
0000d0 71 e7 d8 3d 6a 70 0c 3b fd 02 19 bf e2 95 15 be
       0.10591019 0.0021429309 -0.59770185 -0.14607957
0000e0 ce b6 c9 be f4 4f 22 bf e0 11 c3 be f6 64 72 3e
       -0.3939728 -0.6340325 -0.38099575 0.23671326
0000f0 ac c8 e8 3d 14 54 71 be 32 30 3c bf bd 34 88 be
       0.113664 -0.2356723 -0.7351104 -0.26602736
000100 c4 d8 c4 be 2c 88 4c 3e 5a 71 af 3e 46 b8 0a 3f
       -0.3844663 0.1997382 0.34266168 0.5418743
000110 0c 22 56 3e 4a ed 13 3f de 57 dc 3e e4 96 60 bd
       0.20911425 0.5778395 0.43035787 -0.0548314
000120 ab d6 d0 3b 53 e8 ef 3c 8d eb 25 3d 0b 1d 2a be
       0.0063732467 0.029285586 0.04050784 -0.16612642
000130 75 60 ec bb b4 c2 f8 be ce 07 5a 3e b6 dc 95 be
       -0.007213647 -0.48586047 0.2129204 -0.29269952
000140 8c 85 86 be 4a 9c ae be 1a c1 bc 3e 0f a9 e3 be
       -0.26273763 -0.34103614 0.36866075 -0.4446492
000150 61 79 01 bf 8c ab d7 be 3b ca d6 be 72 78 01 bf
       -0.50575835 -0.42123067 -0.41951165 -0.5057441
000160 cb 66 e9 3e 4e 5b e0 3e 9b c7 d2 be c6 13 06 bf
       0.45586237 0.4381966 -0.41167912 -0.5237392
000170 a6 59 d2 3e cc 52 f1 be 1a d7 d5 3e b8 8c 60 bb
       0.4108402 -0.47133482 0.41765672 -0.0034263562
000180 00 e6 37 be ea 78 42 bf c8 cf ce be 6a 21 06 bf
       -0.17958832 -0.7596575 -0.403929 -0.52394736
000190 8d af 06 bf 22 74 ba be f3 cf 0b bf 30 95 92 3e
       -0.5261162 -0.36416727 -0.5461418 0.28629446
0001a0 3f 73 dd bd 1b 84 08 bf 7f b4 b5 3d 41 b2 ec be
       -0.10812997 -0.53326577 0.088723175 -0.46229747
0001b0 43 bc 83 bd f5 27 0b 3e f0 e8 eb be b3 b3 e9 be
       -0.064323924 0.13589461 -0.46076155 -0.45644912
0001c0 a8 82 2b bf b3 0d cd 3d f6 ba 12 ba f8 18 53 3e
       -0.6699624 0.100123785 -0.00055973174 0.20614994
0001d0 e3 6d a2 bd c1 4d b0 be 6d ad a0 3e 80 0a 7c be
       -0.079311155 -0.34434322 0.31382313 -0.2461338
0001e0 6c d0 0f bf b3 90 16 bf d6 9d 94 be 9b d9 fc 3e
       -0.561774 -0.58814543 -0.2902667 0.4938477
0001f0 5e 88 3f be 07 19 e9 3e 79 fd 88 3e 79 98 65 be
       -0.18704364 0.45526907 0.26755884 -0.22421445

fc2.weight f4 [128, 128]
000000 23 85 55 bd 62 39 7f bc 70 56 87 bd 45 4b 08 3d
       -0.052128922 -0.015577646 -0.066082835 0.033274908
000010 a8 f2 50 bd 10 af 9a 3c 81 67 4a bd c0 9f 90 bd
       -0.051012665 0.018882304 -0.049415115 -0.0706172
000020 d6 74 ba bc 9a f2 9c bd c3 74 93 bc 37 f6 17 3d
       -0.02276079 -0.0766346 -0.018000012 0.037100043
000030 fe 26 19 bd db 1f 5d 3d 0b ba 25 3d 54 e4 f8 3c
       -0.0373907 0.053985458 0.040460628 0.030382313
000040 bb c9 a1 bd ff 49 ed 3c 67 99 eb 3c e1 f1 a2 3d
       -0.07899805 0.028965948 0.028759671 0.07956291
000050 36 89 ac bc 2b 4f 1f bd ab 9c 38 3d 10 e7 8d bd
       -0.021061521 -0.03889386 0.045071285 -0.06928837
000060 c5 4b 4d bc bf b6 b2 bc 5e 11 bf 3c a9 57 e3 3a
       -0.012530272 -0.021815656 0.023323711 0.001734485
000070 7e 1c 39 bd de 44 24 bd 26 dd 42 bd a4 b5 a0 3c
       -0.045193188 -0.04010474 -0.047574185 0.019617863
000080 30 33 74 bd c0 5f 0c 3d 60 e4 db bc 30 84 5a bd
       -0.05961913 0.034271 -0.026842296 -0.05334872
000090 17 f1 87 bd 19 c4 84 3d 9c 14 a4 bd 68 11 4f 3c
       -0.06637781 0.06482715 -0.080117434 0.012638427
0000a0 55 1e 8a bd c8 9d 40 3c d4 7b 23 bd f5 5c 61 3d
       -0.067440666 0.011756368 -0.039913014 0.05502029
0000b0 8e d6 87 bd 63 03 3f bd 6e 27 46 3d 6c ec 47 bd
       -0.0663272 -0.04663409 0.048377447 -0.048809454
0000c0 00 cf 8c bd 3d 2b bc bd 2f 79 78 3d 77 eb a6 bd
       -0.068754196 -0.091879345 0.060662445 -0.0815038
0000d0 04 55 18 3d 8c c9 1e bd ae d6 78 3d 02 bb df 3c
       0.037190452 -0.03876643 0.06075161 0.027310852
0000e0 69 2d df bd bf da 5b bd 3c c8 b7 bc 99 39 55 3d
       -0.10897333 -0.05367541 -0.022434346 0.052056883
0000f0 f3 b1 8f 3d f4 88 f5 3c a2 ef 48 bd 74 1d c6 bc
       0.07016363 0.02997253 -0.049056657 -0.024183966
000100 cd ed 08 3d fe 69 83 bd 21 a9 1c bc 7e 36 6d 3d
       0.03342991 -0.06416701 -0.009561808 0.057913296
000110 40 ea 79 bd 6e 7a 50 bd 30 99 8a bd 87 cc c8 bd
       -0.061014414 -0.050898008 -0.067674994 -0.098046355
000120 42 39 3f bd 6a 51 30 bd 73 49 ae bc 82 e2 19 bc
       -0.046685465 -0.043046393 -0.021275258 -0.009392383
000130 32 2d 01 3d bd 8f 94 bd e1 ff 01 bd 69 4d 82 bb
       0.031537242 -0.072539784 -0.031738166 -0.003976513
000140 dd ef 26 bd be d2 c3 3c 85 1b 04 bd 6d e9 b3 bd
       -0.040756095 0.0239042 -0.032252807 -0.08784757
000150 eb 02 95 3d 9d f6 c8 3c 6e 63 2a bd d5 fd 32 bd
       0.07275947 0.024531657 -0.04159873 -0.043699104
000160 e4 9c e7 3b 85 21 af 3b 5f 89 a1 bd 9f 14 c1 3b
       0.0070682634 0.005344572 -0.078875296 0.005892351
000170 59 02 a4 bd 07 19 a8 3d 0d 2b 9c 3d 35 31 07 3d
       -0.0800826 0.082078986 0.07625399 0.03300591
000180 f0 73 05 3d 03 8a 11 3d 3a 46 be 3b a5 76 2e 3d
       0.03258127 0.03553201 0.0058067115 0.042593617
000190 7f 2c b4 3d 86 76 3a bc f5 ed 99 3d ac 5c 93 bd
       0.087975495 -0.011380797 0.0751609 -0.0719541
0001a0 fd 90 94 3c dc fb 57 bc f5 12 59 3c 53 5e 84 bc
       0.018135542 -0.013182607 0.013249149 -0.016158259
0001b0 f0 c1 f6 3c d3 ac 01 3d e2 b7 58 bd 61 78 0a 3d
       0.030121773 0.03165896 -0.05290974 0.03380621
0001c0 90 af 0f bc 53 e4 a1 bd 9f 22 2a 3d d0 f7 ab bb
       -0.008769885 -0.079048775 0.041536923 -0.0052480474
0001d0 18 57 9d bc 92 2d 3e bd d1 60 57 3d 0a 90 ac bd
       -0.019206569 -0.046430178 0.052582566 -0.08425911
0001e0 0d af 1e bd d0 48 82 ba ce 05 ae bd e9 00 96 bd
       -0.03874116 -0.0009939913 -0.08497201 -0.07324392
0001f0 86 a4 24 bd 72 8a 91 3d bf e4 c9 bc 98 26 99 3c
       -0.040195964 0.071064845 -0.024645207 0.01869516
000200 dd b8 de bc 94 67 b6 bd 13 2f 78 bd 3c 26 c9 bc
       -0.027187759 -0.08906475 -0.06059177 -0.024554364
000210 21 1a 4b 3b 58 f9 d6 3b 62 e6 ce 3c 27 6c 68 3d
       0.0030990916 0.006560486 0.02525634 0.056743767
000220 df 8d c7 bd 59 4f a2 3c 53 9d ac 3c 8b d9 c9 bc
       -0.09743857 0.019813227 0.021071112 -0.024639865
000230 33 6d 68 bd fd 37 b6 bb 51 83 91 bd d1 d8 19 3d
       -0.056744765 -0.0055608735 -0.07105125 0.037560288
000240 aa f6 e4 bc fa 25 89 bd 15 be 47 3d ef fd a8 bc
       -0.02794965 -0.066966966 0.04876526 -0.020628897
000250 7e 21 05 be a4 70 2f bd a8 d4 bc bd 99 4a fc 3a
       -0.13001058 -0.04283203 -0.092202485 0.0019248306
000260 cc a9 82 3d 0b 63 c9 3c fa 4b 0e bd e2 ce 83 bd
       0.063800424 0.02458336 -0.034740426 -0.06435944
000270 33 ea 67 3d e5 e5 51 bd 9d c1 87 bd 1c 6f 81 3d
       0.056619834 -0.051244635 -0.06628726 0.063200206
000280 50 bb 12 3d 7a 42 31 3d c7 51 99 bd 8d 6a 0c 3d
       0.035823166 0.043276288 -0.07486301 0.034281302
000290 dd 4e 69 bd ac 34 a1 bc 64 75 ed 3c ce 35 93 3c
       -0.056959976 -0.019678436 0.02898664 0.017969992
0002a0 67 de ec bd 8d 77 a2 3b 5b 93 a8 3a 97 8d 65 3d
       -0.115658574 0.004958099 0.0012861298 0.056043234
0002b0 32 68 b4 bc 89 da 3b bd 8d 11 87 bd 90 b2 4b 3c
       -0.02202234 -0.04586271 -0.065951444 0.012432709
0002c0 7b 23 e2 bc 6b 21 d4 bd 51 44 a1 3c 1b 71 4a bd
       -0.027604809 -0.103579365 0.019685896 -0.049424272
0002d0 8a 0b bc 3c 23 13 23 bd f4 ab d6 3c f8 64 1a 3d
       0.022954721 -0.039813172 0.02620504 0.037693948
0002e0 63 f9 37 3d df 40 45 3c 6e 62 42 bd 1b 6d 40 3a
       0.044915568 0.012039392 -0.04745715 0.0007340477
0002f0 d0 a8 45 bd 89 8a 7f bd 91 2f 6b bd c4 1c f5 3b
       -0.048256695 -0.062387977 -0.05741841 0.007480236
000300 e6 a6 0c bd a9 08 f0 bc cc 17 05 be 8f 1c 80 bd
       -0.034338854 -0.029301004 -0.12997359 -0.06255447
000310 ff cc 21 3d 4b a7 34 bd 86 aa 82 bd 7d 1a eb bc
       0.03950214 -0.044104856 -0.06380181 -0.028699154
000320 c6 be ac 3c c3 84 f3 bd 23 92 06 bd 30 28 b3 3b
       0.021087062 -0.11890557 -0.03285421 0.005467437
000330 f6 10 e5 bc 2a 68 09 3d 0c 1f b0 bd d3 53 ba 39
       -0.02796219 0.033546604 -0.08599672 0.00035539138
000340 0f 30 8a 3c 84 f9 69 bc 67 35 04 be 9e 99 12 3d
       0.01686862 -0.014280681 -0.12910996 0.035791032
000350 42 d7 e1 3b 60 5b 02 bd 63 ca 45 3c 67 78 e1 bd
       0.006892116 -0.031825423 0.012072179 -0.11009293
000360 42 35 da bc 5f a0 f7 3c 44 f7 a8 bd 27 5b 94 3d
       -0.026636723 0.030227838 -0.08250287 0.072439484
000370 06 87 c7 bd ae a5 a1 bc 13 ea d4 bc ca 9f 04 bb
       -0.097425506 -0.019732323 -0.025990522 -0.0020236843
000380 22 de 0f 3d 44 ef ba bc ba 53 83 ba 5f 24 a0 3d
       0.03512395 -0.022819169 -0.0010019459 0.07819437
000390 b2 39 8e bd 0f c3 09 bd df b3 28 bc e7 16 67 bd
       -0.06944598 -0.033633288 -0.010296791 -0.056418326
0003a0 40 06 9e bc ca 40 2c bd df 84 b2 bd 6a 12 8e 3d
       -0.01929009 -0.042053975 -0.087167494 0.06937106
0003b0 ac 54 5d bd 9b a0 9c 3c 2f b0 f2 bd 01 50 ae bb
       -0.054035828 0.019119551 -0.118500106 -0.005319596
0003c0 53 f6 94 bd a3 dc ab bd d8 83 5e bc c8 4e 5b 39
       -0.07273545 -0.083916925 -0.013581239 0.00020914816
0003d0 07 e7 61 3c d6 78 ad bd de e5 dc 3c d7 90 1f bc
       0.013787991 -0.08470313 0.026965078 -0.009739122
0003e0 28 e7 bb bc f3 e0 6e 3c 36 e7 79 bb 33 d2 8e 3c
       -0.022937372 0.014579999 -0.0038132197 0.017434215
0003f0 05 1c ed 3c 80 01 f4 bd 11 25 d2 bd c3 7c 80 bd
       0.028944025 -0.119143486 -0.10260976 -0.062737964

fc2.bias f4 [128]
000000 f6 0d 17 3d 01 d1 03 3c 81 1e 18 3e c8 a6 37 bd
       0.03687855 0.008045436 0.14855386 -0.04483679
000010 93 9f 09 3e 48 31 9d bd 9f 94 8b 3e 0f b9 a9 3c
       0.13439779 -0.07675415 0.27261826 0.020718126
000020 78 56 89 3e 43 8f d9 bd a6 bc 77 3e 10 8e 0b 3e
       0.26823783 -0.10623028 0.24193057 0.13628411
000030 30 e2 3c 3e 8b 74 91 bd ff cd 86 3e a0 c0 ee 3d
       0.18445659 -0.07102307 0.26329038 0.11657834
000040 ff 2c 79 3e 79 82 ce 3d ea f4 27 bd ff cf 3a 3d
       0.24333571 0.100834794 -0.041005053 0.045608517
000050 45 b1 50 3e ff ba 5a 3e fb c9 58 3e fc 05 31 bd
       0.20380123 0.21360396 0.211708 -0.043218598
000060 3b f0 4e 3e 26 ab 84 3e 44 07 c6 bc 00 64 4b 3e
       0.20208828 0.25911826 -0.024173386 0.19862366
000070 ed 9f fc 3d 44 f7 b9 3c d7 30 0e 3e 47 1e f6 3c
       0.12335191 0.022700913 0.13885818 0.030043734
000080 37 dc 5f 3d cc 9f d3 bd b7 bb ca 3d 57 ff 19 ba
       0.054653373 -0.10333213 0.09899085 -0.00058745354
000090 46 06 e2 b9 21 54 68 3e c5 46 e7 3c 11 be 56 3e
       -0.00043110753 0.22688343 0.028231988 0.20970942
0000a0 bf 1a 30 3e d0 5d 1c 3e a4 51 21 bd 26 4f 10 bb
       0.17197703 0.15270162 -0.0393845 -0.0022019832
0000b0 62 bd ec bd f5 04 7d 3e 2b 8d 24 3e ba 60 ad bd
       -0.115595594 0.24708922 0.16069476 -0.08465715
0000c0 f4 56 29 3e 3a 8c 07 bd c0 1c 03 3d 0b 70 7d 3e
       0.16537076 -0.033092715 0.03200984 0.24749772
0000d0 b1 37 c0 bd e0 db b0 bd a9 a7 44 3e eb 8b 09 3e
       -0.09385622 -0.08635688 0.19204582 0.1343228
0000e0 b4 c0 9c bd 79 49 44 3c 88 70 05 3e 27 03 d2 bc
       -0.07653943 0.011980408 0.13031209 -0.025636269
0000f0 2c f3 23 3e 99 f2 20 bc 4c f4 d2 bd f3 8a 99 3d
       0.16010731 -0.009823465 -0.10300502 0.074972056
000100 da 3f 34 3e fe e0 35 3e fe 23 35 3e 78 07 00 be
       0.17602482 0.17761609 0.17689511 -0.12502849
000110 e9 e3 5f 3c a8 6d 7f 3d 67 59 85 3e 97 5c 41 3e
       0.013665178 0.062360436 0.2604477 0.18882976
000120 d8 34 ca bd d9 b6 75 3e de 4f 20 3e e1 9f 40 3e
       -0.098733604 0.23995532 0.15655467 0.18810989
000130 5c 7d 1c bd e4 31 41 bd ed bc 67 3e 6d 4e 1c 3e
       -0.03820549 -0.04716672 0.22630663 0.15264292
000140 1c aa 72 3d af 30 54 3d 99 53 39 3e 8f 01 89 bd
       0.05924426 0.05180424 0.18098296 -0.066897504
000150 5e 55 0f 3e a9 33 76 3e 6d d1 51 3e b4 5e 0f 3e
       0.13997409 0.24043144 0.20490046 0.1400097
000160 7d 69 41 3e bb f0 2b 3c 1b d5 41 3e a7 e1 91 bd
       0.18887897 0.010494406 0.1892895 -0.07123118
000170 e7 64 43 3e 2a 76 97 3b e8 e0 ad bd 81 28 55 3d
       0.1908146 0.0046222406 -0.08490163 0.05204058
000180 35 59 22 3e 8a 50 55 3e 23 8c 1a 3e 46 53 8e bd
       0.15854342 0.20831504 0.1509252 -0.06949477
000190 c2 68 9a 3d e6 5d 46 3e c0 c4 7e be 70 df 7c 3e
       0.07539512 0.19371757 -0.24879742 0.2469461
0001a0 ec c3 0e 3d ec 1c ca 3d 49 67 0c 3e 9b 65 93 bd
       0.034854814 0.09868798 0.13711275 -0.07197114
0001b0 98 8c 91 bd 6c e0 4f bd 6c 68 4f 3e d5 b8 01 bd
       -0.07106894 -0.050751135 0.20254678 -0.03167041
0001c0 4c d8 84 3c 15 e5 85 3e 12 da 8e bd eb 6c d0 bc
       0.01621642 0.26151338 -0.06975187 -0.025442561
0001d0 f8 40 6c be d9 f7 53 3d 35 fe 80 bd 97 fa 01 3e
       -0.23071659 0.051750038 -0.06298486 0.12693249
0001e0 0c 5b c0 bc 0f 16 6c bd 6d d0 80 bd b2 6a 9a 3e
       -0.023480915 -0.057638224 -0.06289754 0.30159527
0001f0 f6 f2 27 3d 02 59 84 3e f1 73 65 3e 35 d8 eb bd
       0.04100319 0.25849158 0.2240751 -0.115158476

fc3.weight f4 [2, 128]
000000 1c 25 04 bd 2b 5d 55 bd 48 81 d6 3e 8e 4f 21 bc
       -0.032261953 -0.052090805 0.4189551 -0.0098456275
000010 e4 f9 bd 3e 26 33 88 bd ea 7b 89 3e 71 21 e5 3e
       0.37104714 -0.06650381 0.2685235 0.44752076
000020 21 54 9c 3e d0 a7 81 3c 97 27 bd 3e ea d9 ab 3e
       0.30532935 0.01582709 0.36944267 0.33564693
000030 e8 fb ad 3e 1c a2 43 bd 58 e3 95 3e 8a a7 a0 3e
       0.33981252 -0.04776202 0.29275012 0.31377822
000040 3c d7 82 3e b3 d7 a9 3e 7c d5 90 bd 80 1a 36 bc
       0.25554836 0.33172378 -0.07071969 -0.0111147165
000050 35 58 b7 3e 81 e0 a8 3e ff 3e cb 3e fd 1b 98 bd
       0.35809484 0.32983783 0.396965 -0.07427213
000060 20 de 6b 3f 92 7c 79 3e c4 90 59 3d bb 96 d7 3e
       0.9213581 0.24363926 0.053116575 0.42107186
000070 5b 3e e6 3e cc ae 85 bd e9 5f f7 3e 3c 3b 2b 3b
       0.44969448 -0.065274805 0.4831536 0.0026127836
000080 27 3a 86 bc 93 80 90 bd 14 22 f1 3e 81 60 d9 3c
       -0.016385151 -0.070557736 0.47096312 0.026535274
000090 4f 5c fe 3c 14 3f e9 3e fe 78 56 bd 60 43 87 3e
       0.031049876 0.45555937 -0.05236148 0.2641859
0000a0 f3 ab 91 3e 52 14 8f 3e 3e 6a 33 3d b5 a8 14 3d
       0.284515 0.2794519 0.043802492 0.036293704
0000b0 ca 29 03 bd a2 1d b1 3e b3 8f 8f 3e 29 8c 82 bf
       -0.032022275 0.3459292 0.2803932 -1.0199023
0000c0 54 71 86 3e 24 8a 29 3b e5 2c 04 bd 6f bf 17 bd
       0.26258337 0.0025869692 -0.032269377 -0.0370478
0000d0 87 d5 c9 3b b0 28 8e bd 48 43 a9 3e 2d 8a e8 3e
       0.0061594876 -0.06941354 0.33059144 0.4541792
0000e0 4e ac 82 bd 2e be 22 3d 5a ea 01 3f 66 df 4d bb
       -0.06380521 0.03973215 0.5074822 -0.0031413673
0000f0 79 0b 01 3f 42 a8 1c bf 6f 2c 4d bd b3 55 c3 3e
       0.5040813 -0.6119424 -0.050091203 0.3815132
000100 d2 55 01 3f eb 27 64 3e 18 23 94 3e 83 52 e1 bf
       0.50521576 0.22280852 0.28933024 -1.7603306
000110 b7 84 bd bb 6d 4b 47 bd bc bd 98 3e 61 cf c7 3e
       -0.005783643 -0.048655916 0.29832256 0.39025405
000120 5d 80 bd 3b 0b f8 ed 3e 3b 20 ab 3e 72 36 b0 3d
       0.0057831244 0.46478304 0.33423027 0.086041346
000130 39 32 18 ba 93 4a 7f bd ea 55 89 3e 37 99 b4 3e
       -0.00058058236 -0.06232698 0.2682336 0.35273144
000140 a6 e4 cb bc 80 47 17 bc 6a 5e b7 3e 37 69 e0 3c
       -0.024889302 -0.0092333555 0.3581422 0.02739392
000150 b2 b3 fc 3e 88 fe a8 3e d9 ab c7 3e 99 74 e6 3e
       0.49355847 0.33006692 0.38998297 0.45010832
000160 71 03 e0 3e 6e ab 39 bd 31 67 ec 3e 3d 45 80 3d
       0.43752626 -0.045329504 0.4617248 0.06263206
000170 bf 8c 10 3f 17 6c 0e 3c 22 da 7c bd 0a 0b 2a bc
       0.5646476 0.008692763 -0.061731465 -0.0103786085
000180 2b 6d 9f 3e b7 42 95 3e 31 52 00 3f 80 d5 1e 3d
       0.31137976 0.29152462 0.50125414 0.03877783
000190 fc f4 f7 3e 9f 9a b7 3e d5 7f f3 be bd 86 eb 3e
       0.48429096 0.35860154 -0.47558466 0.46001235
0001a0 9d 25 e6 bc 1e 4b c3 3e 4c fb c1 3e 14 30 47 bd
       -0.028094107 0.38143247 0.37887037 -0.048629835
0001b0 d3 c3 67 3c e2 1f 65 bd f7 71 9a 3e 1b 82 90 bb
       0.014145809 -0.05593861 0.30165073 -0.004410041
0001c0 5c 2a 77 bd 6d 15 b4 3e 64 d0 08 bd f9 5d 99 bd
       -0.06034313 0.35172597 -0.03340186 -0.07488627
0001d0 9f ca 46 3e d1 f6 84 bd a2 9f 30 bd 7b 90 51 3e
       0.19413231 -0.06492389 -0.043120988 0.20465271
0001e0 10 76 d0 bc 1a c7 aa bb 85 01 3a 3d 9c 23 84 3e
       -0.025446922 -0.005211723 0.045411605 0.25808418
0001f0 5a 9e f6 ba 0c d1 fb 3e 40 cd 00 3f 46 b6 34 3b
       -0.0018815503 0.49182928 0.50313187 0.0027574464
000200 21 81 6a bd 7a d1 55 3d 42 0f 4d 3e 6a 2c 1e 3a
       -0.057252053 0.052201726 0.20025352 0.000603384
000210 5d e6 b9 3e e7 7a 5c 3c 4d d3 cd 3e f1 e8 74 bf
       0.36308566 0.013457037 0.40200272 -0.9566794
000220 f2 05 24 3f 21 e2 28 bd f6 8f d2 3e 06 37 ea 3e
       0.6407157 -0.04123128 0.41125458 0.45745105
000230 b5 d3 d2 3e 3a 7c 5f bd 7f ca e0 3e b4 3e f1 3e
       0.41177145 -0.05456183 0.43904492 0.4711815
000240 8f af eb 3e ca f6 c3 3e 6e 73 f9 bc 68 27 ac 3c
       0.46032378 0.38274223 -0.030450549 0.021014884
000250 d3 80 de 3e d6 a4 da 3e de e1 9b 3e 27 32 1a 3c
       0.4345766 0.42703885 0.3044576 0.009411371
000260 a0 6f c6 3e e8 e3 f7 3e 28 c0 61 bd 92 71 e2 3e
       0.38757038 0.48416066 -0.055114895 0.44227272
000270 44 6a c5 3e b9 5a 57 bd 1f 87 3f 3e 2b 3e 87 bc
       0.38557637 -0.052576754 0.18703888 -0.016509136
000280 22 8e 43 bd 46 8f 91 bd 9a c8 99 3e d8 4c 57 bd
       -0.04774297 -0.07107405 0.3003586 -0.05256352
000290 e6 c5 c7 bb 91 3c dd 3d 8e 38 a1 3c e1 2c c9 3e
       -0.0060965894 0.10802568 0.019680288 0.39292052
0002a0 72 bd d0 3e ee d5 1c 3f f8 c3 37 bd f7 8d 98 bd
       0.40769535 0.6126393 -0.044864625 -0.07448953
0002b0 8c 0c dd 3c bf 62 da 3e 7a c1 b4 3e 65 58 5c 3e
       0.026983522 0.42653462 0.3530386 0.21518095
0002c0 6a 04 23 3f e2 0d 31 bc a3 c7 f4 3c ae 06 49 3f
       0.6367861 -0.010806533 0.02988035 0.7852582
0002d0 cc da 88 3d af f7 75 bd 3b d0 ee 3e 62 a5 f6 bc
       0.06682357 -0.060050663 0.46643242 -0.030108158
0002e0 c2 48 ab 3d a1 18 b6 3b 54 7d 07 3e 9f 90 18 3a
       0.08363487 0.005557135 0.13231403 0.000581989
0002f0 28 77 c8 3d 18 c1 74 3e ef 2f f6 3c e3 0c a1 3e
       0.09788352 0.23901784 0.030052153 0.31455144
000300 aa 73 a4 bc db a0 c3 3e 6b 34 0a 3f 8f 62 04 c0
       -0.020074684 0.3820866 0.53986233 -2.0685155
000310 aa 12 27 3c 36 28 17 3d 32 46 cb 3e c3 6e cf 3e
       0.010197321 0.036903583 0.39701992 0.40514192
000320 36 6f 42 bd 73 17 c1 3e bc 1b fd 3e 08 f5 a4 3e
       -0.04746934 0.37713203 0.49435222 0.32218194
000330 ae 2c e9 3c 0c 13 e8 39 50 98 02 3f 48 91 9e 3e
       0.028463688 0.0004426468 0.5101366 0.30970216
000340 b6 c4 ee 3c 3c 97 a5 3d 14 2b c3 3e 9e 08 45 bf
       0.029146533 0.08085486 0.38118804 -0.76966274
000350 eb ec 94 3e 5e aa c6 3e 35 c8 d0 3e 40 d2 a4 3e
       0.29087004 0.38801855 0.40777746 0.32191658
000360 00 4d 83 3e d3 0b 9f bb fc c4 a1 3e 84 9b cb bc
       0.25644684 -0.0048537045 0.315956 -0.024854429
000370 c9 df da bd b1 30 2e bc 65 d9 4a bc 2f cc c4 bb
       -0.10687215 -0.010631726 -0.012380932 -0.006005786
000380 22 62 b3 3e 0c d6 ee 3e 86 69 75 3e 31 6b e7 3b
       0.35035807 0.4664768 0.23966035 0.0070623388
000390 d7 30 61 3e 1e 29 de 3e 75 3b 4a 3f 3d 57 dd 3e
       0.21991287 0.43390745 0.78996974 0.4323062
0003a0 8c 62 3d bb 5b 9f a2 3e e0 d6 0f 3f 9c 9f 2e 3d
       -0.002889785 0.31762204 0.5618725 0.042632684
0003b0 2c 12 82 bc 4e 54 69 bc 80 5c 0b 3f 9d dc 6c bc
       -0.015877806 -0.014241291 0.5443802 -0.014456895
0003c0 f7 e2 4b bd 58 8f db 3e 1b 44 8f bd 88 b4 2e 3d
       -0.049776997 0.428828 -0.06995412 0.042652637
0003d0 d7 60 4f be 27 c1 00 bd 76 e7 3c 3d 61 e8 dc 3e
       -0.20251785 -0.031434204 0.046119176 0.4314604
0003e0 26 1a fd 3a 32 65 ae bc db 90 f2 3c e7 8c d4 3e
       0.0019310161 -0.021288488 0.029610088 0.4151375
0003f0 d9 12 b9 bc 96 4f 9b 3e f2 eb 90 3e 36 61 3c bd
       -0.022591995 0.30334157 0.28305012 -0.045991145

fc3.bias f4 [2]
000000 26 a8 1b 3e 81 b7 6e 3e
       0.15200862 0.23312189
