weights/tuning2/20000steps_8agents_32batch_10000cap_0.0003lr/run_7.pth (torch, 72253 bytes, 6 tensors)

fc1.weight f4 [128, 4]
00000000: 7dba fe3e aaba 5b3e 42a9 7ebe d3c8 6a3e
00000010: 01a0 40be 0ff3 72bb 7575 8bbf dbca abbe
00000020: 1e41 36bd 4b13 cb3e 9159 93be d75f 0b3f
00000030: daf9 b9be 90f2 bd3e e70a 8e3f c9a0 073e
00000040: 0993 683e af19 7bbe 8bf7 a6bf 6426 9abe
00000050: abbd 0ebf cad1 ab3e 8a83 ab3e be5e 0ebe
00000060: 5661 bd3e ebd6 003e 49b6 48bf adeb 8a3e
00000070: eb45 02bf 11ec c2be e0d3 8a3e 08a6 3c3e
00000080: b028 4d3e 93dc a9be f2c9 85be a849 0a3e
00000090: 2cbd ab3e 09dc 2dbe 20a5 bcbe 7e35 ce3e
000000a0: bc38 ad3e 1483 0cbf 31e5 3ebf 12e6 6bbc
000000b0: bc2f 233f d8bc bdbe bc60 a9be 37e6 963e
000000c0: 2089 e8be d576 58be 9664 223f 0088 f1be
000000d0: 2f05 c43e bff5 96bd a130 1fbe f1bc 80be
000000e0: e19f bbbe 9a56 e0bd bb8d edbe d9e9 f63e
000000f0: 3604 bf3e 6b4f 033f de93 213e 4755 ec3d
00000100: 37d6 a5be 2c04 aabe 79ab 03bf 3f9c cdbe
00000110: ab33 30be 5b23 5fbe 8cab 8d3f 0882 e23e
00000120: c6a3 853e 6e40 e03e 0b38 343f 2a8b 8abd
00000130: 396c 233e 8ee0 113e 1290 e03d 3a4c 10bd
00000140: b757 08be aa4f d4be 8034 98be 8bae 823e
00000150: 4ae1 983e bc3d 663e 85ef 0ebf 87c4 9a3d
00000160: c2e6 073e 0aaa 5ebe 5640 ebbe 5533 c4be
00000170: 1f5c f3be fadd f63e 8f3d 313f cb23 cdbe
00000180: a19b 44be 66cd edbd 55f4 9ebf f1af 11bf
00000190: 764c d7be 5bf7 bc3e 6edb 013f d65f 163e
000001a0: bb0b c93d ab78 6e3d 5f0a 4b3f 3bf6 fb3e
000001b0: c26c 6abe 718c 8c3e 6e0d 89be 5b75 873e
000001c0: 9f9a ed3d c554 e8be 5e1f ddbe 0395 fe3d
000001d0: a012 55be fc15 223e 2edc 553f bc85 e03e
000001e0: 18fa 9c3d c98f d0be ed2b 563f a5d8 953e
000001f0: 7cb6 6f3d d52a 9fbd 70d2 dbbe 8cd0 dfbe
00000200: 69e9 9dbe 3354 003e f144 a03f 31da 0c3f
00000210: ad77 403e 1697 cfbd 21a7 693f 4bc1 0f3f
00000220: 6719 02bf aea7 22be ce67 b93e d67c a8be
00000230: 5756 aabd d894 11be 6cf3 40bf f75f a33e
00000240: 55c7 bd3e b60c 00bf 8c3a 863c 51f8 6f3c
00000250: 7b1b 193d ea87 db3e 0cc1 38bf 4d55 b2be
00000260: d7e9 183f 3fac ec3e 7cd5 3e3f 7c43 e53e
00000270: 6909 04be 085c b73c cbdd adbf 0b7d d8be
00000280: 88ea a33e 06a6 9fbe f38b 75bf 31a2 d83d
00000290: af37 a53e c5e6 f3be 0bb1 7f3e e5a5 29bd
000002a0: facc 583c ee7f 82be ca4b abbe b17d b93e
000002b0: c618 123d 62ee 2c3e 1c10 a83f 549d ff3e
000002c0: 5f15 1abe 7de2 cfbc 9f23 18bf 3d7d b13e
000002d0: 94b2 843e a1e6 103e e1ec e1be 39d0 ecbe
000002e0: 5d9d 843e 4430 9ebe 8ccc 113f 541c 00be
000002f0: 1cc2 85be e4cd 3f3e b99c 163f d4a9 1a3f
00000300: be3b 5d3e 7661 a63e a546 913f 0da6 82be
00000310: ae28 12be 84e5 acbe 85f3 8c3f 18ef 89bd
00000320: deba d5bd 24d9 e2be ff09 6fbf 33a5 f43e
00000330: e732 203e d8eb 30bd f363 24bf 2f31 7d3e
00000340: adca 883e 2f59 84bd e2ec 07bf 0aa9 b1be
00000350: 78c6 be3d 2a08 973e 86aa 633f 96b7 23be
00000360: 21ae 18be efa0 953d ebf8 693f 760d 56be
00000370: c315 05bf fe30 f23b 07e7 543f c4c5 0c3f
00000380: ab4d d1be d46e eebc 0bc8 703e 768a 353e
00000390: f47c fbbd f893 ca3e 9796 973f 3747 7fbe
000003a0: 5a5a e83e e7b1 643e 0062 65bd 2ceb ccbe
000003b0: 4ede 093f f3ae 183e 6e50 5bbe 5426 a2be
000003c0: 1add 493e 9e1b f1be 5f3c 9ebe 6c26 2dbe
000003d0: 8121 99bd e078 05be 5c65 2b3f 13a3 be3e
000003e0: e97f 1bbd 6970 093d fd74 bebe 9f9d 0a3f
000003f0: 444f 153f dac7 51be 470c 09bf f35f d53e
0.49751654 0.21457925 -0.24869254 0.22928171 -0.18811037 -0.0037071144 -1.089522 -0.33553204
-0.044495694 0.39663157 -0.2877927 0.54443115 -0.36323434 0.37099123 1.1097077 0.13244928
0.2271234 -0.24521516 -1.3044294 -0.30107415 -0.5575816 0.33558494 0.33498794 -0.13903329
0.36988324 0.12581985 -0.78403145 0.2713293 -0.50887936 -0.3807073 0.27114773 0.18422711
0.20035052 -0.33176097 -0.26130635 0.1350466 0.33542764 -0.16978468 -0.3684473 0.40275186
0.33832347 -0.5488751 -0.7456847 -0.014398115 0.6374471 -0.3705814 -0.33081615 0.29472515
-0.45417118 -0.21139081 0.6343473 -0.47174072 0.38285205 -0.07371091 -0.15545894 -0.2514415
-0.36645415 -0.10954018 -0.46397194 0.48225287 0.373079 0.5129306 0.15779063 0.11539703
-0.32389995 -0.33206308 -0.5143352 -0.4015827 -0.1720721 -0.21790831 1.1067977 0.4423983
0.26101512 0.43799156 0.70398015 -0.06764825 0.15959252 0.14245817 0.10964979 -0.035228945
-0.1331471 -0.4146703 -0.29727554 0.2552379 0.29859382 0.22484487 -0.5583423 0.07557016
0.13271621 -0.21744552 -0.45947522 -0.38320413 -0.4753122 0.4821623 0.69234556 -0.4006637
-0.19199993 -0.11611442 -1.2418314 -0.5690909 -0.42050523 0.36907467 0.5072545 0.14684996
0.098166905 0.058220547 0.793127 0.49211296 -0.2289305 0.27450898 -0.2676806 0.26456723
0.11601757 -0.45377174 -0.43187994 0.124307655 -0.20807886 0.15828699 0.8353909 0.4385203
0.07664889 -0.407347 0.83660775 0.2926685 0.05852364 -0.077718414 -0.4293399 -0.43713796
-0.3084214 0.1253212 1.2521039 0.55020434 0.18795653 -0.10136239 0.91270643 0.56154317
-0.5082001 -0.15884277 0.3621201 -0.32907742 -0.08317249 -0.14216936 -0.7537143 0.31909153
0.3706614 -0.50019395 0.01638534 0.014646606 0.037379723 0.42877132 -0.72169566 -0.34830704
0.5973181 0.46225163 0.745445 0.4477805 -0.12894215 0.022382751 -1.3583311 -0.422829
0.3201487 -0.31181353 -0.9591667 0.105778106 0.32269046 -0.47637 0.2496988 -0.041417975
0.013232464 -0.25488228 -0.3345626 0.36228707 0.035668157 0.16887811 1.3129916 0.4992472
-0.15047215 -0.025376553 -0.59429353 0.34665862 0.25917494 0.14150478 -0.44126037 -0.4625261
0.2590131 -0.308962 0.5695274 -0.12510806 -0.26124656 0.18730885 0.5883289 0.6041539
0.21604821 0.32496232 1.1349684 -0.25517312 -0.1427333 -0.33768857 1.1011816 -0.06735057
-0.10436033 -0.4430629 -0.9337463 0.47782287 0.15644418 -0.043193668 -0.6421501 0.24725793
0.2671713 -0.06462323 -0.5309583 -0.3469928 0.09315199 0.29498416 0.88932073 -0.15988001
-0.14910175 0.07306086 0.91395444 -0.20903572 -0.5198633 0.007391094 0.8316502 0.54989266
-0.40879568 -0.029105581 0.2351381 0.177286 -0.12279692 0.39566016 1.1842831 -0.2492951
0.45381433 0.2233349 -0.056001663 -0.40023172 0.53854835 0.14910488 -0.214174 -0.31669867
0.1971325 -0.47091383 -0.30905434 -0.16909188 -0.074770935 -0.13034391 0.6695154 0.3723379
-0.03796378 0.03355447 -0.3719863 0.5414676 0.58324075 -0.20486394 -0.5353436 0.41674766

fc1.bias f4 [128]
00000000: b67f 853e 5fa5 19be 7acd 183f 3bfb 113f
00000010: b267 e13e 4932 1b3e 13e2 9f3e de4b dabe
00000020: 3bd4 b93d a082 573e 6aee 0f3f f569 d23d
00000030: 253a ef3d a1a7 713e 312d 223e 13d7 f9be
00000040: 327b 133f 9f85 e4be 6ecc 823e d57e c13e
00000050: 05e1 5f39 63d3 063f 61ed c03e f8a5 ed3e
00000060: 4d03 aebe b7eb 67be f0ea 26be dcba df3e
00000070: 1942 7d3e d46e 0b3f d7eb 32be f9c0 c03e
00000080: 2fe7 a6be 5985 a3be 9faf fdbc 4f56 ec3c
00000090: 25fc bdbe 6863 eebe 213d b0be 7abb 94be
000000a0: 6e74 c93d dc62 bfbe ee7c b83e b6a7 27be
000000b0: c68f 923e 4f4d 15bf 596a 023f 58f0 3dbe
000000c0: af7b 0cbc 2fbe 80be 3c48 37be e162 ef3b
000000d0: 4673 e13e 9377 2a3f 3b34 ea3e 91c4 f2be
000000e0: 8237 b5be 0fe8 203f c210 913d 5ef3 ca3d
000000f0: 4516 b23e 055c 3abd 7e9a 80be 2e03 723e
00000100: c1a9 e73d 4c2e f83e af14 613e 3f87 45be
00000110: b428 fd3e 618c 8ebe 4d41 00bf e67f 113e
00000120: f20c a6be ec2b ff3e 9a14 b23e 728f 2cbe
00000130: 6748 1d3f 141a 103f 7243 8d3d f2ed 043f
00000140: 40de 8b3e cd07 b2be 83e3 da3e 09c8 b2be
00000150: aa40 123e 9964 423d a663 cc3e e52a 9e3d
00000160: 1c97 783d ae10 b3be 4fa5 7fbe a9bd a53e
00000170: 2900 c53e 4c42 c8be 5004 66be ed35 63be
00000180: c316 70be fb19 cabe a5c2 0a3f aafd c3be
00000190: ff4d 0e3f 4553 66bd 2efc 3a3e d734 b13e
000001a0: 27f1 fe3c 9cc3 81be 12cc c53e 45c9 fa3e
000001b0: 4979 e2be 52c2 0c3f 045a 8b3d 09ed 003e
000001c0: 97a5 d9bd 6f8f ea3d 00f3 a9be 62ed a6be
000001d0: aaa6 b9be be3a 983e 95bc 94bd e503 ccbe
000001e0: a29b a7be cbe0 0e3f c554 44bd 31b8 b8bd
000001f0: dc47 19bd 61b3 583e 5fd4 263f 69c1 02be
0.26073998 -0.1500449 0.5968853 0.5702397 0.44024426 0.15155901 0.31227168 -0.42636007
0.09073683 0.21045923 0.56223166 0.10274116 0.11681012 0.23599102 0.15837552 -0.487969
0.57609856 -0.44633195 0.25546592 0.37792078 0.00021350764 0.526663 0.37681106 0.46415687
-0.33986893 -0.22648512 -0.16300559 0.4369725 0.24732246 0.54465985 -0.17472778 0.37647226
-0.32598254 -0.31937674 -0.030967532 0.028849749 -0.37106434 -0.46560216 -0.34421638 -0.29049283
0.0983666 -0.3738011 0.36032814 -0.1637257 0.28625315 -0.5832109 0.50943524 -0.18548715
-0.00857441 -0.251451 -0.17898649 0.0073054885 0.4403326 0.66588706 0.45742974 -0.47415593
-0.35393912 0.62854093 0.070832744 0.099097 0.34782615 -0.045497913 -0.25117868 0.23634025
0.11311675 0.48472822 0.21980546 -0.19289874 0.49445117 -0.27841476 -0.5009964 0.14208946
-0.3243175 0.49838197 0.34781343 -0.16851595 0.614386 0.5628979 0.0689763 0.51925576
0.27318 -0.34771577 0.42751703 -0.3491824 0.1428248 0.04745922 0.39919776 0.07723025
0.060690984 -0.34973663 -0.24965404 0.32371262 0.38476685 -0.3911308 -0.22462583 -0.2218854
-0.23446183 -0.39472947 0.54203254 -0.38279468 0.5558776 -0.056231756 0.18260261 0.34610626
0.03112085 -0.2534455 0.38632256 0.4898168 -0.44233158 0.5498401 0.068042785 0.12590422
-0.10627287 0.11453139 -0.33193207 -0.32602984 -0.36259967 0.29732317 -0.07262532 -0.3984672
-0.32735926 0.55811757 -0.047932405 -0.09019507 -0.037422046 0.21162178 0.651678 -0.12769093

fc2.weight f4 [128, 128]
00000000: 3b84 1bbe b49a a33e 696c 39bc a55f 853c
00000010: 560b 72be 454a 2c3c 8f1a 7abd be12 9dbc
00000020: 70a3 8ebd 346d 9cbd dae5 3cbd 6bf4 ed3b
00000030: c76d 65bc d8e0 8ebe ae69 0a3e b40b be3e
00000040: 9e2e aa3d 2b0b 183d 819b 8c3d ac0d 69bd
00000050: 9b89 8a3d 6cf5 c8bc 4e76 13be d35e 39bd
00000060: 8dd6 913e 30c2 dcbd 8baa 683e b689 8c3d
00000070: e767 11bd f07c 963d 9d2e 2d3d f04e 54be
00000080: 7c40 e33e f53c 18bd a754 8dbd f69e 08be
00000090: 9235 0cbe 3301 203e 9e3a b63e b77d ac3e
000000a0: 2a06 1abe 02de 10be e798 d43d 7b46 ef3e
000000b0: e127 9e3c 3496 353e 7ce3 863c 9564 d63e
000000c0: 8edb 44bc e92d 7b3e 5911 27bd b3bf aabe
000000d0: 10fe 35be c834 70bd 5391 b7bc fa50 b93c
000000e0: 0915 23be 89c1 8d3d e3bd b43c 3b46 0c3d
000000f0: ae7a 85bd 657c 793e 9a04 d9be 4817 713d
00000100: 5391 8a3d 7286 6d3b 6a85 fa3c e8b6 50be
00000110: 9463 d53c 2c95 5f3e 5e6d 1fbe 2c4d 85bd
00000120: e77b 04bc acef 0cbd 02da 47be 9335 3f3e
00000130: 8249 e4bc b88a fd3d 0df8 3a3e 3073 923d
00000140: 1362 04be b01d 733e 9897 dbbd 4ec3 a53e
00000150: 667b 3fbd abad 80be 71da e9bc 6802 623d
00000160: 3d6c 81bd 2f20 5abd 7585 2e3e f1bf ab3a
00000170: 065e 143e 6b91 1bbe 1ca5 b73e cd2c 183e
00000180: f7cc 22bd d09b 4fbe c53f 933c 8a3c 403e
00000190: 6402 4fbc a9b8 dabd 2660 3fbd 2f54 2bbd
000001a0: 34a1 003e 25f5 423e 4b27 ca3d e256 1bbd
000001b0: f193 c13e cfd3 8bbd a100 1bbe 6b41 ae3e
000001c0: 48a3 b53d bd87 0abe 6951 113e 4492 f4bd
000001d0: 3046 d4bd 9ff1 ad3d 546f c5be 6241 283e
000001e0: dc42 c03e f5f2 ee3c 3a29 013f 9c74 45bd
000001f0: 0927 fa3d e7b0 0c3e db47 b43d c866 873e
00000200: c6b7 623d 8f1e 28be 665a 163e fe7f cf3d
00000210: d211 f23d 4e9c e53d 20d1 543d 9d00 b6bd
00000220: 4de0 293d a498 94bb 07e6 033e d3fe 0c3c
00000230: b005 843d 3548 193e 0ea7 c5bc 2051 7bbe
00000240: 8b09 cc3d 8e70 d0be fdc4 013d 4bc1 023d
00000250: 8163 9a3c e279 c63c 320d 663e b27d 283e
00000260: 01ba babe 16e7 a0bd 9af9 08bf 9c2e d03d
00000270: b512 ef3d 7563 b8bc 9aaa 84be dd6b 223e
00000280: ae85 41bf 67a4 c1be 521b 363e f4df 1a3e
00000290: 453a bebd 8be0 b0bd 72da 90bd 160f c6be
000002a0: 4ae1 183d 0bb9 57bd 34bd 56bb d9c2 01bf
000002b0: 184d 653d 849b d6bd d5b1 313e 1d19 27bf
000002c0: 986f 033e 8714 20be 3015 5e3d dd91 173e
000002d0: 2e52 643d 908f 363e f774 663d 32ec 98be
000002e0: fdb8 f43c 0b3a 343e a033 b8bb 11e9 783d
000002f0: e6cb a23d b513 4abe e27f 013e 6ea0 803c
00000300: 6afa 40bd 5a6e d63d 9854 0ebd 1054 013e
00000310: 58f0 823d 6465 09bf f5b5 5abd c926 903d
00000320: fa5d c33c 9381 d03d 0fc4 963d e66c ffbc
00000330: b501 cb3d b0a7 1c3e 28f3 49bd d727 003e
00000340: 753d 673e 2856 72be 00f6 723d 4c57 a8be
00000350: 586b 2f3e 6fc7 a23d 6121 883d 608a 67bd
00000360: b138 533e 9724 f93c c13d 42be d608 f23d
00000370: 0098 b43c 13cf be3b 347d abbe 5fdf 5f3c
00000380: ee44 3e3d c127 39bd 33bb 093e c3d7 2fbe
00000390: c339 ab3d e79d 993d 9973 d7bc ac99 b23d
000003a0: 6ae0 b9bd d3a4 bebd 6c6c 11bd 49c4 103e
000003b0: be0b c4be e618 ae3d f93b 8a3d 717e 93be
000003c0: 2202 89bd 2afd c63d 21ae 7fbe 89df 29bd
000003d0: 5836 633d 7109 0d3d b3ae b63e 45d4 5b3c
000003e0: 916e 98be 1358 c73d b04b 22bf a46a 273d
000003f0: a575 12be a495 1abd cf72 8e3d d0e1 58be
-0.1518716 0.31953967 -0.011317351 0.016280958 -0.23637137 0.010515754 -0.061060484 -0.019173976
-0.06964767 -0.07638016 -0.04611764 0.007261803 -0.014003224 -0.27905917 0.13516876 0.37118304
0.08309673 0.037120026 0.068655975 -0.056897804 0.067645274 -0.024531089 -0.14400598 -0.045256447
0.28484002 -0.10779226 0.22721307 0.06862204 -0.03549948 0.07348049 0.042280782 -0.20733237
0.44385135 -0.03716751 -0.06900912 -0.13341889 -0.1369231 0.15625457 0.35591596 0.33689663
-0.15041414 -0.1414719 0.10380726 0.4673346 0.019306125 0.17733079 0.016465895 0.41873613
-0.012015237 0.24529232 -0.04078803 -0.3334938 -0.17772698 -0.058644086 -0.022408163 0.02262162
-0.15925993 0.069216795 0.022063201 0.034246664 -0.0651754 0.24363859 -0.42386323 0.058860093
0.06766 0.0036243466 0.030581195 -0.20382273 0.02604846 0.21834248 -0.15569064 -0.0650886
-0.008086181 -0.034408256 -0.19516757 0.1867278 -0.027867083 0.12379974 0.18258686 0.071508765
-0.12928037 0.23741794 -0.107222736 0.32375568 -0.04674854 -0.25132498 -0.028546544 0.055178076
-0.06319473 -0.05325335 0.17043097 0.0013103468 0.14488992 -0.15192191 0.35868156 0.1486084
-0.03974625 -0.20274282 0.017974744 0.18773094 -0.012634847 -0.106797524 -0.046722554 -0.04182833
0.12561494 0.19038828 0.09870776 -0.037924655 0.37808183 -0.06827509 -0.15136959 0.34034285
0.08869034 -0.13528343 0.14191212 -0.119419605 -0.1036495 0.08493351 -0.385615 0.16431192
0.3755101 0.029168585 0.5045353 -0.04820691 0.122144766 0.13739358 0.08802768 0.26445603
0.05535104 -0.16417907 0.14682922 0.101318344 0.11819805 0.112114534 0.05195725 -0.08886836
0.041473676 -0.0045347977 0.12880717 0.008605677 0.06446397 0.14968951 -0.02412751 -0.24542665
0.09962758 -0.40710872 0.031682003 0.03192262 0.018846275 0.02422804 0.22465971 0.16454199
-0.36470035 -0.07856576 -0.5350586 0.1016514 0.1167349 -0.022508362 -0.2591141 0.15861459
-0.75594604 -0.37820742 0.1778386 0.15124494 -0.09288458 -0.08636578 -0.07072915 -0.38683385
0.037324227 -0.052666705 -0.0032766582 -0.5068794 0.055981725 -0.10478881 0.17352994 -0.65272695
0.12835538 -0.1563283 0.054219425 0.14801736 0.055742435 0.17828202 0.05626389 -0.29867703
0.029873366 0.17600267 -0.0056213886 0.060769144 0.07949047 -0.1973408 0.1264644 0.015701499
-0.047113813 0.10470267 -0.034748644 0.12629724 0.06393498 -0.53670335 -0.053396184 0.07038648
0.023848522 0.10180964 0.07361614 -0.031179857 0.09912435 0.15298343 -0.049304157 0.12515198
0.22582038 -0.23665679 0.059316635 -0.32879102 0.17130792 0.07948195 0.066469915 -0.05652845
0.20627095 0.030412955 -0.1896887 0.118180916 0.022045135 0.005823025 -0.3349396 0.013664096
0.046452455 -0.045203928 0.13450317 -0.1717215 0.083606265 0.075008206 -0.026300238 0.08720717
-0.09076007 -0.093087815 -0.03550379 0.14137377 -0.3829021 0.08500843 0.0674972 -0.28807405
-0.0668986 0.09716256 -0.24968769 -0.041472945 0.055471748 0.034432832 0.3568016 0.013417308
-0.29771855 0.09733596 -0.6339674 0.040873185 -0.1430269 -0.037740365 0.06955492 -0.2117989

fc2.bias f4 [128]
00000000: 7eae 7c3c 34c9 4c3e d015 223e 67ad 803d
00000010: a07c a43d b012 463e 694b b5b7 7220 273e
00000020: e612 04bd fdf7 68bc d64f f83b dcc9 c8bd
00000030: 1a5f d1bd d396 0c3d 5d26 1a3e b965 853d
00000040: cd50 023e f4dd 603e 0687 273e 8ac3 2d3e
00000050: 9d2b 053e a36e 59bd 47f8 8c3d fe03 213e
00000060: 69fe 6bbd c8ce 473e a641 03bc 845e 5d3e
00000070: d40f f33b a82b 8a3d 4b7b b73d 69b4 9fbd
00000080: ec6a a53d f831 4a3d cbeb e6bd a194 953d
00000090: f3ab a53d 7a38 343e 42a6 dfbd c3f5 c7bd
000000a0: 2370 57bd 4c2c 9a3c 7337 b63d 369b 1f3e
000000b0: 96d6 013d e736 2a3d 5868 333e c256 093d
000000c0: 30be bb3d fb46 453d 7f0e e03d 0505 b3bd
000000d0: 8894 0c3d c10d 8abd 718a 2e3e fbd7 543e
000000e0: dc65 413d ef64 f73d 161c 783d 25df fbbd
000000f0: 4f1b 203e 0e38 233d 8163 4d3e d61c 2b3e
00000100: 9e20 7abd 2191 3f3d a84a 2e3e afb8 35bd
00000110: acc0 bd3d cf07 4c3e a37a 4a3e 9088 5e3d
00000120: 7035 aabc 1313 e43d 9c3f 52bd f3eb c4bc
00000130: 5113 9abd c9fd bfbd 52f1 7c3d 0e84 7d3d
00000140: 15bf a0bd 9e37 0a3e e2c5 ae3d cf5b 293c
00000150: 5ff7 6d3e 9137 4a3d a141 933d 81f4 ccbd
00000160: 51d4 0b3e 7d29 ea3d 4cb0 54bd d8be 9d3d
00000170: 1195 773d 0d9f 8b3d 63fa 413e 0a14 613d
00000180: 2167 9dbd fbff 94bc a479 2b3e 73e2 863d
00000190: 1d28 1b3e fdee 243e 4ebe 8ebc 354d bd3d
000001a0: 41e6 7bbd 83f9 553e 3176 203e 164c d33d
000001b0: 81ff 1a3d 0668 9fbd f1dc 1b3e 6c55 963d
000001c0: ff8f 133d 8733 223e 9e54 89bd 8180 773d
000001d0: 13c5 693d f1d2 973d 36a0 103e 81d4 a5bc
000001e0: b763 063d 5550 9e3c 073a cb3c b109 213e
000001f0: 668e d73d 7775 a73d bf29 8f3d 89ed 3e3e
0.015422462 0.19998628 0.15828633 0.06283074 0.08031583 0.19343066 -2.1611997e-05 0.1632097
-0.032244585 -0.014219281 0.0075778766 -0.098041266 -0.10223217 0.034323525 0.15053697 0.06513543
0.12726136 0.21959668 0.16360101 0.16969123 0.13004918 -0.053084027 0.06883293 0.15724179
-0.05761567 0.19512475 -0.008011257 0.21618086 0.0074176583 0.06746608 0.08959063 -0.077980824
0.08077034 0.04936406 -0.11275443 0.07303739 0.08089437 0.17599669 -0.10920383 -0.09763672
-0.052597176 0.01881995 0.08897295 0.15586552 0.031698786 0.041556265 0.17520273 0.033530004
0.09167135 0.048163395 0.10940265 -0.08741192 0.034321338 -0.067409046 0.17044999 0.20785515
0.04721628 0.120797984 0.06057366 -0.12298421 0.15635417 0.03984838 0.20057489 0.16710219
-0.061066262 0.046769265 0.17020667 -0.04436558 0.09265265 0.19924854 0.19773345 0.054329455
-0.020777434 0.111364506 -0.051330194 -0.02403829 -0.075232156 -0.093745776 0.06175358 0.061893515
-0.07848946 0.13497779 0.08533837 0.01033683 0.23238896 0.0493694 0.07190252 -0.10007573
0.13655211 0.114336945 -0.051925942 0.07702416 0.060444895 0.06817446 0.18943171 0.05495075
-0.07685686 -0.018188467 0.16745621 0.065861605 0.15152021 0.16106792 -0.017424729 0.09243242
-0.061498884 0.20895962 0.15670086 0.103172466 0.037841324 -0.07783513 0.15221001 0.07340512
0.036025997 0.15839969 -0.067055926 0.060425285 0.05707271 0.07413281 0.14123616 -0.020242931
0.03280994 0.019325415 0.024807943 0.15726353 0.10525207 0.081767015 0.06990384 0.186453

fc3.weight f4 [2, 128]
00000000: 45cd 31bf 5400 ba3e 0fc0 863e 3ba6 92bd
00000010: ee70 753e 656c 943e bd2f 15bf f8b1 c33e
00000020: 3e09 143d ff31 dabe 4b6e 96bd 8ae3 02bf
00000030: 3845 503d d523 14bf ff53 39bf ad0b 42ba
00000040: 3441 293e d4af ce3e 43ff be3e 8254 983e
00000050: 3436 b73e d22a afbb a0aa 863b 28f6 d73e
00000060: c576 05bf 08ad b23e f43a 1bbe a708 393d
00000070: dba9 be3c 100f 7d3d 12be 3fbf d36b bbbe
00000080: bf2c 8b3e 315f a9bc 2c33 04bf 9a14 a93d
00000090: 7fb8 c33e 4baf 813e ea2e e7bc 884b 0fbf
000000a0: ed86 4fbd e347 6abd 32c2 8e3e 08b4 7e3e
000000b0: 6355 813d 5994 7e3e 6976 9d3e 8beb 82be
000000c0: 32b7 3fbe df43 a3bc 4f34 cc3e e0e0 313c
000000d0: a2fb e5be 1b77 43bf a1a3 7b3e 6125 8d3e
000000e0: f582 38bf dd36 ce3e a48c 9b3e 6619 15bf
000000f0: d323 b73e 6185 a23e d111 a43e 9127 a13e
00000100: 15ef 76bd c0e8 933e cf66 823e 04d5 8abd
00000110: 683e 843e 0e22 5b3e 53a7 c13e 364c 833e
00000120: 7e01 33bf a495 23bf ba68 ac3d f97d d5be
00000130: 5bfa 5ebe b2c2 eebe 6d1d 943e 4482 963e
00000140: 8b8f d9be 72cd 543e 4ac1 8a3e 7c69 c73c
00000150: bb0d b33e 84a0 21bd 0293 15bd 97bb 92bd
00000160: f4e8 e8bd 568a 8b3e cb17 013c daae c0bd
00000170: 51ed 8b3e e62f bc3e bdd1 b73e e0b6 c43d
00000180: 99f8 d3bc dc0c 8f3c a001 c23e e9ff bf3e
00000190: 4b7b 5a3e 91f3 ce3e d031 0dbf d6d9 0dbe
000001a0: 1413 aabe c909 e43e 6616 4e3e 2437 c03e
000001b0: f2f4 c0bc e513 403c 4b73 8a3e abaf 073e
000001c0: 1384 4bbc acb2 903e 33b1 04bb a641 8e3e
000001d0: 8001 bd3e 8f4c 5b3e 47fe 4d3e b22c 0e3d
000001e0: 6545 6fbc 6cc5 de3c 580a 14bf f5a3 813e
000001f0: 3a25 8a3e 0ea2 a5bd 52a6 10bd c428 273e
00000200: f79c d03c 4ed2 a83d e8c5 323e 5fe5 df3b
00000210: 63b2 cb3e 0f89 8a3e a9a4 3abf eea5 d53d
00000220: 1f01 45bd 19b5 09bf 42e2 8f3d a106 07bf
00000230: 1e51 60bc 2ff9 0abf a15c aabe c1e6 94bd
00000240: 1c85 e93e a40f 613e a36d 943c 2707 833e
00000250: 87f4 9c3e 9e04 dbbc 5347 36bd cc4b 363e
00000260: aca9 0fbf 6e9d 903e 7093 22bf f6c0 e43e
00000270: 106b 56bd 3a4d a7bd aa5d bdbe 36de 7a3e
00000280: bbbb 943e 2d21 26bd 2baf 2abf dbea 493c
00000290: de57 d83e e2cc 833e 2928 9cbc c9de c5be
000002a0: 75e1 dc3c 7506 913b f252 963e 57eb 993e
000002b0: 8b1c b3bc a908 8b3e 8ebd ab3e fa18 c5be
000002c0: 7f4e 5a3e 73c5 33bd 5a21 263e 4b10 df3c
000002d0: bd19 6abf 2215 febe 5665 933e f569 693e
000002e0: 258a 45bf 46d6 b63e 6e04 873e fa8b fbbe
000002f0: a912 3a3e ea4d 5f3e e730 993e d499 d03e
00000300: 2043 44bd 8465 c13e 51f8 933e 54f9 393d
00000310: 4c59 963e 34a3 e53e b10c c83e 0580 813e
00000320: 1187 1cbf a9cb 0fbf ab33 9e3d 5989 6fbf
00000330: aa2c 083e 16b2 6abf 68fb 523e f834 bc3e
00000340: d349 2c3d 6b55 963e 590c 2f3e 45aa 92bd
00000350: cf74 963e d364 863c bc78 863e 03c2 f3be
00000360: a98a 8a3e 962f b83e 5d5f d9bc 13d6 3ebf
00000370: b4ea 703e 5cf9 863e 2aa8 623d ed92 7bbe
00000380: 93b9 a63c 0b1c 1dbc 7308 2d3e 0287 ca3e
00000390: c58e cf3e bc4c 9d3e 79ca d6be 1bf0 833e
000003a0: cb38 ffbe 6e35 c83e 9db0 e83e 26c9 a7bc
000003b0: 18e3 063d 5781 64bb 34dc 613e 3d41 d53e
000003c0: ea12 16bd 382d 903e 764c f1bc 436a 993e
000003d0: ff9e 32bb 4478 ad3e 4ed9 df3e fc71 31bd
000003e0: 8aed 9abd e089 8dbd a6e8 1ebf 018a 973e
000003f0: e16d 4a3e 18ce 9cbd 501e a03d 7aac c83e
-0.6945384 0.36328375 0.26318404 -0.07160612 0.2396886 0.28988948 -0.5827597 0.38221717
0.036141627 -0.4261627 -0.073452555 -0.5112845 0.050847262 -0.57867175 -0.7239379 -0.00074022525
0.1652878 0.4036852 0.37304124 0.29751974 0.3578354 -0.0053456808 0.0041096956 0.4217999
-0.5213435 0.34897637 -0.15159208 0.045174267 0.023274353 0.061781943 -0.748994 -0.366057
0.27182576 -0.020675274 -0.5164058 0.082558826 0.38226697 0.2532905 -0.028220613 -0.55974627
-0.050665785 -0.057197463 0.27882534 0.24873364 0.06315114 0.24861278 0.30754402 -0.2557033
-0.18722227 -0.019929824 0.39883658 0.010856837 -0.44918543 -0.76353616 0.24574138 0.2756758
-0.72074825 0.40276232 0.30380738 -0.5824188 0.3576952 0.31742385 0.32044843 0.314755
-0.0602866 0.28888512 0.25469062 -0.06778911 0.25828862 0.2139971 0.3782297 0.25644082
-0.6992415 -0.6390021 0.084184125 -0.41697672 -0.2177519 -0.46632916 0.289287 0.2939626
-0.42492327 0.20781496 0.27100593 0.024342291 0.34971413 -0.03945972 -0.03651715 -0.07164686
-0.11372557 0.2725398 0.007879208 -0.0940835 0.27329496 0.36755294 0.35902205 0.09605193
-0.025875377 0.017462187 0.37891865 0.3749993 0.21336095 0.404202 -0.5515413 -0.13852629
-0.3321768 0.44538715 0.20125732 0.3754207 -0.023554299 0.011723493 0.27041087 0.13250606
-0.012421626 0.28261316 -0.002024722 0.2778446 0.36915207 0.21415924 0.2011653 0.034710594
-0.014603947 0.027193747 -0.57828283 0.25320402 0.26981527 -0.0808755 -0.035314865 0.16324145
0.025465472 0.082432374 0.17458308 0.006832763 0.39784536 0.27057692 -0.729075 0.10432039
-0.048096772 -0.5379196 0.07025577 -0.5274449 -0.013691215 -0.54286474 -0.33273795 -0.07270575
0.45609367 0.21978623 0.018118685 0.25591394 0.3065531 -0.0267356 -0.044501614 0.17802352
-0.56118274 0.2824511 -0.6350622 0.44678468 -0.052348197 -0.08169027 -0.36985523 0.24498829
0.29049477 -0.040558983 -0.66673535 0.01232406 0.42254537 0.2574225 -0.019062119 -0.38646534
0.026962975 0.0044258186 0.29360157 0.30062363 -0.021864196 0.27155045 0.33543056 -0.38495618
0.21319006 -0.043889474 0.1622366 0.027229449 -0.91445524 -0.49625498 0.2878825 0.22794326
-0.77163917 0.35710353 0.26370567 -0.4913023 0.18171181 0.21807066 0.29920122 0.40742362
-0.047915578 0.37772763 0.28900388 0.045403793 0.29365003 0.44851077 0.39072183 0.25292984
-0.61143595 -0.56170136 0.07724699 -0.9356895 0.13298288 -0.9167799 0.20603716 0.36759162
0.04206259 0.29362044 0.17094554 -0.071613826 0.29385993 0.016405499 0.26263988 -0.47608957
0.27058914 0.35973805 -0.02653473 -0.745454 0.23527032 0.2636212 0.055336155 -0.24567766
0.02035216 -0.0095892055 0.16897754 0.39556128 0.40538612 0.30722606 -0.4195135 0.25769123
-0.49848017 0.39103264 0.45447245 -0.020481657 0.032931417 -0.0034867132 0.22056657 0.41651335
-0.03663913 0.281595 -0.029455405 0.29963884 -0.0027255414 0.33880818 0.43720478 -0.043321595
-0.07564838 -0.06911063 -0.62073743 0.29597476 0.19768478 -0.07656497 0.07818282 0.3919409

fc3.bias f4 [2]
00000000: 05ad 5d3c a4eb cd3d
0.013530021 0.100547105
