weights/EA_hyperparam_model.pth (torch, 72781 bytes, 6 tensors)

fc1.weight f4 [128, 4]
0	0x3f3b1469	0.7307802
1	0xbd1c147b	-0.03810547
2	0xbf6878d4	-0.9080937
3	0xbe367712	-0.17818859
4	0xbeaa5e9b	-0.33275303
5	0x3ecedac2	0.40401274
6	0xbec492d8	-0.38393283
7	0xbe1314f0	-0.14363456
8	0x3a8d98ee	0.0010803023
9	0x3c9d6788	0.019214407
10	0xbfc21bd5	-1.5164744
11	0xbe835c94	-0.2565657
12	0xbebf3af5	-0.37349668
13	0x3ea80c63	0.3282195
14	0xbf7f2fee	-0.9968251
15	0xbe993489	-0.29922894
16	0xbb2efd8c	-0.0026701419
17	0x3a610875	0.0008584329
18	0x400ae094	2.1699572
19	0x3e9eb977	0.31000873
20	0x3f02850f	0.5098428
21	0x3ea62ecb	0.32457575
22	0xbd8d29a7	-0.0689271
23	0x3e6347f4	0.22195417
24	0xbe07af09	-0.13250364
25	0x3db5cf8c	0.08877477
26	0xbee7b333	-0.45253906
27	0xbe09654c	-0.13417548
28	0xbe98c60f	-0.29838607
29	0xbe86eb5a	-0.26351434
30	0x3f5556e5	0.83335716
31	0x3db65e23	0.08904674
32	0xbda84e46	-0.082180545
33	0x3deac23b	0.11462828
34	0x3f08ad77	0.53389686
35	0xbe4b51ab	-0.19855373
36	0x3dd7c077	0.10534757
37	0x3e9a5a77	0.30147144
38	0xbfc8cce5	-1.5687529
39	0xbed2dc6d	-0.41183797
40	0x3da34b28	0.07973319
41	0xbb68b245	-0.0035506648
42	0xbe69342f	-0.22773813
43	0xbe7d8afc	-0.2476005
44	0xbe150046	-0.14550886
45	0x3f03ccfc	0.51484656
46	0x3e6ecbb4	0.23319894
47	0xbda43187	-0.08017259
48	0x3f53ea6c	0.82779574
49	0x3cdabb6b	0.026700696
50	0xbf47796f	-0.7791967
51	0xbe00c187	-0.12573825
52	0x3e692dbb	0.22771351
53	0x3ead87e7	0.33892748
54	0x3ef5d758	0.48015857
55	0x3e3d3c5a	0.18480054
56	0x3ebd2d6f	0.36948726
57	0x3eebd350	0.46059656
58	0xba9d7cc9	-0.0012015338
59	0x3f0788dd	0.5294321
60	0x3ea7adcb	0.3274978
61	0x3eccd8e1	0.40009215
62	0xbe88e554	-0.26737463
63	0x3e87da4d	0.26533738
64	0x3eaccf86	0.33752078
65	0xbb96c7ac	-0.0046014395
66	0x3f992101	1.1963197
67	0x3e9f7318	0.31142497
68	0x3d50f74f	0.0510171
69	0xbd058176	-0.032594167
70	0xbfcc58b7	-1.5964574
71	0xbec5b1a2	-0.38612086
72	0xbda7a9eb	-0.08186706
73	0xbe73a884	-0.23794752
74	0x3de3f98f	0.11131584
75	0xbe26cf58	-0.16290033
76	0x3e46387e	0.19357488
77	0x3e912e5f	0.2835569
78	0x3f9c0efb	1.2192072
79	0xbdb7fb36	-0.089834616
80	0x3ba9ac40	0.0051780045
81	0xbc2650e1	-0.010151119
82	0x3ff87f75	1.9413897
83	0x3d9c1c8c	0.076226324
84	0xbf02a98c	-0.5103996
85	0xbc5bc296	-0.013413092
86	0xbf629b9b	-0.88518685
87	0x3ea6eb92	0.326016
88	0xbf44d57c	-0.7688825
89	0x3ea1328f	0.31483886
90	0x3f8fa5aa	1.1222432
91	0xbd440a3c	-0.047861323
92	0x3b4847de	0.0030560414
93	0x3df07951	0.11741889
94	0xbf5c5789	-0.8607107
95	0x3eeed175	0.46644178
96	0x3e83f2f6	0.25771302
97	0xbe9a96cf	-0.30193183
98	0x3d027d99	0.03185806
99	0x3eec0b38	0.4610231
100	0x3dc86ae1	0.097860105
101	0xbe00a671	-0.12563492
102	0xbf5a22bc	-0.8520925
103	0x3dcd8ea2	0.10036971
104	0x3d9f8fec	0.07791123
105	0x3d51deb1	0.051237766
106	0xbf1a575d	-0.60289556
107	0xbe72ad53	-0.2369893
108	0xbd1546c7	-0.03644445
109	0xbed98316	-0.42482823
110	0xbf86b480	-1.0523834
111	0x3e035e01	0.12828828
112	0xbecc8a05	-0.3994905
113	0xbc6c92db	-0.01443931
114	0x3f6b0faf	0.91820806
115	0xbf18e570	-0.59725094
116	0x3d8e9cc2	0.06963493
117	0xbde75b22	-0.11296679
118	0x3f9c7691	1.2223684
119	0x3e263d2f	0.16234277
120	0x3e942058	0.28930926
121	0x3e6dc878	0.23221004
122	0x3ef68835	0.48150793
123	0x3e90bd1b	0.28269276
124	0x3da43bb3	0.08019199
125	0xbe003020	-0.12518358
126	0xbf72acc1	-0.9479485
127	0x3ece4ff6	0.4029538
128	0x3cc55b06	0.024091255
129	0x3c9f78be	0.019466754
130	0x3f8ee7eb	1.1164526
131	0xbf55c08f	-0.83496946
132	0xbe78e3cb	-0.24305646
133	0x3ea24d1c	0.31699455
134	0x3e84217d	0.258068
135	0x3ce52627	0.027972294
136	0x3de022a6	0.10944109
137	0x3e35c357	0.17750297
138	0xbf4be3d8	-0.79644537
139	0xbd8151e7	-0.0631445
140	0xbef47d64	-0.47751915
141	0xbeac11b4	-0.33607256
142	0x3f864eeb	1.0492834
143	0x3edd2157	0.431895
144	0xbb98cc4e	-0.004663027
145	0x3ba26179	0.0049554673
146	0xc0015df8	-2.0213604
147	0xbe3761ab	-0.17908351
148	0xbdf4ee9c	-0.119595736
149	0x3ec565d0	0.3855424
150	0xbbb98bbb	-0.005662409
151	0xbf3716aa	-0.7151896
152	0xbe815dff	-0.25267026
153	0xbdc8de5f	-0.09808039
154	0xbe8607d4	-0.26177847
155	0xbcefd2b4	-0.029275276
156	0xbbadeb93	-0.0053076237
157	0x3b35c9df	0.0027738733
158	0xbff68ab0	-1.9261074
159	0xbe801131	-0.25013116
160	0x3e6479c3	0.22312073
161	0x3d6c189e	0.057640664
162	0x3fb0fb7d	1.3826748
163	0x3ea957c1	0.33074763
164	0x3cb23bfa	0.021757115
165	0xbe112b59	-0.14176692
166	0x3f94aacf	1.1614627
167	0x3e7bca70	0.24588943
168	0xbe7506fe	-0.23928449
169	0x3dfa7725	0.12229756
170	0xbfb53714	-1.4157434
171	0xbd4d34d6	-0.050099216
172	0x3f212d8d	0.6296013
173	0xbea25260	-0.31703472
174	0xbeda2fe3	-0.4261466
175	0xbead095c	-0.33796203
176	0x3e1ca4d9	0.1529726
177	0x3f035075	0.5129464
178	0xbf4c27c7	-0.79748195
179	0x3e3a2329	0.18177475
180	0x3df8ea7a	0.12154098
181	0xbe99a7f5	-0.30010954
182	0xbfdca456	-1.7237651
183	0xbe1006c5	-0.14065082
184	0xbe68715b	-0.22699492
185	0x3e308a3b	0.1724023
186	0x3f8ce594	1.1007562
187	0x3f2e2195	0.6801999
188	0x3ad7f44e	0.0016476007
189	0x3c7470a4	0.014919434
190	0xc00f43ca	-2.2385125
191	0xbdd43124	-0.10360935
192	0x3dceb5f9	0.10093302
193	0x3ebb0d70	0.3653369
194	0xbdd814ab	-0.10550817
195	0xbea3bfaa	-0.31982166
196	0x3d7bb8fe	0.06145572
197	0xbd0344ed	-0.032048155
198	0xbf202411	-0.6255503
199	0x3f07d958	0.53066015
200	0xbdf2bcd9	-0.11852426
201	0xbed9667d	-0.42461005
202	0x3f5c13de	0.85967815
203	0xbe5668e0	-0.20938444
204	0xbec22698	-0.3792007
205	0xbe611a4f	-0.21982692
206	0xbfb3ce16	-1.4047267
207	0xbec8bf96	-0.39208668
208	0x3ef5efdc	0.4803456
209	0x3e2498cf	0.16073917
210	0xbf9dbb80	-1.2322845
211	0xbec20163	-0.37891683
212	0x3dbc622d	0.09198413
213	0x3e41901d	0.18902631
214	0x3ea4aeae	0.3216452
215	0xbf0e46a0	-0.55576515
216	0xbed8daf5	-0.4235455
217	0x3ef6498f	0.48102996
218	0x3f80e654	1.007029
219	0x3eadfd0e	0.33982128
220	0xbf0ac2c2	-0.54203427
221	0xbe00b30e	-0.12568304
222	0x3f7f8d95	0.9982541
223	0x3dba8a54	0.09108415
224	0xbd3e336e	-0.046435766
225	0x3e80d068	0.25159
226	0xbf4a72d8	-0.7908149
227	0x3eebf218	0.4608314
228	0x3d004300	0.031313896
229	0xbe9c52a0	-0.30531788
230	0xbfa69943	-1.3015522
231	0xbd861687	-0.065472655
232	0x3efd85e4	0.49516213
233	0x3c5884f7	0.013215295
234	0xbf96e0f3	-1.1787399
235	0xbe309fdb	-0.1724848
236	0x3c327e94	0.010894436
237	0xbce8751c	-0.028376155
238	0x3f85745d	1.0426136
239	0x3e73ffec	0.23828095
240	0x3c926597	0.017870707
241	0xbe2330a0	-0.15936518
242	0xbf8408a1	-1.0315133
243	0xbf073c41	-0.52826315
244	0xbf34c1dd	-0.7060831
245	0xbe25735b	-0.16157286
246	0x3f4d74d5	0.80256397
247	0x3e7963dc	0.243545
248	0xbed17ead	-0.40916958
249	0x3d8cc786	0.068739936
250	0x3f8457f7	1.0339345
251	0xbd8376d8	-0.06419152
252	0xbd26973e	-0.04067158
253	0xbc61c267	-0.013779259
254	0xbf95917b	-1.1685022
255	0x3f1b4528	0.606524

fc1.bias f4 [128]
0	0xbec27e63	-0.3798705
1	0xbe7e7c83	-0.24852185
2	0x3efe06a3	0.49614438
3	0x3ef747d1	0.4829698
4	0xbee1b267	-0.44081423
5	0x3ec1fbd6	0.37887448
6	0x3e8609a5	0.26179233
7	0x3f07ac78	0.5299754
8	0x3e8ffcbc	0.2812251
9	0xbe821d44	-0.25412953
10	0x3e543782	0.207243
11	0xbeacd291	-0.337544
12	0xbe9790b4	-0.29602587
13	0xbf018236	-0.5058931
14	0xbf4cc97a	-0.7999493
15	0x3c99abc1	0.018758656
16	0xbcbe50bd	-0.023231858
17	0x3ef664de	0.4812383
18	0x3ed8bd20	0.4233179
19	0x3ea58201	0.32325748
20	0xbeb7f6a8	-0.3593037
21	0x3e12fa3a	0.14353266
22	0xbe8dbe7d	-0.27684394
23	0x3e808350	0.25100183
24	0xbed70f3a	-0.42003804
25	0x3ebd4467	0.3696625
26	0x3f117e97	0.56833786
27	0xbdb03fae	-0.08605896
28	0x3dde9d97	0.108699016
29	0x3ec0cf9c	0.37658393
30	0xbf1792d3	-0.5920841
31	0x3e9550c9	0.29163197
32	0x3e2a92a9	0.16657509
33	0x3eec3f06	0.46141833
34	0x3ea0484d	0.3130516
35	0xbec3e40f	-0.38259932
36	0xbec5bac7	-0.38619062
37	0xbe506ae8	-0.20353281
38	0xbf283054	-0.6569874
39	0xbec2afd4	-0.3802477
40	0xbe1d0dae	-0.1533725
41	0xbe0b2191	-0.13587023
42	0x3eabc150	0.33545923
43	0xbe9851e2	-0.29749972
44	0xbe2bcda8	-0.1677767
45	0xbea95084	-0.3306924
46	0x3f02a7e7	0.5103745
47	0xbed6fc38	-0.41989303
48	0x3ec5f9a4	0.38667023
49	0x3dd418ff	0.1035633
50	0xbdd5ab45	-0.10433058
51	0xbe860922	-0.26178843
52	0xbeb440db	-0.3520573
53	0x3d79f99e	0.06102907
54	0x3edee55a	0.43534356
55	0xbe369658	-0.17830789
56	0x3eb67154	0.35633337
57	0x3eddcf4c	0.43322217
58	0xbeaf7785	-0.34270874
59	0x3ecdba4f	0.40181205
60	0xbe8381fd	-0.2568511
61	0xbee95abc	-0.45577037
62	0xbe2c3b47	-0.16819488
63	0x3e39c80b	0.18142717
64	0x3daee95b	0.08540603
65	0x3ef383f2	0.47561604
66	0xbeb38fb7	-0.35070583
67	0x3f214892	0.6300136
68	0x3e9e8b09	0.3096545
69	0x3da3c318	0.079961956
70	0x3e975f4e	0.295649
71	0x3ed2aba7	0.41146585
72	0x3e8ea5bd	0.27860823
73	0x3ef0631c	0.46950614
74	0xbebee047	-0.37280485
75	0xbefdc8f7	-0.49567387
76	0x3d19011d	0.037354577
77	0x3f136aa7	0.57584614
78	0xbd7ef7b9	-0.062247965
79	0xbeda9a87	-0.4269602
80	0xbe9902c1	-0.29884914
81	0x3efe6ec7	0.4969389
82	0xbebd4c8c	-0.36972463
83	0x3f0f2754	0.55919385
84	0x3ea89fcf	0.32934424
85	0xbedf6401	-0.43630984
86	0x3e798ee8	0.2437092
87	0xbc088642	-0.008332791
88	0x3e41bc0e	0.18919393
89	0x3f0fbef8	0.5615077
90	0x3eea6c39	0.45785692
91	0xbf05b6b5	-0.52231914
92	0x3ef0505c	0.4693631
93	0xbeb6e287	-0.35719702
94	0x3ecaeee9	0.396354
95	0x3f19bc6a	0.6005312
96	0xbe3ccdfc	-0.18437952
97	0xbe16afb4	-0.14715463
98	0x3e3d8ffa	0.18511954
99	0xbe49d040	-0.19708347
100	0x3f0046e7	0.5010819
101	0xbf2491ad	-0.64284784
102	0x3d97ce47	0.07412391
103	0x3ef5b45f	0.47989175
104	0x3ea6272a	0.32451755
105	0x3e2e1767	0.17001115
106	0x3ecf0e13	0.40440425
107	0x3f17d555	0.59309894
108	0x3ef6db1b	0.4821404
109	0xbe40468b	-0.1877691
110	0x3e568333	0.20948486
111	0x3e816ec9	0.25279835
112	0x3daf39e0	0.08555961
113	0x3ed65dad	0.41868344
114	0x3f0119f3	0.5043022
115	0x3e73bd79	0.23802747
116	0x3f031127	0.5119805
117	0xbf458abf	-0.77164835
118	0x3f28bd45	0.659138
119	0x3ea2da92	0.3180738
120	0x3f064583	0.52449816
121	0xbe798efc	-0.2437095
122	0x3f00adda	0.50265276
123	0xbc74c23d	-0.014938888
124	0xbf1dbf96	-0.6162046
125	0xbe1f7a7c	-0.15574068
126	0x3e997f6f	0.29980037
127	0xbeda9a77	-0.42695972

fc2.weight f4 [128, 128]
0	0xbca5340c	-0.02016642
1	0xbd726dd0	-0.059186757
2	0x3ea43825	0.32074085
3	0x3e581740	0.21102619
4	0xbff248b6	-1.892844
5	0x3ce52f84	0.027976759
6	0x3e0faa49	0.14029802
7	0x3e4d629d	0.20057149
8	0x3dee7448	0.11643273
9	0x3e948a71	0.29011872
10	0x3e20150a	0.15633026
11	0xbda4f62d	-0.08054767
12	0xbde7ec85	-0.113244094
13	0xbec8d751	-0.39226773
14	0x3d501919	0.050805185
15	0xbcedb9a3	-0.029019183
16	0xbeff394a	-0.49848396
17	0x3e159a70	0.14609694
18	0x3e242d81	0.16032983
19	0x3c49db41	0.012320341
20	0xc049431f	-3.1447217
21	0x3eac9bdd	0.33712664
22	0xbe103f12	-0.1408656
23	0x3e8abbaf	0.27096316
24	0x3d0a7931	0.033806983
25	0x3e94c153	0.29053745
26	0x3d6398c9	0.05556563
27	0x3ddb9b4b	0.10722979
28	0xbc313e10	-0.0108180195
29	0xbe1b9c2f	-0.15196298
30	0xbee91f47	-0.45531675
31	0x3dc137e2	0.09434487
32	0xbc876bdd	-0.016530925
33	0x3de648c0	0.11244345
34	0x3d3f6461	0.04672659
35	0xbe7becdd	-0.24602075
36	0x3e17922c	0.14801854
37	0x3cefc9bf	0.029271005
38	0xbf8c240d	-1.0948502
39	0xbf16e049	-0.5893598
40	0xbf9d84b0	-1.2306118
41	0xbe7c8372	-0.24659517
42	0x3f0a4df7	0.54025215
43	0xbed82cce	-0.42221683
44	0xbd9d709c	-0.07687494
45	0x3c5a72ef	0.013333066
46	0xbceeba28	-0.0291415
47	0x3e642ce2	0.22282746
48	0x3df680dd	0.120362975
49	0x3e39050c	0.18068331
50	0xbea218b0	-0.3165946
51	0x3e06f649	0.13179888
52	0x3cdf3525	0.027247021
53	0x3d0ad913	0.033898424
54	0xbd62c9ff	-0.05536842
55	0xbe240327	-0.16016828
56	0x3e302f2f	0.17205499
57	0x3e558b34	0.20853883
58	0x3dd43f95	0.1036369
59	0x3d706c60	0.058697104
60	0x3ef40805	0.47662368
61	0xbea94128	-0.33057523
62	0xbe227748	-0.15865815
63	0x3e9c98ae	0.30585235
64	0xbe1eb3eb	-0.15498321
65	0xbd9b3d08	-0.0758
66	0x3d9fc626	0.07801466
67	0x3cdfed8b	0.027334949
68	0x3e063cd4	0.13109142
69	0x3e395f13	0.18102674
70	0x3e9f23de	0.31082052
71	0x3e764915	0.24051316
72	0x3e331c9a	0.1749138
73	0x3e8a797e	0.27045816
74	0xbf82e619	-1.022647
75	0x3e93053a	0.28714925
76	0x3e7806c1	0.24221326
77	0xbcf8dd09	-0.030378835
78	0xbd85d050	-0.06533873
79	0xbef18cd8	-0.47177768
80	0x3e4f9393	0.20271139
81	0x3db99414	0.09061447
82	0x3c5f90ae	0.013645334
83	0x3e036d3c	0.12834638
84	0x3d6c82bc	0.057741866
85	0x3d5cc39a	0.053897478
86	0xbea02129	-0.312753
87	0xbea7c006	-0.3276369
88	0x3de5dad6	0.1122338
89	0x3e053ca1	0.1301141
90	0x3ea817cb	0.32830653
91	0xbf0e7b1e	-0.5565661
92	0x3e47e33b	0.19520275
93	0xbeb48261	-0.3525572
94	0x3de302c3	0.11084511
95	0x3e813345	0.25234428
96	0xbe3f9b01	-0.18711473
97	0xbe085b45	-0.13316067
98	0xbd8454b7	-0.064614706
99	0xbe6375c0	-0.22212887
100	0xbcae7a4e	-0.021298554
101	0xbdb17f1f	-0.086668245
102	0xbeaa15bd	-0.3321971
103	0x3d66e0c4	0.056366697
104	0xbe1b185f	-0.15146016
105	0xbe9e76e5	-0.30950084
106	0x3e055393	0.13020162
107	0x3c9519d9	0.018200802
108	0x3dc5bc65	0.09655074
109	0xbe58e9bf	-0.21182917
110	0xbdf90a75	-0.12160198
111	0xbe00604b	-0.12536733
112	0xbda1b881	-0.078965195
113	0x3e24b9f4	0.1608656
114	0xbcc01d9c	-0.023451619
115	0xbd5df108	-0.054184943
116	0x3e368110	0.17822671
117	0x3e3b7a1d	0.18308301
118	0x3e33cd8f	0.17558883
119	0x3d94af48	0.07259995
120	0xbd34f1d9	-0.044175956
121	0xbf4d84a4	-0.8028052
122	0xbd61fbf5	-0.055171926
123	0x3e3951e1	0.1809764
124	0xbf03f393	-0.5154354
125	0x3c4f4b1c	0.012652185
126	0x3e0bee4b	0.1366512
127	0xc0226bce	-2.5378299
128	0x3f121fd1	0.570798
129	0x3d9e2c97	0.077233486
130	0x3da9e92c	0.08296427
131	0x3db4ae10	0.08822262
132	0xbc90057e	-0.017580744
133	0xbd9d418f	-0.0767852
134	0x3d9707f2	0.07374562
135	0xbab8bdcb	-0.0014094649
136	0x3e66e772	0.22549227
137	0xbeaba22e	-0.3352217
138	0x3d022ed7	0.03178295
139	0xbde7bb03	-0.113149665
140	0x3ce83b46	0.028348576
141	0xba49021b	-0.0007667855
142	0x3c509015	0.012729664
143	0x3d2448eb	0.040108602
144	0x3e896c84	0.26840603
145	0x3c9d8398	0.019227788
146	0x3d54aa5b	0.051920276
147	0x3dc0a884	0.09407142
148	0x3f84384f	1.0329684
149	0xbeb35bf5	-0.35031095
150	0x3d29c751	0.04144985
151	0xbe79bfd0	-0.24389577
152	0xbd34d03c	-0.0441439
153	0xbdae12ff	-0.08499717
154	0x3df1f201	0.11813737
155	0xbe409092	-0.18805149
156	0x3ea2dcca	0.31809074
157	0x3e3d8c26	0.18510494
158	0x3eaa880c	0.3330692
159	0x3d55e454	0.052219704
160	0x3ec89758	0.39177966
161	0x3cc0c51d	0.023531491
162	0x3de5fac9	0.11229474
163	0xbc6f1cb2	-0.014594244
164	0x3eb9ae60	0.3626585
165	0x3e66f3fa	0.22554007
166	0xbf1fcb97	-0.6242003
167	0x3f28f51f	0.65999025
168	0x3ebe2f95	0.37145677
169	0xbe62a1a0	-0.22131968
170	0xbf092f08	-0.5358739
171	0x3e6881b5	0.2270573
172	0xbd0388ce	-0.03211289
173	0x3de8be4a	0.1136442
174	0x3d441f83	0.047881614
175	0x3dbe39da	0.09288378
176	0xbbb1c545	-0.0054251277
177	0xbe84db64	-0.25948632
178	0x3d436c03	0.04771043
179	0xbea5106c	-0.3223909
180	0xbe81f78a	-0.2538417
181	0x3e17bc96	0.14818034
182	0x3e2fd269	0.17170109
183	0xbd16632e	-0.03671568
184	0x3d572f91	0.052535597
185	0xbe67db2e	-0.22642204
186	0xbe834f83	-0.256466
187	0x3dc0b716	0.09409921
188	0xbe4428e3	-0.19156222
189	0xbbee8183	-0.0072786226
190	0x3e18013f	0.14844225
191	0xbed1a131	-0.40943292
192	0x3e915360	0.28383923
193	0x3e0b4ec5	0.13604267
194	0xbe3b056f	-0.18263792
195	0xbd6d4857	-0.057930317
196	0xbe6d9b55	-0.23203786
197	0xbe359d7f	-0.17735861
198	0xbd747e32	-0.05969066
199	0xbcdac68a	-0.026705999
200	0x3c854fd6	0.01627342
201	0xbcc528ff	-0.0240674
202	0x3c03f669	0.008054354
203	0xbe721995	-0.23642571
204	0xbe59624d	-0.21228905
205	0x3d2fc877	0.042915788
206	0xbe193995	-0.14963372
207	0xbde25ebe	-0.11053227
208	0x3ca33e68	0.019927219
209	0xbd1006b8	-0.035162657
210	0x3e3ceec2	0.18450454
211	0xbdd59581	-0.10428906
212	0xbd27862f	-0.04089945
213	0xbe846588	-0.25858712
214	0x3ea696ea	0.32537013
215	0xbc58910d	-0.013218177
216	0x3e27e4c2	0.16395858
217	0x3de00964	0.10939291
218	0xbdbf34fc	-0.09336278
219	0x3ddca77f	0.10774135
220	0xba89d444	-0.0010515531
221	0x3f58d0bb	0.846935
222	0x3c40c014	0.011764545
223	0x3c804e81	0.015662434
224	0x3d52663b	0.051367026
225	0x3e09832a	0.13428941
226	0x3efa6223	0.48902997
227	0xbc4d2ef4	-0.0125234015
228	0xbda5d25b	-0.08096763
229	0x3c77a20b	0.015114318
230	0x3db3aea1	0.08773542
231	0x3dd00c05	0.101585425
232	0x3e0c6e73	0.13714008
233	0x3e77406e	0.24145672
234	0xbe52035f	-0.20509098
235	0x3db307ad	0.087416984
236	0x3e7d2aba	0.2472333
237	0x3e551bde	0.20811412
238	0x3dc4e0da	0.096131995
239	0x3e8e3b93	0.27779827
240	0x3dce1712	0.10062994
241	0x3ca45178	0.020058379
242	0x3e198c9e	0.14995047
243	0x3e07ff2f	0.13280939
244	0xbd09ab97	-0.033610906
245	0xbe382ded	-0.1798627
246	0x3e5f916c	0.21832818
247	0x3da72a14	0.08162323
248	0xbc4f54bc	-0.01265448
249	0x3ea5b2d2	0.32362992
250	0x3d5fdf5e	0.05465638
251	0xbe4e3fac	-0.20141476
252	0x3ec01f21	0.3752375
253	0xbdee7508	-0.11643416
254	0x3d960c66	0.073265836
255	0x3d9ccac3	0.07655861

fc2.bias f4 [128]
0	0x3d4395a0	0.047750115
1	0x3da1c5c1	0.07899047
2	0xbcfc5837	-0.030803783
3	0xbe29a8fb	-0.16568367
4	0x3d405c90	0.046963274
5	0x3e2e192e	0.17001793
6	0x3e5a75b1	0.21333958
7	0xbd777993	-0.060418677
8	0x3dd63daa	0.1046098
9	0x3dc0f9ef	0.09422671
10	0x3db77988	0.08958727
11	0x3d9fec13	0.078086995
12	0xbd4dfe56	-0.05029138
13	0x3e15bcfb	0.14622872
14	0x3c9f8784	0.019473799
15	0x3da3bd51	0.079950936
16	0xbd9f0267	-0.0776413
17	0x3da69fe0	0.081359625
18	0x3dc97856	0.098374054
19	0x3a55e9db	0.00081601524
20	0x3d0e0164	0.034669295
21	0xbd8fcadf	-0.070211165
22	0x3e2bbf78	0.16772258
23	0x3b811049	0.003938709
24	0x3dcc4898	0.09974784
25	0x3dbb14ab	0.091348015
26	0x3e29a7dc	0.1656794
27	0x3dcd8670	0.100354075
28	0x3c9a6a68	0.018849567
29	0x3e7b7a17	0.24558292
30	0x3e75a672	0.23989275
31	0x3c1ea2f9	0.00968241
32	0x3dbb9b53	0.09160485
33	0xbb4188bc	-0.0029530963
34	0xbdc08a05	-0.09401325
35	0x3e544b82	0.20731929
36	0xbcca09c8	-0.024662867
37	0x3df8b3a7	0.12143641
38	0xbcfe4267	-0.031037522
39	0xbb62a6a1	-0.0034584182
40	0x3d739b2a	0.059474148
41	0x3c817cf2	0.015806649
42	0x3d3d0547	0.04614761
43	0x3d5c59ca	0.053796567
44	0xbe000aa9	-0.12504067
45	0xbdc82acd	-0.097737886
46	0x3c89c288	0.016816393
47	0x3e20625f	0.15662526
48	0xbd4f94a0	-0.05067885
49	0x3ce7643e	0.028246041
50	0x3b590e77	0.0033120194
51	0x3de11b70	0.109915614
52	0x3d8b7ea1	0.06811262
53	0xbe4293e5	-0.1900173
54	0x3d563d8f	0.0523048
55	0x3e279015	0.16363557
56	0xbb56f6ef	-0.0032800992
57	0x3d993663	0.074810766
58	0x3d98220c	0.07428369
59	0x3cce0a27	0.025151325
60	0xbd65567d	-0.055990685
61	0x3e07fee2	0.13280824
62	0xbb2a48fc	-0.0025983443
63	0xbcbc19bf	-0.022961495
64	0x3e01a3d5	0.12660153
65	0xbe0a23cd	-0.1349022
66	0x3dc2a65b	0.09504386
67	0xbd012c1d	-0.03153621
68	0x3d87c6ce	0.06629716
69	0xbd05bc4f	-0.03265029
70	0xbd04497e	-0.03229665
71	0xbd97d112	-0.07412924
72	0x3cea66ae	0.028613415
73	0xbddbf27f	-0.10739612
74	0x3e39da2c	0.18149632
75	0x3e29fe75	0.16600974
76	0xbdae4bb1	-0.08510531
77	0xbdaaefc5	-0.08346514
78	0xbdb066a0	-0.08613324
79	0xbd8c9131	-0.068636306
80	0xbd1ccaf2	-0.03827948
81	0x3db9ab3e	0.09065865
82	0xbddd19fc	-0.10795972
83	0x3dc6da50	0.097096086
84	0x3d48fe12	0.049070425
85	0x3e66b125	0.22528513
86	0xbdf8309a	-0.12118645
87	0xbe526c97	-0.20549236
88	0x3d22634b	0.039645474
89	0xbd77f3e0	-0.06053531
90	0x3da5be04	0.08092883
91	0xbcc422fa	-0.02394246
92	0x3ddcd4ed	0.107828
93	0x3d44bd82	0.04803229
94	0x3dc1a9fa	0.094562486
95	0x3dcc11fd	0.099643685
96	0xbbe2ed8a	-0.0069252895
97	0x3e497c8c	0.19676417
98	0x3d3956aa	0.045248665
99	0x3c84d358	0.016214058
100	0xbdb78879	-0.08961577
101	0x3de71f3a	0.11285253
102	0x3dc65a19	0.096851535
103	0xbd7eb7b2	-0.062186904
104	0xbd429fe9	-0.047515783
105	0xbd0936d2	-0.033499546
106	0x3e3018c6	0.1719695
107	0xbe1aa8d7	-0.1510347
108	0xbd809544	-0.0627847
109	0x3d778a5d	0.060434688
110	0x3d904952	0.07045235
111	0x3dcf2efa	0.10116382
112	0x3d42d601	0.04756737
113	0x3d864fb4	0.06558171
114	0xbcbc8803	-0.023014074
115	0x3deafda2	0.11474158
116	0xbc5a4d0c	-0.0133240335
117	0x3d0b70fb	0.034043293
118	0x3dcebc5d	0.10094521
119	0x3daf29ac	0.0855287
120	0x3d740931	0.059579078
121	0xbdbed8f8	-0.09318727
122	0x3d84e7a0	0.064894915
123	0x3daf7dfb	0.08568951
124	0x3dc9ba4e	0.09849988
125	0x3cc08938	0.023502931
126	0xbd9fb238	-0.077976644
127	0x3d794b9f	0.060863134

fc3.weight f4 [2, 128]
0	0x3ee5bcdd	0.44870654
1	0xbdb5222c	-0.088444084
2	0x3e8449ef	0.25837657
3	0xbf17ba5e	-0.5926875
4	0x3e1e751f	0.15474366
5	0x3ebd09ed	0.36921635
6	0x3efbd8c4	0.49188817
7	0xbd1bad9a	-0.038007356
8	0x3f2fac7c	0.68622565
9	0x3df5f4e9	0.120096035
10	0x3ead16c5	0.33806434
11	0xbd463fdd	-0.04840075
12	0xc03fd456	-2.997335
13	0x3e92f24e	0.2870049
14	0xbda16d86	-0.07882218
15	0x3d55f694	0.05223711
16	0x3ffe90d8	1.9887953
17	0x3e784e2f	0.24248575
18	0x3e094ec3	0.13408951
19	0x3c58cc80	0.01323235
20	0x3de62f90	0.112395406
21	0xc0578053	-3.3672073
22	0x3f26fe84	0.6523211
23	0xbd31afb5	-0.043380458
24	0x3e0decae	0.13859817
25	0x3f1c27fe	0.60998523
26	0xbf9ca7d4	-1.2238717
27	0xbf0126f4	-0.5045006
28	0x3de2933c	0.11063239
29	0x3eca3171	0.39490846
30	0x3e862207	0.26197836
31	0x3d934ae4	0.07192019
32	0x3e358b7b	0.17728989
33	0xc0791137	-3.8916757
34	0x3d87a2fe	0.06622885
35	0x3eb8778d	0.3602871
36	0x3c25e093	0.010124343
37	0x3e12d11c	0.14337581
38	0x3fbbe601	1.4679567
39	0x3b3f8dac	0.002922873
40	0x3ebe0fcb	0.37121424
41	0xbf61d81c	-0.8822038
42	0xbc388e8a	-0.011264453
43	0xbf39c0d9	-0.7255989
44	0x3ee065b4	0.43827593
45	0xbf89f21c	-1.0777011
46	0xbd84b61e	-0.064800486
47	0x3ef4a5cb	0.4778274
48	0x3f31edb0	0.6950331
49	0x3d54f0c9	0.051987443
50	0x3e709482	0.23494151
51	0x3ca74c7c	0.020422213
52	0x3d910ecc	0.070829004
53	0xbfd39d8f	-1.6532458
54	0x3f39afb8	0.7253375
55	0x3f478750	0.77940845
56	0x3e7f321a	0.24921456
57	0x3b38fedb	0.0028228078
58	0x3e84254f	0.25809714
59	0x3d593169	0.053025637
60	0x3c0843cb	0.008316944
61	0x3e1b50de	0.15167567
62	0x3e110f31	0.14165951
63	0x3eb70484	0.35745633
64	0x3f55c23f	0.8349952
65	0xbf938227	-1.1524094
66	0xbf85cd44	-1.0453267
67	0x3d98868b	0.07447537
68	0xbd7c838c	-0.06164889
69	0xc074d5c5	-3.8255475
70	0x3e04dd8c	0.12975138
71	0xc07a55b2	-3.9114804
72	0x3f04f1c4	0.51931405
73	0xbf9c6abb	-1.2220072
74	0x3e27dd74	0.16393071
75	0x3e25312d	0.1613204
76	0xbf88b21e	-1.0679357
77	0xbb6f3680	-0.003650099
78	0x3c7bf9e9	0.015379407
79	0xc034a572	-2.822598
80	0x3d8668f9	0.06562991
81	0xbe69a3d9	-0.22816409
82	0x40353544	2.831376
83	0x3d8d4024	0.068969995
84	0x3d4543ec	0.04816048
85	0xbff697e1	-1.92651
86	0xbff7f13f	-1.9370497
87	0xc03d55c7	-2.9583604
88	0xc025a12a	-2.5879617
89	0xbd770bcd	-0.06031399
90	0x3f2edef5	0.68308955
91	0x3daf75f6	0.08567421
92	0x3dd3585a	0.10319586
93	0x3e21a835	0.15786822
94	0x3cff6e32	0.031180475
95	0x3e9c1661	0.30485824
96	0x3d80c247	0.062870555
97	0x3ef87120	0.48523808
98	0xbc224438	-0.00990396
99	0xbf57e245	-0.84329635
100	0xbd700909	-0.058602367
101	0x3dd4b7af	0.10386597
102	0xbcd875b1	-0.026423307
103	0x3d5b80bc	0.053589568
104	0x4007d9c5	2.1226666
105	0xbd07fec5	-0.03320195
106	0x3ec0fe7b	0.37694153
107	0xc06e97f3	-3.7280242
108	0xbd42f30e	-0.047595076
109	0x3ddcab84	0.107749015
110	0x4005704f	2.0849798
111	0x3df8cdfb	0.12148663
112	0x3f266ec8	0.6501279
113	0x3d02525e	0.031816833
114	0x3e387e7b	0.18016998
115	0xbf1486d0	-0.5801821
116	0x3e28ccb2	0.16484335
117	0xbf2ee4de	-0.68317974
118	0xbf0c2841	-0.5474892
119	0x3e767efd	0.2407188
120	0x3e0bf337	0.13666998
121	0xbc3f65af	-0.011681958
122	0x3e864e30	0.26231527
123	0x3e75e5af	0.24013399
124	0x3ec92c41	0.39291576
125	0x3daeaffc	0.0852966
126	0x3b95d7f0	0.004572861
127	0xbf9db6bd	-1.2321392
128	0x3f0fd8fa	0.56190455
129	0xbf2e896a	-0.6817843
130	0x3c964944	0.018345483
131	0xc03fa929	-2.9946997
132	0x3f6d561b	0.9270951
133	0x3f1fa478	0.62360334
134	0xbf0abe54	-0.5419667
135	0xbd97c019	-0.074096866
136	0x3fb7ee9a	1.436969
137	0x3e01fae0	0.12693357
138	0x3f4430bd	0.7663687
139	0xbcf00c27	-0.02930267
140	0xbe250180	-0.16113853
141	0x3f38f2a9	0.7224527
142	0xbd9bcaf0	-0.07607067
143	0x3db800af	0.089845054
144	0xc0748c62	-3.8210683
145	0x3d997404	0.07492831
146	0x3e19bd8f	0.15013717
147	0x3e31908b	0.17340295
148	0x3d9c328a	0.07626827
149	0xbfbb4b43	-1.4632343
150	0x3e99e5ac	0.30058038
151	0xbd07f2d3	-0.03319056
152	0x3dd59ef5	0.10430709
153	0x3effd4f9	0.49967173
154	0x3e49282f	0.19644235
155	0xbf3c7015	-0.73608524
156	0x3e52d7c7	0.20590125
157	0xbfc7b2c1	-1.5601426
158	0x3f4dbf4f	0.8037004
159	0x3fb402a1	1.4063302
160	0x3c894c44	0.01676
161	0x3f9566fd	1.1672055
162	0x3ca565dc	0.020190172
163	0x3f326912	0.69691575
164	0x3e81f5a6	0.25382727
165	0x3d977958	0.07396191
166	0xc08c8ca0	-4.392166
167	0xbd4447cf	-0.047920045
168	0x3f1112a7	0.56669086
169	0xbf21e986	-0.63246953
170	0xbcba8cb6	-0.022772174
171	0xbf2f7b97	-0.6854796
172	0xbf43cb12	-0.76481736
173	0xc01e891c	-2.4771185
174	0xbd8fd626	-0.070232674
175	0xbf02cfab	-0.51098126
176	0xbe427489	-0.18989767
177	0x3e197227	0.14984952
178	0x3c9570e4	0.018242307
179	0x3e48cc04	0.19609076
180	0x3e25063e	0.16115662
181	0xbfba63f9	-1.4561759
182	0x3f0675e4	0.52523637
183	0x3fc129f6	1.509093
184	0x3d185044	0.037185922
185	0xbd6ab98a	-0.05730585
186	0x3d5fe4d4	0.054661587
187	0x3e4bb44b	0.19892995
188	0xbc989da3	-0.018629855
189	0x3d0fa8c1	0.035073046
190	0x3dd79a67	0.10527497
191	0xbea53dc9	-0.322737
192	0x3e6435b9	0.22286119
193	0xbf4ec135	-0.8076356
194	0xbeaf5e70	-0.34251738
195	0xbd1443a0	-0.036197305
196	0xbc5f20fb	-0.013618703
197	0x3f96f874	1.1794572
198	0x3e0ecdcc	0.13945693
199	0x3f3823ba	0.71929514
200	0x3efc4ded	0.49278203
201	0xbf0e653c	-0.5562322
202	0x3f3a1196	0.72683084
203	0xbf76b74f	-0.96373457
204	0xc03299e9	-2.790644
205	0x3da2c3bc	0.079474896
206	0xbd8351d9	-0.064120956
207	0xbe840752	-0.25786835
208	0x3e3c4376	0.1838511
209	0xbf5a968c	-0.85385966
210	0xc0527598	-3.2884274
211	0x3e132a31	0.14371563
212	0xbd955c65	-0.072930135
213	0x3f1f7501	0.6228791
214	0xbe016b47	-0.1263858
215	0xbd68168b	-0.056662124
216	0xbf6ed92a	-0.93300116
217	0x3c0ab460	0.008465856
218	0x3ee1a52c	0.4407133
219	0x3e00095d	0.12503572
220	0x3e108c05	0.14115913
221	0x3e3c0f57	0.18365227
222	0x3e983ae8	0.29732442
223	0x3f18b8b1	0.59656817
224	0x3e4b065b	0.19826643
225	0x3f367e1b	0.7128617
226	0xbb9292bc	-0.0044730585
227	0xc0014dbc	-2.0203695
228	0xbc300f69	-0.010745862
229	0x3d792d54	0.060834244
230	0x3e8c0a10	0.27351427
231	0x3da46c21	0.080284365
232	0xc06d5d8a	-3.7088342
233	0xbd3da594	-0.046300486
234	0x3f348880	0.7052078
235	0x3faedda2	1.3661387
236	0x3d7bff1e	0.061522596
237	0x3dd3430f	0.10315525
238	0xbd88c57b	-0.066782914
239	0x3d852a36	0.06502192
240	0xbeba9a12	-0.3644567
241	0x3e552405	0.20814522
242	0x3e345198	0.1760925
243	0xbf64aa83	-0.8932268
244	0x3edcfd29	0.43161896
245	0xc0388ecd	-2.8837159
246	0xbf77d995	-0.9681638
247	0x3d881fc9	0.066466875
248	0x3e113933	0.14181976
249	0x3d33020b	0.04370312
250	0x3d6f8484	0.058475986
251	0x3d1407d0	0.036140263
252	0x3eff96dc	0.49919784
253	0x3e0a5976	0.13510689
254	0xbda4ed2c	-0.080530494
255	0x3f0edc40	0.55804825

fc3.bias f4 [2]
0	0x3bbc413e	0.005745082
1	0x3d731d12	0.059353895
