weights/PER_usage_model1.pth (torch, 72769 bytes, 6 tensors)

fc1.weight f4 [128, 4]
000000 75 06 e1 3d 9c be ba 3c b0 1d 58 c0 6e 59 cc be
       0.1098756 0.022795968 -3.376812 -0.3991198
000010 95 87 d1 3e 5d 0a 18 be 82 e5 1d c0 f0 95 ab be
       0.40923753 -0.14847703 -2.467133 -0.3351283
000020 b7 c8 24 be 87 eb f5 3e 26 62 8d 3f f7 67 8a 3e
       -0.16092192 0.48031256 1.1045578 0.27032444
000030 10 9f 3f bd 94 d2 83 3d 0e 54 bd 3f 9c 62 8d 3d
       -0.046782553 0.06436649 1.4791276 0.06903574
000040 fd b4 c2 be 6e 13 31 3f 47 a0 95 bf 4b 30 b2 3f
       -0.38028708 0.6917027 -1.1689538 1.3920988
000050 5d 8a 50 3e fb 73 65 be 6e 5d 26 3e ee 7d aa be
       0.20365281 -0.22407524 0.16246578 -0.33299202
000060 d8 72 cf 3d 67 b1 1c 3d 8f 19 8b c0 bf 33 14 bf
       0.101293266 0.03825512 -4.34687 -0.5789146
000070 d3 00 11 bf 89 12 4b 3e ac db 79 3f 4a 79 34 3e
       -0.5664188 0.1983129 0.9760082 0.17624393
000080 3e c5 05 be bc 5b 0b 3e 3c 40 2a c0 77 75 a4 3d
       -0.13063523 0.13609213 -2.6601706 0.08030217
000090 28 dd 12 bf 81 0f ce be a0 65 c6 bf 3c 5f ea be
       -0.5736871 -0.40246204 -1.5499763 -0.45775783
0000a0 f2 74 82 3e 02 5c 43 bd 79 49 7e c0 e9 21 92 be
       0.25479847 -0.047695167 -3.9732344 -0.28541496
0000b0 0b 25 1b bf 23 21 05 bf ed b3 4b c0 1b 48 3c bf
       -0.606034 -0.5200369 -3.1828568 -0.73547524
0000c0 0f 14 5d 3f b5 6a c1 3e d9 73 bb 3e 62 69 a3 3e
       0.8635873 0.37776724 0.36611822 0.31916338
0000d0 a8 74 11 bd 72 9b b4 3c f1 c4 a5 bd 92 e3 67 bd
       -0.035511643 0.022046778 -0.08094204 -0.056613512
0000e0 57 20 0c 3f 21 c8 9e 3e 22 51 40 3e 28 c4 9a 3e
       0.54736847 0.3101206 0.1878095 0.3022778
0000f0 0b de 12 3f b2 5b 87 3e 0e e9 98 bf e2 c5 ae bc
       0.5737006 0.26437145 -1.1946123 -0.021334592
000100 e4 9c 7b 3d ee ab 85 bd 6f 31 3c be a9 3b 56 bd
       0.06142892 -0.065269336 -0.18378232 -0.05230299
000110 f3 04 54 3e 8b 0e 70 be ea bf 06 bd 67 62 93 be
       0.20705013 -0.23443048 -0.032897867 -0.28786013
000120 eb 62 01 3f 13 1f ac be 18 00 93 bf ef 46 61 3e
       0.5054156 -0.33617458 -1.1484404 0.21999715
000130 f1 28 c1 3e 7c 54 30 3f 4b 1a 18 bf b5 80 1d 3f
       0.37726548 0.6887891 -0.5941512 0.61524516
000140 69 8a 29 3e 44 c0 5f be 32 20 c5 be b8 a0 49 be
       0.16556706 -0.21850687 -0.38501126 -0.19690216
000150 22 c7 ca be 97 c2 48 3e 6b 77 c2 be 06 18 c6 bc
       -0.3960505 0.1960548 -0.37981734 -0.024181377
000160 59 f5 13 3f b8 d7 ff be 73 fd 61 bf 7d 40 c0 bf
       0.57796246 -0.49969268 -0.8827736 -1.501968
000170 e3 8f e1 be cd 4c 97 be d2 b8 23 c0 81 bd 68 bf
       -0.4405509 -0.29550782 -2.5581555 -0.9091416
000180 12 3a 8b be 44 1b 37 3f 2f 21 55 bc 2c 4d 0d 3f
       -0.27192742 0.7152598 -0.0130084 0.5519588
000190 47 5f 94 bd ba 86 e1 3c 14 12 5b c0 27 be 8a bc
       -0.07244735 0.027530063 -3.4229784 -0.016936375
0001a0 62 77 77 3f 63 fb 4b 3e d6 4f 52 3e 36 70 9f be
       0.9666654 0.19920115 0.20538267 -0.31140298
0001b0 93 b1 fc be ab 46 1f bf 1e 13 db bf 40 ae 32 bf
       -0.49354228 -0.62217206 -1.7115209 -0.69797134
0001c0 f3 16 3a 3e 02 46 47 bf 36 4d cd 3f 38 80 1a bf
       0.18172817 -0.778412 1.6039188 -0.60351896
0001d0 ca a6 40 3d 17 35 2a bf 8f ef 1c be 79 b4 a9 bf
       0.047034062 -0.6648726 -0.1532576 -1.3258201
0001e0 b7 11 b5 3e 68 c4 c3 bd af d3 ef bf 61 fb 8a bf
       0.35365078 -0.09558946 -1.8736476 -1.0857965
0001f0 74 39 8b be ba e2 9c 3e bc 3c 64 c0 a8 84 07 bf
       -0.2719227 0.3064173 -3.566207 -0.5293679
000200 f1 01 ff 3c 01 ae 36 3c 58 7c 7a 40 09 f1 3e 3e
       0.031128855 0.011149884 3.9138393 0.18646635
000210 78 2b 97 ba 9e 24 4c 3c c6 9b 1d 40 21 55 81 3e
       -0.001153334 0.012459902 2.4626327 0.2526026
000220 d9 b2 c4 3e b4 d4 d2 3d 8f 38 b8 bf ac ef 47 3d
       0.384177 0.10294476 -1.439226 0.048812553
000230 7e 81 de 3e f0 fc 14 bd d5 e9 7b 40 2d 25 ad 3e
       0.4345817 -0.036374032 3.936147 0.33817425
000240 de 7a c5 be b1 19 e4 3e 1b fe 53 3f be d3 09 3f
       -0.38570303 0.4455085 0.8280961 0.5383872
000250 e4 c1 89 3d 39 58 87 bd b2 68 56 3f d7 86 c0 be
       0.06726435 -0.06608624 0.837535 -0.37602875
000260 d9 f8 00 be c3 9c eb 3d 8a 6f 08 bf 69 41 52 3e
       -0.12594928 0.11504509 -0.53295195 0.20532764
000270 ce a2 ea be 39 c1 d9 be 42 6f 6e c0 f0 de 40 bf
       -0.45827335 -0.4253023 -3.7255406 -0.75340176
000280 87 6a 1c 3f f3 8a bb 3c ce 92 df bf 7a 3c f6 bd
       0.6110005 0.022893405 -1.7466676 -0.12023254
000290 74 27 27 3f 34 8d 5a 3e f1 e5 3c 40 ca 17 6b 3e
       0.65294576 0.21342927 2.9515345 0.22958294
0002a0 4c de f9 3e 01 fd d3 3d 5d cf 7e 40 4a c0 bc 3e
       0.48802412 0.10350991 3.9814065 0.36865455
0002b0 99 0c b4 be a5 48 49 3f 03 b4 d7 bf 68 af b5 3f
       -0.3516586 0.7862647 -1.685181 1.4194155
0002c0 10 cb 8f 3e 93 e9 15 3f 96 6e 7f 40 50 ce 80 3f
       0.28084612 0.5855953 3.9911246 1.0062962
0002d0 39 e7 71 bd 95 9c 16 3e ae df a4 be 5e cb 0d 3f
       -0.0590584 0.14708169 -0.32201904 0.5538844
0002e0 51 6c 88 bd ba 9a b6 bc 43 2d 94 3e ea e8 99 bd
       -0.06661285 -0.022290576 0.28940782 -0.07515128
0002f0 6d 3d 5e 3f 67 cf 91 3e d5 80 e7 bf 40 21 55 3f
       0.8681248 0.28478548 -1.8086191 0.8325386
000300 d3 79 aa 3d 62 02 00 bd b7 53 9f 40 91 f5 ee 3e
       0.083240174 -0.031252272 4.978969 0.46671727
000310 0d 19 fd 3d 26 45 30 bc e9 11 49 c0 e3 90 c9 be
       0.12358294 -0.010758674 -3.1417181 -0.39368352
000320 4b 45 98 bd c9 8b f0 3d f8 04 95 3c 8b 25 79 3e
       -0.074350916 0.11745412 0.018190846 0.24330728
000330 c7 a3 7a 3f 6f ed 2a be 17 e6 26 c0 9e 1b d6 be
       0.97906154 -0.16692136 -2.6077936 -0.41817945
000340 08 f3 09 bf fe 87 88 be 4a b9 b2 3f 7c 3f ac 3c
       -0.5388646 -0.26666254 1.3962796 0.021026365
000350 b2 17 93 3f 3a 06 78 bc c7 f8 b2 bf e5 0e 53 3d
       1.1491606 -0.015138203 -1.3982171 0.051527876
000360 5c df 0a 3f 32 ed d0 3e c6 f1 18 40 f1 d6 3a 3f
       0.5424707 0.40805966 2.3897567 0.72984225
000370 99 19 0f 3f e5 26 ca bd 38 ea e8 3f 1b 16 e9 3d
       0.55898434 -0.098707 1.8196478 0.113811694
000380 23 fb ee 3e 08 72 9d 3e 98 e6 e8 3e e5 17 6f 3e
       0.46675977 0.3075106 0.4548843 0.23348959
000390 c7 7d d2 be e5 57 ee be 63 12 88 bf e6 5c d3 be
       -0.41111585 -0.46551433 -1.0630611 -0.41281813
0003a0 e2 49 18 bf 65 8b 41 3d 6b 53 87 c0 82 e5 65 be
       -0.59487736 0.047252078 -4.228933 -0.22450832
0003b0 e3 82 24 3f 8c 84 7c be b3 5b 0e 3f 97 8d 98 3e
       0.6426222 -0.24659938 0.5560867 0.29795524
0003c0 18 17 e3 3e 37 4f 74 3e e1 f8 39 40 ac a1 a2 3e
       0.44353557 0.23858343 2.9058154 0.3176397
0003d0 f0 ee 1b 3d 98 eb e3 bd 9a 25 3b bf 81 a5 fe bd
       0.038069665 -0.1112892 -0.7310425 -0.12433911
0003e0 f0 87 88 ba a6 ce 52 bd dc 03 40 3e 13 24 c0 be
       -0.0010416489 -0.051466607 0.18751472 -0.37527522
0003f0 e5 23 62 bc 1b e7 84 3c 67 fc 19 be 90 47 a3 bb
       -0.013802503 0.01622348 -0.1503769 -0.004982896

fc1.bias f4 [128]
000000 11 6f 44 bf a4 6c 41 bf 58 8e ed 3e 8e e0 d5 3e
       -0.76731974 -0.755564 0.46397662 0.41772884
000010 09 7c 07 bd 16 25 03 bf 76 74 4e bf 79 53 6a bf
       -0.033077274 -0.51228464 -0.80646455 -0.9153362
000020 3c 95 87 be 1b 78 9c 3e db 12 66 bf cd 48 97 bf
       -0.26481044 0.30560383 -0.8987252 -1.1819092
000030 ea d6 07 bf 39 9a e3 be 8c 8f cf 3e 9f 54 ba be
       -0.5306231 -0.444536 0.40539205 -0.36392686
000040 48 8d cd be b1 18 24 bf 22 eb 9b 3d 7b f7 1d bf
       -0.40146852 -0.64100176 0.076132074 -0.6170575
000050 73 c6 0b bf 4c a9 23 3f 7a 5c 54 bf c3 53 e4 be
       -0.54599684 0.639302 -0.8295361 -0.44595155
000060 9a 24 c5 be b4 a0 9c 3e 9d 9f 4d bf 0f b9 76 bf
       -0.38504487 0.30591357 -0.80321676 -0.96376127
000070 f0 8a 32 bf 2f 74 ab bd be cb 21 bf 70 62 a9 bf
       -0.6974325 -0.0837177 -0.6320151 -1.3233166
000080 b4 7e 35 bf 5e d6 19 3f 0f 9d 1b 3f 6b 9a 01 bf
       -0.7089646 0.60092723 0.6078653 -0.5062625
000090 29 e7 0c bf 2e a7 29 bf 9d b2 b6 be 28 a6 6c bf
       -0.5504022 -0.6627072 -0.35683146 -0.92441034
0000a0 c0 98 4f bf d1 e4 03 bf 4f 00 39 bf fd 05 ab be
       -0.81092453 -0.5152102 -0.72266096 -0.33403006
0000b0 4c 2d 64 bf 42 be 1d 3f a3 fc a9 be 16 99 0b bf
       -0.8913162 0.61618435 -0.3320056 -0.54530466
0000c0 ee 62 7a bf 2f 9c 2e bf 06 3a 17 bf 78 4c 07 bf
       -0.97807205 -0.6820707 -0.5907291 -0.5285106
0000d0 f3 ed ad bf 1f 7f a8 bf c8 7f 22 bf ac 6b ba be
       -1.3588241 -1.3163794 -0.6347623 -0.36410272
0000e0 9b d3 aa 3e bd 17 93 bf 58 9b 0d bf 9e 9d 3b bf
       0.33364567 -1.1491619 -0.5531516 -0.7328738
0000f0 c4 36 98 bf e4 ed c3 3e 72 42 2b 3f ef 67 2c be
       -1.1891713 0.38267434 0.6689826 -0.16836523
000100 7f f2 69 bf 1c c5 8c bf ae 9b 6c bf 6c 0b 44 bf
       -0.91385645 -1.0997653 -0.9242505 -0.7657993
000110 41 cc 48 3f f8 66 9a bd 06 1a 0f bf 06 84 54 bf
       0.78436667 -0.07539171 -0.55899084 -0.8301395
000120 5f 80 a0 be 06 02 75 bf 94 b6 5e be 0c e0 cb 3c
       -0.3134794 -0.9570621 -0.21749336 0.024887107
000130 be 23 7e 3d 4b 83 3e 3f 33 71 95 3e 4a 5f 40 bf
       0.062045805 0.7441909 0.29187927 -0.751454
000140 81 92 13 be 0d 87 f1 be c0 e3 44 3f 7e 03 a2 bf
       -0.14411356 -0.47173348 0.7691002 -1.2657316
000150 f5 da 81 bf b7 60 0e be 95 88 ee be f6 8e 46 bd
       -1.0144945 -0.13904081 -0.4658858 -0.048476182
000160 f4 88 82 bf e6 b0 25 3f 6f e4 0c be 6c 15 40 bf
       -1.0198045 0.6472305 -0.13759016 -0.7503269
000170 91 04 4f bf 95 06 44 3f 97 cb 11 3f 19 1f 26 3f
       -0.8086634 0.76572543 0.5695128 0.648912
000180 86 0e 3e bf c7 19 bd bf 97 97 42 3f 58 15 52 bf
       -0.7424091 -1.4773492 0.7601256 -0.8206382
000190 9f 66 b1 bf 7e 4b 51 bf e5 0a 92 bf 4d c7 df be
       -1.3859442 -0.81755817 -1.1409575 -0.43706742
0001a0 ce a3 c1 3e 63 ca 24 3f 3f 6b da be 52 41 30 3f
       0.37820286 0.6437132 -0.42659947 0.6884967
0001b0 69 04 16 bf 33 a1 20 bf 3c f0 b0 be eb 2b 88 bf
       -0.5860048 -0.6274597 -0.34558284 -1.0638403
0001c0 9f 1d 38 bf 36 ee 3e be 3d b6 57 bf 43 1f 80 bf
       -0.719202 -0.18645558 -0.8426245 -1.000954
0001d0 8c 77 96 be 92 5c 2c bf 94 48 6a bf 58 70 69 3e
       -0.29388082 -0.6732875 -0.91516995 0.22796762
0001e0 9e 7e 93 bf a0 38 d5 bd 72 8b 51 bf e7 1e 39 be
       -1.1523015 -0.10411191 -0.818534 -0.18078195
0001f0 b9 81 0a 3f 91 f5 37 bf 16 43 6a bf 17 f4 80 bf
       0.5410419 -0.7185908 -0.91508615 -1.007449

fc2.weight f4 [128, 128]
000000 a1 00 eb bd 40 34 70 3c 8e 1f 8c bd 6d 25 62 bd
       -0.11474729 0.014660895 -0.06841956 -0.055211473
000010 41 b5 a9 bc 6a f5 1d bd d2 24 34 bd b8 45 6b bd
       -0.020716311 -0.038564123 -0.043980427 -0.057439536
000020 56 7d 3f bd 42 09 1b bd d1 8a 34 3d 67 30 8d 3d
       -0.04675039 -0.037850626 0.0440777 0.06893998
000030 e3 d6 91 3d cf 3f 2c bd 09 92 b9 bc 3a 49 15 3c
       0.071210645 -0.04205304 -0.022652643 0.009111697
000040 f8 47 e8 bc 35 81 35 3d d9 b7 33 bd 7f b7 85 bd
       -0.02835463 0.044312675 -0.043876503 -0.0652914
000050 28 13 0f 3c ec 1e d5 3c d9 16 8a bd 8d da 9c bd
       0.008732595 0.026015721 -0.06742639 -0.07658873
000060 9f 25 9c 3d 6d e5 2c 3c f8 cb 42 bc ef e6 1c bd
       0.07624363 0.010552746 -0.01188945 -0.038306173
000070 80 1e 2a bc f1 1b 90 bc d6 72 4e bc 61 db b2 3d
       -0.010383248 -0.017591449 -0.012600621 0.087332495
000080 40 2c aa bd 9c e4 e3 bd cc 86 78 bd ca 01 03 be
       -0.08309221 -0.11127588 -0.060675427 -0.12793651
000090 70 44 93 bc ac db 12 bd 84 e5 f4 bd 92 19 a2 bd
       -0.01797697 -0.035854027 -0.11957839 -0.079150334
0000a0 cd 47 a5 3d cc 60 0d bd ab a7 ba bd 4e 02 d1 bd
       0.080703355 -0.03451614 -0.091140114 -0.10205518
0000b0 9d f7 08 bd 3e d8 57 bd 35 8f 8c 3d d0 6e f6 bb
       -0.033439267 -0.05269646 0.06863252 -0.007520534
0000c0 bd 65 14 bd b4 16 0b bd a0 be 0f 3c f4 b9 fc 3b
       -0.036229838 -0.0339572 0.008773476 0.007712597
0000d0 54 a7 e0 bd d0 e7 91 bd 69 67 9a bd 7d 15 e9 bd
       -0.10969415 -0.07124293 -0.07539255 -0.11381052
0000e0 8b d1 ae bd a0 01 d7 bb 4e dc 09 3d 28 94 1c bd
       -0.08536061 -0.006561473 0.033657365 -0.03822723
0000f0 4c 4f b4 bc 9c b3 67 bd 86 4f 6c 3b 73 ca 46 bd
       -0.022010468 -0.056567773 0.0036058142 -0.048532914
000100 28 05 68 bd 16 46 0a 3d 12 71 45 3d e0 2b 89 bc
       -0.056645542 0.033758245 0.048203535 -0.016744554
000110 ec 1a a8 bd c0 e1 06 3c 04 91 a5 bc 75 59 ce bd
       -0.0820826 0.008232534 -0.02021075 -0.10075656
000120 21 6e 74 bd d0 b7 b0 bc 7b b7 9b bc 54 75 e2 3c
       -0.05967534 -0.021572024 -0.019008389 0.027643837
000130 c9 93 0c 3d 7a d2 bc bd 2b 25 41 bd fb d0 9d 3d
       0.034320626 -0.09219833 -0.047154587 0.077058755
000140 30 04 87 bb 8b 99 9c bd 2a c6 ef bd a6 7e 30 3d
       -0.0041203722 -0.076464735 -0.11707719 0.04308953
000150 d3 13 87 3d 9b 0e be bd 07 d5 59 bd cf fe 77 bd
       0.06595578 -0.092801295 -0.053181674 -0.06054574
000160 ca af 40 bc a0 e7 a4 bd 26 6f 45 3d 3c ae f1 3c
       -0.011760661 -0.080519915 0.048201703 0.029502027
000170 6f df a4 bc 0f 78 ca bd 12 58 04 be 47 f5 11 3d
       -0.020126073 -0.098861806 -0.12924221 0.035634305
000180 94 fb c8 bd 79 bd 96 3d 40 ab 17 3d 5b 4e 80 bd
       -0.0981361 0.07360358 0.03702855 -0.06264945
000190 93 71 10 bd 80 40 fe 3b 60 0e 8c 3b 65 5c 9c 3d
       -0.035264563 0.007759154 0.0042741746 0.0763481
0001a0 89 59 53 bc ff 34 b8 bd be 5c 34 3d 87 a3 fc bd
       -0.012899765 -0.08994483 0.04403376 -0.12335878
0001b0 14 70 ce 3c a2 d9 72 bd 74 e0 f2 bc 66 d4 b1 bc
       0.025199927 -0.059289582 -0.029648043 -0.021707725
0001c0 3e fd 58 bc 3b c4 fc bd 16 41 8b bd 9d 74 bd 3b
       -0.013243971 -0.123421155 -0.067995235 0.0057817237
0001d0 c2 76 0d 3d 74 38 c7 bc a0 3a 36 bb 64 c9 b9 bc
       0.034537084 -0.024318911 -0.002780594 -0.022679038
0001e0 e1 90 b2 bd 70 6f f0 bb c8 4c 96 bd e2 69 1f bd
       -0.0871904 -0.007337503 -0.073388636 -0.038919337
0001f0 9c 67 ec bd 50 57 04 3c c8 da 39 3c b1 5f a5 bd
       -0.115431994 0.008077458 0.011343665 -0.08074892
000200 e0 3e 01 bc 74 24 df 3c 47 58 d7 bd 1b b1 1d bd
       -0.007888526 0.027239062 -0.105148844 -0.03849898
000210 fb 38 92 bd 15 35 80 3d c2 f3 83 bc 4e 00 37 bd
       -0.071397744 0.062601246 -0.016107444 -0.044678025
000220 d4 9c 79 3b bb a6 65 bd 9b 6d 83 3d f6 e8 1f be
       0.0038087862 -0.05606721 0.0641739 -0.15616211
000230 b2 1f 60 3d 31 95 a6 3d 76 1b 42 3d 4d c0 92 bd
       0.054717727 0.08133925 0.04738947 -0.07165585
000240 72 d5 23 bd 86 b3 67 3d 83 11 89 bd e4 06 90 bd
       -0.03999848 0.05656769 -0.06692793 -0.07032564
000250 80 cf a7 3b ea e6 b2 bd 7a a8 11 3d 9f 3b fb bd
       0.0051211715 -0.087354496 0.035561062 -0.12267231
000260 e3 a5 3e 3d e3 d0 e7 bc 81 a9 c7 bd 6e 39 50 bc
       0.04654492 -0.028297847 -0.09749127 -0.012709005
000270 3c f4 70 3d 2a 4e ab bd 5a 98 11 3d 9e 69 a1 bd
       0.05882667 -0.08364518 0.035545684 -0.07881473
000280 b9 62 cb bd 64 c6 b9 bb ab bb 3f 3d 42 43 03 be
       -0.09930939 -0.005669402 0.046809833 -0.12818626
000290 c6 62 00 be 51 71 0e bd 1d b1 0f bd 5c b0 3d bd
       -0.12537679 -0.034776036 -0.035081018 -0.046310768
0002a0 10 52 47 3d fa 8e 00 bd 05 8c c9 bd f1 91 8e bc
       0.048662245 -0.031386353 -0.0984116 -0.017403575
0002b0 3c 39 d9 3c b5 6f af bc 42 52 61 bd 6a 84 2e bd
       0.02651655 -0.02141557 -0.055010088 -0.04260675
0002c0 96 04 ae bc 78 31 22 3c f3 bc dc bc 83 02 df bc
       -0.021242421 0.00989949 -0.026945567 -0.027222877
0002d0 47 d2 28 3c 00 18 98 bd 47 22 a8 3d e7 15 5c 3d
       0.01030404 -0.07426453 0.08209663 0.053731825
0002e0 96 eb 0e 3b f2 76 11 3a 43 ed d4 b9 87 8e d6 bd
       0.00218079 0.0005549035 -0.00040612565 -0.10476404
0002f0 a7 a1 d9 bd 2e f6 90 bc 38 8b 27 bd 6b b3 94 3c
       -0.10626536 -0.017695513 -0.040904254 0.01815196
000300 f0 5c 0d bd a3 3a 3c bc b9 f6 2b 3c f5 2e 95 bd
       -0.03451246 -0.011488589 0.010495835 -0.07284347
000310 62 65 2f bd 2c be c8 bd 41 96 af bc 7e 47 06 be
       -0.042821296 -0.098018974 -0.021433951 -0.1311321
000320 1b c1 a4 bc 21 60 9b bd 0a a2 ec bd 23 db 26 be
       -0.020111611 -0.075866945 -0.11554344 -0.16294532
000330 71 d1 c1 bd 59 b4 1f be 28 79 2e bd 12 04 9f 3c
       -0.09463776 -0.15596141 -0.042596012 0.01941112
000340 ab 21 14 bd 80 aa 68 bc 89 81 1d 3d df e7 91 bd
       -0.03616492 -0.014200807 0.038453612 -0.07124304
000350 40 8d 37 3b 9c 8e 03 be a6 a7 9d 3c 0c 1a 8b bd
       0.0028007776 -0.1284737 0.01924498 -0.067920774
000360 cc 8e a3 bb 96 81 d9 bd 76 77 e7 bd f8 f5 3c bd
       -0.004991388 -0.1062042 -0.11302082 -0.04613301
000370 00 44 02 3c 8b 2e ec bd 05 d2 02 be 59 e5 22 bd
       0.007950783 -0.11532315 -0.12775429 -0.039769504
000380 57 56 97 bd 2d 17 c6 bc 16 d0 9e bd 77 c0 9e bd
       -0.07389515 -0.024180973 -0.07754533 -0.077515535
000390 2f a0 91 bd b7 c0 19 be 20 17 6a bd 77 3d 11 bd
       -0.07110631 -0.15014921 -0.05715096 -0.035459008
0003a0 36 7c 8b bd 74 6a 0d be 0c 30 ce bd 9d 94 6f ba
       -0.06810801 -0.1381014 -0.10067758 -0.00091392716
0003b0 d0 d0 a2 bd 69 cc 20 be 10 c7 90 3c 9a f4 da bd
       -0.07949984 -0.15702976 0.017673045 -0.10691185
0003c0 3f 36 89 bd 2a cd 24 be c4 e4 07 3c 18 e8 93 3c
       -0.066998 -0.16093889 0.008294288 0.018055007
0003d0 21 4e f5 bd cc 17 da 3b 19 9b 09 3d 2d 9f 06 3d
       -0.119777925 0.006655669 0.03359518 0.032866646
0003e0 16 48 1d bd 85 30 0e bd ef 7b 61 bd ae bb 1a bc
       -0.038398825 -0.03471424 -0.055049833 -0.00944416
0003f0 83 ed b3 bd f0 fc c0 bc 1f ab 27 be cf 85 7c bb
       -0.08785536 -0.02355811 -0.16373871 -0.0038531905

fc2.bias f4 [128]
000000 e3 88 08 3c b0 82 a8 bd 08 2b f6 bc 4b f1 b4 bd
       0.008333418 -0.08228052 -0.030049816 -0.088350855
000010 ca 39 ae bd fc 76 2e 3f e3 78 47 3f 2d 1b 8d 3d
       -0.08507116 0.68150306 0.77918833 0.06889949
000020 a0 64 6b 3f 62 7b ee 3c c2 21 e6 bd 74 dc 11 3f
       0.91950417 0.029111568 -0.112369075 0.5697701
000030 9b 8a 32 bd 3a 0d 8e bd 0d 96 90 bd 78 df ef 3d
       -0.043589216 -0.069361165 -0.0705987 0.11712545
000040 4f b2 a4 bd 1a f5 42 3f 65 5f 03 3f b9 35 d3 3c
       -0.08041822 0.76155245 0.51317436 0.025782453
000050 82 68 81 bd 3a 27 30 3f 1e 64 26 3f 67 6b 6d bd
       -0.063187614 0.68809855 0.64996517 -0.057963755
000060 97 33 4b bd 41 6b 66 bd 55 f5 18 3d 63 61 dd bd
       -0.049609747 -0.05625463 0.03734334 -0.10809591
000070 2b f9 a0 bd 86 e6 4e 3f 4e 88 49 bc 78 7e a3 bd
       -0.07860025 0.808205 -0.012300564 -0.079831064
000080 3a 7f 68 bd 79 aa fe bc d1 11 f8 3e 27 af 4a 3f
       -0.056761958 -0.031087147 0.48451093 0.7917351
000090 c9 47 26 3e 09 46 1a 3d 90 91 55 bc e3 70 2e bc
       0.16238321 0.037664447 -0.013035193 -0.0106470315
0000a0 53 08 61 3d 50 62 16 be bd 71 08 be 90 a1 53 3f
       0.05493958 -0.1468594 -0.13324638 0.826684
0000b0 a0 44 21 3d 18 10 9c bd 50 94 2a bc 42 69 4c 3c
       0.039372087 -0.07620257 -0.010411337 0.012476267
0000c0 06 0c 93 bd 6b 5f c9 bd 7f 25 1f 3f 4a 59 e5 bb
       -0.07180028 -0.09832653 0.6216659 -0.0069991695
0000d0 4f 89 8e bd 3c 41 ad 3c 49 0c 77 bc 58 e8 b8 bd
       -0.06959783 0.02114927 -0.015078613 -0.09028691
0000e0 f7 3e 4c 3f e2 bb 41 3f e8 04 47 3f 9c 46 c7 bd
       0.79783577 0.7567731 0.7774186 -0.097302645
0000f0 87 a6 54 bc 51 d2 51 3f e1 74 28 3a c1 32 d5 3d
       -0.012979156 0.8196154 0.0006426108 0.10410071
000100 97 95 92 3b b2 e8 58 bd dc 36 de 3e 9b 15 57 bd
       0.004473399 -0.05295629 0.4340123 -0.05251084
000110 66 46 56 3f 68 33 03 3e 8c a7 2f 3f 45 03 29 bd
       0.8370117 0.12812579 0.6861503 -0.041262884
000120 04 96 47 3f 56 d7 4c 3d 6d f0 14 be 1c 95 91 bd
       0.7796328 0.050010048 -0.1454484 -0.071085185
000130 d9 f6 e4 3c 18 0f 1c bc 99 2e 14 bf 7e a0 33 3f
       0.027949737 -0.009525083 -0.578836 0.70166767
000140 27 a0 4d 3f 2b 47 b4 bb cf 80 76 3e e8 44 27 be
       0.803225 -0.005501648 0.24072574 -0.1633488
000150 5e e8 e8 bd c7 a4 30 3f b3 27 83 bc e0 ac bc bc
       -0.113724455 0.6900143 -0.016010141 -0.023031652
000160 6a 23 9f 3b 9e e5 05 be d9 d7 09 3f 07 10 3c 3f
       0.0048565166 -0.13075873 0.5384498 0.73461956
000170 93 01 0e bd 27 c5 2e 3f 50 7c ce bd 76 89 0f bd
       -0.03466947 0.6826958 -0.100823045 -0.035043202
000180 2f a1 10 be 86 4d b4 bd 8d fe 00 be 06 ae 01 be
       -0.14123987 -0.08803849 -0.12597103 -0.12664041
000190 eb c8 cd bd 0a e7 58 bc 82 69 46 3f b6 1c 76 3d
       -0.10048088 -0.013238678 0.7750474 0.060085975
0001a0 32 cd 34 3f c5 f9 89 be e9 c6 ee 3b 15 e1 6a 3f
       0.70625603 -0.26948372 0.0072868955 0.917497
0001b0 9f e9 bc bd 16 95 32 3f 96 69 72 3f 68 7e 11 3f
       -0.09224247 0.6975874 0.9469236 0.56833506
0001c0 20 1d 76 bc 89 1d 35 3f 70 e4 6a bc ee f4 12 3f
       -0.015021592 0.7074819 -0.01433669 0.57404983
0001d0 63 18 fe bd 97 a9 37 bc b2 bb 05 be ff bf 0e bd
       -0.12406995 -0.011209867 -0.13059881 -0.03485107
0001e0 9b 45 67 3f e4 a6 27 be 27 de 46 3f 38 0c 7d bd
       0.90340585 -0.16372257 0.7768273 -0.06177923
0001f0 01 a6 4e 3f 6d 29 9e bd de c1 ac bd 30 1b 29 bc
       0.8072205 -0.07722745 -0.08435415 -0.010321423

fc3.weight f4 [2, 128]
000000 9f d0 9d bb b1 38 2b bd dc 4e 15 bd 0c 7e 7c bd
       -0.0048161293 -0.041802112 -0.03645216 -0.061643645
000010 19 39 ba 3c d7 81 94 3f a8 b7 1e 3f 48 5b 4f 3d
       0.022732304 1.1602124 0.6199899 0.050624162
000020 87 ac 1f 3f 78 73 19 bd d7 24 55 3d 79 ac d7 3e
       0.6237263 -0.037463635 0.052037086 0.42123774
000030 d1 17 2a bb a7 e0 58 bd a7 4b 27 3d c1 c9 c5 bf
       -0.0025954137 -0.05294862 0.040843632 -1.5452195
000040 a2 3d 8e 3c f1 56 56 3f be b8 86 3f 60 21 7c bd
       0.017363373 0.8372641 1.0525129 -0.061555266
000050 b3 6f 94 bc d6 17 a9 3f fa 07 05 3f a3 27 62 3c
       -0.018119669 1.3210399 0.51965296 0.013803395
000060 1e 15 52 bd d6 d7 6c 3b 66 80 84 bc 20 a7 e6 bb
       -0.05128967 0.003613939 -0.016174506 -0.007038966
000070 13 7d 08 bd 00 fb 06 3f 4e b7 9c 3d 57 06 ce bc
       -0.033322405 0.52726746 0.0765215 -0.025149507
000080 5e 13 bc bd 32 7b 84 3a ad 57 e4 3e 95 dd 0a 3f
       -0.091833815 0.0010107516 0.4459814 0.5424436
000090 37 5e 1a 40 08 ab 16 40 ec cc 40 3c 01 d9 55 bc
       2.4120004 2.354189 0.011767607 -0.013052226
0000a0 74 36 0e 3b a3 79 d0 bd 33 0b 47 bd a5 56 14 3f
       0.0021699937 -0.1017945 -0.048594665 0.5794471
0000b0 a6 ea a4 bb 8b 5a fd 3c 34 30 2f bc 3f 15 a4 bc
       -0.005032855 0.030926963 -0.010692645 -0.020029662
0000c0 ee 93 c5 3c 8e 24 2d bd 88 3b 7e 3f fc 27 1a bd
       0.02411839 -0.04227119 0.9930959 -0.03763579
0000d0 a2 b2 82 ba f1 10 5f bc 92 3f b0 3c 7f b3 5d bc
       -0.000997145 -0.013614879 0.021514688 -0.013531565
0000e0 4c e0 af 3f 3f cc 9c 3f 60 01 1e 3f 57 d5 3f 3e
       1.3740325 1.2249831 0.6172085 0.18733726
0000f0 a7 bd 1d bd eb fd 81 3f 37 2d 3a 3f 9b e9 fa 3e
       -0.038510945 1.0155615 0.7272524 0.49006352
000100 ea 65 f9 3c 4f 0c 89 bc e9 29 75 3e e0 aa e2 bc
       0.030444104 -0.016729502 0.23941769 -0.02766937
000110 c8 bd 07 3f 0c e4 3d 3f 5f cc 8d 3f 99 61 e4 3c
       0.5302396 0.74176097 1.1077994 0.02787857
000120 12 07 47 3f 2a ee 41 bd a7 a7 5b 3c 20 d8 ca 3c
       0.77745163 -0.04734627 0.013406671 0.02476126
000130 68 b3 3e 3c 85 80 5e 3d 96 2c be ba 54 e3 b4 3f
       0.0116394535 0.054321785 -0.0014509137 1.4131875
000140 03 c6 0f 3f e0 ac 73 bd 0f a1 52 3f ea 4f d2 3c
       0.56161517 -0.05949104 0.82277006 0.025672872
000150 fe 64 b7 bc b6 23 89 3f 5b 97 11 bd 02 d0 86 3d
       -0.022387024 1.0714023 -0.035544734 0.06582643
000160 c5 23 20 bd ce 6b 2f bd ec 9e a5 3f 35 7b 78 3f
       -0.039096612 -0.04282742 1.2939124 0.97063
000170 61 2a 80 bc 90 8f 07 3f 01 3c 32 bd 18 f0 6d 3d
       -0.015645208 0.52953434 -0.043514255 0.0580903
000180 24 bc 52 bc 4e 2a 36 c0 f7 9a 9b ba ba 87 13 40
       -0.012862239 -2.846332 -0.0011871745 2.305159
000190 a2 8d 8a 3d b8 eb f2 bc 9d 67 00 3f fb 83 22 3c
       0.067652956 -0.029653415 0.501581 0.009919162
0001a0 47 4a 89 3f 6d 0d a5 c0 c2 e0 4b bd ac 85 63 3f
       1.0725793 -5.157889 -0.049774893 0.8887584
0001b0 43 8d 51 bc a6 04 64 3f 30 96 81 3f 50 b9 5c bf
       -0.012790027 0.8906959 1.0123959 -0.86220264
0001c0 11 eb df bc ea 10 79 3f f5 ba 90 bd 95 47 97 bf
       -0.027333768 0.97291434 -0.07066909 -1.181872
0001d0 ba b0 30 bd ea d0 2e 3c d8 14 8f bc 20 8d 4b 3c
       -0.04313729 0.010669926 -0.017465994 0.012423784
0001e0 b1 c7 96 3f 29 73 b1 bc f0 37 04 3f cb 79 52 3d
       1.1779691 -0.021661358 0.51647854 0.051385682
0001f0 8e 5d 2e 3f 07 f4 06 bb ef ac c0 3c d6 cd 4e bc
       0.68111503 -0.002059223 0.023519961 -0.012622317
000200 88 36 33 bc 27 b8 65 3c 55 a6 52 bd 8e 88 f1 bc
       -0.010938294 0.014020956 -0.051428158 -0.02948406
000210 9e b2 1b 3d 5d c7 7e 3f 86 9e 36 3f 00 f9 ff bc
       0.03801214 0.99522954 0.7133564 -0.031246662
000220 ae b4 57 3f 8f f6 89 3d 54 fe d2 bd 82 d0 bb 3f
       0.8426007 0.067364804 -0.103024155 1.4673007
000230 0c 99 91 bc 8b 07 10 bd d1 50 cf bd 89 ed 5b c0
       -0.017773174 -0.035163444 -0.101228364 -3.436373
000240 be 6a a1 3d ad aa 23 3f 48 94 8c 3e 67 ac bb 3c
       0.078816876 0.63932306 0.2745688 0.022909356
000250 aa 5c fd ba 75 57 9f bf 0c b9 52 3f 12 5a 8e 3a
       -0.0019329984 -1.2448565 0.8231361 0.0010860583
000260 5f 6c 94 bd 6b ee 80 bd a6 f3 bc 3d 53 9d 1d 3c
       -0.07247233 -0.062954746 0.0922616 0.009620029
000270 18 99 17 3d 60 de 41 3f dd d8 2f bc af 67 4e 3d
       0.037011236 0.7572994 -0.010732857 0.05039185
000280 4c 2d 87 bc 5f ca 6b 3d 56 95 04 c0 9b 02 54 3f
       -0.016501091 0.057566043 -2.0716147 0.82816476
000290 c9 a9 51 3f e1 96 20 c0 61 5a 2b 3d ad a3 a3 3c
       0.81899697 -2.509209 0.04183424 0.019975508
0002a0 9d 60 68 bb 90 32 8d ba 27 b7 98 3d d6 73 52 3f
       -0.0035457977 -0.0010772515 0.074568085 0.82208
0002b0 7d 51 54 bd 5c d8 75 3b 3a 74 49 3d c5 dc 8a 3b
       -0.051835526 0.0037512993 0.049183108 0.0042377436
0002c0 d6 de 1f bb b5 a7 aa 3d 1c 5d e7 be c4 af de 3b
       -0.0024394295 0.08332769 -0.45188224 0.0067958552
0002d0 c5 b8 26 3d 12 0a f8 bd f5 75 95 bc 2c 6f d5 3c
       0.040703554 -0.12111296 -0.018244723 0.026053987
0002e0 1a 28 93 3e 38 ad 5c 3f f6 79 6e 3f f3 64 9e be
       0.28741533 0.8620181 0.9315485 -0.30936393
0002f0 58 78 0a bd 9a d1 0a 3f 39 93 0d 40 58 a6 d2 bf
       -0.033806175 0.54226077 2.2121108 -1.6457014
000300 89 9e 75 3c f9 16 32 3b 8e 47 07 40 e7 d4 d0 3c
       0.014991411 0.0027174337 2.1137424 0.025492145
000310 d7 0c 3f 3f 8d 64 a8 bf 22 60 1c 3f ed a3 d7 bb
       0.7462897 -1.3155686 0.6108419 -0.006580821
000320 34 40 b6 3f 19 a8 05 bd 7f d4 87 bd 17 32 8a bc
       1.4238343 -0.032631014 -0.06632327 -0.016869588
000330 38 8a 79 bc 82 1c 50 3d d6 c0 0f c0 fa 77 80 3f
       -0.015230708 0.050808437 -2.2461448 1.0036614
000340 62 77 80 3f 26 37 81 3d 17 64 47 3f fb 6f bc 3c
       1.0036433 0.06309347 0.778871 0.023002615
000350 02 eb fd bc 5f ab 5d 3f 54 08 20 bd 4e 26 13 bd
       -0.03099585 0.86589617 -0.039070442 -0.035925202
000360 cf 91 b2 3c 16 58 3e bd 35 c5 01 be bd 6d b9 3f
       0.021798043 -0.046470724 -0.12672885 1.4486614
000370 b6 78 ff bc fa a0 49 3f a3 ba 83 bd 7a d7 a9 b9
       -0.03118549 0.78761256 -0.064320825 -0.00032394734
000380 8a e2 47 3d 6b c9 04 bf 85 74 ff bb b1 20 39 c0
       0.04880003 -0.5186984 -0.0077958726 -2.8926203
000390 55 c0 a3 3d 06 a5 2d 3c eb 6d 3e 3f e1 b0 02 bd
       0.07995669 0.010598427 0.7438647 -0.031906966
0003a0 37 66 13 3f 21 c5 ac bf 3b e8 39 3c 84 91 8b 3f
       0.5757784 -1.3497659 0.011346872 1.0903783
0003b0 db a4 ee 3c a6 97 10 3f 76 70 93 3f 66 e4 a9 3f
       0.029131344 0.564814 1.1518695 1.3272827
0003c0 4d ee 30 3b 21 ba 8f 3f 29 ca 8e 3d 4c 99 98 3f
       0.0026997507 1.1228677 0.06972153 1.1921782
0003d0 9c f5 60 bd 9c c7 aa bd b8 2d 79 3c 44 0b 08 3d
       -0.05492173 -0.08338854 0.015208654 0.03321387
0003e0 69 fb a2 3f f9 a0 ca bb f4 e4 5b 3f cc c4 32 3d
       1.2732974 -0.00618374 0.8589623 0.04364471
0003f0 43 17 a0 3f 3c 78 06 3e 04 18 47 bd d5 6c 44 3d
       1.2507099 0.13131803 -0.048606887 0.047955353

fc3.bias f4 [2]
000000 54 6b 28 3f 70 95 3e 3f
       0.6578877 0.74446774
